model/trained_model.pt (torch, 666885 bytes, 17 tensors)

conv1.weight f4 [48, 5, 5]
000000 77 a8 a0 bd 92 0b 7c be 66 14 43 3c c7 b6 05 be
       -0.07844632 -0.24613789 0.011906719 -0.13058005
000010 11 bd 2f be 83 f7 cc 3d e3 18 c3 3d 78 8f b2 3e
       -0.17161967 0.100081466 0.09526231 0.34875083
000020 87 60 84 be 02 73 0c be 91 84 8b 3d 69 11 f7 3c
       -0.25854895 -0.13715747 0.068123944 0.030159669
000030 10 00 a4 3d 4c cd 90 be 39 2a 57 bd 18 bf a9 bd
       0.080078244 -0.2828163 -0.0525305 -0.08288401
000040 fc 36 ed 3d 94 b9 36 3e 83 6c 70 3c 59 24 b3 bd
       0.11582753 0.1784423 0.014674309 -0.08747167
000050 5e 85 61 bd df b7 db 3d fa 68 5f bd d5 1d 4e be
       -0.05505883 0.1072843 -0.054543473 -0.20128568
000060 92 e2 06 bd 67 04 79 be d8 e3 50 3d 24 91 1c 3e
       -0.032930918 -0.24318086 0.05099854 0.15289742
000070 91 92 29 3d 6b 58 27 bd 15 df b4 3c 04 97 57 bd
       0.041399542 -0.040855806 0.02207903 -0.052634254
000080 14 a8 54 3e 62 c8 85 bd 2f 5b b3 3d e2 ff d9 3b
       0.20767242 -0.065323606 0.08757626 0.006652818
000090 43 29 95 3d 78 b9 36 3d 35 01 f3 bd 12 db 12 be
       0.07283261 0.04461047 -0.118654646 -0.14341381
0000a0 be f0 9d 3d 20 d1 fc 3c 76 29 59 3e 6b 8d 70 be
       0.077119336 0.030861437 0.21207222 -0.23491447
0000b0 14 24 66 be e4 3d 54 bd 0b f5 5d bd c5 0a e6 bb
       -0.224747 -0.051816836 -0.05418877 -0.007020327
0000c0 5a b6 e4 bc 5e 9a 9d bc a9 27 b0 3d 70 d0 c7 bd
       -0.027918983 -0.019238647 0.086013146 -0.09756553
0000d0 62 8d 07 bd a0 11 14 be 8b 0c 8d 3d ab 66 16 be
       -0.033093818 -0.14459848 0.06887158 -0.14687602
0000e0 be 25 3c 3e d2 e0 3c 3e d8 0f fb 3d 92 1f 0f 3e
       0.18373773 0.18445137 0.12258881 0.13976887
0000f0 fe cd c0 bd 55 5b b5 3d c4 d0 19 3e 61 81 e3 bd
       -0.0941429 0.08855311 0.15021044 -0.111086614
000100 5f 66 e6 bd 5f c2 a2 bd 00 7e 41 3e 61 92 ac 3d
       -0.112499945 -0.079472296 0.18895721 0.08426357
000110 bb 5e b9 bd 5b c5 27 3e 1e 6c ec 3d df 92 16 be
       -0.090512715 0.16383879 0.11544059 -0.14704464
000120 75 06 fb 3b 4d 34 19 3d b1 00 a5 be 3a aa ec 3d
       0.007660682 0.037403394 -0.3222709 0.11555906
000130 56 c9 20 be 72 41 d1 3d 34 5b 62 3d d0 02 a4 3c
       -0.15701804 0.10217561 0.05526276 0.020020872
000140 b8 c6 08 bd c0 38 dc bb 50 e3 c5 3c 85 ac 44 3e
       -0.033392638 -0.0067206323 0.024156243 0.19206436
000150 aa 3a 37 be 0e c1 11 be 1d 58 39 be 58 bf 30 be
       -0.17893472 -0.14233801 -0.18100019 -0.17260492
000160 07 85 b5 bd 62 34 8b 3d a9 d0 49 3e b0 46 19 bc
       -0.088632636 0.067971006 0.19708504 -0.009355232
000170 eb 94 10 be b0 90 ef 3c 7a a0 dc bd 60 6f ef bd
       -0.14119308 0.029243797 -0.10772796 -0.11691165
000180 a0 ea ea 3b 68 76 fa bc 2c f9 2f bd 18 f9 02 bd
       0.0071690828 -0.030574039 -0.04296224 -0.031975836
000190 02 80 5f be f4 ec 88 bc 94 09 c7 3d 8a 99 10 be
       -0.21826175 -0.01671455 0.09718624 -0.1412107
0001a0 3a 9b 15 3e bd fc b8 3d 14 4f 1e 3e fa e3 9a 3c
       0.14609995 0.09032581 0.15459853 0.018907536
0001b0 2d 33 e8 3d 3c ca 74 3d 26 9a 05 3e f7 7b 47 be
       0.11337886 0.05976318 0.13047084 -0.19480883
0001c0 99 f7 4c be ba 08 12 be 8e e4 4e 3d 8d 02 13 be
       -0.20016326 -0.14261141 0.050510935 -0.14356442
0001d0 8c 94 88 bd e8 15 95 3d 42 ff f0 bd d1 cd 19 be
       -0.06668958 0.07279569 -0.117674366 -0.15019919
0001e0 7c fe a4 bd 1d a8 8b 3d 2a 75 74 3e 9d 7f 91 3e
       -0.080563515 0.068191744 0.2387282 0.28417674
0001f0 1d 92 08 3d 09 89 1f bd 9f ff 34 be 15 25 69 be
       0.03334247 -0.038949046 -0.17675637 -0.22768052
000200 f2 da 23 be 63 cc 1f be 99 36 f7 bc 9e 70 b9 bd
       -0.1600149 -0.15605311 -0.030177401 -0.09054683
000210 e8 e5 35 be 9c 4c 65 be 40 d6 d1 3b 95 1a 0a bd
       -0.17763484 -0.22392505 0.0064037144 -0.033716757
000220 3e 65 9a bb ed 2f b8 3d a9 6a 8b 3c 21 8b 16 3e
       -0.004711776 0.08993516 0.017018633 0.14701511
000230 67 d7 dc 3c 11 e3 8f 3d 99 ef 29 3e 55 5f e8 bd
       0.02695818 0.07025731 0.16595306 -0.11346308
000240 94 e4 7a bd 48 42 44 3d 1a b5 66 bc 4c 6f aa 3d
       -0.061253145 0.047914773 -0.014081264 0.083220094
000250 2d 74 de 3d 94 a2 62 bd 2a 72 43 3d 95 a4 bd 3d
       0.108620025 -0.055330828 0.047716297 0.09259907
000260 ee bc a7 bd e2 e5 00 be 17 88 58 3d 44 76 d0 bd
       -0.08190332 -0.12587693 0.05286416 -0.101788074
000270 1b 98 a0 bd 8a 77 61 be 2e 31 26 3c 90 35 8f be
       -0.07841512 -0.22018257 0.010143561 -0.27970552
000280 8b 06 6e bd ce d7 40 be c8 bb e7 3c 1e 34 1d 3e
       -0.05811171 -0.18832323 0.028287783 0.15351912
000290 73 41 6b be 8f ba b6 3c 81 61 9a bd 3c 09 37 be
       -0.22974186 0.022305755 -0.07538129 -0.17874616
0002a0 b0 f9 85 3e 61 89 c3 bc b2 e5 49 be 61 97 82 be
       0.2616706 -0.023869218 -0.19716528 -0.25506118
0002b0 51 99 8a be 91 10 d6 3c 99 99 b9 3d 71 a5 18 3e
       -0.27070096 0.026130946 0.090624996 0.14906861
0002c0 2e 9b 06 be d0 ad da bc a0 ce 19 3c a6 35 12 be
       -0.13145134 -0.026694208 0.009387642 -0.14278278
0002d0 78 11 11 be b1 20 2b 3e ed bb 20 3e 9c 5b 00 be
       -0.1416682 0.1671169 0.15696688 -0.12534946
0002e0 4d cf d1 bd 5f cb 37 be 01 a1 19 3e e0 2c 20 3c
       -0.102446176 -0.17948674 0.15002824 0.009776324
0002f0 1e b5 b8 3d 71 07 17 3e d7 c9 04 3e 23 15 47 be
       0.0901892 0.14748932 0.12967621 -0.19441657
000300 74 fb 44 bd 1d a1 01 3e ca 66 b4 bd 90 72 e9 bc
       -0.048091367 0.12659116 -0.08808668 -0.02849701
000310 18 d6 84 bc 80 bd 58 bc 8c 91 02 be c4 47 8e bd
       -0.01621537 -0.013228774 -0.12750834 -0.06947282
000320 c6 05 9e bd 59 f7 2a be c3 1a ae 3d 06 9e 9a 3c
       -0.07715945 -0.16695918 0.08501198 0.01887418
000330 dc b3 7a bc c3 94 3c be f9 1a 67 3d 6e 83 bf 3c
       -0.015301671 -0.18416123 0.056422208 0.0233781
000340 aa 66 00 be da 48 5d be 21 19 1d 3d 61 bf df 3d
       -0.12539163 -0.21609822 0.038354043 0.109251745
000350 81 dd 07 be af 9c 45 be 20 d1 ba 3d 92 20 d1 3d
       -0.13268091 -0.19298051 0.09121919 0.102112904
000360 a0 b8 4f ba 57 04 fb bd 53 47 dd bc b6 21 18 3e
       -0.00079239346 -0.12256687 -0.02701155 0.1485661
000370 38 ed 8f bd 67 40 0a be b5 a6 6f be 6f 3d a8 3e
       -0.07027668 -0.1350113 -0.23403437 0.3285937
000380 a5 3e 03 3e 65 48 06 be 47 70 12 be 3f d5 64 bd
       0.12816866 -0.13113554 -0.14300643 -0.05586743
000390 9b 07 44 be 18 ca 26 bd 7e 90 e7 bc 44 f3 97 bd
       -0.19143526 -0.040720075 -0.028267141 -0.07419446
0003a0 56 0e 39 be 8f 1c 27 be 77 4e c2 bc 97 9d d7 3c
       -0.18071875 -0.16319488 -0.023719056 0.026320262
0003b0 9d f8 64 bd 4e ad a1 3d 52 8b f0 bd b2 68 08 bd
       -0.05590116 0.07894383 -0.11745323 -0.03330297
0003c0 fb 0f d2 bd a9 06 0b 3e 58 79 07 3d 03 49 4d 3d
       -0.10256954 0.1357676 0.033074707 0.050118458
0003d0 2e 26 50 be 0e 55 6b 3b dd b1 91 bc f8 60 47 be
       -0.20327064 0.003590885 -0.017785007 -0.19470584
0003e0 cd 47 5b bd 66 02 43 3e 08 a8 3d bd 43 65 29 bd
       -0.05353527 0.19043884 -0.046302825 -0.041356336
0003f0 d6 72 86 3d 89 e8 8f bd e3 d8 57 be 01 84 ce bc
       0.06564872 -0.070267744 -0.2107883 -0.025209429

conv1.bias f4 [48]
000000 65 bc 90 be 5b a9 98 bd 41 b7 68 be 70 39 d2 bd
       -0.28268734 -0.07454177 -0.22726156 -0.102648616
000010 13 2c 3b bd 8a 15 24 be dd 74 ad bd ad 00 0c be
       -0.04569633 -0.16023842 -0.084695555 -0.13672133
000020 5a af 5f bd f5 7c 41 3e 0e b4 8e 3e 0a 06 a0 bc
       -0.054610588 0.18895324 0.27871746 -0.01953413
000030 d7 93 07 be b5 18 dd bd fa b7 07 bd f1 1c a0 3e
       -0.1323999 -0.10795728 -0.033134438 0.3127208
000040 b5 dd d4 be e5 62 b9 be 96 84 bd be 2d 60 ce bd
       -0.415754 -0.36208263 -0.37015218 -0.10076938
000050 ee a4 74 3e 76 1f 10 bb d3 c9 63 3e 6b 64 b6 bd
       0.2389104 -0.0021991408 0.22244959 -0.08905872
000060 37 ab 49 bc 9f 36 52 be 53 a1 b7 bb 3e d1 7c be
       -0.012308887 -0.20528649 -0.005603948 -0.24689195
000070 99 27 bd bd 49 e9 48 3e 58 7f 2f 3e f5 ee 5c bd
       -0.09236068 0.19620241 0.17138422 -0.053938825
000080 0f de d7 bd 54 6f 6c bd b2 17 9c 3e f5 31 33 3e
       -0.10540401 -0.05772336 0.30486828 0.17499526
000090 9a 39 08 be e6 26 a0 be ef 7b a9 bd 34 b1 99 be
       -0.13303223 -0.31279677 -0.082755916 -0.30018008
0000a0 19 e7 dd bc 56 f7 04 be a7 a1 8a bd 97 ae 87 bd
       -0.027087735 -0.12984976 -0.06769114 -0.06625097
0000b0 7d f6 14 be 90 54 86 3e 24 84 e3 bd 04 76 93 bd
       -0.14547153 0.2623639 -0.11109188 -0.07200244

conv2.weight f4 [96, 48, 5]
000000 92 e4 3c 3d 81 14 f5 bc e0 69 49 3c 22 e3 50 bd
       0.04611642 -0.029917004 0.012293309 -0.05099786
000010 1e c2 03 3d 65 22 7a bd ae a0 52 bd b8 d8 28 bd
       0.032167546 -0.061067957 -0.051422767 -0.041222304
000020 95 4d f3 3c 55 2d a9 3b f0 33 98 bd a1 fa 57 bd
       0.02970008 0.0051628747 -0.07431781 -0.052729253
000030 76 4c bc 3c 72 d8 99 bd ba 45 93 bc 2a eb 82 bd
       0.022985678 -0.07511987 -0.017977584 -0.0639251
000040 3c 5a 48 3d dc 1c 58 3d b0 8a 95 3c 00 00 21 b7
       0.04891418 0.052761897 0.018254608 -9.596348e-06
000050 a0 d9 f6 bc b6 c7 a5 3b 33 e3 8e bd ec 64 df 3c
       -0.030133069 0.005059208 -0.069769286 0.027269803
000060 bb 31 b0 bd d0 60 10 bc d0 63 ad bc 9c 7b 2a bc
       -0.08603235 -0.008812144 -0.021165758 -0.010405447
000070 f4 7e d8 3c 4e c8 fc bc 6b 8e c3 bd 17 ba 1d 3c
       0.026427723 -0.030857231 -0.095486484 0.009626887
000080 20 f6 0d bd 29 f4 3f bd 7b 9b 97 3a 74 4f a0 3c
       -0.03465855 -0.04686371 0.0011566723 0.019569136
000090 f8 ae 7e 3c b8 91 6e bd 8c 88 2c 3d 5a b7 32 bd
       0.0155446455 -0.058244437 0.04212241 -0.04363189
0000a0 b0 b2 48 bd 2a 67 6c bd be cf 24 bd 00 d0 d6 b7
       -0.048998535 -0.057715572 -0.04023718 -2.5607646e-05
0000b0 f0 c2 47 3c 6e 3c 58 bb 19 9c ca bc 6c a5 e7 3b
       0.012192473 -0.0032995003 -0.024732636 0.0070692804
0000c0 f4 ed 82 3d 0b 2b 6c 3b b8 3a 2d 3c e8 1a 71 3c
       0.06393042 0.0036036398 0.010573082 0.014715888
0000d0 48 45 18 3c d9 2d 3b bd c8 eb 23 bc f3 e3 e1 bc
       0.009293862 -0.04569802 -0.010004945 -0.027574515
0000e0 bf ce a7 3a 97 0c 5f bd 14 84 6b bd 92 fb 5a bd
       0.0012802704 -0.054455366 -0.057499006 -0.053462572
0000f0 a0 37 7a 3b 34 d9 9d 3c 24 4e df bc c1 03 58 bd
       0.0038180128 0.01926861 -0.02725894 -0.052737955
000100 f7 17 6b bd 6f 6a 66 bd 63 e5 90 3c 9e 3d b9 bd
       -0.0573959 -0.056253847 0.017687505 -0.09044956
000110 ab 8a ae bd 48 e2 7c bd 1c 27 e2 3c 8c 6a 37 bd
       -0.085225426 -0.061739236 0.02760654 -0.044779345
000120 ba 1d 19 bc 9c b2 ba 3c cf 6f 83 3d 81 72 6a bd
       -0.009345466 0.022790246 0.0641781 -0.057238106
000130 8e 1f 36 bb 39 f1 58 bd 81 a5 57 3d 77 47 2d bc
       -0.0027789804 -0.052964423 0.05264807 -0.010576121
000140 9e fa fb bc 3e 88 e9 3c f5 9e 75 bd ef 77 bc bd
       -0.030759152 0.028507348 -0.059966046 -0.09202563
000150 f9 77 0e 3c da a3 5e bd 2a d8 93 bd 11 61 a1 bd
       0.008695596 -0.05435548 -0.072189644 -0.07879842
000160 00 04 3a bd 63 1e 03 3d 00 bc c9 ba 64 9b cd bc
       -0.04541397 0.0320114 -0.0015391111 -0.02509851
000170 74 10 0f bd 96 cb c1 3c 7f 54 a6 bc b5 2e 54 bd
       -0.0349278 0.023656648 -0.020303963 -0.051802356
000180 61 61 7c bd aa dd 44 bd f7 49 0e bd df 68 4f 3c
       -0.061616305 -0.048062958 -0.034738507 0.012659281
000190 6a 72 a9 bd ec 6f cf 3c 56 e2 74 bd 7d 3e c7 bb
       -0.08273776 0.025321923 -0.059786163 -0.006080447
0001a0 4a 25 4d bd f1 00 59 3d d2 8c 6e bc e7 33 29 bd
       -0.05008439 0.052979413 -0.014559941 -0.041309264
0001b0 e0 b7 b4 3b cc 0a 41 bd db ce 76 bd e8 dd 0e ba
       0.0055150837 -0.047129437 -0.060255866 -0.0005449937
0001c0 4b c2 02 bd 14 1d b9 3c e8 75 4d bd 47 78 93 bc
       -0.031923573 0.022596873 -0.050161272 -0.018001689
0001d0 b1 11 36 3d f1 c5 08 bd f6 eb 74 3d c4 64 85 bc
       0.044450466 -0.033391897 0.059795342 -0.0162834
0001e0 2b b6 bd bd 9e 36 86 bd 78 c0 a2 bc 87 4e f2 ba
       -0.092632614 -0.06553386 -0.019867167 -0.0018486538
0001f0 a7 ad 61 bd 0a 93 92 bd 41 8a a1 bd 31 0d 39 3c
       -0.05509725 -0.07156952 -0.07887698 0.011294649
000200 e0 af 20 3d 2c cd 9f 3c 1b 46 17 bd 01 a1 af 3b
       0.039230227 0.019507013 -0.036932092 0.0053597693
000210 f5 85 58 bc 2d 27 f4 ba 42 e5 8f 3b a0 24 c3 3c
       -0.013215532 -0.0018627398 0.0043913433 0.023821175
000220 46 02 3e bd 18 a4 c8 bb d0 d1 4f 3c 2b 14 81 3d
       -0.046388887 -0.006123077 0.012684301 0.06302675
000230 68 77 8f bd 77 19 b2 3c 86 6e 88 bc a4 34 a8 bd
       -0.07005197 0.021740658 -0.016654264 -0.082131654
000240 a4 e0 1d bd 56 97 1e bd 30 ef 30 3c c0 54 4b bb
       -0.038544312 -0.038718544 0.010799214 -0.0031025857
000250 55 d2 6a bd 76 7c 37 bd 21 2a 61 bd e1 31 cd bc
       -0.057329495 -0.04479643 -0.054971818 -0.025048198
000260 a0 10 4f 3c aa ed 6a 3d 1a a3 42 3d 5f e0 ac bc
       0.012638241 0.05735556 0.047518827 -0.021103082
000270 ab 64 ef bb c6 17 ca bc 2a f5 f2 bc 40 67 28 bd
       -0.0073057017 -0.02466954 -0.029657919 -0.041114092
000280 77 79 7a bd e6 3f 9c bd a4 8a fe bc 40 85 28 bd
       -0.061150994 -0.07629375 -0.031071968 -0.041142702
000290 1a ec 1f bc 14 78 ec 3c d8 f5 0c 3d a8 20 55 bc
       -0.009760881 0.028865851 0.034414142 -0.013008274
0002a0 88 8a 38 3d 28 c5 04 bd ec 74 92 bc 5a 81 4f bb
       0.04505399 -0.032414585 -0.017878018 -0.0031662793
0002b0 42 e9 68 3d ab 16 e5 3c 57 1d 53 3d 90 61 09 3d
       0.056863077 0.02796491 0.051541653 0.03354031
0002c0 f0 b8 31 3d f5 e1 7c bd b6 d8 fd bc 0a b2 03 bd
       0.04338926 -0.061738927 -0.030987125 -0.032152213
0002d0 98 1d 22 bd 96 c9 ff 3c 59 d1 81 bd 17 7b 90 bd
       -0.039579004 0.031224053 -0.06338758 -0.070547275
0002e0 f7 4f 6e bd cf 96 51 bd 4b 4c 71 3d ce b6 3f bd
       -0.05818173 -0.051169213 0.05891065 -0.046805196
0002f0 7c af aa 3c 2f c0 a7 bd fb 12 24 bd 1c 25 40 bd
       0.02083563 -0.08190953 -0.040057164 -0.04691039
000300 e8 56 0e bc 56 62 86 3c 61 2c 86 3b b3 6d da 3c
       -0.008687712 0.016404312 0.004094646 0.026663637
000310 2b 93 83 bc a4 74 77 bb 4e f6 b4 bc 70 bc a3 bd
       -0.016061386 -0.0037758732 -0.022090103 -0.07994926
000320 3e fa 78 bd b6 1a 96 bc 14 9c 06 3d 28 73 0e bd
       -0.060785525 -0.018323284 0.03286369 -0.03477779
000330 1a 87 e6 bc a0 cb b9 bd a4 26 04 bc fb fd 2a bd
       -0.028140593 -0.090720415 -0.008065853 -0.04174612
000340 78 e2 1f bd 52 4a 80 bd 07 50 77 3b a7 3b 48 bc
       -0.039034337 -0.062641755 0.003773691 -0.0122212535
000350 b4 36 93 bb a5 c5 9a 3c 0f 0d e3 bc ac ab 82 3c
       -0.004492605 0.018893072 -0.027716188 0.015951
000360 97 ae 44 3c 06 49 33 bd 40 42 b9 3c e0 9a 09 3b
       0.012004516 -0.043770812 0.022614598 0.0020996854
000370 c2 9d 31 bd e2 b9 6c bb 1a f1 b4 bd d9 a7 1d bd
       -0.04336334 -0.0036121537 -0.08835049 -0.03849015
000380 9c 65 d9 bc 60 bd 05 bd 9d 05 78 3d d9 41 71 bc
       -0.026537709 -0.032651305 0.06055223 -0.014725172
000390 59 22 83 bb 4a d7 1c 3c 78 38 26 3d 2d 35 48 bd
       -0.0040018973 0.009572813 0.040581197 -0.048878837
0003a0 62 05 7a bd 90 7f 8e 3b 14 24 38 bc 60 c6 9c 3c
       -0.06104029 0.0043487027 -0.01123907 0.019137561
0003b0 a8 21 1e bd fa e0 0f 3d 3b 0e 36 bd f4 43 47 3d
       -0.038606316 0.035126664 -0.044447165 0.04864879
0003c0 f6 b6 a1 bc 37 d0 81 bd 17 18 6d 3c 98 db 77 3b
       -0.019740563 -0.06338542 0.0144710755 0.0037820097
0003d0 3b 2d 3e bc 41 56 b9 bd a2 c9 10 bd 12 82 77 bc
       -0.0116074635 -0.09049655 -0.035348542 -0.015106695
0003e0 b1 ff 8a bd 93 36 81 bd 25 f1 f6 bc 53 0b 50 bd
       -0.067870505 -0.06309237 -0.030144284 -0.05079205
0003f0 76 87 69 bd 45 43 9d 3b e3 c6 c2 bc 00 e6 4b bc
       -0.05701395 0.004799279 -0.023776477 -0.012444973

conv2.bias f4 [96]
000000 e0 b3 ac bd 66 8f 03 bd 3b 84 2d bd 52 80 24 bc
       -0.08432746 -0.032119177 -0.042362433 -0.01004036
000010 9c 8e 80 bd 00 09 ea bd 21 41 a6 bd ec 36 9e bd
       -0.062772006 -0.11427498 -0.08117891 -0.07725319
000020 5b 17 38 be b1 ff 60 bd 14 30 0b bd de c7 29 be
       -0.1797766 -0.054931346 -0.033981398 -0.1658015
000030 32 b2 5b 3d 76 bd dc 3c ed 53 10 be 67 f4 f6 bd
       0.053636737 0.02694581 -0.14094515 -0.12058335
000040 0f 06 a8 bc 66 c1 1b be a6 85 cc bd 49 57 6e bd
       -0.020510701 -0.15210494 -0.09986429 -0.05818871
000050 36 ad 07 bd 7d 85 89 3d ba 8b e0 bd 7a fb 37 bd
       -0.03312417 0.06714914 -0.10964151 -0.04491756
000060 fc 32 28 be 28 30 3c be 9a 67 1f bd d6 23 4d bd
       -0.16425699 -0.18377745 -0.03891716 -0.050083004
000070 d6 f6 2b 3c d3 b1 bc bd 4f 0e a3 bd c5 bd a8 bd
       0.010495862 -0.09213605 -0.079617135 -0.08239321
000080 58 43 e0 bc 77 95 09 be da 7e 9e bd 79 c7 8f bd
       -0.027375862 -0.13435923 -0.07739039 -0.07020468
000090 e6 63 70 bd 1c 4f 8b bd 9b cd ac bd 9a 7e 31 be
       -0.05868902 -0.06802198 -0.08437654 -0.17333451
0000a0 95 9e c3 bd 4e 7d d7 bd a9 92 1b bd 3a 82 98 bd
       -0.095517315 -0.10521947 -0.037981663 -0.07446714
0000b0 ab 80 d9 3d 94 a8 fc bb c8 8e 24 bd 0a 5b 33 bd
       0.106202446 -0.0077105258 -0.04017523 -0.043787993
0000c0 1e ac 87 bd 8d 9f 9c bd 8a d3 14 be 2f c6 c5 bd
       -0.066246256 -0.076476194 -0.14533821 -0.09656941
0000d0 41 42 8d bd 0d 28 dd b9 78 3c 17 be 6d f0 07 be
       -0.068974026 -0.00042182245 -0.14769161 -0.13275309
0000e0 af e1 8b bd 8b 40 5b bd 84 f1 d3 bd 6b d0 af bd
       -0.06830155 -0.05352835 -0.103488 -0.085846744
0000f0 16 72 1b bd fd f2 a6 bd f4 dd 48 bd 21 51 42 be
       -0.037950598 -0.08151815 -0.049039796 -0.1897626
000100 95 f7 86 bd 26 43 7a be f6 10 a4 bd d4 61 2d be
       -0.06590191 -0.24439678 -0.080110475 -0.1693185
000110 79 6b ac bd 48 6a 20 bd 04 f3 c4 bc aa 11 5b bd
       -0.08418936 -0.039163858 -0.02404166 -0.053483643
000120 1d 33 e1 bd 4f 35 e1 bd 19 f0 6a be 4d dc aa 3d
       -0.10996077 -0.10996496 -0.22943152 0.083428
000130 4f 0d 7e bc d3 47 9d bd 6a ce 04 bd 5e 06 8b bd
       -0.015506103 -0.07679715 -0.032423414 -0.06788324
000140 f4 1d 1d 3b 5d 32 01 be ac 97 26 bd 0a 39 cc bc
       0.0023974152 -0.12616868 -0.04067199 -0.024929542
000150 71 72 3c bd 0e 3c ce bd 24 e7 b2 bd 54 ac c5 bd
       -0.046007577 -0.10070048 -0.08735493 -0.096520096
000160 ed a7 51 bd df 62 5a be 07 db 80 bd ce db 5a bd
       -0.051185537 -0.21326779 -0.06291776 -0.05343228
000170 6c b4 9e bd bc 97 b5 bd 23 dd 4d 3d 2f f3 aa bd
       -0.077492565 -0.08866832 0.05025972 -0.08347165

lstm1.weight_ih_l0 f4 [512, 96]
000000 f0 3b 04 bd 68 02 1c bd 9c 24 dc bd 53 77 8a bd
       -0.032283723 -0.038088232 -0.1074917 -0.067610405
000010 4b 17 1d be a3 bf 53 3d 6c 52 e6 bd af b9 9f 3d
       -0.15340917 0.05169643 -0.112461895 0.07799088
000020 d9 c8 49 3d 31 a2 09 be 07 41 df bd 5f b6 04 3d
       0.04926381 -0.13440777 -0.10901075 0.032400485
000030 1b 75 c0 be c6 2a fb bd 83 2f bd bd 50 58 f8 3c
       -0.37589344 -0.12264018 -0.09237578 0.030315548
000040 2e 68 a0 bd a5 35 d0 bd 6f 37 96 bd 93 8b 8d bc
       -0.07832371 -0.10166482 -0.07334792 -0.017278468
000050 e6 d9 8a bc 4f 7f 04 be da ae d5 bd b3 c5 c9 bd
       -0.016949605 -0.1293919 -0.10433741 -0.09852161
000060 19 92 7d bd 39 1b d0 bd b2 63 f6 bd 3d d9 0a be
       -0.061906908 -0.10161442 -0.12030734 -0.13559432
000070 a6 dd e5 bd f1 06 4f bd 65 88 9a 3d d2 82 26 bc
       -0.11223917 -0.05054373 0.075455464 -0.010163026
000080 d7 73 58 bd ec 10 fc bd c2 49 c7 bd 40 6e 0d bd
       -0.05284485 -0.12307915 -0.09730865 -0.03452897
000090 08 63 1c 3c 83 47 69 3d 57 c2 d1 bb 83 aa 0d be
       0.009545095 0.056952965 -0.006401341 -0.13834576
0000a0 0b 28 b2 bb d9 2b 47 bd 9c d8 4e bd 5f 1a 64 3c
       -0.0054369024 -0.0486258 -0.050499544 0.013922303
0000b0 bb 73 a3 bd 2f 30 5e bc a5 cd ab bc 82 7a 85 bd
       -0.07981058 -0.013561293 -0.020972082 -0.06517507
0000c0 3c 54 6b bd b9 b1 07 be 6d 99 bf bd b3 31 2f bd
       -0.05745338 -0.1325139 -0.093554355 -0.042772006
0000d0 f8 2a c3 bd f0 b1 4b 3d 96 27 4b 3d 83 62 89 bd
       -0.0952968 0.04973024 0.0495983 -0.06708243
0000e0 9d 81 9b bc bd 16 9b bd 56 b4 8b 3b 69 43 b3 3d
       -0.018982703 -0.07572696 0.004263441 0.08753092
0000f0 6f b1 3d bd e0 42 b6 bd 63 7f 8d bd 2a fa 2c 3c
       -0.046311792 -0.08899474 -0.06909063 0.010557691
000100 42 a5 17 bd 4e ff be 3c 71 63 3c bc 6e f0 39 bd
       -0.037022837 0.023315098 -0.011498318 -0.045395307
000110 08 84 5a 3d 25 56 a0 bd b0 45 8f bd 45 2a de bc
       0.05334857 -0.07828931 -0.06995714 -0.027119765
000120 92 ba 15 3d d0 e7 12 3d 4d c8 85 bd 5b 4d 7a be
       0.03655488 0.035865605 -0.06532345 -0.24443571
000130 31 1c c7 bd ca da 5b 3c a1 20 c6 bd 5b db 88 bc
       -0.09722174 0.013418863 -0.09674192 -0.01670616
000140 2f 4f 2c be 61 ca 21 3d e9 61 50 bd ba 12 d2 bc
       -0.16827081 0.039499644 -0.050874624 -0.025643695
000150 04 86 e0 bc 0e 60 93 3c 64 c7 89 bd e8 08 8b 3d
       -0.027407654 0.017990138 -0.06727484 0.06788808
000160 cb e9 c2 3d 94 dd 89 3d c7 54 08 bd a8 3a 32 bc
       0.09517249 0.06731716 -0.033283975 -0.010878243
000170 cc d7 a0 bb f9 50 fc bc 72 96 b0 be 81 78 84 bd
       -0.0049085375 -0.03080033 -0.3448978 -0.06468297
000180 5a 75 d3 bd 0f eb 1c 3d 79 8e 9b bd ac 33 3c 3c
       -0.103251174 0.038310107 -0.07595534 0.011486929
000190 44 df 25 3e 98 f5 e7 3c 31 67 7b be e7 38 e3 bd
       0.1619845 0.02831535 -0.24551083 -0.11094838
0001a0 32 d2 df 3c ab 28 24 be 3d 3b 8d bd 3e 2b 4e be
       0.027321909 -0.16031139 -0.068960644 -0.20133683
0001b0 47 dd 4f 3d 20 97 8a be b4 ef f6 bd 75 10 3d 3d
       0.050748136 -0.27068424 -0.120574385 0.046158273
0001c0 c8 55 cc 3c 0d df e8 3c 7a d8 8c bd 98 5a f6 bc
       0.024943247 0.028426671 -0.06877227 -0.030072495
0001d0 00 16 09 bd 7f 29 69 bc e6 f4 40 bd f1 fe e5 bc
       -0.033468246 -0.014231085 -0.047108553 -0.028075667
0001e0 81 b7 f5 3c 5a bd 41 be 6f 08 a2 bd 4e be db bd
       0.029994728 -0.18919888 -0.07911765 -0.10729657
0001f0 9d 2d b4 bd fa 21 e8 bd 3c e2 e0 bd 72 5d d6 bc
       -0.087977625 -0.113346055 -0.10980651 -0.026167605
000200 22 a3 94 bd 76 d5 c0 bd 6c 4d 92 bd 0c 4a 44 be
       -0.072576776 -0.094157144 -0.07143673 -0.19168872
000210 c4 9c 1e 3d 60 0c 2b 3b 90 a7 25 be ed 3d 2c be
       0.038723722 0.0026099905 -0.16177201 -0.16820498
000220 eb 0b d2 3c 16 bd 11 be 38 ce 15 be e9 9e 9b bd
       0.025640449 -0.14232287 -0.14629447 -0.07598669
000230 e1 47 91 bd 42 a5 a4 3c c2 75 33 3d 33 6a 26 bd
       -0.07093788 0.020098332 0.043813474 -0.040628623
000240 82 f7 dd bd db bb 2b bd 2e 9c ba bd 8f 34 41 3c
       -0.10838224 -0.0419272 -0.0911182 0.011792316
000250 76 9f b7 bd 17 b8 87 bd 73 ee 63 bd 80 e7 dc bc
       -0.08965962 -0.06626909 -0.055647325 -0.026965857
000260 67 85 4d bd 2c 13 4f 3a c4 32 23 be cf e8 a7 bd
       -0.05017605 0.000789928 -0.15937334 -0.081987016
000270 6f fa 8a bc 39 64 16 3d 1c 9d 99 bc 1d 35 1d be
       -0.01696512 0.036716674 -0.018751673 -0.15352292
000280 d3 8f 36 bd 8e 27 ca bd a6 28 b1 bd 4b 3f 96 bd
       -0.044570755 -0.09870826 -0.08650331 -0.07336291
000290 fc 5c c8 3b 9b b6 4e bd 04 c1 ec bd c5 85 a8 bd
       0.0061146 -0.050467115 -0.11560252 -0.082286395
0002a0 cb 63 d0 bd 29 cb 91 bc d6 c4 bb 3c 11 78 cc bc
       -0.10175284 -0.01779707 0.022921007 -0.024959596
0002b0 f7 d1 94 bc 9b 2a c0 bc f3 97 c4 bd 37 47 a9 bd
       -0.018166525 -0.023457816 -0.095992945 -0.08265536
0002c0 54 d1 18 be 8f 5a 46 3d 97 38 e8 bd 6a 15 85 bd
       -0.14923602 0.048426207 -0.11338919 -0.06498225
0002d0 2d a3 fd bd 80 8f 7c bd e0 a0 95 bd ad c0 2a 3d
       -0.12384639 -0.06166029 -0.07306075 0.041687656
0002e0 97 7c 10 bd b4 fc 90 bd d5 cb 97 bd f2 6c 91 bd
       -0.035275068 -0.07079449 -0.07411925 -0.07100858
0002f0 9f ed 78 bc b3 e7 04 3d 20 ea 95 3d b3 29 1e 3d
       -0.015193372 0.032447528 0.073200464 0.038613986
000300 88 e6 28 bd 10 29 9f 3b 61 b5 d8 bd b0 fc 44 bc
       -0.041235477 0.00485719 -0.1058147 -0.012023136
000310 0f 42 96 3e c4 2f 64 3d 5d f3 07 be 90 48 7f bd
       0.29347274 0.055709615 -0.1327643 -0.06232506
000320 7c c7 bc bd 72 1e 34 be 5c 3d 0f be 62 ab eb bc
       -0.09217736 -0.17589739 -0.1398825 -0.028768245
000330 3b b1 45 3e 10 32 08 bd 3f 09 31 be 52 77 a9 bd
       0.1930589 -0.03325087 -0.17288683 -0.08274712
000340 32 5c 17 3d dc ca a0 bd 60 26 43 be 9c a6 27 3c
       0.03695316 -0.07851192 -0.19057608 0.010232594
000350 3c 0b 0f 3d 6d f9 11 bd 99 6d 64 bb 32 52 18 3d
       0.034922823 -0.03563826 -0.0034855364 0.037187763
000360 bd fd 05 be 29 20 14 be c8 bd 6d bc 48 5a e4 bd
       -0.13085075 -0.14465393 -0.014510579 -0.11150032
000370 4e e9 d2 bd 7c 03 4a bd f2 72 87 bb bc 41 0d 3b
       -0.102984056 -0.04931973 -0.0041335756 0.0021554073
000380 bb 1c 2d 3c 0e c5 89 bc c3 09 11 be 79 a5 34 bd
       0.010565932 -0.016817596 -0.1416388 -0.04410312
000390 30 cb 01 be 61 c5 4b bd ee a6 0b be 98 9a 03 3c
       -0.12675166 -0.049748782 -0.13637897 0.0080324635
0003a0 d7 92 13 bb ab 3e 38 be 26 2a 5c bc 65 5c c1 3c
       -0.0022517943 -0.17992656 -0.013437783 0.023603627
0003b0 6d f1 87 bd 9a 23 48 3c d3 43 ca 3c 16 92 3c bd
       -0.06637845 0.012215519 0.024690544 -0.046037756
0003c0 0b 34 b3 bd f3 03 0a be 52 f2 a8 bb eb 30 44 3c
       -0.08750161 -0.13478069 -0.00515584 0.011974554
0003d0 eb 19 6f be 36 0f 6c bc 5c 76 4f bd b9 c7 18 3e
       -0.2334973 -0.014407923 -0.050649986 0.14919938
0003e0 00 36 0f 3d e0 75 f8 3b 2f 07 84 bd a1 6e 3b 3d
       0.034963608 0.007582411 -0.06446683 0.0457598
0003f0 48 21 ad 3c e4 c3 ed bd da be a5 bb 99 aa ec bd
       0.021134034 -0.11609629 -0.0050581517 -0.115559764

lstm1.weight_hh_l0 f4 [512, 128]
000000 f3 d5 b7 3d 35 97 59 bc ff ed 47 bd d8 90 39 bd
       0.089763544 -0.0132806795 -0.048810955 -0.04530415
000010 29 f3 5c bd d9 71 df 3d c8 91 cf bc 04 1a 8d bd
       -0.053942833 0.109103866 -0.025338069 -0.06889728
000020 84 21 d9 bc 01 5e 16 bd d0 53 81 bc 68 22 59 3d
       -0.02650524 -0.036710743 -0.015787035 0.053011328
000030 bd df 29 bb 93 67 a1 bd bd 8b 97 bc 3a aa 88 3c
       -0.0025920712 -0.07881083 -0.01849925 0.016682733
000040 fd dd 24 bc b7 bd a8 3d c5 3f 22 3c 83 71 af 3d
       -0.010062692 0.0823931 0.009902899 0.085665725
000050 a2 b2 86 bd 79 30 39 bc d7 2f 0e be 60 c5 35 3b
       -0.0657704 -0.011303061 -0.13885437 0.0027736053
000060 75 59 4a bd 18 c7 a8 bc 23 ef c2 bd 34 01 4e bd
       -0.04940172 -0.020602748 -0.09518268 -0.050294116
000070 86 d0 2e 3d d6 d3 2d 3d 05 f7 60 bd ee 20 b6 bd
       0.042679332 0.04243835 -0.054923076 -0.088929996
000080 d0 2b 3a bd c0 4a 2e 3d 23 91 46 3d 82 20 30 bc
       -0.04545194 0.042551756 0.048478257 -0.010749938
000090 1d 5c 97 bd 45 7c f4 3c 0f 1e 78 3d 87 30 b3 3d
       -0.07390616 0.029844413 0.06057554 0.0874949
0000a0 4f 51 8a bd 8a 6a 05 3d f3 0f a0 bc ec 8b 7f 3c
       -0.0675379 0.032572307 -0.019538855 0.015597325
0000b0 3c 59 e5 bc f2 8b 02 3d 88 10 29 be 6c ee 34 bd
       -0.027996652 0.031871744 -0.16510212 -0.04417269
0000c0 56 6b 03 3d 7a 8d 20 bc 13 3d ce 3d 45 f5 a9 3d
       0.032084785 -0.009799356 0.10070243 0.082987346
0000d0 c9 d6 cc bd cb a5 3a 3d ec 59 c0 3d 30 86 11 3e
       -0.100019045 0.04556827 0.09392151 0.14211345
0000e0 12 3d b5 3d d6 e1 29 3e aa 35 82 3d be 92 a8 3d
       0.08849539 0.16590056 0.06357892 0.08231114
0000f0 42 29 69 bd 7a 6e 0c 3d d2 dd df bd 54 dd 3b 3e
       -0.056924112 0.034285046 -0.10930981 0.18346149
000100 ce 4d 9f 3d d4 29 d2 bc 56 98 89 bd 46 60 81 3d
       0.07778512 -0.02565471 -0.06718509 0.06317191
000110 cb d9 af bd b8 d6 05 3c f0 1e 28 3e da ec 61 3d
       -0.085864626 0.008168869 0.16418052 0.05515752
000120 3c 78 6a 3d 3d 92 09 3d a3 03 c4 bc f2 c4 47 b9
       0.05724357 0.03358673 -0.023927515 -0.00019051487
000130 60 0b 2b bd 32 a0 e3 bd 8a da f8 3d 9f 3a 8f 3c
       -0.041758895 -0.11114539 0.12151058 0.017484007
000140 c6 7f 5f 3b 04 2b 9b 3d 8c 33 f4 bb a8 51 a1 3d
       0.0034103259 0.07576564 -0.007452434 0.07876903
000150 d4 5f 0a 3d 24 bf 1c bc 16 7a eb 3d 75 fa 04 3d
       0.033782795 -0.009567056 0.114978954 0.032465417
000160 65 71 57 bc 1c 06 36 3d 78 d9 89 bd b5 80 ce bd
       -0.013149594 0.04443942 -0.06730932 -0.10083143
000170 87 27 d1 bd 44 c4 8a 3d 98 14 26 be 7b c5 39 bc
       -0.10212617 0.06775716 -0.16218793 -0.011338587
000180 8d 9b 36 bd 74 57 f7 bc 2e 38 01 3c 13 e2 05 3d
       -0.04458194 -0.030193068 0.007886929 0.032686304
000190 34 8d 2c 3d b5 69 62 bd 76 40 e3 3d 7c 70 ae bd
       0.04212685 -0.05527659 0.11096279 -0.085175484
0001a0 2d d4 7e 3d a0 c4 5f bd 61 29 a6 bc 92 56 a9 bd
       0.062214065 -0.054630876 -0.020283403 -0.08268465
0001b0 1a 52 9c 3d 9d 2d b8 bd 4b 96 5a be fb 9e d9 bd
       0.07632847 -0.08993075 -0.21346395 -0.10626026
0001c0 5d 3c d7 bd 2c 0e fe 3b 60 01 a1 bc ea 16 e0 bd
       -0.1050956 0.0077531543 -0.019653976 -0.109418705
0001d0 02 2f 3f bc e5 20 0e 3d 93 2f 1a bd d5 56 55 3b
       -0.011668922 0.03469934 -0.037643027 0.0032552977
0001e0 9b 07 ba 3d d0 da 2f bc c6 9e 41 bd dd 00 bb 3d
       0.09083482 -0.010733321 -0.04727056 0.09131024
0001f0 cc 2f 0b bd b2 22 70 3d 62 d4 e5 bc 05 aa 3f 3d
       -0.03398113 0.058626838 -0.028055374 0.046793003
000200 43 8e 15 3d 45 f1 e8 3b f0 73 04 be fc ce 22 bd
       0.036512624 0.0071088397 -0.12934852 -0.039748177
000210 e8 06 1b 3c ee d4 8d bc 1c 3e 7c bc 04 c6 4c 3d
       0.009462096 -0.017313447 -0.015395667 0.04999353
000220 e7 63 7f 3d ac 56 2a be d0 14 2c bc d2 62 22 bd
       0.062351134 -0.16634625 -0.010503009 -0.039645024
000230 84 6c d3 3c 03 a0 89 bd 84 87 b4 3d bf ea 30 3d
       0.02580858 -0.06719973 0.0881491 0.04319262
000240 da 47 52 3c 5a 2b 53 bd 11 63 9a 3d 47 27 d1 3d
       0.012834514 -0.051555015 0.07538427 0.1021257
000250 ac 1e 33 be 93 ff 32 3d 06 44 66 bb 7a 2e ac 3c
       -0.17492169 0.043700766 -0.003513576 0.021018256
000260 9c fa 96 bd 25 7d 98 3d 1b ba fc bd 78 89 0a be
       -0.07372019 0.074457444 -0.12340184 -0.13529003
000270 05 a9 50 3d 42 67 96 3c a4 2b 81 3d a2 d7 32 bd
       0.05094244 0.018359784 0.06307152 -0.043662675
000280 ec 37 da bb 66 67 07 be 4b 1b 84 3c 6c 70 85 bd
       -0.0066594984 -0.13223037 0.016126296 -0.065155834
000290 a9 95 fe 3d b0 7f 89 3d 05 11 0f 3e b1 bb ee bb
       0.12430889 0.067138076 0.13971336 -0.007285558
0002a0 7f 4c b2 bd f4 fa 8d 3d 77 54 c5 3d 72 6c e5 3d
       -0.08705997 0.06932631 0.09635251 0.11202325
0002b0 4b d1 16 3e 5f 95 06 3d d5 41 12 3e a7 e5 2f be
       0.14728276 0.032857295 0.14282925 -0.17177449
0002c0 e2 d3 ee 3c 3d ac b6 bc e6 f3 a8 3c ac 37 59 3d
       0.029153768 -0.022298926 0.020624112 0.05303161
0002d0 89 33 00 ba 9e b2 a9 3d 57 c7 4e 3d 41 cd ac 3d
       -0.0004890492 0.08286022 0.050483074 0.084375866
0002e0 94 93 16 3e 81 c8 20 3d 8b 19 d5 3a 4c d8 77 bd
       0.14704734 0.039253715 0.0016258223 -0.06050901
0002f0 78 31 e5 bb 80 57 7a 3d 35 07 63 bd e4 b0 6e bc
       -0.0069944225 0.061118603 -0.055426795 -0.014568541
000300 78 f2 3e 3d 47 6d d3 3d 21 c0 90 bd e5 f6 0b bd
       0.046617955 0.103235774 -0.07067896 -0.034171004
000310 47 88 c6 bd f7 b7 ab bb 52 cc e8 3c 5d 65 20 3e
       -0.096939616 -0.005240436 0.02841774 0.15663667
000320 5b 95 d0 bd 0b 6a 6b 3c 26 41 9e bd 0b 15 95 3e
       -0.10184737 0.014368544 -0.0772727 0.29117617
000330 92 bf b6 bc d4 06 94 bd cd 24 96 3c a0 c1 46 3e
       -0.022308145 -0.07227865 0.018328095 0.194098
000340 b6 2a 20 be 40 e2 98 3c b7 5b 7d 3d 77 26 32 3e
       -0.15641293 0.018662572 0.061855044 0.17397486
000350 b8 fe c8 bd 0b a1 26 be 07 e5 91 bb ae df 24 be
       -0.09814209 -0.1627237 -0.004452351 -0.16100952
000360 9b 9c 4c bd da fd 40 bd ad 6e 1b be 80 9b 03 3e
       -0.049954038 -0.04711709 -0.15178938 0.12852287
000370 6d 2f 8b 3d 19 af 97 bd d9 f0 27 bd 38 56 a3 bd
       0.06796155 -0.07406444 -0.041001175 -0.07975429
000380 e6 ae f8 bc 26 a4 1f bd 28 8b 4a bd 7d 9f 02 bd
       -0.030356836 -0.038974904 -0.049449116 -0.03189038
000390 2d 82 28 bd 4d 86 be 3d 7b 73 b7 bd be fa 17 be
       -0.04113977 0.093029596 -0.08957573 -0.14841744
0003a0 78 4e 1f 3e ce ab 85 bd 5a 35 31 be fa 83 d2 bd
       0.15557277 -0.0652691 -0.17305508 -0.10279079
0003b0 5a a1 69 3d 27 f7 3c 3c 77 ea 94 3d 56 91 fc bc
       0.057038642 0.011533535 0.07271283 -0.03083102
0003c0 c9 f6 31 bc f1 5a a5 3c af dd 56 bb 93 5f 64 bd
       -0.010862061 0.020184966 -0.0032785942 -0.05575521
0003d0 00 1a ff 3d 5d 79 7e bd 75 42 0a be b7 91 61 3d
       0.12456131 -0.06212746 -0.13501914 0.055070605
0003e0 27 25 41 bd 6b 0c 86 3d 34 fc d9 3d 55 08 a0 bd
       -0.04715457 0.06545337 0.10643807 -0.07814089
0003f0 d1 d6 0a bd 77 a8 14 3e f2 58 e3 3d 2d 85 87 3d
       -0.03389627 0.14517389 0.11100949 0.06617198

lstm1.bias_ih_l0 f4 [512]
000000 e5 66 86 be 39 7d 43 be 46 e0 6a be cd 1b 9b bd
       -0.26250377 -0.19090737 -0.22937116 -0.07573662
000010 37 3b 22 be 97 a1 b3 bd 6f 50 8e be 87 f4 89 be
       -0.15842901 -0.08771055 -0.2779574 -0.26944372
000020 ba 65 96 bd 0d 1c 66 be ec 4e 9a bd 9e 14 4f be
       -0.073436216 -0.22471638 -0.075345844 -0.20222709
000030 3e 5f 7d be 3c 26 10 be 23 21 82 bc be 81 2f be
       -0.24743363 -0.14077085 -0.015884941 -0.17139336
000040 e2 93 56 be bb b3 17 be 23 0c ef bd 91 41 71 be
       -0.2095485 -0.14814655 -0.11672237 -0.23560168
000050 40 07 15 be b1 4d 9a bd 1d 89 5f be a4 ba 3c be
       -0.14553547 -0.0753435 -0.21829648 -0.18430573
000060 18 68 20 be ce 50 3e be 3a c7 45 bd d4 78 2a be
       -0.15664709 -0.18585512 -0.0482857 -0.16647655
000070 ec 28 eb bd fd 9a e3 bd 6b f0 f9 bd 8d e0 64 be
       -0.114824146 -0.11113546 -0.12204059 -0.22351284
000080 20 8f 49 bd f4 2c 77 bd 5c 99 6b bd 91 4e 56 be
       -0.04920876 -0.060345605 -0.0575193 -0.20928408
000090 e2 d2 3b be 64 32 df bd b4 de cd bd b3 dc c7 bc
       -0.18342164 -0.10898283 -0.10052243 -0.02439723
0000a0 84 b2 20 be cd a8 08 be eb 6b 3c be 1b 36 8d be
       -0.15693098 -0.13345642 -0.18400542 -0.27580342
0000b0 72 53 6f be 05 31 f3 bd 4f 27 f8 bd 0e 5f 3b bd
       -0.23371676 -0.11874584 -0.121168725 -0.045744948
0000c0 17 db 2e bd f0 44 43 be 3a ac 70 bd ce 96 4a bd
       -0.04268941 -0.19069266 -0.058757998 -0.049460225
0000d0 8c bb 35 be fd b9 21 bd 83 cd fb bd a4 0e 63 be
       -0.17747325 -0.039484013 -0.122950576 -0.22173554
0000e0 6d 5d 26 be cc fa 44 3c 9c 40 11 be 32 5c 44 be
       -0.16246577 0.012022685 -0.14184803 -0.19175795
0000f0 01 a9 ea bd 45 38 95 bd 04 aa 88 be 1a be 91 be
       -0.11458016 -0.07286123 -0.26692212 -0.28465348
000100 28 1d a0 bc 3c 79 1d be f0 01 74 be d7 1c 02 be
       -0.019545153 -0.15378278 -0.23828864 -0.12706314
000110 22 50 65 bd ed 5f 46 be 9c b5 98 bd 1e cd 35 be
       -0.055984624 -0.1937253 -0.07456514 -0.17754027
000120 c4 2c d1 bd 20 d4 66 be 45 5f af bd fe ce 99 bd
       -0.102136165 -0.22541857 -0.08563093 -0.07510184
000130 dd eb e8 bd 80 bd cd bd ce d5 92 be 02 49 21 be
       -0.11373112 -0.1004591 -0.28678745 -0.15750507
000140 70 14 33 be 50 2f 41 be 36 b8 2b bd 4b a9 91 be
       -0.17488265 -0.18865705 -0.041923724 -0.28449473
000150 16 3f 8e be 76 f2 0a be 15 8c 45 be 9c 62 1e be
       -0.27782506 -0.13569054 -0.19291718 -0.15467304
000160 15 4c 9d bd 8a a7 ee bc cb 0b 17 be ff 00 9c be
       -0.07680527 -0.029132623 -0.14750592 -0.3046951
000170 e7 a4 16 be 21 f9 4e be 32 be ee 3b ea b3 2f be
       -0.14711343 -0.20212223 0.0072858566 -0.17158476
000180 87 91 d2 bd b5 6d ed bd 2b dc 24 be a6 32 ae bd
       -0.102816634 -0.115931906 -0.16099612 -0.08505754
000190 5c 89 a0 be 43 35 5d be 03 44 31 be e5 66 9b bd
       -0.31354797 -0.21602349 -0.173111 -0.07587985
0001a0 0a 10 99 bd c9 2e b7 bd f5 a5 0f be 6b 4a 6e 3c
       -0.07473762 -0.089444704 -0.14028151 0.01454411
0001b0 37 65 22 be 10 8b 35 be db 4a 9b bd ee 90 df bd
       -0.15858923 -0.1772883 -0.07582637 -0.10916315
0001c0 a1 81 06 be 1b 19 89 be 8c 87 59 be e6 49 81 bd
       -0.13135387 -0.26776966 -0.21243113 -0.06312923
0001d0 aa 0d 6e be 14 0b 84 bd 09 f0 09 be 69 5a 4a be
       -0.232474 -0.064474255 -0.13470472 -0.19761051
0001e0 35 2a 07 be 3a 83 66 be ea 4f 37 be f7 46 93 bd
       -0.13199694 -0.22510996 -0.17901579 -0.0719127
0001f0 88 61 24 be 86 d1 90 bd 9b c8 29 be 58 d8 32 be
       -0.1605283 -0.070712134 -0.16580431 -0.17465341
000200 bb a1 6a be 54 45 b2 bd 4d 7b 32 be df 8e 0c be
       -0.22913258 -0.087046295 -0.17429848 -0.13726376
000210 ce 67 55 be 7f 75 1b be 5c aa 8e be 56 db 04 be
       -0.2084038 -0.1518154 -0.2786435 -0.12974295
000220 24 1d a4 bd f6 e4 01 be 52 55 ac 39 a2 bb 29 be
       -0.08013371 -0.12684998 0.00032869965 -0.16575482
000230 35 bb 8b be 5d 8d 2d be 72 21 9f bd 34 e1 bf bc
       -0.27291265 -0.16948457 -0.07770051 -0.023422815
000240 78 4a 2a be 56 07 2a be 2e d5 dd bc 41 75 90 be
       -0.1662997 -0.16604361 -0.027079191 -0.28214458
000250 7f 08 be bc 5d 84 30 be 43 29 4b be 67 0c 07 be
       -0.02319741 -0.17237993 -0.19839959 -0.13188325
000260 8d 70 de bc 94 ac c8 bd 80 c8 ca bd 14 ea 51 be
       -0.027153278 -0.09798542 -0.099015236 -0.2049945
000270 b5 fb 0f be a8 37 40 be 60 37 90 bd fc b4 fb bd
       -0.14060862 -0.18771231 -0.07041812 -0.122903794
000280 01 5a ae bd ee 07 11 be 8a 96 96 bd ec 2a 07 be
       -0.08513261 -0.14163181 -0.07352932 -0.13199967
000290 04 9d e5 bd c2 b0 84 bd 2b 69 d5 bd cb 76 b1 bd
       -0.11211589 -0.064790264 -0.1042045 -0.08665236
0002a0 03 c3 24 be 9d f7 60 bd 16 b9 86 be c9 ac c7 bd
       -0.16090016 -0.054923642 -0.26313084 -0.09749753
0002b0 6b 11 95 be 65 b5 46 be 70 23 0f be c2 e4 8d bd
       -0.2911485 -0.19405134 -0.13978362 -0.06928398
0002c0 54 de 80 bd 5a 41 85 be 27 3f 61 be b0 b4 cf bd
       -0.06292406 -0.26026422 -0.21996747 -0.10141885
0002d0 57 b0 63 be 8f a4 6b bd 8a 21 b8 bd f1 34 54 be
       -0.22235237 -0.057529982 -0.08990772 -0.2072332
0002e0 93 3c 3b be e6 99 93 3c a4 7d 7d be 1c 21 d6 bd
       -0.18284826 0.01801772 -0.2475496 -0.10455534
0002f0 14 a5 d2 bd 93 b3 45 bc 37 bd 84 be e6 b9 dc bd
       -0.102853924 -0.01206674 -0.2592561 -0.10777645
000300 54 18 17 be 50 c7 da bd c2 ae 73 bd cd 4e 31 be
       -0.14755374 -0.10682547 -0.059492834 -0.17315216
000310 16 c0 d4 bc 63 06 f1 bd e8 30 40 be 96 79 66 bd
       -0.0259705 -0.11768796 -0.18768656 -0.056268297
000320 82 6c 99 bd ed 93 0e bd a1 e1 25 be d7 3f 48 bc
       -0.07491399 -0.03480904 -0.16199352 -0.012222252
000330 67 e0 6d bc 7c cb b3 bd 64 91 32 be 98 e9 65 bd
       -0.014518834 -0.08779046 -0.17438275 -0.056130975
000340 07 80 80 bc 09 2e c0 bd d3 de 3a be df c5 81 be
       -0.015686048 -0.093837805 -0.18249063 -0.25346276
000350 89 68 1c be 40 d3 70 be 10 62 17 be 10 3b e4 bd
       -0.15274252 -0.23518085 -0.14783502 -0.11144078
000360 8d f7 f1 bd 48 20 16 3b ae 9e 01 be 7a 23 fb bd
       -0.11814795 0.0022907425 -0.12658188 -0.12262626
000370 91 a4 43 be 16 4d c2 bd ba cc 0c be ff a6 e6 bd
       -0.19105746 -0.09487359 -0.13749972 -0.11262321
000380 d5 64 32 be 1e 23 04 be 65 76 b4 bd 0a 3e 50 be
       -0.17421277 -0.12904021 -0.088116445 -0.20336166
000390 fb af 26 be 25 ef b1 bd fb 8e 80 be ff 11 27 be
       -0.16278069 -0.08688191 -0.25109085 -0.16315459
0003a0 ac 4b 82 bd eb d9 b7 bd ea 21 03 be f4 8b 55 3b
       -0.063620895 -0.089771114 -0.12805906 0.003258464
0003b0 d3 13 0e be 49 80 8d be 5b ad f6 bd 59 c7 10 bd
       -0.1387475 -0.27636936 -0.12044784 -0.035346363
0003c0 81 38 0f be 72 03 51 be 1f f6 80 be 4c be af bd
       -0.13986398 -0.2041147 -0.25187775 -0.08581218
0003d0 c6 b1 b2 be 68 68 c4 bd c2 1e 37 be 04 87 09 3d
       -0.34901255 -0.095902264 -0.17882827 0.033576027
0003e0 f5 bf 98 bd 85 da 96 bd 91 47 75 be 74 0e 23 be
       -0.07458488 -0.07365898 -0.23953082 -0.15923482
0003f0 4a 35 55 be d5 0f 38 be 20 ea 66 bd 2b a1 22 be
       -0.2082111 -0.1797479 -0.056375623 -0.15881793

lstm1.bias_hh_l0 f4 [512]
000000 e8 07 1e be 94 57 f4 bd f2 33 a1 be b4 04 c9 bd
       -0.15432703 -0.11930767 -0.31484944 -0.0981535
000010 3d 5c 22 bd 07 d1 54 bd 00 30 bf be 17 f8 38 be
       -0.039638747 -0.051957157 -0.3734131 -0.18063389
000020 0d 3b 19 bd 08 8a 9f bd 5f 0a 6b bc fc ed 61 be
       -0.03740983 -0.07789999 -0.014345734 -0.2206344
000030 6a f6 82 be a3 31 48 be f4 cb f4 bd d1 28 ab bd
       -0.25578624 -0.19550185 -0.119529635 -0.083573945
000040 6e 85 00 be 1b 0b 24 bc db 25 bd bd 7c 09 a6 be
       -0.125509 -0.010012413 -0.09235736 -0.3242911
000050 19 c6 3d bd d2 ab 2f be 3d 53 13 be 66 7c 2d be
       -0.0463315 -0.17155388 -0.14387222 -0.16941985
000060 ef 63 d2 bd e3 08 cd bd bc 05 4d bd a6 67 a6 bd
       -0.10272967 -0.10011461 -0.050054297 -0.08125238
000070 40 eb 0b be 4f 26 2f be 82 1e 03 be 56 f9 15 be
       -0.1366396 -0.17104457 -0.12804607 -0.14645895
000080 85 30 c9 bc 53 0b ef bc a8 fa 0f be 19 75 40 be
       -0.024559269 -0.029180204 -0.14060462 -0.18794669
000090 99 5b f3 bd 8e 07 16 be df 8f 52 be 4b 8a ac bc
       -0.11882705 -0.1465132 -0.20562695 -0.021062037
0000a0 33 3f 92 bd 5a 37 34 be 73 b7 e8 bd 5c 4f 18 be
       -0.071409605 -0.1759924 -0.11363115 -0.14874023
0000b0 42 a1 31 be b0 6e 65 be 70 a6 15 be e2 26 8b bd
       -0.17346671 -0.22405505 -0.14614272 -0.06794526
0000c0 79 82 5e bd fe f8 64 be 40 d7 a6 bd 7f 89 40 3c
       -0.054323647 -0.22360608 -0.081465244 0.011751532
0000d0 56 53 7d be eb 17 14 bd 21 ad 76 be 0b f4 98 be
       -0.24738821 -0.036155622 -0.24089481 -0.2987369
0000e0 c2 1f c0 bc 6b 6c 3e 3d f4 a7 01 be 1e f7 c6 bd
       -0.023452643 0.046490114 -0.12661725 -0.097151026
0000f0 9d 65 a4 bd 72 3b 8a bd 3d f3 79 be e0 50 fb bd
       -0.08027194 -0.067496195 -0.24409194 -0.12271285
000100 b0 f8 d6 3b 25 fd 50 be 13 1a 43 be 61 2c 22 be
       0.0065604076 -0.20409067 -0.19052915 -0.15837242
000110 64 d2 53 bd 9d 14 26 be b0 9b 8e bd d2 a1 5c bd
       -0.051714316 -0.16218801 -0.06963289 -0.05386526
000120 f6 d9 df bd 07 ff 73 bd 33 4b 33 be e9 3d cb bc
       -0.109302446 -0.059569385 -0.17509155 -0.024809795
000130 d8 82 1b be 2a 06 ed bd 23 9c 5d be 56 c0 55 bd
       -0.15186632 -0.11573441 -0.21641593 -0.05218538
000140 78 0f db bd 4e 60 0a be bf a3 b4 bd 5c 59 84 be
       -0.1069631 -0.135133 -0.088202946 -0.25849426
000150 8b a0 25 be 8f c1 f0 bd ec 74 9a bd da f6 46 be
       -0.16174524 -0.11755668 -0.07541832 -0.19430104
000160 0d 44 79 bd 74 fc 0e be 44 a7 04 be 41 c9 20 be
       -0.060855914 -0.1396349 -0.12954432 -0.15701772
000170 43 36 2f be 1b 42 51 be 46 61 7e 3c a9 86 cb bd
       -0.17110543 -0.20435373 0.0155261215 -0.09937794
000180 3d e6 e0 bd 30 46 8d bd 7f d7 e3 bb e6 d1 89 bd
       -0.109814145 -0.06898153 -0.0069531794 -0.06729488
000190 bc e7 9a be ae 95 41 be 13 4d df bd a5 d9 15 be
       -0.30254924 -0.18904755 -0.109033726 -0.14633806
0001a0 ed 02 ed bc 78 3b 0c be fb 49 4e be 5d 1d 80 3d
       -0.02893206 -0.1369456 -0.20145409 0.062556006
0001b0 26 19 07 be 49 ef 80 be 24 f3 53 3c 97 5e 64 3d
       -0.13193187 -0.2518256 0.012936387 0.05575427
0001c0 99 93 3f be 52 2f 5d be ab 12 8b be 24 f1 31 be
       -0.18708648 -0.21600083 -0.2716268 -0.17377144
0001d0 fb b6 20 be 09 5b 51 be 68 0c 61 bd 37 06 65 be
       -0.15694802 -0.20444883 -0.054943472 -0.22365652
0001e0 c0 d1 01 be 18 f5 b5 bd 98 9d 17 be 5f 32 0b be
       -0.1267767 -0.088846385 -0.14806211 -0.13593434
0001f0 ae 7c 4e be dc 65 0b be 8c ec 31 be c9 8f 88 be
       -0.20164749 -0.13613075 -0.17375392 -0.266722
000200 c5 49 44 be 5e 78 5c bd e5 e3 0d be ed 04 a8 bd
       -0.19168766 -0.05382573 -0.13856466 -0.082040645
000210 54 c9 60 be c3 36 be bd bc ca a3 be 8b 33 22 be
       -0.219518 -0.09287789 -0.31990612 -0.15839975
000220 58 33 81 bd 6e d1 28 be 02 3f 10 bd d7 3d 04 be
       -0.06308621 -0.16486141 -0.03521634 -0.12914215
000230 52 f4 11 be 05 75 a7 bd 6f 29 24 be 37 25 76 bd
       -0.14253357 -0.081766166 -0.1603143 -0.060094085
000240 75 c1 d9 bd 60 b6 1f be d1 21 f4 bd 87 14 8f be
       -0.10632602 -0.15596914 -0.119205125 -0.2794535
000250 51 10 38 be 55 0b 5c be ed 18 1b be 33 f8 f9 bd
       -0.17974974 -0.21488698 -0.15146227 -0.12205543
000260 e9 98 e9 bd 60 31 c0 bd 2a 9b 2e be 80 84 af bd
       -0.114061184 -0.093844175 -0.17051378 -0.08570194
000270 01 ab 1c be 7b b1 0f be 81 1e 0e be 55 e0 1a be
       -0.15299608 -0.14032547 -0.13878824 -0.15124638
000280 ce 6e 04 be 48 d3 fc bd 88 ae e0 bd 0f b1 87 be
       -0.12932894 -0.12344986 -0.10970789 -0.26502272
000290 02 26 33 be 25 3f 88 bd 27 67 f1 bd b2 6b 19 be
       -0.17494968 -0.06652669 -0.11787253 -0.14982489
0002a0 2f 9d a8 bd 75 3f 66 bd c3 f0 2a be eb 5a 5c be
       -0.082331054 -0.05621286 -0.16693406 -0.21519057
0002b0 f4 15 9b be 23 8f 5f be 72 b9 05 be 70 be eb bd
       -0.30290186 -0.21831946 -0.13059023 -0.115109324
0002c0 41 3d 0e be 5b 05 3f be eb 6d 89 be ed 85 5d be
       -0.13890554 -0.18654387 -0.26841673 -0.2163312
0002d0 f2 97 06 be 88 8e 23 bb a0 1a 7f be 44 f6 88 be
       -0.131439 -0.0024956781 -0.249125 -0.26750386
0002e0 4d 29 9a bd 2b 05 50 3d 4b 78 07 be 29 86 82 be
       -0.07527409 0.05078618 -0.13229482 -0.2549298
0002f0 95 18 04 be 50 be b4 bc de 9d 7f be 58 57 f9 bd
       -0.12900002 -0.022063404 -0.24962565 -0.121748626
000300 18 b2 9e bd 89 b9 31 be b0 66 48 bd 24 df d5 bd
       -0.077488124 -0.17355932 -0.048926055 -0.10442951
000310 7f 13 84 bd 39 38 9a 3b 57 eb 14 bd 4a 24 34 be
       -0.06449031 0.0047064093 -0.03635725 -0.17591968
000320 a4 43 24 bd 10 e4 81 bd 12 3d 19 be e2 53 d0 bc
       -0.04010357 -0.063423276 -0.14964703 -0.025430623
000330 e1 76 d2 bc 23 87 5d bd 1c 68 8c be 06 d1 2e bd
       -0.025691452 -0.054083955 -0.2742318 -0.04267981
000340 fa 82 98 bd 37 76 5e be d0 21 16 be ad 9f 5c be
       -0.07446857 -0.21724783 -0.14661336 -0.21545286
000350 e8 83 12 be fd ca 89 be 5f ca 88 be b6 c6 73 be
       -0.1430813 -0.2691268 -0.26716897 -0.23806271
000360 6e 94 1f be 40 af f6 bc 20 d2 a8 bd 28 98 1e be
       -0.15583965 -0.030112863 -0.08243203 -0.1548773
000370 75 ea 02 be 99 4d 52 be 66 c3 d1 bd 09 74 0c be
       -0.12784751 -0.20537414 -0.102423474 -0.13716139
000380 75 2c 09 be 6e 3e f1 bd cd 2a c1 bd a9 0d 13 be
       -0.13395865 -0.11779486 -0.09431992 -0.1436068
000390 66 6d d5 bd e7 1f 00 be 69 1a 9e be 37 fb 1a be
       -0.10421257 -0.1251217 -0.30879524 -0.15134893
0003a0 e0 c7 2d be d1 cc 76 be 92 f7 90 be e0 ee 81 bd
       -0.16970778 -0.24101569 -0.2831388 -0.0634439
0003b0 0c 76 9f bd 14 83 74 be 48 44 a0 bd 22 5f 04 be
       -0.077861875 -0.23878127 -0.078255236 -0.12926915
0003c0 c4 ca 3a be 3e 40 18 be 11 d3 6e be 98 61 37 be
       -0.18241411 -0.14868256 -0.23322703 -0.17908323
0003d0 d7 f3 96 be e9 e8 8b bd 2e 20 de bd c9 84 b2 bd
       -0.2948291 -0.068315335 -0.108459815 -0.08716733
0003e0 eb 51 23 be 7d b2 ed bd a1 26 94 be b8 10 e1 bd
       -0.15949218 -0.116063096 -0.28935722 -0.10989517
0003f0 76 07 08 be 82 95 17 bd 8f fd ab bd 8d d1 83 be
       -0.13284096 -0.037007816 -0.08397972 -0.25745812
