model/model/trained_model.pt (torch, 666813 bytes, 17 tensors)

conv1.weight f4 [48, 5, 5]
00000000: b5ae 1c3e 26e9 b83d 8a66 46be 1cfb c3bd
00000010: ae9d 5bbe 5d99 9fbd f886 d2bd d473 29be
00000020: b8d4 813d 835d ab3d 8bd7 16be 9843 883c
00000030: 8edb 0a3e f804 63be c9d4 4ebe 5ec0 e6bd
00000040: 49e6 e8bd d91c 82be 0cae e73c a8d4 55be
00000050: 5488 e23c cfc5 7fbd bfaf e03d 240a 123e
00000060: 9812 7fbd 6c09 5c3d aca3 48be aebb 00bc
00000070: 8fb7 44be 3b52 46be c06f 15be eb82 ab3d
00000080: a731 d6bd 2f79 22be 640d b1bd 70de fbbc
00000090: e50c d1bd 6eba acbd e6c7 3ebd 0531 f4bd
000000a0: 68ee f73c 8e32 4abe ea31 18be 5e34 213e
000000b0: 31fe 293c d41c 3bbd 2618 213e b6fc 303d
000000c0: 7526 383d 3286 083d 8725 c23d b017 17be
000000d0: 9768 9d3a 51e2 793c daef 27be 8b5c 923c
000000e0: 12c0 62be 3969 ee3c 5be4 9a3d 07e7 e2bb
000000f0: 8c2a 9fbd 4998 84bd 572f d4bd 08dc 78be
00000100: 6685 67bd e0e7 febd aedf 64be 217a ef3d
00000110: 314d 13be 9115 76be 3f50 cd3c 283f f7bd
00000120: 318f b73d c00d 95bb 0c44 163e 2fe6 4a3d
00000130: cc6d 053e 444a 4abe 2f54 c93b d122 12be
00000140: 543d d33d a0fe 1abe 7756 673d 1125 c0bd
00000150: c879 acbd b931 3abd 7781 6bbd d213 3dbd
00000160: 34b9 45be 8ccc 8cbd 71aa df3d 3311 3abe
00000170: da5a ccbd 5949 d73d 4aaf 24bd 7aa1 abbc
00000180: 2a2d 04be 2552 063e f2ed 87bd 7353 253d
00000190: b92a c1bc d10a b53d aad2 3fbe b174 9cbd
000001a0: aa8e ff3c 87a8 4bbe 57b6 d53d c64a 0dbe
000001b0: 0a10 e8bd 70dd 05be d536 36be 91d7 f6bd
000001c0: af45 37be 4847 b53d db33 623d e427 273e
000001d0: b4d2 7ebd 9c80 c63c c8a3 d2bd d770 71bd
000001e0: 13ac 333d d22e 0c3e f9a4 663e 6c65 debd
000001f0: b837 d93d 6050 463d 6aca 9dbd 24e3 683d
00000200: a9c3 443e accb 0a3d 605c 17bd c08b 9fbc
00000210: 9298 f23d 502e b3bc c8d2 4a3d 680f 113d
00000220: c0aa bf3c c035 853c ba29 83bd 440b 99bd
00000230: c87d 14be a007 4cbd 55dd 30be f2a1 da3d
00000240: f285 25be 360c 1ebe fbd4 193e 00e5 c5bd
00000250: 705b 34be 7fdf 123e f758 75bd 948f aa3c
00000260: 35db 2bbd 6aca 78bd edcd 753d 9ca5 ff3c
00000270: 0ab2 83bb 05b0 183e 2408 ff3d cb8c babd
00000280: fd7e 20be 1fd5 1c3e 6e61 0a3d 1558 9ebd
00000290: 659c 3a3e 5812 983d a828 a83c 0c54 74bc
000002a0: 15ff 2b3e 07c1 4c3d 56a1 98bd 779f 4bbe
000002b0: d0b9 183d 182b aebd 164c 31bc 5c68 16be
000002c0: 5581 f3bd d27e 55be a2b4 903d 02c1 4abe
000002d0: 7d69 a73d e3db 0dbd 7334 69bd 6237 a7be
000002e0: 10fb 9ebe cf45 d8bd f07a af3d 4ec2 52be
000002f0: 0038 64be d138 acbe e90d 88bd 447e 82be
00000300: 4b70 c63b 6332 6cbe 56ad d0be efa2 05be
00000310: 7fec 21bc 213f 213d 8985 453e 1d24 d83c
00000320: e10f a0bd f82a 303e 02a8 173e 677d 11be
00000330: 06f4 063e 83a9 babb 873a 8e3d a634 533e
00000340: 1247 543e ef36 81bd 27c0 993d 462e ca3d
00000350: 149a fc3c 128c a4bc 2259 b9bd 887d ae3d
00000360: 65c7 bb3d 0f74 4d3c 18f2 41bd 364e 99bd
00000370: 76d4 f6bc a98e bbbd cc01 8fbd 2c6b 30bd
00000380: 8094 f33d 0187 323d 728c 1b3d bf74 43be
00000390: b3b0 9f3d 8da6 693c 65c6 193e 0e9c 0c3e
000003a0: fe20 033e 9dc1 3fbe 702c d33d 6c7a 27bd
000003b0: 9a19 6ebe b89e 16be bc27 823a 0079 4d3d
000003c0: a808 6dbe 60f2 42be 08b2 32be 73ff 05be
000003d0: 1381 b3bd e2a6 39be 7af5 85be 1466 b7bd
000003e0: b6a3 323b f8e2 773e 8fc9 ae3c f296 1c3e
000003f0: 0e33 44be 64ee ab3d eab1 c7bd 4731 b43c
0.1530102 0.090288445 -0.19375053 -0.0956938 -0.21446869 -0.077929236 -0.102796495 -0.16548091
0.06339401 0.08367445 -0.1473066 0.016633794 0.13560316 -0.22169864 -0.20198359 -0.1126716
-0.113720484 -0.25412634 0.028281234 -0.20881903 0.027652897 -0.062444504 0.10971021 0.14261681
-0.06227359 0.053719923 -0.19593686 -0.007857246 -0.19210647 -0.19367306 -0.1459341 0.0837458
-0.10458689 -0.1586654 -0.08645132 -0.030745715 -0.102075376 -0.08433996 -0.046577357 -0.11923412
0.030265048 -0.19745848 -0.1486279 0.15742633 0.010375545 -0.04568179 0.15731868 0.043209754
0.04495855 0.033331104 0.09479814 -0.1475513 0.001200932 0.015251712 -0.1640009 0.017866394
-0.22143582 0.029102908 0.075630866 -0.0069245133 -0.07771787 -0.064743586 -0.10360592 -0.24302685
-0.056523703 -0.124465704 -0.22350952 0.11693216 -0.14384915 -0.24031664 0.025062678 -0.12072593
0.089628585 -0.0045487583 0.14674395 0.049535926 0.13030165 -0.19754893 0.0061440687 -0.14271094
0.10314432 -0.15136194 0.056478944 -0.0938207 -0.084216654 -0.045457575 -0.057496514 -0.04616148
-0.1930893 -0.06874952 0.10921181 -0.18170623 -0.09978266 0.10512037 -0.04020623 -0.020951021
-0.12907854 0.13117273 -0.06637181 0.040362787 -0.023579942 0.08839954 -0.18732706 -0.076394446
0.031195957 -0.19888507 0.10435169 -0.13798055 -0.11331184 -0.13072753 -0.17794354 -0.12052835
-0.17897676 0.088514864 0.055225234 0.16323811 -0.06221266 0.024231248 -0.10285145 -0.058945503
0.043865275 0.13689736 0.2252387 -0.108591884 0.10606331 0.048416495 -0.07704623 0.056857243
0.19215263 0.033885643 -0.03695333 -0.019475818 0.11845507 -0.02187267 0.049517423 0.035415083
0.02339685 0.016260982 -0.06404443 -0.07472852 -0.14501107 -0.04981196 -0.17271931 0.1067542
-0.16164377 -0.15434346 0.15022652 -0.09662819 -0.17613006 0.1434307 -0.059899297 0.020820417
-0.0419571 -0.060739912 0.06001084 0.031206898 -0.0040190266 0.14910896 0.124527246 -0.091088854
-0.15673442 0.15315674 0.033784322 -0.07731644 0.18223722 0.07425374 0.020527199 -0.014912616
0.16796525 0.049988773 -0.074526474 -0.1988505 0.03728658 -0.08504313 -0.010821363 -0.14688247
-0.118899025 -0.2084916 0.07065703 -0.19800189 0.08174417 -0.03463353 -0.056934785 -0.3265944
-0.3105092 -0.1056019 0.0856837 -0.20581934 -0.22286987 -0.33637097 -0.06643278 -0.25486958
0.006055867 -0.23066096 -0.40757245 -0.13050435 -0.009883045 0.039366845 0.19289221 0.026384408
-0.07815529 0.17203891 0.14810184 -0.14207993 0.13179025 -0.005696477 0.06944757 0.20625553
0.20730236 -0.06309306 0.07507353 0.09872107 0.030835189 -0.020086322 -0.09050204 0.08520037
0.09168891 0.012539878 -0.04735002 -0.07485621 -0.030130606 -0.0915807 -0.069827646 -0.043070957
0.118935585 0.04358578 0.037975736 -0.19087504 0.077973746 0.0142609 0.15017088 0.13731405
0.12805554 -0.18726201 0.1031121 -0.040888235 -0.23251954 -0.14708984 0.0009930055 0.050164223
-0.23147833 -0.19037771 -0.17450726 -0.13085727 -0.08764853 -0.18130067 -0.26163846 -0.08955017
0.0027258224 0.24207675 0.021336345 0.15291956 -0.19160101 0.08395079 -0.09750731 0.021996154

conv1.bias f4 [48]
00000000: 2933 8a3e 722c efbd 361b 533e f689 3a3e
00000010: d6f7 e9bc c812 1abe c1bd bfbd 2476 933e
00000020: 6e02 89be 871d f73d d16f 59be 5d87 0c3e
00000030: ad32 04be 6a3e 91be 3810 94be 52df 5fbe
00000040: ca9f 5abe 3532 debd 0186 bc3d e7f9 cb3c
00000050: 337e 203e c02d 1dbd 98bf 533d 2d92 5ebd
00000060: 0bcb 42bd 9b76 8f3e 7730 7d3e a969 8b3e
00000070: bf21 053d 1ad3 e1bd 59fa 663e b6bd 9d3d
00000080: 72f5 d63d 0aa2 9dbd 3788 633d b634 2ebd
00000090: 1d59 433e e387 993e 879c 8dbe a15c a83e
000000a0: 9653 91bd 2caa 4e3d a987 0bbe e627 953c
000000b0: 8fae 1dbe 7481 46be b0f2 66bd 0972 4a3e
0.26992157 -0.11678399 0.20615849 0.1821669 -0.02856056 -0.15046227 -0.093623646 0.28801072
-0.26759666 0.12066179 -0.21234061 0.13723512 -0.12909956 -0.2836793 -0.28918624 -0.21862534
-0.21350017 -0.1084942 0.09205247 0.024899436 0.15673141 -0.03837371 0.05169639 -0.054338623
-0.047556918 0.28020176 0.24725519 0.2722905 0.032502886 -0.110265926 0.22556438 0.077022
0.10496034 -0.07696922 0.055549826 -0.042530738 0.19076963 0.29986486 -0.27658483 0.3288317
-0.07096021 0.050455257 -0.13625969 0.018207502 -0.1539862 -0.1938532 -0.05638379 0.19770063

conv2.weight f4 [96, 48, 5]
00000000: 5cd4 94bd d4ab 4fbc 8b15 c8bd 55ee c2bd
00000010: 2c3b efbd f09f 4dbb 408f 803b 369a 103d
00000020: 88c4 8cbc c24c 80bd 60fd e1bd 801d 2cbc
00000030: ec96 82bd 10c3 86bb 2d5e a4bd 654c 03bd
00000040: 8d28 aebd 18e3 35bc 7873 a9bb 8244 993c
00000050: 2d8a 02bd 4edb ba3a 5988 703d 65c2 983c
00000060: e381 70bd d0ba 73bb 66c0 54bd fcd0 38bc
00000070: 747a bc3c 9433 ed3c b338 9f3c 9517 aabd
00000080: 753a 81bd 5c60 b3bc 5308 94bb c8a5 febd
00000090: c097 06bd 9777 adbc 9ff5 63bb dd89 93bd
000000a0: 6d46 aebd 416c 063d d119 833c ac88 9fbd
000000b0: 42c7 0e3d 9025 a5bd 04e5 dc3c 7d40 653c
000000c0: e40c 76bd 3b31 f83b 856d 133d f6be 9abc
000000d0: 032f cb3c 0fd9 003d 0614 5ebd c69e 56bd
000000e0: deea 83bd 7f0e a6bd 54d5 bb3c 0a69 cc3c
000000f0: 2ce5 54bc 3e2a 52bd 940e 253d a073 153c
00000100: d8a3 863c 6be0 653c e271 46bd 4710 ad3c
00000110: 05ae 563c ad0b ad3c a4cf 60bc 63be e13b
00000120: ff8c 05bd 3180 86bc e9f4 babd 7bbd 7cbd
00000130: 5c2a 223d fdd0 a3bc 8fd7 a63d f222 953d
00000140: ec76 59bd 286c 89bc 8027 54bd 44bf 1f3d
00000150: cbd3 4ebd 37b8 8c3c 98f9 42bc 6cba 1b3c
00000160: 2f57 16bd af8d 46bd f4d7 2cbd b0c5 41bc
00000170: bd66 fbbc 0f85 61bd eda6 1bbd a9fd a2bd
00000180: 73c4 f43b a271 a2bc 5399 7f3c cf3a 29bb
00000190: 3ae5 183a 922d 153b d52c 96bc ea0d f3bd
000001a0: 8728 10bd a50a 82bd eb1d 90bd 67e4 a2bd
000001b0: f773 0b3d 4c8a 5abc d18f bfbc 8989 acbc
000001c0: 5c4b 52bd ee8e febc 6d01 fabc 7d37 a7bd
000001d0: 74e7 acbd cf82 cdbc 0373 fd3c d92f 35bc
000001e0: 6bef a9bc afe2 9e3c 70a9 78bd 52c2 68bd
000001f0: c7b4 97bd 2528 1ebd b59c 04bd 1fcc f4bd
00000200: 3c98 55bd e194 bdbc cd1a b9bd c78f 71bd
00000210: 2f59 82bd 444a 06be 217d 71bd 3416 cabd
00000220: 5fc1 cebc dda0 d73b f981 3fbd f1e8 0a3c
00000230: 9ff4 21bd d576 a5bc 857c dd3c b9f0 493c
00000240: 0d70 033c c283 12bd e7cf 68bd eaaf 37bd
00000250: b96a 80bd 3a9b f6bc b156 dabd 3091 f5bc
00000260: c970 b8bd 8f24 87bb f21a b6bb 13ef 843b
00000270: 97c0 e8bc d1e7 ad3c e36e 233a 5fa1 abbb
00000280: b865 bbbd e254 06bd aadd 4bbd 40bf 27bc
00000290: 6a8e 96bd a000 483d 49ae 69bd 4c5b 52bd
000002a0: 553f b03c 17d7 543d 573b 193d 5368 42bd
000002b0: 8940 32bd 1249 febc 6b7f bbbb 0836 16be
000002c0: cfa5 5ebd 7d19 b0bd 812a 0abd 1726 39bd
000002d0: 87a4 31bd a700 c1bc df78 debd b3d0 c1bd
000002e0: f11f b6bd 99c7 8abd 1574 ccbd c511 18be
000002f0: cc80 17be 58a0 f4bd 2d5d e0bc e3d3 803d
00000300: ba07 1b3a 0997 1bbd fbe0 643d 584a f33a
00000310: 4af1 0d3c b3df f7bc 435d ab3c 2d9f fc3b
00000320: ec44 21bd 850a 083b a3ab 90bd 5cf7 f4bc
00000330: de13 77bd 4cc5 c4bd 19a7 06bd 21f0 61bc
00000340: 5e59 30bc 3c17 b2bd 8a22 c8bc c7a9 71bc
00000350: 30ab b4bd 8fca a6bc 9690 88bd e0a9 263c
00000360: 4cb2 893c 4c5d a03c d06d 99bd ea08 013d
00000370: 03fd 86bd 097d 803c fe67 a3bd ceb2 f2bc
00000380: 2e64 713c 2a73 d9bc 670a 57bd 4914 4a3d
00000390: 8202 953c 5866 acbc 9560 a53c 7050 09bd
000003a0: 6dd3 9f3b cf86 373d 02a9 44bd e3c9 f0bd
000003b0: f1e3 eabd 5928 cabd 3467 1ebd ab92 dcbd
000003c0: 3afa 84bd 9c78 55bc 9d60 d2bd a584 2abd
000003d0: b245 83bd 006a ad3b b688 a4bc abbf 2ebd
000003e0: 414a 7dbd f4d7 4ebd 674b a7bd 6bd6 86bd
000003f0: 7f9b 85bd 274b d2bb f677 bcbc 82dd adbd
-0.07267067 -0.012675244 -0.09769734 -0.095181145 -0.11681208 -0.0031375848 0.0039233267 0.035303317
-0.017183557 -0.062646404 -0.110346556 -0.01050508 -0.06376442 -0.0041126087 -0.08025775 -0.032055277
-0.08503828 -0.011101507 -0.0051712357 0.018709425 -0.031870056 0.0014256032 0.05872378 0.018647382
-0.05871762 -0.0037190206 -0.051941298 -0.0112802945 0.023007609 0.028955258 0.019436216 -0.08305279
-0.06309978 -0.021896534 -0.004517594 -0.12433964 -0.032859564 -0.021175189 -0.0034783853 -0.0720403
-0.085095264 0.032818083 0.016003521 -0.0778974 0.034857996 -0.08063805 0.026964672 0.013992426
-0.060070887 0.007574228 0.035993118 -0.018889885 0.02480269 0.031457003 -0.054218315 -0.052397512
-0.06441282 -0.08108234 0.022928871 0.02495243 -0.012994092 -0.051309817 0.040297106 0.009121805
0.016435549 0.014030556 -0.04844845 0.021125926 0.013103013 0.021123732 -0.01372138 0.006889151
-0.032605167 -0.016418548 -0.09128744 -0.06170414 0.03959118 -0.019997114 0.08146583 0.07282056
-0.05309193 -0.016775206 -0.051795483 0.039000764 -0.05049495 0.017177684 -0.011900328 0.009504896
-0.03670424 -0.048474964 -0.042198136 -0.0118269175 -0.030688638 -0.055058535 -0.03800099 -0.07958538
0.0074697076 -0.019829575 0.01560052 -0.0025822406 0.0005832497 0.0022762758 -0.018331924 -0.11867888
-0.0351949 -0.063496865 -0.070369564 -0.079537205 0.03404614 -0.013338637 -0.023384007 -0.021061676
-0.0513414 -0.031074014 -0.030518258 -0.081648804 -0.08442584 -0.025086788 0.03093863 -0.011058771
-0.020744046 0.0193952 -0.060708463 -0.056825943 -0.074075274 -0.038612504 -0.03237601 -0.119529955
-0.052147135 -0.02314228 -0.09038315 -0.058975007 -0.06364667 -0.13114268 -0.058957223 -0.09867516
-0.02523869 0.0065804557 -0.04675481 0.008478389 -0.03953993 -0.020198265 0.027036915 0.012325459
0.00802232 -0.035770185 -0.056838896 -0.0448455 -0.06270356 -0.030103315 -0.10661066 -0.029976457
-0.09005887 -0.004124231 -0.0055574114 0.00405682 -0.028412146 0.021228703 0.000623448 -0.005237743
-0.09150261 -0.032795794 -0.049771942 -0.010238469 -0.07351382 0.04882872 -0.057050977 -0.0513566
0.021514574 0.05196294 0.037410107 -0.047462773 -0.043518577 -0.031040702 -0.0057219765 -0.14669049
-0.054357346 -0.085986115 -0.03373194 -0.04520234 -0.043369796 -0.023559881 -0.10862898 -0.09463634
-0.08892811 -0.067763515 -0.099830784 -0.14850529 -0.14795226 -0.11944646 -0.02738818 0.06290414
0.0005913932 -0.037985835 0.05587862 0.0018561585 0.008663485 -0.030258035 0.020918494 0.007709405
-0.03937237 0.0020758223 -0.07063987 -0.029903106 -0.06032168 -0.09607944 -0.0328742 -0.013790161
-0.010763494 -0.08695838 -0.024430532 -0.014749951 -0.08821714 -0.02036026 -0.066682026 0.010172337
0.016808651 0.019575737 -0.07491648 0.03150264 -0.06591227 0.015684621 -0.07978819 -0.029626276
0.014733357 -0.026544172 -0.052500155 0.04933575 0.018189672 -0.021044895 0.020187655 -0.033523977
0.004877499 0.044806298 -0.04801274 -0.11757257 -0.114692576 -0.09870977 -0.03867264 -0.10770162
-0.064930394 -0.013029244 -0.10272334 -0.041630406 -0.06409778 0.005292177 -0.02008472 -0.042663258
-0.061838392 -0.050498918 -0.08168679 -0.06583866 -0.06523799 -0.0064176503 -0.02300642 -0.08489515

conv2.bias f4 [96]
00000000: c02f 15bd f728 9fbd 779d 43bd cd4c 1fbe
00000010: 6e64 85bd 959d 59bd efa4 15be 3f6c 96bb
00000020: 2b0e 9dbd 2ef0 d1bd 50f6 8c3c d78e 9fbd
00000030: f955 04bd 1886 a83c ef05 e0bd 6032 14bd
00000040: a80f ccbd 3c69 c33b 75ce b7bc ff89 6dbc
00000050: 5ecb 6cbc b152 b13d a6cb 3ebc 4b22 1ebd
00000060: 96ac 2fbc b9b0 3dbd 2f46 2dbe d3bd 20ba
00000070: afc7 87bc 829f 79bd 1733 c83c 77ba adbd
00000080: aa35 1dbd 3392 413c fce2 a5bd f467 c6bd
00000090: 5807 29bd 84c0 d4bd f699 c5bd b237 b23c
000000a0: 2e55 dbbd a08f 89bd 1073 c2bd b359 12bd
000000b0: d483 05bd 28c3 253c a780 5c3a 11ee b0bd
000000c0: 86ad b5ba 5873 0abd 27db 4fbc ccca c1bd
000000d0: e88a d0bc 3e90 14be cb8f 87bd 5969 593c
000000e0: 9f01 f6bd 47da ba3b 650d 9d3d da17 0dbd
000000f0: 5193 84bd 504d b9bd 7f51 9abd 8936 e6bc
00000100: f2a1 ab3d 5ce9 d4bd 354e afbd a20d 1ebd
00000110: 44fd 9abd 4710 dc3d 4e61 f1bd cc50 f3bd
00000120: 7496 99bd 82f2 23be 456a 8bbd 6029 393c
00000130: 033c 8ebd ff20 d1bd 4bda aebc cc43 05bd
00000140: fbe9 1abd 4dd3 9abb 34ae 6b3b b0be 05bd
00000150: 8823 06be cb73 30bd e0f9 afbd af5e b439
00000160: 7132 1ebd a9cb 1cbd e202 9cbd 9dc9 8bbc
00000170: f3be e4bd 5852 19bd c67e 6ebd 2d8b 06bd
-0.03642249 -0.07771485 -0.047757592 -0.15556641 -0.06513296 -0.053128798 -0.14613698 -0.0045905407
-0.07668718 -0.10250889 0.017207295 -0.077909164 -0.032308552 0.020571753 -0.10938632 -0.036180854
-0.09963924 0.0059634726 -0.022437314 -0.014498233 -0.014452783 0.0865835 -0.011645233 -0.038606923
-0.0107223 -0.046311114 -0.16921304 -0.00061318016 -0.016574709 -0.060943134 0.024438424 -0.08482831
-0.038381256 0.011814642 -0.080999345 -0.09687796 -0.04126677 -0.10388282 -0.09648506 0.021755073
-0.10709606 -0.067168474 -0.09494603 -0.035730075 -0.032596424 0.01011733 0.00084115047 -0.086391576
-0.0013860918 -0.033801407 -0.012686527 -0.094625086 -0.02545686 -0.14508149 -0.06619223 0.013269746
-0.12012028 0.00570229 0.076685704 -0.034446575 -0.06473411 -0.09047949 -0.075350754 -0.028102176
0.08380498 -0.10396072 -0.08559839 -0.03858722 -0.07567838 0.10745292 -0.117861375 -0.11880645
-0.074994 -0.16010478 -0.06807379 0.0113013685 -0.0694504 -0.10211372 -0.021344325 -0.03253536
-0.037820797 -0.004724896 0.0035961987 -0.032652557 -0.13099492 -0.04307918 -0.08592582 0.0003440282
-0.038622323 -0.038280163 -0.07617737 -0.01706391 -0.11169233 -0.037432045 -0.05822637 -0.032847572

lstm1.weight_ih_l0 f4 [512, 96]
00000000: aca3 70bd 258b 22bc a0c8 4abd 92d5 25be
00000010: bb4c c6bd 003c e0bd 0cc7 a33b e033 3c3d
00000020: de11 bdbd f6fd 9ebc afbe b5bd d77f 703c
00000030: 9b35 d33c 0888 3fbd b1db 50bd 1222 06bd
00000040: 758d 4dbc 6ce8 f73c 4f5a 7ebd 9c69 39bd
00000050: 3e09 183d 8b23 953d 6959 163d e371 5dbe
00000060: cff7 1dbd 6a33 ae3d 6af5 41be cb1d 86bd
00000070: 0a53 7bbd b3ec c1bd ae4b 33bd b3d1 11be
00000080: 43ee e83c b37c 4dbd 327b 4939 5e98 edbd
00000090: e68c ad3c 00e0 e03c 4b64 2c3d 0bb8 d4bd
000000a0: 1fc9 04bd 5e5d 6dbc 26a4 03be c19f 49be
000000b0: 1964 8b3c 318c 7e3c 0e41 3fbd d1c2 11be
000000c0: 9fd6 efbd 642e 26be f512 d9bd 90cc 9a3d
000000d0: 76ae a8bc d3cb 03be ba73 6dbd 23c3 8cbd
000000e0: d637 8fbd d3e5 85bc c5d6 6a3d 5e65 c43c
000000f0: 0d74 82bd 7677 1f3d edb5 d1bd 8c0e c7bd
00000100: e51e 083e a9bf f9bc 2eeb 9cbb 79a7 b7bd
00000110: 95b0 b2bc 44e4 583e f100 fcbd ceaf 4abd
00000120: a0ad d9bd d56a 1cbe f319 44be 5f3b babc
00000130: 3eaf 12be ffa7 69bd c8f5 91bd 8e0b 21be
00000140: 4be0 9c3d 777c f8bd ce95 b7bd 0fe6 84bb
00000150: 0b27 3abc 5b1a 52bd 7bd6 a0bd 17f4 ca3c
00000160: 7164 17bd de4e ebbd 5788 a1bd 7113 28bd
00000170: 22c4 3fbe dfa9 b4bd 7f1b 80bd 8da6 0cbe
00000180: 7430 fcbb 5f9c 00bd cb3e 4dbc c7e7 b9bd
00000190: d031 a4bd d26a bc3b 9ea5 c4bd 138b 37bc
000001a0: 6d02 a43d 27a6 dabd f153 d13d a968 74bd
000001b0: d2cb c83c 72cd 9abc 7cae fabd a0a9 80bd
000001c0: 87f5 de3c 533b 133b ae4a 1bba dffb 8ebc
000001d0: 41c6 593d c1e8 743e 0558 c9bb c22d c83b
000001e0: 2e32 47bd d182 02bc d19b 93bd 39f7 2f3b
000001f0: 0c9e 063d 68e9 acbd 2d47 28bd 9fca 9cbd
00000200: 613a 733b bb6f 47bc 07a4 a83c 9100 47bd
00000210: a923 a73b 0e85 8f3d 01e8 cdbc b4f2 503d
00000220: 1749 3bbc a927 8a3c 2b72 e6bc 820a ccbd
00000230: e545 523d fd4e 83bc f9df 8ebd d9c4 a6bd
00000240: 6989 353d ae61 f0bd 5d73 c0bc 5c78 20bd
00000250: 6b88 65bb 2602 9cbd 7da5 70bd 7312 86bd
00000260: 8685 073d 2ef2 6bbc 354d a1bd e625 cd3a
00000270: 2d75 2abd 6993 a6bd 151c e6bd 2b9f 13bd
00000280: d48f 8e3e 67b4 85bd 46b6 82bc 2e8d be3c
00000290: 2549 dcbd cfd3 75bd e627 15bd 0911 423d
000002a0: 9713 8abd 4324 ef3c 4800 05be e3c1 3d3d
000002b0: dc28 153a 26f6 ed3d 436e efbc fe8d cc3c
000002c0: 3391 26bd cb6a 633d aa61 82bc fe0a e0bc
000002d0: f1a4 e8bd 4e79 00be 851a 4cbd 5d1e 07bd
000002e0: 8699 2d3c a286 1a3c eced a83c 3391 2b3d
000002f0: 565d 7cbd ba2b 0cbe bf83 bfba 8ddd 09bd
00000300: b86e d3bd b7dd cabb c9c2 eabd df04 07bd
00000310: a026 133b d750 47bd 86df 063d 6d6c 65bd
00000320: cbc4 e33d 4a29 fbbd 5ed2 06bd e257 113c
00000330: b119 e8bc f0dc 64bb 3304 5bbc a066 bfbd
00000340: 0fa0 dfbd 1430 4abd 9137 593d 1d3a d03c
00000350: c7d8 e0bb 0844 1d3e ed67 8bbd 298f e6bd
00000360: 6ca4 a7bd 3b69 063d 50fd 243d c8c5 84bd
00000370: 2967 873c 7aa3 ec3c ecb8 813c a424 73bd
00000380: 15f2 7fbc 7f21 1ebd 46ea e63d b596 163d
00000390: f178 183d dc27 f4bc 5ff2 28bd c05d eabd
000003a0: 2d19 78bd 41c3 9dbd 7caa c1bb 7498 a63c
000003b0: d663 73bb 936c 463c e11f 94bc 35c9 76bd
000003c0: fd60 b0bd c3f8 8e3b 7757 963d c0ae 18bb
000003d0: 27cb a83c 1d09 71bc 24d7 48bd 79ac 6fbc
000003e0: 4783 01be bb9f 6d3d 536f 1dbb 7b88 e33c
000003f0: a712 18bc 9bc5 b93c ecc2 adbc e93a 903c
-0.05874984 -0.00992087 -0.049507737 -0.16194752 -0.09682604 -0.10948944 0.0049980935 0.04594791
-0.092319235 -0.019408207 -0.08874261 0.014678917 0.025782397 -0.04676059 -0.050990764 -0.032747336
-0.012545933 0.030262195 -0.062097844 -0.045266733 0.03711819 0.0728217 0.036706362 -0.21625476
-0.038566407 0.085059 -0.18941274 -0.06548651 -0.06135849 -0.09468975 -0.043773346 -0.1424015
0.028433925 -0.05016775 0.00019214748 -0.11601327 0.02118535 0.027450562 0.042087834 -0.10386666
-0.032418367 -0.0144875925 -0.12855586 -0.19689848 0.017015504 0.015536354 -0.0466929 -0.14234473
-0.117108576 -0.16228634 -0.10599319 0.075585485 -0.020591002 -0.12870722 -0.057971694 -0.06873157
-0.06993072 -0.01634494 0.057333726 0.023974117 -0.06369791 0.038932286 -0.10239778 -0.097195715
0.13293035 -0.030486898 -0.004788778 -0.0896749 -0.021812716 0.21180826 -0.12304867 -0.049484067
-0.106288195 -0.15275128 -0.19150524 -0.022733388 -0.14324662 -0.05704498 -0.07126957 -0.15727064
0.07659968 -0.12133115 -0.0896412 -0.0040557454 -0.011361848 -0.051294666 -0.07853409 0.024774594
-0.036961023 -0.11489652 -0.07887333 -0.041034166 -0.18727162 -0.08821463 -0.062552445 -0.13735409
-0.0076962058 -0.031399127 -0.012527178 -0.09077411 -0.080173135 0.0057500387 -0.096019015 -0.0112025915
0.08008275 -0.10676222 0.10221089 -0.059670124 0.024511252 -0.018896792 -0.122403115 -0.062823534
0.027216686 0.002246578 -0.0005923909 -0.017454086 0.053167585 0.23916914 -0.006144526 0.0061089704
-0.04863184 -0.007965759 -0.07207454 0.0026850237 0.03286557 -0.08442956 -0.041083504 -0.076558344
0.0037113654 -0.012172635 0.020586027 -0.048584525 0.0051006866 0.070078 -0.025135042 0.05101271
-0.011431 0.016864615 -0.028130611 -0.09962942 0.051336188 -0.016028875 -0.06976313 -0.081430145
0.044320498 -0.11737381 -0.02349251 -0.039177284 -0.0035023938 -0.07617597 -0.058751572 -0.06546488
0.033086322 -0.014401002 -0.07876054 0.0015651553 -0.041615654 -0.08133585 -0.11235825 -0.036040466
0.27844107 -0.0652855 -0.015956055 0.02326068 -0.10756139 -0.06001645 -0.036415003 0.047379527
-0.06742018 0.029192096 -0.12988389 0.046327483 0.00056899874 0.11619215 -0.029227382 0.02497005
-0.040665817 0.055521768 -0.01591571 -0.027348991 -0.11359585 -0.12546274 -0.04982998 -0.03298794
0.010595685 0.009431513 0.020621262 0.04188652 -0.06161245 -0.13688555 -0.0014611407 -0.033658553
-0.10323852 -0.0061909813 -0.114629336 -0.03296363 0.0022453442 -0.04866108 0.032928012 -0.056011606
0.1112152 -0.12263735 -0.032915466 0.008871051 -0.028332563 -0.0034921728 -0.0133677 -0.09345746
-0.10919201 -0.049362257 0.053031508 0.025418336 -0.0068617794 0.15357983 -0.06806932 -0.112577744
-0.08185658 0.0328152 0.04028064 -0.06483036 0.016528683 0.028886545 0.015835248 -0.059361115
-0.015621682 -0.038606163 0.11275153 0.03676482 0.037224714 -0.029804163 -0.041246768 -0.11443663
-0.060570884 -0.07703257 -0.005910216 0.020336367 -0.0037138364 0.012110847 -0.018081607 -0.06025048
-0.08612249 0.004363151 0.07340901 -0.0023297518 0.020604683 -0.014711645 -0.0490333 -0.014628523
-0.12647735 0.05801366 -0.0024022653 0.02777504 -0.009281791 0.022677233 -0.02121111 0.017606216

lstm1.weight_hh_l0 f4 [512, 128]
00000000: ab20 8ebd 60a6 b13d 7f13 0dbd a707 05be
00000010: 6314 6dbd 271f 8fbd f7a3 cdbd 3e31 653d
00000020: 5c7f f3bd 4130 433b 6dd7 a5bd afb3 89bc
00000030: e6fa 05be 925f c33b f80a 0fbb 387b 42be
00000040: 9cab f3b9 00d0 883d 5544 d1bb 1dff dcbd
00000050: 0abb 80bd e102 de3d 6a3a 1c3e 6372 663d
00000060: c6d8 ca3b 0fbc 023e ac7e a8bd 32ee c4bc
00000070: 1df1 953c 75a3 b0bc aeff 523d 5bcd 093d
00000080: a9a5 253d a6fa ecbd 7904 e6bd 7a86 afbd
00000090: 885c b2bd 61c6 0e3e 9116 d73d 02e4 05be
000000a0: ff7a e53c 9e6d a03c b8d4 d8bd eefa ca3b
000000b0: 35ee 873d 2549 38bd 0025 f03d 3f8f 813d
000000c0: bb55 96bd c151 f13b 0ece 173c badc 03be
000000d0: 4ec5 c93c 09d1 c5bd 3778 353d ca7b 35bd
000000e0: 5a5d 88bd 19b2 263d fcec 26bd dc48 af3a
000000f0: f818 403d 78e2 1cbd 4432 06be 9066 c8bc
00000100: dda6 f83b 3e94 d53d 846a bebd ff99 c53d
00000110: f5f5 cbbd 86c0 cbbd 6383 c2bd c30c 49bd
00000120: b8b7 383d c41a 74bd 7da7 31bd a378 a6bd
00000130: e7b4 223e e9a6 febc 8d30 bc3c 3e2d 42bc
00000140: a288 6dbc 11ef 693b dd32 f3ba a7bc d3bc
00000150: 955e 873d 5aa6 cdbc 4032 d8bb 9f53 b2bd
00000160: 7f0d 57bd 5006 943d 74f8 ec3d cf52 1dbd
00000170: 39c0 cd3c 244e 643b 8f71 5dbd 1fb0 d5bb
00000180: 2c61 ffbc a1a9 7a3d 8cfc 98bd 1fcf 043c
00000190: 39ed b3bd da95 d83d ecfc ed3d 7691 40bd
000001a0: 0107 d2bd d12e 15bd b063 b83d c55b 663d
000001b0: 4cbc 823d 48a9 613d 9d01 033d 6b90 3fbd
000001c0: acdb 6b3d d071 cebd e1ea 9a3d e2c6 f7bd
000001d0: 8e4e 9b3d 7978 02be cd1d a3bc 3fac b33c
000001e0: dd1b 773d 6e00 e2bc aa80 993d 392b 7f3d
000001f0: 3098 ebbb 4c29 563c 2b83 db3d 0308 363d
00000200: 1ec8 603d 7852 daba 4375 dbbb a959 65bd
00000210: 024b 583d 4d6d 34bd 5304 eabd 5fd9 793d
00000220: 351f bfbd dfa7 823d 587c 2abc 9135 55bc
00000230: 32b5 ebbd fa71 273d 4b3f 903d 26dc f83c
00000240: 8627 c8bc 4cf2 993d 7bea 35bd 93f7 82bd
00000250: 6714 2d3b 82ea 8c3d 5ec3 cc3d fa32 213d
00000260: fb7f 103d ceb9 393c fc39 dc3c f7bd 173d
00000270: e93d 8abc 8945 99bc 1e0f 073d 6c79 47bc
00000280: 7239 83bc 0fae b6bd 8b14 993c 31bc ac3d
00000290: c1e8 ac3c c19d 1dbc 78c3 423d 57d3 3c3c
000002a0: d5b3 29bd 1965 253e 1638 92bd d498 bdbd
000002b0: 7a85 e7bd a6aa 14bd 52f4 783d 6e3c 503a
000002c0: bea3 b1bd 7239 0e3d 03d5 bd3d 7b3e 453d
000002d0: b305 913c d38d 033d 9f48 d23d 9364 07bd
000002e0: aaa5 373d 468a 973c 2e42 a13d 6e00 6a3d
000002f0: 6cc0 23bd 0d8d 9f3d ee1e c5bd a05a 08be
00000300: 45bd 203d 2277 dc3d 437b ccbd cf38 f1bc
00000310: 508f 79bd 4de9 c2bd 05f3 b8bd 1b04 97bc
00000320: df30 a23d dc45 0bbc 90e1 90bd 9490 e5bd
00000330: b080 e1ba c554 6cbd 9e85 8b3d 9f5c 1e3d
00000340: 4754 aa3d d7ad 41bd abd4 dbbc 7f09 e4bd
00000350: 8137 31bd b967 9ebd 49ad e83c 9aba de3d
00000360: cc48 253d d8af 133e c09b 803c 3e81 d8bd
00000370: 5bf9 bdbd 4454 f3ba 1b27 47bc df10 6b3d
00000380: bf5a c0bd 009b c03d b64d cc3c 6c63 00be
00000390: 1b79 ad3d 3e11 c23d da47 3ebd ebb7 3ebd
000003a0: bc23 333c 122c 9fbd d787 483d d1da bc3c
000003b0: d09a 5ebd 3739 e2bb 5051 0d3e 7e6a 13bd
000003c0: 370a 193c 4e64 aabd 1ec5 9cba 83bb 5dbb
000003d0: 9ead d63d 7740 703d cdc8 92bc f035 8cbc
000003e0: 5457 2d3d c664 0ebd b78e 2ebc 0813 dfbc
000003f0: 0d07 f73c e00d 0c3d bd73 9fbc 945d 6ebd
-0.06939825 0.08674312 -0.03444242 -0.129912 -0.05788077 -0.06988364 -0.100410394 0.055955164
-0.11889526 0.00297834 -0.0809773 -0.016809313 -0.13083991 0.0059623206 -0.0021826606 -0.18992317
-0.0004647643 0.06680298 -0.0063863196 -0.107908465 -0.06285675 0.10840393 0.15256658 0.05626143
0.006190392 0.12767051 -0.08227286 -0.024039362 0.018303448 -0.021562317 0.051513366 0.033643108
0.04044119 -0.11571245 -0.11231322 -0.08570571 -0.08709055 0.13942863 0.10502351 -0.1307526
0.02801275 0.01958352 -0.10587448 0.006194464 0.06637231 -0.04499163 0.11725807 0.0632615
-0.073405705 0.007364482 0.009265436 -0.12877169 0.024630215 -0.09659011 0.0443041 -0.044307508
-0.066584304 0.04069719 -0.04075335 0.0013373154 0.046898812 -0.038301915 -0.13105112 -0.024462968
0.007588251 0.104286656 -0.0929766 0.09648513 -0.09959022 -0.0994883 -0.09497716 -0.049084436
0.045097083 -0.05959584 -0.04337262 -0.081284784 0.15889321 -0.031085448 0.02297237 -0.011851607
-0.014497908 0.0035695473 -0.0018554587 -0.025846792 0.06609837 -0.025103737 -0.006597787 -0.08707356
-0.052503105 0.072277665 0.11570826 -0.03840905 0.025116073 0.0034836615 -0.054063376 -0.0065212394
-0.031174265 0.061196927 -0.074700445 0.008106022 -0.08785481 0.10575457 0.11620507 -0.047013722
-0.10255242 -0.0364216 0.09003389 0.056239862 0.06383571 0.05509308 0.03198396 -0.046768587
0.057582542 -0.10080302 0.07564331 -0.12098481 0.075833425 -0.12741269 -0.019911671 0.02193272
0.060329307 -0.027588096 0.07495244 0.06229708 -0.007189773 0.013071369 0.10718378 0.044441234
0.054878347 -0.0016656658 -0.0066973283 -0.05599371 0.052805908 -0.04404955 -0.11426606 0.060998317
-0.09332124 0.06379675 -0.010405622 -0.0130132595 -0.1150917 0.04088018 0.07043322 0.030378412
-0.024432909 0.075169176 -0.04441307 -0.06394877 0.0026409866 0.06880666 0.09998201 0.039355256
0.0352783 0.011335803 0.026883118 0.0370464 -0.016875224 -0.018709915 0.0329734 -0.012174945
-0.016018603 -0.08919918 0.018686553 0.08434332 0.02110708 -0.009620131 0.047549695 0.011524997
-0.041431267 0.16151847 -0.07139604 -0.09257665 -0.113047555 -0.036295556 0.060779877 0.0007943575
-0.086738095 0.034722753 0.092691444 0.04815529 0.017702913 0.032117676 0.102677576 -0.0330549
0.044835724 0.018498551 0.07873951 0.057129316 -0.03997843 0.07790575 -0.0962504 -0.1331582
0.039243 0.1076491 -0.09984448 -0.029446034 -0.06092769 -0.09517155 -0.09030727 -0.018434575
0.07919478 -0.0085005425 -0.07074273 -0.11209217 -0.001720449 -0.05769803 0.06812595 0.03866255
0.08316856 -0.047284927 -0.026834806 -0.11134624 -0.043265823 -0.07734627 0.028402941 0.10875435
0.040352628 0.14422548 0.015699267 -0.10571526 -0.092760764 -0.0018564542 -0.01215532 0.057389136
-0.093923084 0.09404564 0.0249394 -0.12537926 0.08470365 0.09475945 -0.04645524 -0.046562117
0.010933813 -0.077720776 0.048957672 0.023053559 -0.05434686 -0.006903793 0.1380055 -0.03599023
0.009340814 -0.08319913 -0.0011960601 -0.003383369 0.104823336 0.05865523 -0.017918015 -0.017115563
0.04231961 -0.034764074 -0.010654143 -0.027230754 0.03015473 0.03419292 -0.019464368 -0.05819471

lstm1.bias_ih_l0 f4 [512]
00000000: afc6 05be c555 0dbe aea9 21bd 2203 2dbe
00000010: 773e b1bd 85c0 cebc 480d 0cbe bf9a 21be
00000020: e8f1 e2bd 77ae bdbd 473d 00be a4ff 07be
00000030: 201c f1bc 0d48 0fbd 305d 7abd 5d92 2abe
00000040: 29f2 34be d578 f1bd 860b 98bd 1a6a 92bd
00000050: 0452 06be f86b 3abd 7b89 1fbe e3b2 a7bd
00000060: 5753 283d d7b1 1fbe a80d 90bd 2cda f1bc
00000070: 942a f5bd a966 27be d488 13be 7a50 2cbd
00000080: e13f 13be a784 46be 35dc bcbd 33a4 20be
00000090: f2d3 0dbd fd29 a8bd 190a 55be 1409 40bd
000000a0: d6b9 9dbd 26ca 5cbd e972 3dbc a73d 0b3d
000000b0: 309d 6abe 21a7 90bc 5803 2fbd 8878 f0bd
000000c0: 0e75 1fbd 16a9 5939 b9bd c4bd 3148 e0bd
000000d0: c521 abbd d993 cdbd 5cb7 cdbd 0e9b 03bd
000000e0: 6cb3 11be 8aa4 1abe 26b2 243c 97b5 89bd
000000f0: e787 213d c43b efbd c459 b1bc 728f 54be
00000100: 0c52 24be abac 733a 6254 3d3d d968 84bd
00000110: 1028 34bb 942c 923c 3f67 09be d204 9cbd
00000120: a457 adbd 6170 06be a248 8cbc de3c aebd
00000130: 3349 49bd 1237 bdbd 6fab 8fbd 5f10 c1bd
00000140: a6d6 b1bd e4f4 2dbe 11cb 25bd 7d58 c6bd
00000150: 7127 1abe 5f1f 21bd 6c55 cbbd f2a8 03be
00000160: 362a 8b3c d739 8dbd 3a42 16be 4f4d 17bd
00000170: 2126 00be 9ad2 9fbc 5c88 0fbe 5263 06be
00000180: c592 c6bd f9ef 58bd 3cbd f2bd 8e91 30be
00000190: 9339 f93c f352 a5bd eb8c eabd 1cdd 01bd
000001a0: f519 00be 099d 02be 6b55 0dbe 3a70 74bd
000001b0: c149 3ebd afa0 23be e300 06be 9569 7fbd
000001c0: cefb ddbd e8dd b0bd e839 26be 9c1b dcbc
000001d0: c242 d3bb 3028 ffbd eadf 71bd f2aa 4a3d
000001e0: 50d9 debd 006c 84bd fa46 14be 202d cabc
000001f0: 900f 993c 5086 bbbc 4132 1b3c bc7b 3bbe
00000200: cce3 27be 1404 dc3b 38ac cbbc ee6b 27bd
00000210: e52d 01be e1be 653c 12c4 8e3c 9144 38be
00000220: 60b1 57bd cbf6 03be b277 8bbe 61a5 e0bd
00000230: cfb5 2fbe b829 30be b680 2abd 01e4 fabd
00000240: c603 fabb 4cb0 10bd dc09 39bd b6ba b6bd
00000250: e31d 02be e94c fcbd 62f2 2dbe 67f6 d8bd
00000260: 6a85 eabd d355 e1bd 7e25 4dbd 1a8a c93c
00000270: d0bb ebbd 0271 98bd 389c 41be 5524 33bd
00000280: d713 e7bd 357e 05be 06cd dc3b 2095 95bc
00000290: d606 f0bd fb91 d4bc a26e 7fbd adb0 5a3c
000002a0: ffda 5ebd eb48 1abe 8cd3 27bd 4a4e 95bb
000002b0: b902 8dbe e7fa bdbd 2854 85bb 4f1d c6bc
000002c0: a782 83bd 08a6 f6bd 1ba1 68be 5dce 46be
000002d0: 816f 08bd 188b cc3b c22d 13be b742 3d3b
000002e0: 5fde 82bb 859b 61be e77a 28bd 28b1 85bc
000002f0: 858b e6bd f582 41be 931b 06bd 0600 28be
00000300: e084 e1bd b9ff 58bc 4248 3bbd aabd f2bd
00000310: 4260 9bbd 2bdf 8cbd b8e1 a03d 1396 f0bd
00000320: f5be 72bd 7468 eebd 2635 b9bd e689 933c
00000330: 4d4d 05bd 9bfa ebbd 26c4 18be 09df 89bd
00000340: 97e2 28bd b19f 02be 27d5 0ebd cd25 e8bd
00000350: ec06 b4bd 40e8 27be 78a7 a2bd f70e 0ebe
00000360: f253 9fbd 01f6 203d 903f 45be 5a42 45bd
00000370: 43c8 83be 37c9 31be fc1b c83c 8560 45bc
00000380: 0548 87be 4e49 c1bc 117e 75be c398 8cbd
00000390: 7daa cebc a837 ddbd d74d 61bd d126 3cbd
000003a0: e4f6 b3bd 82bb e6bd 75ad d5bd 9db1 b3bd
000003b0: cc65 00be ba01 a5bc b742 acbd a790 00bd
000003c0: 9945 f4bd d9f6 cebd 13df 71be 1f7a 04be
000003d0: f0ab 8bbd 222a a3bd 8cc2 08be a5b2 1fbe
000003e0: 735d 1bbe a5a0 88bd b5fd 51be 3791 aebd
000003f0: 95a7 22bd 4f67 45bd 6904 55bd 894d f3bc
-0.13064073 -0.1380225 -0.03946846 -0.16895726 -0.08654492 -0.025238285 -0.13676941 -0.15781687
-0.11081296 -0.09261792 -0.12523375 -0.13281113 -0.029432356 -0.034980822 -0.061124027 -0.16657396
-0.17670502 -0.11790625 -0.07424073 -0.071491435 -0.13117224 -0.045513123 -0.15579788 -0.08188417
0.041095104 -0.15595184 -0.07033855 -0.029522978 -0.11971012 -0.16347755 -0.14407665 -0.042068936
-0.14379837 -0.1938654 -0.09221689 -0.15687637 -0.034625955 -0.08211134 -0.20804633 -0.046883658
-0.07701461 -0.05390372 -0.011563041 0.033994343 -0.22911525 -0.017657818 -0.0427278 -0.117417395
-0.03892999 0.00020757722 -0.09606499 -0.109512694 -0.083560504 -0.10037965 -0.10044739 -0.032130294
-0.142286 -0.15101829 0.0100522395 -0.06724089 0.039436247 -0.11681321 -0.021649249 -0.20757845
-0.16046923 0.0009295444 0.04622305 -0.064653106 -0.00274897 0.017843522 -0.13418292 -0.07618107
-0.08463982 -0.13128807 -0.017124478 -0.08507703 -0.049142074 -0.092390195 -0.0701512 -0.09426951
-0.08683519 -0.1698795 -0.040476862 -0.096848466 -0.15054108 -0.03933656 -0.09928402 -0.12857416
0.016987901 -0.06895798 -0.14673701 -0.03693896 -0.12514545 -0.019509602 -0.1401686 -0.13123825
-0.09695963 -0.05296323 -0.118525 -0.17243025 0.030422961 -0.08072462 -0.11452659 -0.031705007
-0.12509902 -0.12755217 -0.13802116 -0.05967734 -0.046457056 -0.15979265 -0.13086276 -0.06235655
-0.108390436 -0.08636075 -0.16233027 -0.026868634 -0.006447167 -0.12458837 -0.05905143 0.049479432
-0.10881293 -0.06465912 -0.144802 -0.02467972 0.018684179 -0.022891194 0.009472431 -0.1830892
-0.16395491 0.0067143533 -0.024862394 -0.040874414 -0.12615164 0.01402256 0.017427478 -0.17994906
-0.052659392 -0.12887113 -0.27239758 -0.109690435 -0.17159198 -0.17203414 -0.041626655 -0.122505195
-0.0076298444 -0.03532438 -0.04517542 -0.08922331 -0.12706713 -0.12319357 -0.16986993 -0.105938725
-0.11451228 -0.11002698 -0.050084583 0.024601985 -0.11510432 -0.074434295 -0.18907249 -0.04373582
-0.11283081 -0.13036425 0.006738308 -0.018259585 -0.11720054 -0.025948515 -0.062361367 0.013347787
-0.05440807 -0.15066878 -0.04097323 -0.004556452 -0.2754114 -0.092763714 -0.00406887 -0.024183897
-0.06421404 -0.12043387 -0.22717707 -0.19414659 -0.033309463 0.006242167 -0.14372924 0.0028878876
-0.003993794 -0.22031982 -0.041132834 -0.016319826 -0.1125708 -0.18897612 -0.03274114 -0.16406259
-0.11011672 -0.013244563 -0.045723207 -0.11852582 -0.07586719 -0.068785034 0.078555524 -0.117473744
-0.059264142 -0.116410166 -0.090433404 0.018010091 -0.032544423 -0.115224086 -0.14918575 -0.06731994
-0.041231718 -0.1275623 -0.034871247 -0.11335335 -0.08790383 -0.1639719 -0.079420984 -0.13872896
-0.07779683 0.039297108 -0.19262528 -0.04815898 -0.25738725 -0.17361914 0.024427406 -0.012046938
-0.26422134 -0.023594525 -0.23973872 -0.068650745 -0.02522778 -0.10801631 -0.055005874 -0.045935456
-0.08787325 -0.11266233 -0.10433475 -0.087741114 -0.12538832 -0.020142425 -0.08411162 -0.03138795
-0.11927337 -0.10105676 -0.23620252 -0.1293721 -0.06819904 -0.079670206 -0.13355464 -0.15595491
-0.15172367 -0.066712655 -0.20506938 -0.08523791 -0.0397106 -0.048194226 -0.05200616 -0.029700058

lstm1.bias_hh_l0 f4 [512]
00000000: 1e9f 04be 5b6a 98bd c492 07be c5c4 6cbc
00000010: 2aac 46be 4b1d 06be d4a2 8dbc 105a 34be
00000020: fb52 05bd 6d8c 9a3c b397 12be 1cd7 24bd
00000030: f0f5 c4bd 4012 80bd b8f7 c5bd f04e 4dbd
00000040: bf73 1ebe bafb 00bc a8d5 d0bd 9ed0 30be
00000050: 679a 2cbe 23d0 0dbd 5dc2 30be e5fb 993c
00000060: c9f7 53bd 0646 cdbd 8ddd 1dbe 6fce e9bc
00000070: c92c 45be 39af 83bd fc64 19be 0126 87bd
00000080: 8fe3 fbbc 45a7 02be 5aad 20be 7a34 05be
00000090: 6b21 f1bd 2c68 13be c85b 17be fbbd b13c
000000a0: 6db7 2dbe 9cdd 08be a6e4 1bbe 2e5f 6bbd
000000b0: a4be 08be e69f 27bd 0575 cdbb 9020 b5bd
000000c0: 043e babd 42a6 70bd 5734 3ebe 4776 fabd
000000d0: 33d7 fabd b57d 25bd 9c5e f1bd a94b 7abd
000000e0: 4ac7 02be 6d0f 19be 4802 f6bd e96c a1bd
000000f0: d804 83bd c468 10be 1f90 1ebe e41a 56be
00000100: 7158 d8bd 040a 1f3d 3d5d afbd 7d42 eebd
00000110: 0570 45bd 09ae 08bd 3c1b 63bd 454c a43c
00000120: 994c 313d 4ac0 22be c5ea 13bd e242 99bc
00000130: ffeb f5bc 076f efbd d58a 8cbd 3e77 71bd
00000140: 10e0 cabd 01e9 f3bd 377f c5bb 890b b8bd
00000150: e4e7 2fbd e699 ebbd 722a e5bd d7a7 56bd
00000160: 9074 b03b 0c2e 5ebd 774b 1ebe 26a3 11be
00000170: 6795 a1bd a272 8ebc 0ba6 8abd e42e 03be
00000180: 62f7 2cbe c371 1a3b d8cd 74be ea3f 4abe
00000190: b3bf 033d 135a a0bd baeb 48bd 35fe 7fbd
000001a0: 702d 21be 21b0 87bd fff1 debd e82c 09bd
000001b0: 6da6 2bbe 47bf b1bd a8ab 25be 73c9 1cbe
000001c0: 7659 20bc d221 34be a530 10be 3a43 22be
000001d0: bd20 86bd 1644 e8bd 4a16 b2bd 15b4 c43c
000001e0: ac16 65bd f12d 913c 66a7 28be b146 aabd
000001f0: 778f 00bc e8fd 70bd ddeb 353d ad83 a2bd
00000200: 053f 4fbd 8b13 0abb 0b70 c4bd aebc 17be
00000210: cd15 b2bd f868 11be 6ebf dabb e9e6 81be
00000220: 2ae9 14be 578a 0cbe ae49 57be 74af 3bbd
00000230: 7112 50bd 7b6e 75bd 55ec a73c 0fa6 81bd
00000240: c4d8 b3bc 24b3 1bbe bad4 99bd 145b 04be
00000250: 9255 aabd 1da4 28be bda2 11be f416 e5bc
00000260: 2c9a a8bd 5941 81bd 81d7 99bd aa91 fcbd
00000270: 757a 0cbe 426e 12be 03ed a7bd d000 0cbe
00000280: 4f89 b1bc f271 70bd 7a8f 75bd 8cc9 eabc
00000290: c20c d7bd 7702 18bd dd69 b6bd 96e5 a4bd
000002a0: a3ce 63bd 8816 0cbe a755 25be ab4f 87bc
000002b0: 243b 80be d9b6 afbd 48b6 0bbe 52d3 213d
000002c0: f70d 47be c3b5 17bd d367 17be 4301 aabd
000002d0: 7d67 62bc cb69 a6bd 4953 78bd 3d11 ce3a
000002e0: 43d6 a0bd c37c 0cbe 5f15 dbbd b810 143d
000002f0: 3662 9eb9 c97f 33be cc2a 39bd 40dc 29be
00000300: 66ab 64bd 7a3b 0ebd 6a2d 8cbd a77a 11be
00000310: 6659 aebd 36d4 7cbc 1d5f 31bd 22ff 1c3d
00000320: 6d27 b0bc b12a b73b b891 f4ba 50ef ddbd
00000330: 4cdc 0fbe 478a c7bd 06e1 61be b515 89bd
00000340: fbc8 0cbe 27c3 10be c9ef 1abe 1edd 36be
00000350: 54c3 c5bd 6440 26be 81c3 09bd 9a2f 22bd
00000360: 5441 cbbd 6f1f 64bd a5d9 1fbe dab4 0ebe
00000370: d0cb 1abe 4dd4 abbc c514 19bd 8d2b 85bd
00000380: 6d1b 5ebe 767d 16bd e782 3abe b74a 3bbe
00000390: 2e8f f4bd ac32 d9bd f4b5 0dbe f6a2 42bc
000003a0: 56ca d3bd 4f97 0bbe 0380 cdbd e319 60bc
000003b0: 854c a33c 5ab3 e4bd 2582 f6bd fb6b dabd
000003c0: f7bf 19be 5036 56bd 0b8d 22be 75b6 d1bd
000003d0: ae0b b0bd be54 aabd c9df 31be 15fb 9abd
000003e0: 70e7 59bd 9526 b6bd 45d8 a7bd 600a 8c3c
000003f0: 2864 10be 0596 b6bd 1079 dfbd ff8f efbd
-0.12951323 -0.07442161 -0.1323958 -0.01445121 -0.19401613 -0.13097112 -0.017289557 -0.17612481
-0.03254984 0.018865788 -0.14315681 -0.040244207 -0.09617221 -0.06253481 -0.09666389 -0.05012411
-0.15473841 -0.007872516 -0.10197002 -0.17267081 -0.16855775 -0.034622323 -0.17261644 0.01879687
-0.05174998 -0.100231215 -0.15416546 -0.028540818 -0.19255365 -0.064299054 -0.14979929 -0.065990455
-0.030748157 -0.12759121 -0.15691128 -0.130083 -0.11773952 -0.14395207 -0.14781106 0.021697035
-0.16964503 -0.13365787 -0.15223941 -0.057463817 -0.13353974 -0.040923975 -0.0062700533 -0.088441014
-0.0909386 -0.058752306 -0.18574654 -0.12229591 -0.12248077 -0.040403087 -0.117856234 -0.06110731
-0.12771335 -0.1494729 -0.12012154 -0.07882101 -0.06397408 -0.14102465 -0.15484665 -0.20908695
-0.10563744 0.03882791 -0.08562706 -0.116337754 -0.048202533 -0.033369098 -0.055445895 0.0200559
0.04328594 -0.15893665 -0.036112566 -0.01870865 -0.030019758 -0.11691099 -0.068624176 -0.05895161
-0.09906018 -0.11909676 -0.006027128 -0.08986575 -0.042945758 -0.11503963 -0.111897364 -0.05240616
0.005384989 -0.054243132 -0.15458475 -0.14222392 -0.07889824 -0.017388646 -0.067699514 -0.12810856
-0.16891244 0.0023566342 -0.23906648 -0.19750944 0.03216524 -0.0782968 -0.04905293 -0.06249829
-0.1573999 -0.06625391 -0.10886001 -0.03349009 -0.16762705 -0.086790614 -0.16178763 -0.15311222
-0.009786954 -0.17591026 -0.14081056 -0.15845957 -0.06549213 -0.11341111 -0.086956576 0.024011651
-0.055929825 0.017722102 -0.16470107 -0.083142646 -0.007846705 -0.058835894 0.04441439 -0.079352714
-0.05059721 -0.0021068777 -0.09591683 -0.1481807 -0.086955644 -0.14200199 -0.006675652 -0.25371483
-0.1454207 -0.13724647 -0.210242 -0.045821622 -0.050798837 -0.059919816 0.020498434 -0.06330501
-0.021953948 -0.15205055 -0.075112775 -0.12925369 -0.083171025 -0.16468854 -0.14222236 -0.027965046
-0.08232531 -0.06311292 -0.07511807 -0.12332471 -0.13718589 -0.14299873 -0.08199503 -0.13672185
-0.02167192 -0.058702417 -0.059951283 -0.028660558 -0.1050048 -0.037111726 -0.089069106 -0.080516025
-0.055616986 -0.1368047 -0.16145955 -0.01651748 -0.2504512 -0.08579797 -0.13643754 0.03950817
-0.19438921 -0.037038576 -0.147857 -0.08301022 -0.013818619 -0.08125647 -0.060626302 0.001572169
-0.07853367 -0.13719468 -0.106974356 0.036148757 -0.0003020928 -0.17529215 -0.04520683 -0.16587925
-0.05582752 -0.03472469 -0.068445995 -0.14206944 -0.08513145 -0.015431454 -0.043303598 0.03832925
-0.021503175 0.005589806 -0.001865915 -0.10836661 -0.1404888 -0.09743171 -0.22058496 -0.066935934
-0.13748543 -0.14136945 -0.15130533 -0.17857787 -0.096563965 -0.162355 -0.033633713 -0.039596178
-0.0992457 -0.05569404 -0.15610369 -0.13936177 -0.15116811 -0.020975256 -0.037373323 -0.06502447
-0.2169015 -0.036740743 -0.18213998 -0.1829022 -0.11941372 -0.10605368 -0.13838941 -0.011879673
-0.10341327 -0.13631938 -0.10034182 -0.013678047 0.019933948 -0.11167021 -0.12036542 -0.10665127
-0.15014635 -0.05229789 -0.15874116 -0.10239879 -0.08595978 -0.083169445 -0.17370524 -0.07567421
-0.05319923 -0.08894078 -0.08195547 0.017094791 -0.14100707 -0.08915333 -0.10911763 -0.11697387

lstm2.weight_ih_l0 f4 [128, 128]
00000000: cbdb e33d e3e9 b6bd 7755 83bc 91c6 1a3e
00000010: 7357 473d f2f9 b33d 9d54 1c3e 479a b03d
00000020: cc34 633d 9c47 533c bcc4 54be b35f 17bd
00000030: f6b1 b6bd 1f98 d8bd d10c febd 0d43 c4bc
00000040: cf76 63bd 6b2b 1c3e c051 e5bd 2f7e 6a3d
00000050: fd71 4dbd b1a5 0cbe 215d 61bc e57b 7cbb
00000060: 378e b2bd 3222 d73b 6a74 923d b51c 1d3e
00000070: 702c 0c3e bf50 67bd 1b62 afbd 510e 8c3d
00000080: f7a0 25be c8ab a1bd 3be6 20bd 8702 d9bc
00000090: 7f62 82bd 9f31 203d 046d 0ebc 1c88 053e
000000a0: 3954 533e 5be8 d43d 1c04 853c b287 b3bd
000000b0: 9043 ef3c 277e 9ebd b757 39be 141f 723d
000000c0: cf4f 66be 9e1e dc3d 02c5 f0bd 1985 94bd
000000d0: 533f debd b66d 1cbe 484a 08be 5182 10be
000000e0: 2eab d1bd f7e4 57be 8b78 4dbd 1fe1 3bbd
000000f0: d36c 3d3d 822c adbd eb76 05be c5c5 403e
00000100: 0ad9 f8bd e0a8 0bbe c6eb 763c 5875 26be
00000110: 4223 1abd 176d 8ebd b40d 39be a95d 6a3d
00000120: 9992 acbd c21a 8f3d 208f cf3c f5e5 13bd
00000130: 4807 14be 32e8 0cbc eb7d e43d b960 163e
00000140: 781d ed3c d8ae 36be 4d03 6cbd c8e6 6a3d
00000150: a163 fb3d f2b7 e93d daea edbd 2afa 29be
00000160: 2922 913d 24b4 c7bd 413a 06be 588a 7bbc
00000170: 0c9a 8d3e 861e af3c 573b 2cbd 1d9f 5f3d
00000180: 12ae 1dbe ff2b 99bc 5a5e 273e 2732 303e
00000190: ce3a 293e 2941 30be 32f7 403e 0b7e 6b3b
000001a0: 09f8 8c3e 2e9e 713d 8b47 9a3b f09e 523e
000001b0: 2e0b 4fbe 7691 b63d a539 23be d245 17bc
000001c0: bb62 233e f103 b03d 65f8 fa3d d00d 643c
000001d0: bca6 9b3d 56cf b33d cbee 553e 6793 58bc
000001e0: 865e 463b 0331 fabc c60d 10be 561d 0d3d
000001f0: 7bc0 74be b5e3 b6bd ef8e b6bd 8a5e e5bc
00000200: 4aa4 64bd fe5d b4bc 8b30 26bd aec6 c3bc
00000210: 8e55 81bd 3f35 52bd 0c46 e83d edb6 08be
00000220: b5e4 d8bd dad9 03be e3e5 fdbc 4104 d93d
00000230: 163c 723d 935b 323e d5ae fb3d 3006 73bd
00000240: 976f 6b3d 4519 f73c e745 743d e902 8dbc
00000250: 453c 2e3e 4d9b e9bd 7aaa 2b3c fdb9 b1bc
00000260: c573 e6bd d0a0 b03d f333 2d3e e3e0 083d
00000270: 7dae 723c e121 223d bd8b f23d c541 153c
00000280: 411d fa3d b486 c23b da19 1e3e e1ae 2a3d
00000290: a767 8cbc 50ea 383e bf83 313e 0216 2cbe
000002a0: 2e91 553d 51d1 c2bd 151a 82bd 7289 1f3d
000002b0: 556f 883d a72d a83d d9b3 2f3e 22b0 1abe
000002c0: 58b9 07bd ddab 19bd b20f d53b e52c 1b3e
000002d0: a3d2 99bd cf85 fabd 048c 04be 14ce 7d3c
000002e0: a971 2a3e f07f 473d 3747 16be 0574 00bd
000002f0: d4aa 113d cdeb 07be 9966 a3bc 88b4 803d
00000300: 8189 2dbe 3496 2c3e bb82 59bc c33e 8abd
00000310: 2015 71bd e0ae 923d 7d7f 693c 482b cf3d
00000320: 6318 09be 36dd e43d e675 eabd db10 903d
00000330: 30dd 593e 961c 8a3d cfaa 213d 5a5b 9cbd
00000340: 623f d0bc 7093 2f3e 36e5 673d c618 f03d
00000350: db56 16be 3b15 e6bd 90fb 853d 30ea 3e3e
00000360: 4673 b53d dc26 d0bd 7bd4 543e d6a7 2ebd
00000370: 9c3a c63c e13d 32be becd 71bc 2770 5a3c
00000380: 9db7 003e facf 31bd 3293 78bd 0944 04be
00000390: a2b8 a1bc 1c9e 86bd 80e0 f6bd 7362 0fbe
000003a0: 4d78 0d3e 3118 eebd 7857 fa3d 9955 c7bd
000003b0: 9479 49be ab4a c0bd f466 f3bd 2de2 cdbd
000003c0: 9302 d63d 3583 abbd b723 cdbd 3691 0d3e
000003d0: 01ec 5e3e 3419 ab3d e38c 19be aa5e 113e
000003e0: 8ac2 e23d c38d 24bc 732e bd3d f590 1c3e
000003f0: e3e1 47be 6cbd e73d 2d7a 433d 23ec b53d
0.111259066 -0.08931329 -0.016031964 0.1511481 0.048667382 0.08787908 0.15266652 0.08623176
0.055470273 0.012895491 -0.20778173 -0.0369565 -0.08920662 -0.1057589 -0.12404788 -0.023957754
-0.055533227 0.15250938 -0.11197233 0.057249244 -0.050157536 -0.13735081 -0.013755114 -0.0038525995
-0.087185316 0.0065653557 0.071511105 0.15342982 0.13688827 -0.05647349 -0.08563634 0.06838668
-0.16174684 -0.07894093 -0.039282065 -0.026490463 -0.06366443 0.039109822 -0.008692984 0.13040203
0.20637597 0.10395881 0.016237311 -0.08766116 0.029207021 -0.077389054 -0.18099867 0.05911167
-0.22491382 0.10748027 -0.11756326 -0.07251949 -0.10851922 -0.15276226 -0.13309586 -0.14112212
-0.10237728 -0.21083437 -0.050163787 -0.04586899 0.04624636 -0.08455755 -0.13033645 0.18825443
-0.12150772 -0.1363864 0.015070861 -0.162557 -0.03763128 -0.06954401 -0.18071634 0.057218228
-0.08426399 0.069875255 0.025336802 -0.036107976 -0.14455903 -0.008600282 0.111568294 0.14685334
0.028944716 -0.17840135 -0.057620335 0.057348996 0.12274862 0.11412038 -0.1161706 -0.16599336
0.07086594 -0.09751156 -0.1310816 -0.015352808 0.2765659 0.02137686 -0.04204878 0.0545951
-0.15398434 -0.018697737 0.16344586 0.17206632 0.16526338 -0.17212357 0.18844298 0.0035933282
0.27532986 0.058988743 0.0047082356 0.20568442 -0.20219108 0.08914463 -0.15939958 -0.009232955
0.15955631 0.08594502 0.12254409 0.013919309 0.076001614 0.087797806 0.20891874 -0.013218737
0.0030268743 -0.030540949 -0.14067754 0.034451805 -0.2390155 -0.089301504 -0.08913981 -0.027999181
-0.05582074 -0.022017475 -0.040573638 -0.023898449 -0.063151464 -0.05132031 0.113414854 -0.1335103
-0.105904974 -0.12876073 -0.030993408 0.105965145 0.059139334 0.17417745 0.12289206 -0.059332073
0.057479467 0.030163417 0.059636977 -0.017213302 0.17015179 -0.114065744 0.0104776565 -0.021695131
-0.1125255 0.086244226 0.16914348 0.033417594 0.014812109 0.03958309 0.11843059 0.009109919
0.12212611 0.005936468 0.15439549 0.041670684 -0.017139269 0.18058133 0.17335413 -0.1680527
0.052140407 -0.0951258 -0.06352631 0.038949437 0.0666186 0.082118325 0.1715845 -0.15106252
-0.033135742 -0.037517417 0.006502115 0.15153845 -0.07510879 -0.12232553 -0.12944037 0.015491027
0.1664492 0.048705995 -0.14675604 -0.031360645 0.035563305 -0.13273545 -0.019946383 0.062844336
-0.16946985 0.16854173 -0.0132757975 -0.06750252 -0.058858037 0.07162261 0.014251587 0.10115677
-0.13388209 0.11175005 -0.114482686 0.07034465 0.21275783 0.067437336 0.039469536 -0.076346114
-0.025420848 0.17146087 0.056615077 0.11723475 -0.1468157 -0.11234518 0.06542122 0.18644023
0.08859877 -0.10163662 0.2078418 -0.04264053 0.024197869 -0.17406417 -0.014758525 0.013332403
0.12570043 -0.043411233 -0.06068725 -0.12916578 -0.01974136 -0.06573126 -0.12054539 -0.14002399
0.13815422 -0.11625708 0.122237146 -0.09733123 -0.19675285 -0.09389242 -0.11884871 -0.10052905
0.1044971 -0.08374635 -0.10016578 0.13824925 0.21769716 0.083544165 -0.1499515 0.14196268
0.11072262 -0.010043564 0.09237375 0.15289672 -0.19519763 0.11315426 0.047723938 0.0888293
