model/models/6h/trained_model.pt (torch, 666885 bytes, 17 tensors)

conv1.weight f4 [48, 5, 5]
0.06029269 -0.044020608 -0.014263905 -0.06764383 -0.019098278 0.057145927 -0.07828006 -0.100940414
-0.15965323 0.14901252 -0.15317303 -0.17045029 -0.14990816 -0.07613991 0.16886337 -0.14406723
-0.22403543 -0.035852227 0.11023298 0.1717724 -0.11568753 0.035125062 -0.15391235 0.12377252
0.049139936 0.16389711 -0.12414919 -0.06695347 -0.23201832 0.11512021 -0.06329902 -0.14856192
0.14582644 0.048731424 -0.18624964 -0.0103209 0.118085794 -0.13450627 -0.1756454 -0.12339741
-0.00015798619 -0.19924435 0.12133015 0.064009674 0.061399754 -0.033028424 -0.018109042 -0.0025351197
0.069529414 -0.11499342 -0.014317865 -0.21055028 0.0089710485 0.050480925 0.0026458818 -0.07012352
-0.24260692 0.06346578 0.01057801 0.10776929 -0.037698165 -0.07129456 -0.09714805 -0.20037585
-0.1683578 -0.23083098 0.12964869 0.0049040243 -0.09768597 0.13495453 -0.17937806 -0.16643645
0.09726081 0.058353588 -0.24335647 -0.054709714 0.19883034 -0.108624905 -0.16209996 0.13752805
-0.052385367 -0.039858107 0.045369174 0.19760986 0.06960813 -0.0088413125 0.07743045 0.15807149
-0.11404401 -0.14793229 0.0478216 -0.098173566 0.17884621 -0.15214314 0.17977579 -0.015369206
0.09524502 -0.10887357 0.10799526 -0.017478073 -0.02482665 0.18442938 -0.04713761 -0.14347139
-0.09024034 -0.15136321 -0.21729638 0.015137984 -0.01392506 0.0010374773 -0.17787243 0.13179366
-0.0017628758 0.16602135 0.06052762 -0.055162624 0.10020542 0.062260285 0.021812702 0.05344666
-0.21010172 0.09884939 -0.2016178 -0.2167315 -0.23737285 -0.177688 -0.061004862 0.15533532
-0.016515551 -0.06098924 -0.07816978 -0.20632721 -0.10780362 0.036140993 0.15731892 0.18496558
-0.07556738 -0.13966453 0.10444972 -0.07298312 -0.12359647 0.08516854 0.088854544 0.15427436
-0.019203624 -0.21533449 -0.19512522 -0.096563205 -0.17576328 -0.1718069 -0.14075494 -0.10225834
-0.05847665 0.05523391 -0.16147406 -0.09834446 -0.012989095 0.066271804 -0.14493509 0.03516166
-0.12414387 -0.11714889 0.1636943 -0.066406175 -0.04329899 -0.015685534 0.16411489 -0.070920534
-0.049137622 -0.11512818 0.11305464 -0.16349334 -0.10556669 0.05675234 -0.12829694 -0.07779039
0.009461569 0.00084285677 -0.113088235 0.071026094 -0.21820085 -0.017851762 0.030360442 -0.10362335
-0.14342088 -0.1348414 0.09674464 -0.1852752 0.019738944 0.17554925 0.09291647 0.10024583
0.040953062 -0.15344094 0.06284961 0.03917401 0.14415574 -0.09492053 0.04225748 0.15307571
-0.19553691 -0.15147118 0.17523612 -0.19458202 -0.02401419 0.15357807 -0.028046403 -0.03125936
-0.18016247 -0.025708795 -0.1575547 -0.03240885 0.13069771 0.17585666 -0.17171288 -0.14070249
0.0038600694 0.12312097 -0.034425884 0.017282084 0.08725045 -0.07868374 -0.16818434 -0.063507006
-0.09139409 0.14831933 -0.03997149 0.08215713 0.041892845 0.027938202 -0.07728877 -0.1505167
-0.09345687 -0.20467824 0.14699858 -0.19038899 0.1233193 0.14893197 0.16509488 -0.051316317
0.13688925 -0.1165083 -0.21286301 -0.22384568 0.100319885 -0.020500727 -0.099479996 -0.0823401
-0.08280988 -0.14009693 0.14524592 -0.19021146 0.1437614 -0.08422343 -0.19858359 0.09918536
00000000: 78f5 763d f44e 34bd 27b3 69bc d988 8abd
00000010: fe73 9cbc d911 6a3d 4c51 a0bd d9b9 cebd
00000020: 237c 23be bd96 183e 64d9 1cbe 858a 2ebe
00000030: 8681 19be 3eef 9bbd 85ea 2c3e 5c86 13be
00000040: 8b69 65be c9d9 12bd d4c1 e13d 1be5 2f3e
00000050: 95ed ecbd 4cdf 0f3d 339b 1dbe 727c fd3d
00000060: f546 493d a5d4 273e ee41 febd e71e 89bd
00000070: 3696 6dbe 25c4 eb3d eba2 81bd 9e20 18be
00000080: 8753 153e 9a9a 473d 3ab8 3ebe fe18 29bc
00000090: f7d6 f13d 03bc 09be 63dc 33be c8b7 fcbd
000000a0: 18a9 25b9 b606 4cbe f17b f83d 8117 833d
000000b0: 4f7e 7b3d d048 07bd 6a59 94bc 4024 26bb
000000c0: 7065 8e3d ac81 ebbd 7a95 6abc 7e9a 57be
000000d0: 4efb 123c 16c5 4e3d 8866 2d3b ec9c 8fbd
000000e0: f36d 78be 59fa 813d 644f 2d3c 25b6 dc3d
000000f0: 6469 1abd e202 92bd 8ff5 c6bd 542f 4dbe
00000100: fd65 2cbe f55e 6cbe a0c2 043e f0b1 a03b
00000110: 950f c8bd 8531 0a3e e2ae 37be 516e 2abe
00000120: ad30 c73d 2c04 6f3d 7032 79be 4b17 60bd
00000130: 2e9a 4b3e bc76 debd 88fd 25be 27d4 0c3e
00000140: 0a92 56bd 4142 23bd 07d5 393d 3d5a 4a3e
00000150: b58e 8e3d 27db 10bc db93 9e3d 7edd 213e
00000160: e88f e9bd 907b 17be 95e0 433d 390f c9bd
00000170: 7623 373e 69cb 1bbe 2517 383e 1fcf 7bbc
00000180: d20f c33d 1bf9 debd 9e2c dd3d 2d2e 8fbc
00000190: 4261 cbbc 0edb 3c3e 5e13 41bd 2aea 12be
000001a0: edcf b8bd f5fe 1abe f182 5ebe 4f05 783c
000001b0: ef25 64bc f6fb 873a 3124 36be ebf4 063e
000001c0: 4c10 e7ba 8001 2a3e cfeb 773d 34f2 61bd
000001d0: 8038 cd3d a404 7f3d 8db0 b23c e3ea 5a3d
000001e0: e824 57be 8d71 ca3d e674 4ebe ddee 5dbe
000001f0: de11 73be d8f3 35be 3ce0 79bd 3910 1f3e
00000200: 9f4b 87bc dacf 79bd 7a17 a0bd 7147 53be
00000210: 25c8 dcbd 9408 143d 3618 213e 9e67 3d3e
00000220: 12c3 9abd 3804 0fbe bce9 d53d 2d78 95bd
00000230: 2520 fdbd d86c ae3d 5ff9 b53d 19fa 1d3e
00000240: eb50 9dbc a580 5cbe e8ce 47be eec2 c5bd
00000250: 4afb 33be 26ee 2fbe 1022 10be d26c d1bd
00000260: 3685 6fbd f43c 623d 7559 25be d268 c9bd
00000270: 37d0 54bc 83b9 873d dd69 14be ac05 103d
00000280: 243f febd c2eb efbd 7b9f 273e f6ff 87bd
00000290: 485a 31bd f37e 80bc bc0d 283e c93e 91bd
000002a0: 8844 49bd 53c8 ebbd 3189 e73d cc6a 27be
000002b0: 5933 d8bd 2475 683d 4660 03be 9150 9fbd
000002c0: b204 1b3c 29f3 5c3a ce9a e7bd 2176 913d
000002d0: 0b70 5fbe dc3d 92bc 76b6 f83c 7b38 d4bd
000002e0: ecdc 12be dd13 0abe 0e22 c63d c8b8 3dbe
000002f0: 91b3 a13c 2fc3 333e fd4a be3d b04d cd3d
00000300: 66be 273d 9f1f 1dbe 4cb7 803d ed74 203d
00000310: 909d 133e b265 c2bd 2e16 2d3d e1bf 1c3e
00000320: d43a 48be 431b 1bbe 1971 333e 8240 47be
00000330: 68b9 c4bc 9243 1d3e 92c1 e5bc d109 00bd
00000340: 837c 38be 409b d2bc 0556 21be 24bf 04bd
00000350: 9fd5 053e c513 343e 80d5 2fbe 5014 10be
00000360: 38f9 7c3b d926 fc3d 2802 0dbd 2893 8d3c
00000370: 5db0 b23d f124 a1bd 8438 2cbe f60f 82bd
00000380: d32c bbbd 06e1 173e 25b9 23bd ff41 a83d
00000390: d597 2b3d a8de e43c 9349 9ebd 0d21 1abe
000003a0: 5166 bfbd 2c97 51be cc86 163e 55f5 42be
000003b0: d48e fc3d 9f81 183e a20e 293e 0f31 52bd
000003c0: b22c 0c3e e79b eebd c3f8 59be cd37 65be
000003d0: 8374 cd3d 24f1 a7bc 2bbc cbbd eda1 a8bd
000003e0: 3a98 a9bd 9275 0fbe 59bb 143e cbc6 42be
000003f0: 3036 133e 557d acbd 7f59 4bbe b221 cb3d

conv1.bias f4 [48]
-0.026109692 0.1350685 0.026459986 -0.12892771 0.151057 -0.023557175 -0.09410842 -0.007482715
-0.06622657 -0.08799521 0.097845465 0.102669515 -0.117372945 -0.0872437 -0.11521359 -0.031037245
-0.14781725 -0.047222704 0.03635253 -0.18287863 -0.12296455 0.2106041 -0.18022773 -0.1723557
0.005570128 0.048614588 -0.06149006 0.10124193 0.07285894 -0.16610865 -0.0502068 -0.15629907
-0.23709573 -0.22283767 -0.064941674 -0.024861094 0.108948946 0.19257665 -0.20529027 0.17612897
-0.11150838 0.14013635 -0.12475784 -0.1935303 -0.060193297 0.03160213 -0.12111661 -0.10909046
00000000: fee3 d5bc 664f 0a3e 9dc2 d83c a005 04be
00000010: b0ae 1a3e fafa c0bc eabb c0bd 9031 f5bb
00000020: cca1 87bd d536 b4bd 3463 c83d 6544 d23d
00000030: 3a61 f0bd d3ac b2bd 1af5 ebbd d241 febc
00000040: 685d 17be 986c 41bd 64e6 143d 8944 3bbe
00000050: d7d4 fbbd 9aa8 573e 9e8d 38be 037e 30be
00000060: 9f85 b63b 1720 473d 00dd 7bbd ee57 cf3d
00000070: 1137 953d 6318 2abe a5a5 4dbd dd0c 20be
00000080: 39c9 72be 8f2f 64be 2400 85bd 7ea9 cbbc
00000090: a020 df3d d032 453e 9d37 52be 275b 343e
000000a0: 815e e4bd e77f 0f3e 0a81 ffbd cf2c 46be
000000b0: 3f8d 76bd 3c71 013d fc0b f8bd d26a dfbd

conv2.weight f4 [96, 48, 5]
0.013153668 0.07809528 -0.08655553 0.01434697 0.0621611 0.06748677 -0.04538109 -0.014634826
-0.08783235 -0.02118386 -0.03279415 -0.019600064 0.012891305 0.049656138 0.025770696 0.088867605
0.009542936 0.016643908 0.018342333 0.0046235467 0.038767286 0.009377556 -0.085563436 0.026574248
-0.0021006945 0.02742432 0.044261187 0.014550355 0.041963365 -0.04397257 0.061532445 0.039941937
0.020180069 0.06339923 0.057896845 -0.071879216 -0.02161496 0.0084828725 -0.013716477 0.03021929
-0.026742771 0.046540476 -0.04309109 0.05738675 -0.02200932 0.037682716 0.011057514 -0.016792346
-0.09008182 0.019261517 0.011799582 0.007466338 -0.010133724 -0.007537322 -0.019780967 0.0001232492
-0.05627243 -0.033345915 -0.06236719 -0.035787806 0.03360196 -0.039220452 0.0075706337 7.879502e-06
-0.024109667 -0.013150375 0.060086362 -0.051935025 0.033960283 0.021729127 0.0038854473 0.07216499
0.0089888405 0.03352904 -0.0019357792 -0.058143403 0.04964215 0.006369494 -0.09038427 -0.01490009
0.0040663956 0.0113144135 -0.009465238 0.019915245 -0.019132545 -0.03161988 -0.0040774406 -0.05395365
-0.031458627 -0.015025876 -0.019584978 -0.08914815 -0.07390305 -0.067559846 -0.037379473 -0.032938182
0.05751299 -0.056121465 0.039978605 -0.026977899 0.0033702028 -0.004612236 -0.090900145 0.0035390859
-0.038742185 0.056142572 -0.03416376 0.025632408 -0.038531255 -0.04360174 -0.03718329 -0.062806286
-0.03543348 -0.08039256 -0.066745095 -0.05582095 0.06033793 -0.053385332 0.0033194646 0.009693682
-0.074413024 -0.040249944 -0.094716065 -0.026498144 -0.024810266 -0.030444168 -0.008853733 0.015052984
0.012935739 0.04457626 0.0013086051 -0.056141175 -0.049981963 -0.05915304 -0.027011931 -0.054309405
0.011140273 -0.015437686 -0.09415734 -0.049695853 0.039053332 0.035148934 0.025687968 0.025272666
0.032277413 -0.010086997 -0.053186573 -0.08075866 0.0078066974 -0.004604168 0.029826693 0.057892457
-0.031844992 -0.032374818 0.057179227 -0.05285835 -0.0025007261 -0.0004067306 0.041271992 -0.010383647
0.07011557 -0.09236419 -0.021016212 0.06612358 -0.011535666 -0.01084523 0.0091921985 0.01550406
-0.030553961 -0.02418601 -0.007763115 -0.03314557 0.015599576 0.071527936 -0.007490731 -0.036181074
-0.052715655 0.0011873903 -0.008769365 0.020616952 0.011822751 -0.04327469 -0.08304604 0.013097148
0.038981978 -0.06859061 -0.026663972 -0.03014218 -0.022468133 0.011367248 -0.022067089 -0.039051082
0.010541156 -0.033588633 0.043777294 -0.02931183 0.07060797 0.045199044 -0.061101943 -0.008866509
-0.023865743 0.024082191 -0.056278046 -0.0058569177 -0.04353079 -0.007240006 -0.08709395 -0.098669805
0.022800483 -0.09017736 -0.099371284 -0.048682168 -0.01554429 -0.08930229 -0.019879812 0.0369076
-0.057914972 -0.03326255 -0.028681852 -0.01346866 0.0329139 -0.038923748 -0.056374513 -0.02721114
-0.057421926 -0.02669333 -0.045176182 -0.008109643 0.005841305 -0.013889524 0.059253633 -0.07384729
0.04889516 0.05818625 0.048046917 -0.028633857 0.026233766 0.016440257 -0.065226264 -0.0050150263
0.010937232 -0.010414131 0.026605263 0.0063317427 -0.051778976 -0.055961337 0.0054632053 0.025602201
-0.09485219 0.014820728 0.040748928 -0.039689224 -0.02540765 0.052010324 0.04878378 0.079445116
00000000: 7b82 573c 6bf0 9f3d 0744 b1bd 8e0f 6b3c
00000010: a39c 7e3d 8136 8a3d 86e1 39bd e9c6 6fbc
00000020: 72e1 b3bd c689 adbc 2953 06bd 5090 a0bc
00000030: 0d36 533c 3c64 4b3d 111d d33c 3800 b63d
00000040: fa59 1c3c ce58 883c a942 963c 1f81 973b
00000050: 72ca 1e3d 52a4 193c e23b afbd 3db2 d93c
00000060: ceab 09bb f8a8 e03c 384b 353d 9d64 6e3c
00000070: c7e1 2b3d 951c 34bd 7209 7c3d 289a 233d
00000080: ac50 a53c 75d7 813d 3e25 6d3d 6935 93bd
00000090: db11 b1bc bffb 0a3c 13bb 60bc 728e f73c
000000a0: a813 dbbc 3aa1 3e3d 4880 30bd 5e0e 6b3d
000000b0: e44c b4bc 3159 1a3d 932a 353c 1a90 89bc
000000c0: d17c b8bd 54ca 9d3c 0953 413c 2fa8 f43b
000000d0: eb07 26bc a4fb f6bb b20b a2bc 753c 0139
000000e0: eb7d 66bd ba95 08bd bd74 7fbd 3c96 12bd
000000f0: 35a2 093d a0a5 20bd 1413 f83b 3432 0437
00000100: a381 c5bc ac74 57bc 1e1d 763d d2b9 54bd
00000110: f019 0b3d 4801 b23c fda2 7e3b 3dcb 933d
00000120: ee45 133c bf55 093d f9b9 fdba c727 6ebd
00000130: 9155 4b3d 30b7 d03b 631b b9bd 821f 74bc
00000140: 663f 853b 1760 393c 1614 1bbc 4c25 a33c
00000150: dbbb 9cbc d983 01bd 0d9c 85bb 81fe 5cbd
00000160: c3da 00bd 182f 76bc ad70 a0bc 4e93 b6bd
00000170: 7b5a 97bd d15c 8abd 381b 19bd 30ea 06bd
00000180: be92 6b3d 9fdf 65bd 9bc0 233d c100 ddbc
00000190: 9fde 5c3b 3d22 97bb db29 babd 02f0 673b
000001a0: 20b0 1ebd c1f5 653d 4cef 0bbd 0efb d13c
000001b0: f3d2 1dbd bd97 32bd 814d 18bd 95a0 80bd
000001c0: b222 11bd dba4 a4bd a7b1 88bd 82a4 64bd
000001d0: e824 773d 94aa 5abd 608b 593b 40d2 1e3c
000001e0: db65 98bd 20dd 24bd 7ffa c1bd a312 d9bc
000001f0: e63e cbbc 0c66 f9bc 3f0f 11bc caa0 763c
00000200: 6cf0 533c 9995 363d 8085 ab3a 4af4 65bd
00000210: e3b9 4cbd 754a 72bd 2048 ddbc 8a73 5ebd
00000220: b185 363c 59ee 7cbc 90d5 c0bd e18d 4bbd
00000230: 63f6 1f3d 54f8 0f3d 936f d23c 9f08 cf3c
00000240: 5235 043d ef43 25bc 2ada 59bd cc64 a5bd
00000250: 53cf ff3b 8fde 96bb 1c57 f43c a420 6d3d
00000260: e56f 02bd 759b 04bd c434 6a3d ff81 58bd
00000270: 39e3 23bb 753e d5b9 d20c 293d 2c20 2abc
00000280: c198 8f3d 7029 bdbd 312a acbc cd6b 873d
00000290: 1700 3dbc 31b0 31bc e09a 163c be04 7e3c
000002a0: 4d4c fabc bd21 c6bc bb61 febb a6c3 07bd
000002b0: 5d95 7f3c 3d7d 923d ce74 f5bb 9b32 14bd
000002c0: 5fec 57bd 35a2 9b3a 62ad 0fbc e2e4 a83c
000002d0: 36b4 413c cd40 31bd 0b14 aabd 6c95 563c
000002e0: 91ab 1f3d 3c79 8cbd 676e dabc bcec f6bc
000002f0: 170f b8bc b23d 3a3c 0ac6 b4bc 07f4 1fbd
00000300: d0b4 2c3c 3c94 09bd d24f 333d 5d1f f0bc
00000310: e99a 903d a222 393d 0846 7abd d644 11bc
00000320: 1782 c3bc 0448 c53c cf83 66bd 63eb bfbb
00000330: 574d 32bd 923d edbb 505e b2bd 6513 cabd
00000340: 14c8 ba3c e8ae b8bd 2c83 cbbd f466 47bd
00000350: 7aad 7ebc 1ee4 b6bd fdda a2bc 6c2c 173d
00000360: 4038 6dbd 503e 08bd 34f6 eabc a8ab 5cbc
00000370: bad0 063d 826e 1fbd f6e8 66bd e6e9 debc
00000380: 4133 6bbd f8ab dabc a90a 39bd 4fde 04bc
00000390: 6b68 bf3b e390 63bc f0b3 723d 3f3d 97bd
000003a0: 4b46 483d b554 6e3d d8cc 443d 8d91 eabc
000003b0: 32e8 d63c b8ad 863c 5995 85bd 1755 a4bb
000003c0: 1332 333c 08a0 2abc 48f3 d93c 827a cf3b
000003d0: 3116 54bd b737 65bd b004 b33b b5bb d13c
000003e0: dd41 c2bd a4d2 723c 59e8 263d 2b91 22bd
000003f0: b423 d0bc c708 553d 80d1 473d 1fb4 a23d

conv2.bias f4 [96]
0.004890088 0.01055222 0.0021010241 -0.01714552 0.10744837 -0.08377018 -0.030495433 -0.06549454
-0.06874031 -0.08303018 -0.061124247 0.0024613221 0.005717483 0.019937033 0.06578268 -0.034165096
-0.087407075 0.028476758 -0.033900686 -0.022462703 -0.008510264 -0.023207752 -0.09723483 -0.08342464
0.0032919769 -0.0070621935 -0.04190891 -0.059740808 -0.06880833 -0.07855908 0.07361735 0.025349215
-0.06863907 -0.07018482 -0.037366994 -0.06384669 -0.04865729 -0.0136704985 -0.007440493 -0.09277693
0.019882413 -0.032711703 -0.025940644 -0.073248066 -0.07846398 -0.043889243 -0.06853155 -0.015465192
0.0095118275 -0.045040604 -0.071537144 -0.08829648 0.010007221 -0.083450325 -0.07742457 -0.030130673
-0.09766221 -0.021723812 0.0073400987 -0.07956409 0.01798058 -0.03188048 0.014512547 0.005120369
-0.040334668 -0.05887926 -0.0017665516 0.03132142 -0.071321875 -0.018507611 -0.010453173 -0.0033033805
-0.014437139 -0.06373298 -0.0890835 -0.04420474 -0.009834281 -0.07863678 -0.030924829 -0.01780331
-0.043719146 -0.0771587 0.015497826 -0.03626442 -0.06268487 -0.05866481 -0.026118355 0.0025244767
-0.018788157 -0.06870151 -0.022529846 -0.047234 0.024777938 -4.4876186e-05 -0.04273082 -0.008128479
00000000: 083d a03b 38e3 2c3c 56b1 093b c374 8cbc
00000010: e40d dc3d b38f abbd 8fd1 f9bc 0022 86bd
00000020: b8c7 8cbd ba0b aabd 6b5d 7abd 224e 213b
00000030: b959 bb3b fd52 a33c 12b9 863d b3f0 0bbd
00000040: 7b02 b3bd 1748 e93c 72db 0abd b403 b8bc
00000050: a26e 0bbc 2f1e bebc 0e23 c7bd 8ada aabd
00000060: 35be 573b f969 e7bb ada8 2bbd c7b2 74bd
00000070: 62eb 8cbd 95e3 a0bd b1c4 963d 28a9 cf3c
00000080: a492 8cbd 0fbd 8fbd 220e 19bd 0ec2 82bd
00000090: de4c 47bd 3afa 5fbc 61cf f3bb d501 bebd
000000a0: 71e0 a23c b5fc 05bd 7981 d4bc 1503 96bd
000000b0: b9b1 a0bd 35c5 33bd 455a 8cbd b761 7dbc
000000c0: 7fd7 1b3c 7f7c 38bd 1182 92bd c9d4 b4bd
000000d0: 54f5 233c 01e8 aabd c690 9ebd 9ad4 f6bc
000000e0: 2003 c8bd 23f6 b1bc 3685 f03b 7ff2 a2bd
000000f0: 024c 933c 1b95 02bd 09c6 6d3c c5c8 a73b
00000100: f735 25bd 612b 71bd a38b e7ba e44a 003d
00000110: 3411 92bd 469d 97bc c943 2bbc 877d 58bb
00000120: c089 6cbc 7086 82bd 6971 b6bd 0810 35bd
00000130: f71f 21bc 520c a1bd 1156 fdbc 3fd8 91bc
00000140: d912 33bd 6105 9ebd 98ea 7d3c 008a 14bd
00000150: ed60 80bd 834a 70bd 29f6 d5bc b171 253b
00000160: 9fe9 99bc 61b3 8cbd 8390 b8bc 7078 41bd
00000170: 1afb ca3c 7039 3cb8 8306 2fbd 502d 05bc

lstm1.weight_ih_l0 f4 [512, 96]
-0.07839222 -0.03518178 -0.05210284 0.10327904 -0.016555078 -0.011345652 -0.06325921 0.023104217
-0.035782512 0.06441091 -0.02255486 -0.040482305 0.026651587 -0.01170566 0.08713717 0.044435434
-0.013638675 -0.09546256 0.09310756 0.09152237 0.07363476 -0.067172386 0.05355902 0.0030146386
-0.01189594 0.06283215 -0.097054884 -0.004408913 -0.033703774 0.0992219 0.12766467 0.1784132
-0.09340778 0.03383976 0.04763292 0.01706313 -0.00745094 0.005532307 -0.060274426 -0.032064036
-0.0065662228 0.030324254 0.037142847 -0.034753922 -0.050547656 0.10042321 0.10102192 0.11377081
-0.0020062868 0.06689959 0.08853022 -0.041621737 -0.10156198 0.042892635 0.05455432 0.121909395
0.08310991 -0.043749157 0.11863723 0.04171575 -0.052977473 -0.0517928 0.00567517 0.075992145
0.017558191 0.021490699 0.02738145 0.04778582 -0.044137847 -0.1014598 0.021768158 0.12179848
-0.07269277 0.09622765 -0.07760084 -0.08244328 -0.031442903 0.025790013 -0.09712419 0.105351895
-0.008727421 -0.015362549 0.070738085 0.022700327 -0.0058768773 -0.0075795385 -0.030489128 -0.112539716
-0.01707533 0.014615606 0.015302146 0.00169119 -0.07077874 0.058261316 0.117651194 0.13540624
0.024710787 -0.121592365 0.088187374 -0.06250702 0.0149841085 0.016482359 0.011336616 -0.044036403
-0.038210265 -0.029573308 -0.06743623 0.028051885 -0.046639033 -0.07077957 -0.09985556 0.1165751
0.07995294 0.112936325 -0.119687974 -0.104533195 -0.057345394 0.019130645 -0.031116735 -0.029331543
0.07733781 -0.12078447 -0.056524977 0.035564654 -0.05513295 0.021698965 0.036493313 0.0007283904
0.04853285 0.06778598 -0.10111887 -0.02848749 0.10892473 -0.046036836 -0.022264902 0.06660157
-0.08102945 -0.007914444 -0.09176543 -0.026116762 -0.03910657 -0.13710791 -0.08736699 -0.10012616
-0.046599384 0.028312318 0.04346004 -0.0014703304 0.016295673 -0.04736366 0.051584307 -0.040093813
0.04117797 -0.04405618 -0.024882754 -0.07417792 -0.026864097 0.042197585 -0.10622517 0.03936756
-0.00447514 0.03013367 0.10689719 -0.002498441 0.043192614 -0.032323834 -0.0994559 -0.023218442
0.06400245 0.055328146 0.015366064 -0.045760922 0.01925348 -0.03466391 -0.0036114526 -0.06661555
-0.0029618547 0.025141176 -0.034967285 0.03729963 0.027510166 0.0029697467 -0.011190823 -0.03958308
-0.041938286 -0.049199928 -0.06287645 0.059117045 0.04788142 -0.023914864 -0.07246174 -0.01607888
-0.03424533 0.07960818 0.1101764 0.06713924 -0.011447931 0.0440998 0.13108432 -0.049692787
-0.028617159 0.07527441 0.10666266 0.087744445 0.05126103 0.043670908 -0.016358843 0.106293686
0.072693415 -0.03556652 0.004805156 0.07285578 -0.015068047 0.06092031 -0.04701218 0.03104776
0.1243856 -0.005386265 0.07654929 -0.0037832686 -0.0027872112 -0.026273202 -0.07763843 0.029925222
0.07523433 0.014687787 0.04829555 -0.005555771 -0.044563502 -0.03404911 -0.03297816 0.07203824
0.07771308 0.061401762 0.07427247 -0.045924217 -0.03816238 -0.027088685 -0.00061573146 0.06941198
0.11618066 0.073707506 0.11459767 0.033963177 -0.033323035 0.10758209 0.04600937 0.047791153
0.06669003 0.075467914 -0.007865299 0.087876245 0.07014893 0.037825752 0.12585615 -0.043633502
00000000: 1a8c a0bd c51a 10bd ca69 55bd f683 d33d
00000010: 849e 87bc 1de3 39bc 0b8e 81bd 0e45 bd3c
00000020: af90 12bd dee9 833d f8c4 b8bc c6d0 25bd
00000030: 6e54 da3c 19c9 3fbc f974 b23d ee01 363d
00000040: c074 5fbc e081 c3bd 2daf be3d 1570 bb3d
00000050: d2cd 963d ad91 89bd b460 5b3d 3e91 453b
00000060: 30e7 42bc 24ae 803d b6c4 c6bd a578 90bb
00000070: f80c 0abd da34 cb3d 87ba 023e f3b1 363e
00000080: 944c bfbd 8f9b 0a3d bd1a 433d fac7 8b3c
00000090: 0427 f4bb 5b48 b53b 51e2 76bd 9455 03bd
000000a0: 7829 d7bb 926a f83c 1923 183d 215a 0ebd
000000b0: 0f0b 4fbd afaa cd3d 95e4 ce3d ac00 e93d
000000c0: e87b 03bb a702 893d 554f b53d 8e7b 2abd
000000d0: baff cfbd 30b0 2f3d 5a74 5f3d a2ab f93d
000000e0: 8735 aa3d 5132 33bd 13f8 f23d 22de 2a3d
000000f0: e8fe 58bd b024 54bd c7f6 b93b c5a1 9b3d
00000100: 32d6 8f3c 430d b03c 104f e03c 10bb 433d
00000110: e3c9 34bd 28ca cfbd 2353 b23c 7b71 f93d
00000120: f2df 94bd 0113 c53d 30ed 9ebd 06d8 a8bd
00000130: 46ca 00bd 9445 d33c 0ce9 c6bd bcc2 d73d
00000140: 75fd 0ebc 33b3 7bbc 21df 903d 09f6 b93c
00000150: d292 c0bb c75d f8bb 56c4 f9bc 397b e6bd
00000160: 90e1 8bbc 4b76 6f3c dab5 7a3c ebaa dd3a
00000170: 72f4 90bd 6ba3 6e3d 1cf3 f03d efa7 0a3e
00000180: 476e ca3c 6b05 f9bd 959b b43d ae03 80bd
00000190: e87f 753c 0306 873c 37bd 393c 845f 34bd
000001a0: 5e82 1cbd b943 f2bc 021c 8abd 11cd e53c
000001b0: 9208 3fbd e1f4 90bd 1281 ccbd edbe ee3d
000001c0: 5ebe a33d 294b e73d f81e f5bd 8015 d6bd
000001d0: 01e3 6abd dfb7 9c3c 86e8 febc b448 f0bc
000001e0: 4963 9e3d d95d f7bd bc86 67bd 3eac 113d
000001f0: 17d3 61bd 07c2 b13c 037a 153d 74f1 3e3a
00000200: 62ca 463d 60d3 8a3d 6917 cfbd 995e e9bc
00000210: ee13 df3d 1f91 3cbd e264 b6bc 6766 883d
00000220: c5f2 a5bd 96ab 01bc 84ef bbbd d2f2 d5bc
00000230: 362e 20bd 0466 0cbe 77ed b2bd f20e cdbd
00000240: ffde 3ebd 3cef e73c 2803 323d 1ab8 c0ba
00000250: 817e 853c 6600 42bd 114a 533d 6939 24bd
00000260: 3baa 283d 4174 34bd ebd6 cbbc 98ea 97bd
00000270: 1812 dcbc 60d7 2c3d 958c d9bd e13f 213d
00000280: 32a4 92bb e3da f63c eaec da3d e2bc 23bb
00000290: bdea 303d ff65 04bd 89af cbbd 9a34 bebc
000002a0: b713 833d c49f 623d f2c1 7b3c ce6f 3bbd
000002b0: 79b9 9d3c befb 0dbd 1fae 6cbb bc6d 88bd
000002c0: ad1b 42bb def4 cd3c db39 0fbd 7fc7 183d
000002d0: 005d e13c 15a0 423b b759 37bc de21 22bd
000002e0: 7bc7 2bbd dd85 49bd 5ec5 80bd b724 723d
000002f0: 4f1f 443d 1be9 c3bc d266 94bd dbb7 83bc
00000300: d544 0cbd 9d09 a33d 2aa4 e13d 4c80 893d
00000310: 1a90 3bbc fea1 343d f83a 063e aa8a 4bbd
00000320: 886e eabc 7829 9a3d f471 da3d 5cb3 b33d
00000330: 16f7 513d 44e0 323d fb02 86bc 81b0 d93d
00000340: 49e0 943d 33ae 11bd 9274 9d3b 6935 953d
00000350: f8df 76bc 9387 793d d88f 40bd df57 fe3c
00000360: e1bd fe3d 447f b0bb e0c5 9c3d b7f0 77bb
00000370: a5a9 36bb e63a d7bc e600 9fbd bd25 f53c
00000380: 7514 9a3d 0ba5 703c 8ed1 453d 2f0d b6bb
00000390: 3888 36bd 1477 0bbd 1b14 07bd c988 933d
000003a0: 0928 9f3d 6a80 7b3d 2a1c 983d 081b 3cbd
000003b0: 2850 1cbd 17e9 ddbc 0a69 21ba de27 8e3d
000003c0: 20f0 ed3d f6f3 963d 2fb2 ea3d f91c 0b3d
000003d0: bc7d 08bd 0054 dc3d 5274 3c3d a8c0 433d
000003e0: c894 883d ec8e 9a3d 74dd 00bc 76f8 b33d
000003f0: 3eaa 8f3d 2def 1a3d 6fe0 003e 0bb9 32bd

lstm1.weight_hh_l0 f4 [512, 128]
0.03980662 -0.053099077 -0.07248505 0.05235956 0.08931948 0.026416773 0.023104409 0.06192346
-0.003269101 0.0056219776 0.1168903 0.060025416 0.18273062 0.021905702 0.0014011202 -0.038098462
0.19234131 -0.026727939 0.10837659 0.029152466 0.10709184 -0.12603574 0.025436547 0.010765043
-0.06454141 0.116651684 0.026339745 0.051719178 -0.017847646 -0.005873815 -0.15445665 -0.052557055
0.008388615 -0.065700896 -0.13847297 0.110249534 0.03399958 -0.046088852 -0.017878141 0.012104404
0.026858129 -0.027922163 0.06760882 0.111976095 0.040633794 -0.024395814 -0.1418338 -0.12891957
-0.12531382 -0.012552963 0.10983317 -0.013680259 -0.023878934 0.012426318 -0.04760075 -0.1150177
-0.023682356 0.053875957 0.045972966 -0.040772624 -0.02148253 -0.06921366 0.07260032 0.05176176
-0.08500305 0.014285216 0.0029253366 -0.15551783 -0.00670997 0.054305956 -0.057324413 0.09210823
-0.042447075 0.03004665 0.086450525 0.023848422 0.06047714 -0.02622024 0.091022044 0.09193508
-0.07801121 0.02499063 -0.023835126 0.08023851 0.13264073 -0.07931484 -0.08404958 -0.16445404
0.09725188 -0.017307322 0.035199556 -0.13445003 0.070693225 0.013113733 -0.08291713 0.055546675
0.10893831 0.073941566 0.12864946 0.049074553 0.0509348 -0.103256084 -0.06289972 0.007309536
-0.018406203 -0.019892298 0.09362532 0.027197614 0.0028591831 0.013618372 -0.07125643 -0.09720472
0.025790289 -0.038427148 -0.0072672316 -0.05792979 -0.043096922 0.069013394 0.042402245 0.08104251
-0.19541667 0.012026496 0.13933301 0.101505466 -0.00018709092 -0.029396981 0.010488967 0.008176143
-0.05998269 -0.056057286 0.089443766 -0.054516625 -0.022349913 -0.015965177 -0.04760668 -0.025356483
0.021982724 -0.10073893 -0.104683794 0.014687773 -0.04543995 -0.021104576 -0.022711154 0.022541972
-0.13036229 0.030589405 -0.05808979 0.118067525 0.035493117 0.09495705 -0.01945002 -0.092417285
0.05692778 -0.07422035 -0.10958147 -0.0039760023 -0.012415161 0.02287786 0.1297631 0.053288292
0.017666956 0.050819725 -0.042284675 -0.019653082 -0.034619637 0.038114034 -0.110201314 0.03317766
-0.011924323 0.087689154 0.005247503 0.0054389853 0.010218017 0.0131275095 0.10382268 0.0930691
-0.053754993 -0.07024731 -0.035111748 0.069885865 -0.04690676 0.121327356 0.08122676 0.05737113
-0.095385075 -0.115535215 0.055430867 -0.017775116 0.022243688 -0.09102674 -0.04221542 0.05255279
-0.05011493 -0.0546337 0.12737413 0.1400015 -0.060655963 0.058346808 0.08001294 -0.10247282
0.086597316 -0.04033835 0.0056304014 -0.0055663045 -0.048783436 0.011202576 -0.10507738 0.0041943984
0.028670443 -0.09928021 -0.077001795 -0.10266363 -0.006735759 0.07934595 0.037065584 -0.027296117
0.042564232 0.11848127 -0.024901953 -0.0028853505 -0.06554855 0.003981461 0.06237622 -0.07011034
-0.1404564 -0.06947903 0.014762596 0.009779722 -0.0035827288 0.09380481 -0.057837512 -0.041916758
-0.050665338 -0.00213647 -0.09719698 -0.10586501 -0.109487034 0.030460007 0.11179539 0.07702113
-0.04982988 0.05438748 -0.08121487 -0.061686546 0.06791521 0.0048202355 0.09451928 -0.029264634
0.064529166 0.09852642 -0.09152333 -0.1475758 -0.00029100056 -0.09791023 -0.054723002 0.018817145
00000000: 440c 233d 6b7e 59bd 0b73 94bd fa76 563d
00000010: 22ed b63d fd67 d83c 7545 bd3c 74a3 7d3d
00000020: 6a3e 56bb 9138 b83b 2e64 ef3d 36dd 753d
00000030: bc1d 3b3e 9673 b33c cba5 b73a 220d 1cbd
00000040: 1ff5 443e 8df4 dabc 8cf4 dd3d 27d1 ee3c
00000050: f752 db3d 830f 01be 4e60 d03c dd5f 303c
00000060: 492e 84bd 14e7 ee3d 73c6 d73c 7dd7 533d
00000070: 3a35 92bc 2279 c0bb e229 1ebe 1146 57bd
00000080: 6770 093c 318e 86bd dccb 0dbe 82ca e13d
00000090: 2543 0b3d aac7 3cbd 2e75 92bc 8d51 463c
000000a0: 9405 dc3c 05bd e4bc 7e76 8a3d b953 e53d
000000b0: 9f6f 263d bbd9 c7bc e13c 11be 7e03 04be
000000c0: 4452 00be f1aa 4dbc 37f0 e03d 2a23 60bc
000000d0: c19d c3bc c197 4b3c 01f9 42bd 668e ebbd
000000e0: 8001 c2bc 09ad 5c3d 264e 3c3d 3201 27bd
000000f0: 21fc afbc e4bf 8dbd 7aaf 943d 2404 543d
00000100: 1416 aebd 8a0c 6a3c 01b7 3f3b 1140 1fbe
00000110: 4fdf dbbb ec6f 5e3d 01cd 6abd 3da3 bc3d
00000120: fcdc 2dbd 6424 f63c f90c b13d c45d c33c
00000130: e1b6 773d d4cb d6bc c469 ba3d 7648 bc3d
00000140: 57c4 9fbd 26b9 cc3c e241 c3bc 1754 a43d
00000150: f9d2 073e d26f a2bd 3022 acbd a466 28be
00000160: fe2b c73d 16c8 8dbc 692d 103d 45ad 09be
00000170: 9cc7 903d fcda 563c 75d0 a9bd e984 633d
00000180: 0c1b df3d ad6e 973d afbc 033e 6602 493d
00000190: 02a1 503d ed77 d3bd 92d1 80bd d584 ef3b
000001a0: 9bc8 96bc 2cf5 a2bc a2be bf3d 88cd de3c
000001b0: 2261 3b3b 981f 5f3c e4ee 91bd 4513 c7bd
000001c0: 2846 d33c c965 1dbd f521 eebb ca47 6dbd
000001d0: 6686 30bd e556 8d3d faad 2d3d 9ef9 a53d
000001e0: 4f1b 48be c80a 453c 50ad 0e3e 19e2 cf3d
000001f0: d62d 44b9 f0d1 f0bc ebd9 2b3c 3bf5 053c
00000200: 69b0 75bd 539c 65bd 4b2e b73d d34c 5fbd
00000210: 2a17 b7bc 67c9 82bc 39ff 42bd 66b8 cfbc
00000220: 1d15 b43c 3650 cebd 7564 d6bd fca4 703c
00000230: 3e1f 3abd 81e3 acbc be0c babc f1a9 b83c
00000240: b17d 05be a296 fa3c 8fef 6dbd 63cd f13d
00000250: 3b61 113d d878 c23d a655 9fbc 4645 bdbd
00000260: 1b2d 693d d700 98bd 406c e0bd 2049 82bb
00000270: f668 4bbc 5a6a bb3c 9ee0 043e d344 5a3d
00000280: 4bba 903c 5828 503d b232 2dbd 80ff a0bc
00000290: 52cd 0dbd 761d 1c3d 3ab1 e1bd 4ce5 073d
000002a0: 3c5e 43bc 5f96 b33d 3ff3 ab3b 8439 b23b
000002b0: 7869 273c c414 573c fca0 d43d 039b be3d
000002c0: 322e 5cbd d2dd 8fbd 56d1 0fbd 5220 8f3d
000002d0: 4e21 40bd 7a7a f83d 375a a63d fdfd 6a3d
000002e0: 4059 c3bd ba9d ecbd 7a0b 633d 1f9d 91bc
000002f0: 6538 b63c 3a6c babd 14ea 2cbd 9841 573d
00000300: 5045 4dbd 96c7 5fbd 5d6e 023e 8e5c 0f3e
00000310: 6372 78bd 10fd 6e3d d3dd a33d 45dd d1bd
00000320: ef59 b13d d339 25bd 3b7f b83b 8c65 b6bb
00000330: 24d1 47bd 028b 373c cf32 d7bd 2a71 893b
00000340: 47de ea3c 6c53 cbbd 1eb3 9dbd 4f41 d2bd
00000350: a4b7 dcbb 2180 a23d 15d2 173d 1b9c dfbc
00000360: d557 2e3d 4fa6 f23d 2eff cbbc 2618 3dbb
00000370: 513e 86bd ea76 823b 357e 7f3d 0396 8fbd
00000380: cdd3 0fbe 064b 8ebd d1de 713c 213b 203c
00000390: 37cc 6abb bc1c c03d 07e7 6cbd e8b0 2bbd
000003a0: 7586 4fbd 0504 0cbb 360f c7bd c1cf d8bd
000003b0: bd3a e0bd 4487 f93c fbf4 e43d 41bd 9d3d
000003c0: 6b1a 4cbd 68c5 5e3d fb53 a6bd 08ab 7cbd
000003d0: 2117 8b3d 11f3 9d3b 5393 c13d 63bc efbc
000003e0: de27 843d 38c8 c93d 9570 bbbd 1c1e 17be
000003f0: 6f91 98b9 2985 c8bd 3a25 60bd 6a26 9a3c

lstm1.bias_ih_l0 f4 [512]
0.09548287 0.03346324 0.041963503 0.017958935 -0.09801371 -0.10835846 0.04128319 -0.027836083
0.030248081 -0.1048724 0.04296427 0.012146262 -0.037520837 0.032280922 -0.0897218 -0.12498784
-0.076544635 -0.09198113 -0.040541288 -0.1345753 -0.048525352 -0.0016817991 -0.119025506 -0.10307811
0.04807177 -0.003873203 -0.031800732 0.0089482535 -0.13002086 -0.024208859 -0.028247446 -0.09612742
0.028790798 -0.08672855 -0.009887909 0.06833346 -0.01920674 -0.086801395 0.03491514 -0.09751642
-0.024128964 -0.09959239 -0.049472444 0.069241285 0.012733931 -0.047717564 -0.111444205 0.056687016
-0.12726964 0.034694403 -0.08384514 -0.031397045 -0.07863938 0.028015709 0.05863215 -0.019534348
-0.032225285 0.015444375 0.024833702 -0.11170692 -0.025531186 -0.020706354 -0.17536321 0.022270296
0.06111336 -0.0713774 -0.08170639 -0.06106675 -0.023816623 -0.09873062 0.033986222 -0.046860717
0.03274651 -0.05061193 -0.03942282 -0.032608066 -0.047780987 -0.061177615 0.004139855 -0.050543826
-0.023209887 -0.0119957235 -0.06484711 -0.047791462 -0.050432365 0.06640915 0.0048019947 -0.13867413
0.017954828 -0.09440473 0.045690946 0.05694913 0.05264809 -0.123487346 -0.10229459 -0.010878226
-0.004501854 -0.034495965 -0.022195425 -0.10515105 -0.070232265 -0.10492034 -0.018889913 0.011002473
-0.091030344 0.026336612 0.0027239472 0.089879245 -0.0045304163 0.061456688 -0.06250478 -0.08824781
-0.06571098 -0.036692116 -0.039980177 -0.049074583 -0.0870381 0.01604316 -0.054185744 -0.052579723
0.014485218 0.03099314 -0.053609 -0.0867215 0.017628212 0.009534486 0.07546291 -0.007205217
-0.002600076 0.033799496 0.052417286 -0.060174894 -0.065604694 -0.0075724605 -0.025115829 0.018152526
0.0143814245 0.03387539 0.05917239 -0.09638928 -0.117074795 -0.0858264 0.068191126 0.013530102
0.04023719 -0.10981085 0.004926129 0.03163886 0.0014941262 -0.063512854 -0.024372343 0.010228229
-0.06854983 -0.011098229 0.054886412 -0.11739648 -0.096477345 0.030863576 0.039825384 0.034457657
-0.009592148 0.014761069 -0.03921705 -0.09156946 0.0032689075 8.427893e-05 -0.01870553 -0.103468366
-0.019988447 -0.048942342 -0.077222474 0.049860552 0.005780724 -0.046784863 -0.0114198625 -0.06633383
-0.08531758 -0.041977607 -0.109951966 -0.054049507 -0.1031864 -0.005884196 -0.018039914 0.034136772
0.053899724 -0.011020368 -0.04614344 0.039693695 -0.0446781 -0.0133410925 -0.07706933 -0.040697165
0.006560939 0.04035293 -0.11297419 -0.09065102 -0.015809588 -0.08657628 -0.025912633 -0.025307111
-0.058502294 -0.1295449 -0.07464684 -0.035345204 0.016868899 0.07063358 0.03519683 -0.09600799
-0.01518503 -0.060368836 0.047392227 -0.006482102 -0.09711826 -0.09277323 -0.039443027 -0.049948208
0.0721921 -0.006751408 -0.07716123 -0.023155859 -0.08428593 -0.094651364 -0.11446021 -0.11586319
-0.0915291 0.057271514 -0.099311836 -0.08268052 0.028142814 -0.10465321 -0.04830679 -0.03198683
-0.075555705 0.010302581 -0.031886607 -0.029025929 -0.067479946 0.0127340425 0.053618867 -0.011593958
-0.06813663 -0.057838053 0.027317747 -0.08847923 -0.07981441 0.017554298 0.022924721 0.024796773
-0.1224776 -0.0058745677 0.07628895 -0.00798748 -0.06814664 0.008902169 0.06085059 -0.035683434
00000000: 868c c33d c010 093d ece1 2b3d 9e1e 933c
00000010: 69bb c8bd 0aeb ddbd 9018 293d 7f08 e4bc
00000020: d3ca f73c 57c7 d6bd 4dfb 2f3d 1e01 473c
00000030: 73af 19bd 0039 043d 10c0 b7bd a0f9 ffbd
00000040: 6fc3 9cbd 9a60 bcbd 9f0e 26bd 1cce 09be
00000050: 85c2 46bd d06f dcba a5c3 f3bd 9e1a d3bd
00000060: e8e6 443d 90d5 7dbb 7c41 02bd b29b 123c
00000070: 3024 05be a851 c6bc 3067 e7bc 74de c4bd
00000080: aeda eb3c bd9e b1bd e500 22bc 6af2 8b3d
00000090: 7457 9dbc eec4 b1bd 2e03 0f3d b0b6 c7bd
000000a0: 1baa c5bc 18f7 cbbd 9ea3 4abd 60ce 8d3d
000000b0: faa1 503c 7e73 43bd dc3c e4bd a530 683d
000000c0: f952 02be b81b 0e3d 00b7 abbd 309a 00bd
000000d0: af0d a1bd 3381 e53c 4428 703d 7f06 a0bc
000000e0: a9fe 03bd 670a 7d3c 0c70 cb3c 99c6 e4bd
000000f0: c726 d1bc 5fa0 a9bc 6a92 33be 3270 b63c
00000100: 0152 7a3d 502e 92bd ae55 a7bd 2121 7abd
00000110: 141b c3bc 4833 cabd 2335 0b3d 06f1 3fbd
00000120: 3421 063d 754e 4fbd d379 21bd 0990 05bd
00000130: ffb5 43bd 6195 7abd 9fa7 873b 0b07 4fbd
00000140: a922 bebc b689 44bc 90ce 84bd fbc0 43bd
00000150: 2b92 4ebd 8501 883d 0d5a 9d3b 9700 0ebe
00000160: 0116 933c 4457 c1bd 6e26 3b3d 7e43 693d
00000170: 86a5 573d efe6 fcbd d37f d1bd 963a 32bc
00000180: 4a84 93bb a44b 0dbd 2ed3 b5bc 6f59 d7bd
00000190: efd5 8fbd 7ae0 d6bd 05bf 9abc b743 343c
000001a0: 1e6e babd e1bf d73c 4084 323b 9c12 b83d
000001b0: e373 94bb 02ba 7b3d 8202 80bd 45bb b4bd
000001c0: 7a93 86bd 794a 16bd 41c2 23bd 6e02 49bd
000001d0: 0841 b2bd f26c 833c dff1 5dbd d65d 57bd
000001e0: 6853 6d3c 53e5 fd3c 1c95 5bbd 0b9b b1bd
000001f0: 0a69 903c 8836 1c3c 4c8c 9a3d be19 ecbb
00000200: 0966 2abb 5771 0a3d 82b3 563d f379 76bd
00000210: c15b 86bd 6722 f8bb b6bf cdbc 9bb4 943c
00000220: 11a0 6b3c ecc0 0a3d bf5e 723d be67 c5bd
00000230: e9c4 efbd c0c5 afbd caa7 8b3d 5cad 5d3c
00000240: c0cf 243d 83e4 e0bd 5d6b a13b c097 013d
00000250: 8ed6 c33a 0713 82bd 82a8 c7bc 4d94 273c
00000260: da63 8cbd 59d5 35bc 93d0 603d 916d f0bd
00000270: ea95 c5bd 9cd5 fc3c f11f 233d 7923 0d3d
00000280: 6228 1dbc 69d8 713c 0fa2 20bd c588 bbbd
00000290: 2b3b 563b e8be b038 573c 99bc 39e7 d3bd
000002a0: d0be a3bc c477 48bd d126 9ebd 943a 4c3d
000002b0: 3a6c bd3b 7ca1 3fbd 601a 3bbc 08da 87bd
000002c0: fcba aebd b6f0 2bbd 7f2e e1bd 0463 5dbd
000002d0: 6453 d3bd 37d0 c0bb 71c8 93bc 00d3 0b3d
000002e0: f5c5 5c3d c68e 34bc e700 3dbd db95 223d
000002f0: 6200 37bd 9994 5abc 86d6 9dbd 12b2 26bd
00000300: 25fd d63b 1d49 253d 035f e7bd 3ea7 b9bd
00000310: 1c83 81bc e84e b1bd bb46 d4bc dc50 cfbc
00000320: 1aa0 6fbd 6ba7 04be 71e0 98bd 22c6 10bd
00000330: a530 8a3c 57a8 903d 8d2a 103d d69f c4bd
00000340: a2ca 78bc 5045 77bd 5a1e 423d d067 d4bb
00000350: f0e5 c6bd e4ff bdbd 038f 21bd 7e96 4cbd
00000360: 74d9 933d ea3a ddbb b506 9ebd 5bb1 bdbc
00000370: 1a9e acbd 93d8 c1bd 1d6a eabd ae49 edbd
00000380: 9c73 bbbd 8995 6a3d 0164 cbbd 6854 a9bd
00000390: c28b e63c 6c54 d6bd 57dd 45bd 9f04 03bd
000003a0: f3bc 9abd 28cc 283c 889b 02bd c9c7 edbc
000003b0: ed32 8abd 72a2 503c 759f 5b3d 96f4 3dbc
000003c0: 388b 8bbd 98e7 6cbd 78c9 df3c 9934 b5bd
000003d0: bd75 a3bd 08ce 8f3c a0cc bb3c 9a22 cb3c
000003e0: 89d5 fabd 727f c0bb 623d 9c3d ebdd 02bc
000003f0: 7790 8bbd 67da 113c 783e 793d cb28 12bd

lstm1.bias_hh_l0 f4 [512]
0.02897778 0.048185512 -0.021287005 -0.08588965 0.011155203 -0.07883565 -0.102008104 -0.05653017
0.058592193 -0.03774275 0.007227569 -0.009364523 -0.13979271 0.018757964 -0.08145657 -0.04334675
-0.066922545 0.0019887162 -0.08107624 0.03278133 -0.07541288 0.011305931 0.037207164 -0.042162616
0.015944846 -0.03288858 -0.0073242467 0.0077252667 -0.101496436 0.044943687 -0.09485537 0.0022005257
-0.05186201 -0.11670031 0.043242633 0.062867016 -0.048563547 -0.095946476 0.03890968 0.059316486
-0.034518685 -0.057818282 0.02136003 0.09925212 -0.04527057 0.058442336 -0.102914035 -0.028371874
-0.017527647 -0.1052085 -0.020604158 0.018334938 -0.011108496 0.025549302 0.02578136 0.056533813
-0.06409492 0.0055674408 0.026858311 0.02290321 -0.029496288 0.022491466 -0.017773245 -0.05585676
-0.0777676 0.080485694 0.03598975 -0.07029004 -0.05176718 -0.05295517 -0.06981755 -0.07957392
0.026401768 -0.09934753 -0.04735076 -0.10654309 0.05729548 -0.064727895 0.041195452 0.045358334
-0.053967953 -0.07190767 -0.06366162 -0.045910064 -0.016208978 -0.020966101 0.022862924 -0.050148554
0.044629622 -0.010728899 -0.11403949 -0.0072361184 0.06252765 -0.117720895 -0.06040332 -0.008896461
-0.07784091 -0.049293783 -0.0044350843 -0.0069302577 -0.044999983 -0.016671935 -0.122361585 -0.032356985
-0.050001144 -0.10679098 0.032614198 0.0510417 -0.06592406 -0.007621297 0.052710176 -0.0730341
0.031413738 -0.05455293 -0.0027392835 -0.05679363 -0.052557606 0.02068846 -0.11131075 -0.13005963
-0.12164855 0.037867814 0.03587298 0.04921436 0.024943259 -0.10693773 -0.016733227 -0.013092781
-0.08494528 0.024900613 -0.06583253 -0.055376645 -0.07727973 -0.012152461 -0.02530853 -0.025279565
0.02374673 0.0068346797 0.043766033 0.004418552 -0.13351952 0.02289147 0.017157676 -0.0010639811
0.04836656 -0.12784638 -0.002351107 0.019682925 -0.027850237 0.010848238 -0.005000518 -0.1451576
-0.020112595 -0.10826826 0.05663171 -0.08755509 0.013945896 0.021834273 0.060688026 -0.05271398
-0.05584881 -0.02027573 -0.095198154 -0.06752681 -0.023983743 -0.036790933 0.038995564 -0.04696204
-0.026092898 0.027756102 0.058269512 0.17596535 -0.11461657 -0.040303428 -0.047229327 -0.06307248
-0.11735205 0.045041777 -0.05437159 0.009494753 -0.027370239 0.03660099 -0.10194222 -0.041878626
-0.01929497 -0.011532268 -0.109640025 -0.11017879 -0.08499887 -0.05747403 -0.12623562 -0.044800945
-0.0795775 -0.039925683 -0.010404466 -0.022230385 0.06228289 0.015134666 0.018459817 -0.038964815
0.04489827 -0.020400906 -0.05393481 0.036209475 -0.071624845 -0.067455016 -0.01934669 -0.0849209
-0.035094887 -0.0766164 0.006508404 0.03621412 0.017846502 -0.1022892 -0.07445994 -0.1422133
0.08108111 0.044640448 0.0016184547 0.07895793 -0.048055775 -0.08358965 0.044071194 -0.11178741
-0.022775343 -0.09251205 -0.047845162 -0.045354117 -0.0093304105 -0.032258857 -0.0918127 -0.08942109
0.033787835 0.021127451 -0.06126199 0.0018045898 0.051517997 0.048770223 0.058351453 -0.0021631403
-0.12152509 -0.09367736 0.0455226 0.011339724 0.026415749 0.074959904 -0.066917546 -0.06585912
-0.10377308 0.009259441 -0.03533924 -0.08142284 -0.093366586 0.03361732 -0.048109367 -0.044509105
00000000: cf62 ed3c 2c5e 453d 1662 aebc eae6 afbd
00000010: 50c4 363c 9674 a1bd a0e9 d0bd 2e8c 67bd
00000020: 5efe 6f3d 2498 1abd 3ed5 ec3b a86d 19bc
00000030: d225 0fbe 4daa 993c b4d2 a6bd 5d8c 31bd
00000040: b00e 89bd 1f55 023b 4d0b a6bd b745 063d
00000050: 1172 9abd 833c 393c 8a66 183d b5b2 2cbd
00000060: c49e 823c 2db6 06bd 3c00 f0bb 3c24 fd3b
00000070: 5ddd cfbd df16 383d 8843 c2bd b236 103b
00000080: 426d 54bd 9200 efbd 301f 313d 6cc0 803d
00000090: 92ea 46bd 967f c4bd c25f 1f3d d8f5 723d
000000a0: 7763 0dbd ddd2 6cbd 3bfb ae3c b244 cb3d
000000b0: a26d 39bd 3b61 6f3d 98c4 d2bd 226c e8bc
000000c0: 2496 8fbc 8e77 d7bd 0dca a8bc 2733 963c
000000d0: 6900 36bc c54c d13c 6e33 d33c 0090 673d
000000e0: 3344 83bd 146f b63b f605 dc3c 839f bb3c
000000f0: 33a2 f1bc 0640 b83c 3299 91bc 0fca 64bd
00000100: 9f44 9fbd afd5 a43d fd69 133d 39f4 8fbd
00000110: d309 54bd 85e7 58bd 81fc 8ebd a7f7 a2bd
00000120: 8548 d83c b876 cbbd dff2 41bd 4333 dabd
00000130: aaae 6a3d 0f90 84bd 90bc 283d a9c9 393d
00000140: 800d 5dbd 5444 93bd 0661 82bd 310c 3cbd
00000150: b1c8 84bc 1ac1 abbc 074b bb3c 9268 4dbd
00000160: 8dcd 363d 44c8 2fbc 898d e9bd f61c edbb
00000170: 7f0e 803d a717 f1bd 7969 77bd 76c2 11bc
00000180: 0e6b 9fbd 47e8 49bd 2f54 91bb 3717 e3bb
00000190: e751 38bd 9593 88bc b698 fabd c288 04bd
000001a0: 00ce 4cbd 3bb5 dabd 7796 053d 1a11 513d
000001b0: 3203 87bd 13bc f9bb a0e6 573d e792 95bd
000001c0: b1ab 003d e572 5fbd 8d85 33bb 70a0 68bd
000001d0: a546 57bd d87a a93c e4f6 e3bd 5a2e 05be
000001e0: e022 f9bd 481b 1b3d 8cef 123d ff94 493d
000001f0: ce55 cc3c 2b02 dbbd 1f14 89bc 1b83 56bc
00000200: caf7 adbd 5ffc cb3c 35d3 86bd 9fd2 62bd
00000210: d644 9ebd 1e1b 47bc d653 cfbc 1717 cfbc
00000220: 8188 c23c 73f5 df3b 0344 333d 80c9 903b
00000230: 57b9 08be e486 bb3c 418e 8c3c 4875 8bba
00000240: 041c 463d 29ea 02be 0815 1abb 163e a13c
00000250: 2e26 e4bc cfbc 313c 63db a3bb 32a4 14be
00000260: 2bc3 a4bc c0bb ddbd a7f6 673d 1550 b3bd
00000270: 547d 643c cadd b23c 0294 783d 9dea 57bd
00000280: b9c1 64bd 4a19 a6bc 40f7 c2bd 7f4b 8abd
00000290: 8e79 c4bc 17b2 16bd d0b9 1f3d 455b 40bd
000002a0: c6c0 d5bc c460 e33c 03ac 6e3d 4330 343e
000002b0: 18bc eabd 3515 25bd 8a73 41bd 252c 81bd
000002c0: 4656 f0bd ba7d 383d bfb4 5ebd e18f 1b3c
000002d0: 8d37 e0bc ebea 153d 15c7 d0bd ec88 2bbd
000002e0: 7c10 9ebc d6f1 3cbc f38a e0bd 6ba5 e1bd
000002f0: e313 aebd e369 6bbd e943 01be 3281 37bd
00000300: 87f9 a2bd 1d89 23bd 7e77 2abc 7f1c b6bc
00000310: 581c 7f3d 64f7 773c 0b39 973c 9299 1fbd
00000320: 40e7 373d cd1f a7bc bfea 5cbd 6350 143d
00000330: 0cb0 92bd db25 8abd f37c 9ebc 02eb adbd
00000340: a8bf 0fbd 0fe9 9cbd 7344 d53b 4255 143d
00000350: d432 923c 007d d1bd 747e 98bd 5da0 11be
00000360: da0d a63d e7d8 363d 5422 d43a b2b4 a13d
00000370: 22d6 44bd 0d31 abbd ff83 343d ccf0 e4bd
00000380: 5b93 babc f576 bdbd 4af9 43bd 3dc5 39bd
00000390: 94de 18bc dd21 04bd 4c08 bcbd 6822 b7bd
000003a0: 1d65 0a3d 7a13 ad3c daed 7abd fc87 ec3a
000003b0: 8904 533d 49c3 473d ef01 6f3d 79c3 0dbb
000003c0: 25e2 f8bd ead9 bfbd e875 3a3d 40ca 393c
000003d0: d765 d83c 9484 993d 110c 89bd 25e1 86bd
000003e0: fb86 d4bd e9b4 173c e1bf 10bd 05c1 a6bd
000003f0: fb36 bfbd 51b2 093d 540e 45bd 2e4f 36bd

lstm2.weight_ih_l0 f4 [128, 128]
0.012491151 0.020721095 0.020371433 0.036414016 -0.09287152 0.01786178 0.13223575 -0.13297923
0.08615415 0.18603215 0.17408371 -0.08502009 -0.10902724 -0.011847006 0.0040994124 0.14471866
0.16112372 -0.034718465 0.17161746 -0.044724014 0.16969353 -0.16126083 -0.03332897 -0.08240457
-0.1694312 -0.1327356 0.026517006 -0.14760694 0.1332528 -0.013271374 0.16825283 0.14176036
-0.012731866 -0.14801826 -0.16298538 -0.038996022 -0.1625853 0.06669161 -0.051209852 -0.16274871
-0.090582974 -0.1186554 -0.08240529 0.14146811 -0.15754557 0.14751084 -0.09199944 0.019962743
-0.18863474 0.14677243 -0.094583146 -0.12728454 -0.09198504 0.08732224 0.11492746 -0.08817367
0.14117871 0.09628664 0.17054614 0.0071599716 -0.11664246 0.02588447 -0.03605061 0.094348006
0.1365486 0.087179966 0.10339798 0.12770803 -0.025715102 0.070303775 -0.0040775314 -0.072023384
-0.13883427 0.061296694 -0.14203128 0.071279846 0.11386199 -0.068504296 0.16404302 -0.10953191
0.058622062 -0.09166204 0.04232656 0.12274095 0.05253021 -0.08178011 -0.0127579495 -0.1364583
-0.07134951 -0.024425931 -0.19017401 -0.09506056 0.014331035 -0.14738049 -0.14955413 0.09850888
0.003212331 0.10683909 -0.087776676 0.033044964 -0.08262297 -0.020328818 -0.047770552 -0.14832377
0.10481779 -0.15312016 -0.09719979 -0.15370187 0.17532842 0.035144586 -0.07029499 0.12714912
-0.16304456 -0.13043132 -0.13928685 -0.070008464 0.040560544 -0.058907412 -0.11162497 0.0022776495
-0.1729931 -0.060253214 -0.010172725 0.006205919 -0.028894084 -0.08363697 -0.18767075 -0.0050740023
0.061470903 -0.20256062 0.09355063 0.00287225 -0.0029345718 -0.032886203 0.06998571 -0.14758228
0.06240757 0.09242825 0.1907406 0.13310108 0.018422779 0.02182912 0.02651471 -0.15421166
0.08522101 0.087232165 0.03567056 -0.15599248 0.0074411435 -0.14859167 0.065903634 0.06688745
0.16039093 0.0138799995 -0.14580406 0.08613075 -0.13969448 -0.12760082 0.12471185 -0.17586444
-0.22933011 0.065255396 -0.10548715 0.01639566 -0.16666456 -0.07860314 0.09481128 -0.10115252
-0.0077030505 0.12807502 -0.053612903 0.029473355 0.044270914 -0.05823958 -0.09296939 0.06983963
0.038499884 0.25018734 -0.059035834 -0.20135479 0.07931297 0.11773517 0.22962913 0.00575002
0.12248918 -0.057410955 0.038383696 -0.13572511 0.18339686 -0.11686678 0.07064695 -0.06445353
0.08043281 -0.13002892 -0.11114153 0.14939474 0.0036945364 0.03629166 0.036691688 0.03493784
-0.0806765 0.04172386 0.019175952 0.055974685 -0.03732305 0.07605446 -0.15063758 -0.11407314
0.18571874 -0.023485329 -0.024924427 0.029022438 -0.08046764 0.011681122 -0.00402929 -0.026234845
-0.114792995 -0.013453832 -0.19075966 -0.082912855 -0.2183834 0.08901254 -0.009275749 -0.31171745
0.15420376 -0.01754404 -0.22765487 0.0371495 -0.18496662 -0.008630085 -0.071524486 0.09486945
0.07029875 -0.06802015 -0.0029119684 -0.079430506 0.17361702 0.0027411664 0.070902064 -0.007416861
0.037582528 0.070220664 -0.11651245 -0.098375976 0.12020101 0.13747753 0.08963295 -0.16498628
-0.06265204 0.20728907 -0.06256177 -0.1872911 0.004899639 0.18009803 -0.20760097 0.21359883
00000000: afa7 4c3c 49bf a93c fee1 a63c dd26 153d
00000010: 6c33 bebd de52 923c cf68 073e b52b 08be
00000020: 9671 b03d 367f 3e3e 0043 323e 031f aebd
00000030: ac49 dfbd f219 42bc 5d54 863b 2131 143e
00000040: 9efd 243e f334 0ebd 7dbc 2f3e 8730 37bd
00000050: 24c4 2d3e 8f21 25be f583 08bd bac3 a8bd
00000060: 5f7f 2dbe d7eb 07be 313a d93c 4626 17be
00000070: 6c73 083e 2d70 59bc 784a 2c3e a129 113e
00000080: 5199 50bc 1992 17be a4e5 26be 4bba 1fbd
00000090: c37c 26be 9c95 883d 6cc1 51bd 99a7 26be
000000a0: 9183 b9bd 9a01 f3bd 1bc4 a8bd 04dd 103e
000000b0: a053 21be 150d 173e 346a bcbd e888 a33c
000000c0: 7729 41be 834b 163e cfb4 c1bd e156 02be
000000d0: a762 bcbd 01d6 b23d 175f eb3d 6694 b4bd
000000e0: 2791 103e ee31 c53d a6a3 2e3e 329e ea3b
000000f0: 3ee2 eebd ab0b d43c cea9 13bd 8739 c13d
00000100: 65d3 0b3e 698b b23d 52c2 d33d e5c5 023e
00000110: 7aa8 d2bc 6dfb 8f3d d09c 85bb ff80 93bd
00000120: 922a 0ebe 3e12 7b3d a670 11be 2bfb 913d
00000130: 7a30 e93d fb4b 8cbd e5fa 273e 4452 e0bd
00000140: b01d 703d 4fb9 bbbd 9d5e 2d3d 9b5f fb3d
00000150: eb29 573d 557c a7bd b806 51bc b9bb 0bbe
00000160: b11f 92bd e418 c8bc fabc 42be 1caf c2bd
00000170: b8cc 6a3c e9ea 16be b824 19be 06bf c93d
00000180: f985 523b 74ce da3d 42c4 b3bd 285a 073d
00000190: 3b36 a9bd 9f88 a6bc 0eab 43bd 30e2 17be
000001a0: b6aa d63d 88cb 1cbe af10 c7bd 0664 1dbe
000001b0: 4b89 333e c5f3 0f3d d2f6 8fbd 6133 023e
000001c0: 27f5 26be ca8f 05be 36a1 0ebe 9960 8fbd
000001d0: d022 263d e648 71bd a29b e4bd 9e44 153b
000001e0: 1a25 31be 13cc 76bd 80ab 26bc 065b cb3b
000001f0: 49b3 ecbc dc49 abbd c32c 40be d143 a6bb
00000200: eac8 7b3d 0d6c 4fbe 7997 bf3d 5c3c 3c3b
00000210: f251 40bb afb3 06bd ab54 8f3d cf1f 17be
00000220: 159f 7f3d 064b bd3d 8151 433e a64b 083e
00000230: 5eeb 963c fcd2 b23c 6135 d93c a9e9 1dbe
00000240: 5a88 ae3d c7a6 b23d 4b1b 123d 7ebc 1fbe
00000250: d6d4 f33b 6a28 18be 7cf8 863d 4afc 883d
00000260: 853d 243e f068 633c a94d 15be 5265 b03d
00000270: 120c 0fbe caa9 02be ed68 ff3d cf15 34be
00000280: 83d5 6abe 9fa4 853d a609 d8bd 3150 863c
00000290: 1daa 2abe affa a0bd 6b2c c23d 0d29 cfbd
000002a0: df69 fcbb 1926 033e 3499 5bbd 1b72 f13c
000002b0: 6b55 353d a08c 6ebd bc66 bebd 1408 8f3d
000002c0: 0eb2 1d3d 8e18 803e 8fcf 71bd f32f 4ebe
000002d0: d76e a23d 231f f13d e623 6b3e aa6a bc3b
000002e0: 9bdb fa3d c027 6bbd 3938 1d3d 86fb 0abe
000002f0: 63cc 3b3e da57 efbd 59af 903d 3600 84bd
00000300: f5b9 a43d 4d26 05be 2c9e e3bd effa 183e
00000310: 0920 723b 90a6 143d 064a 163d fb1a 0f3d
00000320: b939 a5bd a3e6 2a3d e316 9d3c b645 653d
00000330: 0ee0 18bd 71c2 9b3d bd40 1abe 2e9f e9bd
00000340: 0e2d 3e3e 4e64 c0bc 502e ccbc 77c0 ed3c
00000350: 38cc a4bd 2d62 3f3c 2208 84bb 75ea d6bc
00000360: 9718 ebbd 766d 5cbc 8056 43be 37ce a9bd
00000370: e69f 5fbe 354c b63d 50f9 17bc 6e99 9fbe
00000380: 97e7 1d3e 85b8 8fbc 5c1e 69be 132a 183d
00000390: e467 3dbe 3365 0dbc 6e7b 92bd ea4a c23d
000003a0: cbf8 8f3d 264e 8bbd b9d6 3ebb 76ac a2bd
000003b0: a9c8 313e 24a5 333b 1a35 913d 2409 f3bb
000003c0: 23f0 193d dacf 8f3d 149e eebd 5879 c9bd
000003d0: f22b f63d e9c6 0c3e 7b91 b73d 2af2 28be
000003e0: b64f 80bd 9643 543e 6320 80bd 3dc9 3fbe
000003f0: 278d a03b 9e6b 383e 5995 54be a7b9 5a3e
