model/models/1d/trained_model.pt (torch, 666885 bytes, 17 tensors)

conv1.weight f4 [48, 5, 5]
000000 7c a0 0e 3e 93 34 1a be a3 dd ce 3d 3e d4 95 bd
       0.13928407 -0.15059118 0.101008676 -0.073158726
000010 bd f6 5f be 66 01 2a bc bc 27 7f 3d bd db 6f 3d
       -0.21871467 -0.01037631 0.062293753 0.058559168
000020 0e 6e 4d 3d 1c f3 02 be 91 ac a6 bd ea 8b 12 be
       0.050153784 -0.12788051 -0.08138383 -0.14311185
000030 f3 67 39 3c 4f 6a c5 bd 33 85 a4 bd 14 82 56 be
       0.011316287 -0.096394174 -0.08033218 -0.20948058
000040 90 9e 66 be d5 f3 5c be 06 1e 12 be 29 3e c4 3d
       -0.22521424 -0.2157739 -0.14269266 0.095821686
000050 dc 97 14 be 97 b9 ea bc 49 0f a9 3d 56 60 ff bc
       -0.14511055 -0.02865295 0.082548685 -0.031173866
000060 ee 76 c3 bb a0 80 e5 3d a3 6c 49 3e f5 04 0f 3e
       -0.0059651053 0.11206174 0.19670348 0.13966735
000070 fc 8b 30 be 9a 5b a7 bd 89 2a f0 3d ad d6 c8 3d
       -0.172409 -0.081717685 0.11726863 0.09806571
000080 f3 ef 03 3e b5 74 12 bd dd bf 86 3c 6b f4 5f 3d
       0.12884502 -0.03575583 0.01644891 0.054676455
000090 12 f6 2f be 3a 80 0d 3d cd 92 56 3e 94 56 e0 3d
       -0.17183712 0.034546115 0.20954438 0.109540135
0000a0 8a b1 e9 3d f6 56 d3 3d 6c 05 a4 bd dc 3d e6 3c
       0.11410816 0.10319321 -0.08008847 0.028105669
0000b0 a9 f7 7f bd eb f1 09 be b7 1a 21 be 20 f0 a4 bd
       -0.062492047 -0.1347119 -0.15732847 -0.08053613
0000c0 e2 42 25 3e e8 df 33 be 32 2c c3 3c 84 1d 3c 3c
       0.16138795 -0.17565882 0.023824785 0.011481646
0000d0 3c 08 42 bd a4 87 2a 3e 20 15 f6 bd be b3 0f 3d
       -0.047371134 0.16653305 -0.12015748 0.035083525
0000e0 d3 35 70 3d 0c 55 e9 3d 5a d7 ae 3d 48 db c7 bd
       0.05864508 0.113931745 0.08537169 -0.097586215
0000f0 6c 77 b3 3d 28 4f a8 bd 41 95 36 3e 8e 56 1e 3e
       0.08763012 -0.08218223 0.17830373 0.15462705
000100 90 7f ef 3b 61 75 cc bc fc d9 3d be de 3e c2 3c
       0.007308908 -0.024958314 -0.18540186 0.023711618
000110 e7 35 48 3e 57 96 36 3e 01 d9 97 bc 0b 66 8e 3d
       0.19551812 0.17830788 -0.018536093 0.06953057
000120 b7 81 d6 bd f7 58 73 3d 68 7f 1b 3d 01 bd 79 3d
       -0.1047396 0.059411015 0.0379633 0.060971264
000130 52 9e 9b 3b cb 44 89 3d c1 20 ea 3b fd 17 4a be
       0.004749098 0.06702574 0.007145018 -0.19735713
000140 0b c4 6d be 7f 3b ae bd 29 27 8a 3d 18 36 0b 3e
       -0.23219316 -0.08507442 0.067457505 0.13594854
000150 e4 40 02 3e ab f5 2f be 54 ca 40 be 3a 26 5f be
       0.12720066 -0.17183559 -0.18827182 -0.21791926
000160 c5 be c9 bd e4 30 a2 3d 50 a6 b4 3d 56 2e 66 be
       -0.098508395 0.079194814 0.08820784 -0.22478613
000170 ea cd 89 3c 5e 09 c7 3d d8 aa b6 bd 39 d0 43 be
       0.01682182 0.097185835 -0.089193046 -0.191224
000180 03 e6 7f bd 23 8e 3d be 65 4c 52 be bc ea 13 be
       -0.062475216 -0.18511252 -0.20536955 -0.14445013
000190 c9 9d 38 3d 3c 14 0d 3e d4 9c 17 be d5 1f db bc
       0.04507235 0.1377725 -0.14805919 -0.026748577
0001a0 cf 05 fa 3d d8 51 6b bd 5a 0f d4 bd 4c d0 1f bc
       0.12208139 -0.0574511 -0.103544906 -0.009754252
0001b0 70 c7 9d bc 6c db b7 3d c2 6d 1f bc a3 f9 89 bd
       -0.019260138 0.08977398 -0.009730758 -0.067370676
0001c0 e6 7d 31 bd 89 40 85 3d b4 7d b9 bd b2 d1 3c 3e
       -0.043332957 0.0650645 -0.09057179 0.18439367
0001d0 df e1 bb 3d 9b 16 b4 bd c1 7a 1c be 93 91 44 bd
       0.09173941 -0.08793374 -0.15281202 -0.047990393
0001e0 e4 65 27 be b8 39 1a bd 16 ca 8a bd 8e 32 7b bd
       -0.16347462 -0.0376527 -0.06776826 -0.06132751
0001f0 df c4 d3 3c 3c 43 d9 bd e9 88 d9 bb 20 32 43 3d
       0.025850711 -0.10608527 -0.0066386354 0.047655225
000200 ae 9a 3d 3e 4b 9c 6c 3e f1 7d f9 bd ef a4 8a bb
       0.18516037 0.23106496 -0.121822245 -0.0042310874
000210 aa 65 a4 3d ed 3b d4 bd 09 03 44 bc ef ed 9c 3d
       0.080272034 -0.103629924 -0.011963614 0.0766257
000220 41 b0 36 3d 23 25 1f be e4 43 1c bd da de ab bd
       0.044601683 -0.1554151 -0.038150683 -0.08392115
000230 50 e7 ee bd 52 f8 de bd f5 95 bc 3d 0c 21 b7 3c
       -0.11665213 -0.10887207 0.092082895 0.022354625
000240 b6 13 c4 bd 3a 75 22 be 35 71 f0 bd c4 8f 0c 3e
       -0.09574072 -0.15865031 -0.117403425 0.13726717
000250 ba c6 b7 3c 7e a1 a0 3d 1a a3 ce 3d 14 a0 78 bd
       0.022433627 0.07843302 0.10089703 -0.060699537
000260 07 31 47 be 48 00 16 be 64 94 91 bd d8 64 92 3c
       -0.19452296 -0.14648545 -0.071083814 0.017870352
000270 98 6f 1b 3d 7a 5a c3 bd ea 11 ad 3d 20 c9 a7 bd
       0.03794822 -0.095387414 0.084506825 -0.081926584
000280 c4 d3 56 3d 76 61 8b bd 32 90 88 3d c0 c4 7a bd
       0.05244805 -0.068056986 0.06668128 -0.06122279
000290 f0 3a 25 be a0 f4 c3 bb f3 f0 e6 bd 8d 27 3e be
       -0.16135764 -0.0059800893 -0.11276426 -0.18569775
0002a0 cf c0 44 3e 46 6d d1 3d e8 ea 56 bd 26 51 84 bd
       0.19214176 0.102259204 -0.052470118 -0.0646079
0002b0 82 81 e5 3d a5 68 0f be 8c a6 3f bd 7a 71 12 be
       0.11206342 -0.14004762 -0.04678969 -0.143011
0002c0 7e 08 1b 3c 61 15 83 3d a8 7b ca 3d 50 7f 9c 3d
       0.009462474 0.06400562 0.09886867 0.076414704
0002d0 68 2f f2 3c a1 1e 12 be f2 64 02 be a1 84 36 3d
       0.02956362 -0.14269497 -0.1273382 0.04456008
0002e0 9e 1d 29 be 64 a0 c7 3d 4c 00 92 bd db 7a 19 3e
       -0.16515204 0.09747389 -0.07128963 0.14988272
0002f0 3a 37 06 3d f2 8d fb 3d f0 4f a2 3d ec 54 2d bd
       0.032767512 0.12282933 0.07925403 -0.042317316
000300 d4 2c b6 bd 97 ac 47 be c2 c5 aa bd 9c 7b c5 3d
       -0.08895269 -0.19499432 -0.083385006 0.09642717
000310 51 e6 22 be f4 cf 9a bc 23 3b 47 3c 6f 1e a5 bd
       -0.15908171 -0.018897988 0.012160095 -0.08062445
000320 8f 69 31 3e 53 37 46 3e f9 26 4a 3e f8 5b 1b bd
       0.17325424 0.19357042 0.1974143 -0.037929505
000330 66 d1 e7 bd c7 b4 3e bd 6e 06 21 bd dc 13 cf 3d
       -0.113192365 -0.04655912 -0.039312772 0.1011121
000340 72 fe 87 bd 85 52 e5 3d b4 6a cb 3d e4 87 7c bd
       -0.066403285 0.1119738 0.099324614 -0.061653033
000350 89 de 68 bd 77 df 7b 3d 29 21 fc bd c7 27 b3 3d
       -0.05685285 0.06149241 -0.12311012 0.08747821
000360 7c 75 e3 3d 24 86 00 bd 20 dc 7f 3d 89 d9 04 3e
       0.11106393 -0.031377926 0.062465787 0.12973608
000370 86 af 41 be be 65 ec 3d 65 87 8e bc fe 87 1f be
       -0.18914613 0.11542843 -0.017398546 -0.1557922
000380 92 3c 24 be 80 bc 58 3d c6 7c dc bd df 89 be bd
       -0.1603873 0.052914143 -0.10765986 -0.093036406
000390 24 af dc 3c c1 65 8f 3d 95 20 e9 3d 7d 89 86 3b
       0.026938982 0.0700183 0.11383168 0.0041057453
0003a0 c4 ef 3e be 27 21 59 be 47 ef 21 3d 68 00 42 be
       -0.18646151 -0.21204053 0.039534833 -0.18945467
0003b0 ec 6b 79 3d 05 46 7c 3d 2d aa e1 bb 42 a7 ea 3d
       0.060893938 0.061590213 -0.0068867416 0.11457683
0003c0 aa 78 10 3e 9b c9 14 be b5 72 ce 3d a8 2a ad 3c
       0.1410853 -0.14530031 0.100804724 0.021138504
0003d0 9e 0d 55 be 39 0a c0 3c fa 8b e8 3d a7 e0 0c be
       -0.20805976 0.023442375 0.113548234 -0.13757573
0003e0 f5 05 26 3e 77 09 79 3c 5d 23 cb 3c a0 8f 02 3e
       0.1621321 0.0152000105 0.024797136 0.12750101
0003f0 0d e7 27 3d a8 80 f6 bc 7c d5 0d be c1 99 e5 3d
       0.04099183 -0.030090645 -0.13850969 0.11210967

conv1.bias f4 [48]
000000 d1 9d f2 bc 9a 7a a1 bd 40 c2 1e be 35 7f 1b 3d
       -0.029616268 -0.078847125 -0.15503788 0.03796311
000010 ef 29 78 3e cf 76 3f 3e 90 f2 de bc 42 5e 51 3e
       0.24234746 0.18697666 -0.027215272 0.20446113
000020 2b a6 9d bd 08 4f 61 be af 47 22 3e 92 20 14 bd
       -0.0769771 -0.22002804 0.15847658 -0.036163874
000030 17 b4 84 bd e7 88 f0 bd b3 37 59 bd c8 6b bf 3d
       -0.06479662 -0.11744862 -0.053031635 0.093467295
000040 e9 90 b3 3d 73 26 20 be dd fb 21 3e c3 79 90 3e
       0.08767874 -0.15639667 0.15818734 0.28217897
000050 df 63 24 be f5 c6 17 3e 47 fc b2 bb 09 82 e3 3d
       -0.16053723 0.1482199 -0.0054622027 0.111087866
000060 6b fd 85 3e 29 37 50 bd f2 a9 63 be 7d f6 af bd
       0.26169905 -0.050833855 -0.22232798 -0.08591936
000070 c0 7a 78 bb f4 17 42 3e 82 16 c5 bd cf 82 4e be
       -0.0037914962 0.1895445 -0.09623434 -0.20167087
000080 b6 d2 5c be bb 79 b0 bd 13 0b 97 ba 9d 9f 47 be
       -0.21564755 -0.08616968 -0.0011523686 -0.19494481
000090 2d 61 4c be c0 6a 3e be 13 87 47 3e c6 88 f0 bd
       -0.19958945 -0.1859541 0.1948512 -0.117448375
0000a0 d1 77 5a 3e 6d af 1b bd 68 f8 c5 3c 92 a1 3e be
       0.21334769 -0.038009096 0.0241663 -0.18616322
0000b0 37 b6 48 be 62 40 0d 3d 35 27 51 be c0 18 36 3d
       -0.1960076 0.03448523 -0.20425113 0.044457197

conv2.weight f4 [96, 48, 5]
000000 77 4f 7d 3c 57 bb 1b 3d ab 27 49 bb e5 ff 12 3c
       0.01546084 0.038020458 -0.003069381 0.008972143
000010 47 d9 1e bc 15 5c 38 be 80 f9 2f be bd 93 21 be
       -0.009695358 -0.18003877 -0.1718502 -0.15779014
000020 b4 1f 34 be 68 91 e3 bd 67 e9 89 bd 67 99 fb bd
       -0.17590219 -0.111117184 -0.06733971 -0.122851186
000030 da ad 6c be 60 0e 99 bd fa 4f dc bd f3 11 03 3c
       -0.23113194 -0.07473445 -0.10757442 0.007999885
000040 a5 99 a3 bc ee 1c 71 bd 66 b8 81 bd 17 2f 37 3d
       -0.019970724 -0.05886548 -0.06333999 0.044722643
000050 14 1d 60 3d e0 dd 64 39 5f 47 19 bd 57 2a 21 3d
       0.05471523 0.0002182643 -0.03742158 0.03934702
000060 01 c3 95 3d 0a b8 28 3d e9 04 10 3d 5c 1c e7 3c
       0.07312585 0.04119114 0.035160933 0.028211765
000070 12 a9 2e 3d 23 3b 29 3c 78 33 57 3d 14 a5 c1 3c
       0.042641707 0.010329041 0.05253932 0.023638286
000080 60 2e 3d bd c1 95 04 bd b8 e8 3f bd be 59 02 3d
       -0.046186805 -0.03236938 -0.046852797 0.031823866
000090 6a 97 dd 3c 7a 7b 81 3b 1c 0e 1f 3d 1a 74 02 3d
       0.027049739 0.003951487 0.038831815 0.031849004
0000a0 0b ab d0 bd 59 e4 30 be a4 10 2c be ad 07 40 be
       -0.10188874 -0.17274608 -0.16803223 -0.18752928
0000b0 94 1a 3b be 7e 17 17 bd 7d d3 98 3d 82 f4 aa 3d
       -0.18271858 -0.03688764 0.07462213 0.083474174
0000c0 f1 f4 00 3c 96 56 a6 3d b9 9b 9e 3d 05 ec 27 3e
       0.007870899 0.08121984 0.077445455 0.16398628
0000d0 35 9a bd 3d 75 37 a7 3d 71 db 15 3e 10 c9 a9 bb
       0.09257928 0.081648745 0.14634492 -0.005181439
0000e0 01 dc 00 bc d5 eb fc bd 00 ab 5c be 88 25 db bd
       -0.007864953 -0.12349669 -0.21549606 -0.10700518
0000f0 e2 ba 7c be a7 dd 66 be d3 66 6e be f6 0f 4b be
       -0.24680665 -0.22545491 -0.23281412 -0.19830307
000100 48 0b 48 be 63 84 e0 bd 73 4c f3 bd be 12 ba bd
       -0.19535553 -0.10962751 -0.11879816 -0.09085606
000110 b9 c3 45 bd 43 90 2b bd f6 72 0e bd 15 2f e7 bd
       -0.04828236 -0.041885626 -0.034777604 -0.11288277
000120 03 88 9c bd e3 11 b7 bd 5a 74 a5 bb 5f 98 b7 3d
       -0.0764313 -0.089389585 -0.0050492706 0.08964609
000130 cd e5 04 3e db fa 28 3e 00 aa f3 3d 99 eb 8f 3d
       0.12978287 0.16501944 0.11897659 0.070273586
000140 fa 2a 10 3d b8 83 ad 3b 95 20 45 3b 0c 7d 6a 3c
       0.035197236 0.005295243 0.0030079235 0.01431204
000150 2f d0 a5 3d 22 93 33 bd a6 2c a3 bc 49 fb 3b bc
       0.080963485 -0.04384149 -0.019918751 -0.011473485
000160 65 81 fb bd be e0 a6 bd 5d 08 ae 3c ef 3a fb 3d
       -0.122805394 -0.08148335 0.021244222 0.122671
000170 9a 59 16 3d aa 50 dc 3d 76 b4 b5 3c 71 93 83 3d
       0.036706544 0.10757573 0.022180777 0.064246066
000180 11 9b 3b 3d 39 0e 79 3d 7c 7d 57 3d 66 43 5d bd
       0.04580218 0.06080458 0.052609906 -0.054019354
000190 95 44 3f be 94 e9 9f bd 0a 4e 6e bd 99 fe f0 bc
       -0.18678506 -0.07808223 -0.058179893 -0.029418277
0001a0 8c 77 1d be 7a a3 0f 3e 58 4a 20 3e 58 9e bb 3d
       -0.15377635 0.14027205 0.1565336 0.09161061
0001b0 3d 5d f4 3d 01 e9 1f 3e 51 d5 df bd 15 26 98 bd
       0.11931846 0.15616228 -0.10929359 -0.074291386
0001c0 57 c5 ba bc 13 04 05 be 35 46 cf bd 8f e2 32 3e
       -0.022799177 -0.12989835 -0.10120813 0.17469238
0001d0 0b 4e 27 3e 3a 5b c3 3d 02 ef c9 3d fe 89 93 3d
       0.16338365 0.095388845 0.0986004 0.07204054
0001e0 38 b5 51 3b 87 aa b8 3d 04 b6 d6 3c b2 4f 0a 3d
       0.0031998884 0.090169005 0.026209839 0.03376741
0001f0 e1 a3 c0 3d 84 88 71 3b 94 b9 6f bc 6f 2b 7e bd
       0.094062574 0.0036855051 -0.014631648 -0.06205314
000200 ac 95 42 be 92 8a bf bd 9b ab e3 3b 0d 8c 90 3c
       -0.19002408 -0.09352602 0.006947947 0.017644906
000210 ab f8 94 bb 4a 5d b9 bb 1c d2 7e 3d c1 c0 00 be
       -0.004546245 -0.005656873 0.062212095 -0.1257353
000220 15 4d 97 bd 21 6b ce bd d9 5f 1b be 67 06 b5 bc
       -0.07387749 -0.10079027 -0.15173282 -0.02209778
000230 14 14 8b 3c 3c b2 56 bd 78 e4 28 3d b0 9d a2 3c
       0.016977347 -0.05241607 0.04123351 0.019850582
000240 b8 5b 19 3d cb ac 7b 3d 85 cd 90 3d e6 fc 72 3d
       0.037440985 0.061444085 0.0707045 0.059323214
000250 ca 03 fa 3d 06 37 62 3c 63 d5 86 bd 0c 6b 57 3d
       0.12207754 0.013807064 -0.06583669 0.052592322
000260 8c 18 c5 bb 6e 6d 14 be 0b ce dd bd c5 c2 a3 bc
       -0.006014889 -0.14494869 -0.10830315 -0.019990334
000270 f0 5d 7c 3d 10 e7 51 bb 88 f5 e8 bc 93 f6 c4 bc
       0.061613023 -0.0032028593 -0.02843739 -0.024043357
000280 70 6d 6a be 30 77 77 be 03 a8 53 be a5 25 3c be
       -0.2289331 -0.2416656 -0.2066956 -0.18373735
000290 d0 73 8e bd 20 35 6d bd f1 03 73 bd ce 88 f6 3c
       -0.06955683 -0.057911992 -0.05932993 0.03009453
0002a0 e1 d8 68 bc 7d dd 58 3d f6 2c 51 3d a5 c9 57 3d
       -0.014211864 0.052945603 0.05106827 0.052682538
0002b0 4e e7 3a 3d cd aa 64 3c 93 f2 85 bc 57 b0 7b bd
       0.045630746 0.013956738 -0.01635102 -0.061447468
0002c0 dd ef f3 bd a2 a6 ef bd 0a d5 75 bd 7d de 9b bd
       -0.11910985 -0.117017046 -0.060017623 -0.07610796
0002d0 14 c0 53 bc d9 b8 33 bd 1c 69 aa 3c 04 fa 95 3c
       -0.012924213 -0.043877456 0.020802073 0.018307693
0002e0 e0 00 31 bc dc 1b 5b bd e2 75 bc bd 0c 50 a3 bd
       -0.010803431 -0.053493366 -0.09202172 -0.07974252
0002f0 fe 4a 69 3c e3 8e ac 3c bb ed 33 3e bb 16 42 3e
       0.014239071 0.021064227 0.17571156 0.18953983
000300 91 37 23 3e bd f1 16 3e 8c 76 64 3e 62 4f 12 bd
       0.15939166 0.14740653 0.22310847 -0.035720237
000310 53 bf be bd 8d 7e 7c bc 17 57 90 bd b8 ac 01 bc
       -0.09313836 -0.015411031 -0.07047861 -0.0079147145
000320 6d cb 1f 3d 81 b7 d9 3d e4 06 10 bd 8c 89 d5 3d
       0.03901236 0.10630704 -0.03516282 0.104266256
000330 77 30 8a bc 8e 5f ba bd 7a 83 58 bd ee 29 d7 bd
       -0.016868813 -0.09100257 -0.05285976 -0.10506044
000340 71 6c 12 be 5d b8 76 bd d7 4e c5 3d f8 ae b7 3c
       -0.1429918 -0.060234416 0.09634178 0.022422299
000350 70 1a 66 3d 9e 50 b0 3d 8a 49 d5 3d f3 35 63 be
       0.056177557 0.086091265 0.10414417 -0.22188549
000360 37 1e 36 be 1a 5c 4c be 64 07 4b be 46 e2 77 be
       -0.17784964 -0.19957009 -0.19827038 -0.2420741
000370 37 5c eb bc 83 33 94 3c 0d 5f a7 3d eb 11 b0 3c
       -0.028730495 0.018090969 0.081724264 0.021492919
000380 be cd d3 3b e7 80 2a 3e 7f 7a 64 3e 76 33 5f 3e
       0.0064637354 0.16650735 0.22312354 0.21796975
000390 65 b7 35 3e 75 f1 f0 3d dc 40 72 be 2a fd 6c be
       0.1774574 0.11764804 -0.23657554 -0.2314345
0003a0 92 53 05 be 18 b1 a5 bd 34 63 f6 bd c0 d8 de 3c
       -0.13020161 -0.080904186 -0.1203064 0.027202964
0003b0 5f e4 d6 3d 14 64 25 3e c4 84 1d 3e ec 7e 8f 3e
       0.10492777 0.16151458 0.15382677 0.2802652
0003c0 76 2d d1 3c b5 6c 29 bd cb 75 4e 38 c5 bb 1b bd
       0.025534373 -0.041363437 4.922393e-05 -0.038020868
0003d0 38 fc 88 3d e4 6a 79 3c ad 8f 76 bd 23 8a 68 bd
       0.06688732 0.015223239 -0.060195614 -0.056772362
0003e0 0c ec 1f bd 6e 0b ad bd 8d 9a a8 bc b4 a2 51 bd
       -0.03904347 -0.08449446 -0.020581508 -0.051180556
0003f0 86 57 ae bc a3 fa 09 3c 79 ce df bc c2 ee f1 3c
       -0.021281969 0.008421573 -0.027320134 0.029532794

conv2.bias f4 [96]
000000 a4 1a f0 bc c4 e3 16 3c 84 ba 03 be 9a 7d e7 bd
       -0.029309578 0.009209577 -0.12864119 -0.113032535
000010 c9 3b cc bd f8 2d 58 bd 10 96 d7 bc 79 ce ec bd
       -0.099723406 -0.052778214 -0.026316673 -0.11562819
000020 08 b6 dd bd a1 5e 7a 3d c5 9d c0 3b 75 35 1b 3c
       -0.10825735 0.0611254 0.0058781826 0.009473194
000030 98 7f 38 bd aa 1a ae bd 08 a8 78 bd f4 2a b9 bd
       -0.045043558 -0.085011795 -0.060707122 -0.09041396
000040 b3 10 9c bc c8 e0 08 be c8 18 2a bd 5a 77 11 bd
       -0.019050932 -0.13366997 -0.04152754 -0.035514213
000050 a2 59 aa 3d 66 27 20 bd 93 de 41 3c 95 59 6d bd
       0.08317877 -0.039100073 0.011832851 -0.05794676
000060 da 65 ec 3c 2a 09 c5 bd f9 32 6c bd 26 ef 4b 3b
       0.02885716 -0.096208885 -0.0576658 0.0031117885
000070 dc 91 8a bd 06 b6 d0 bd ee 29 d2 bd 3d a5 af bc
       -0.06766102 -0.10190968 -0.10261904 -0.021441096
000080 f8 b4 34 bd 27 28 61 bc b7 0e af bd 38 e2 89 bc
       -0.044117898 -0.013742483 -0.085477285 -0.016831502
000090 a0 87 92 bd 8f b9 28 bd 29 3f 91 bd 9f 01 82 bd
       -0.07154775 -0.041192587 -0.07092125 -0.063479654
0000a0 94 5d 77 3c e2 e2 85 bd 6c 8d 9a bd cd d3 49 bd
       0.015097994 -0.06537415 -0.07546505 -0.049274255
0000b0 16 8f c6 bd 00 f2 9b bd 48 66 1c bd 56 c2 ed bd
       -0.0969526 -0.07614517 -0.03818348 -0.11609332
0000c0 a5 db 81 3c 02 45 0d bd c3 8d cb bd d1 49 c2 bd
       0.015851805 -0.03448964 -0.09939148 -0.094867356
0000d0 3a 27 2e 3c b7 c4 a4 bd f0 c2 01 be ba de c4 bb
       0.0106294695 -0.08045333 -0.12672019 -0.0060079964
0000e0 dd c8 9a bd c9 8b 08 be 6c 09 5c bd eb d6 6a bd
       -0.07557843 -0.13334574 -0.053719923 -0.057333868
0000f0 09 5a 87 3c eb de 57 3d ae 1c 2a bd ba e2 3b bd
       0.016522424 0.052702826 -0.041531257 -0.04587052
000100 1e 46 b9 bd b2 a5 1c bd 7a 45 78 bd f7 f0 8d bd
       -0.09046577 -0.038243957 -0.060613133 -0.06930726
000110 f6 8b 46 bc 25 26 bd bd 3c 53 ad bd c5 dd 0d be
       -0.01211833 -0.09235791 -0.08463141 -0.1385413
000120 3b 78 fe bd 6f df 8e 3b 93 25 9b bd 34 a4 8a bc
       -0.12425276 0.0043601315 -0.07575526 -0.016924001
000130 d4 59 26 bc 88 ac 19 3d fc 0f 9e bc 78 26 b4 bd
       -0.010153253 0.037518054 -0.019294731 -0.087964
000140 9d 2c b7 bd e6 2e 4c 3c 33 16 3a bd 6b 91 13 bd
       -0.08944056 0.012462353 -0.045431327 -0.036027353
000150 bd 36 ba bd 5d f7 4b bd 1b e1 f7 bd 80 3c 4f 3c
       -0.09092472 -0.04979645 -0.12103482 0.012648702
000160 cb 2a a6 bd 19 9e e3 bd 4e ce 12 bd 59 ee ca 3b
       -0.08113631 -0.11114139 -0.03584128 0.006192964
000170 27 8a bf bb 67 66 53 3c cf e5 03 bd ab 5f ae bd
       -0.0058453265 0.012902833 -0.032201584 -0.08514341

lstm1.weight_ih_l0 f4 [512, 96]
000000 c9 61 d0 bc ab 5b 9e 3d 32 96 77 3d 30 56 b6 bc
       -0.025437253 0.07732328 0.06044597 -0.022257894
000010 c5 bd bf bd a0 73 c5 bd 1e f7 9d bd 8d 30 55 bc
       -0.093623675 -0.09641194 -0.077131495 -0.013012064
000020 b3 25 e9 bc af 85 bc bd 3e 91 5a bd 9e 90 22 bd
       -0.02846036 -0.092051856 -0.05336117 -0.0396887
000030 e7 1a 07 bd f9 10 12 bd a5 df 1a 3c 6b 19 62 bc
       -0.03298464 -0.035660718 0.009452735 -0.013800005
000040 be 32 a3 bd a8 00 99 bd 3f 9d 88 3c 0c bb ae ba
       -0.07968663 -0.07470828 0.016676543 -0.0013330891
000050 f6 0c 23 be 35 59 0d bd 52 8a e3 3d 78 6d af 3d
       -0.15922913 -0.034508903 0.11110367 0.085658014
000060 a8 cc 37 bd ff 58 7a 3d fb b5 23 3d 87 8d 18 bd
       -0.04487291 0.06112003 0.039968472 -0.037244346
000070 49 7d cb bb 24 87 85 ba a7 6e bb bc a9 40 ac 3c
       -0.0062100035 -0.001018737 -0.022879912 0.021026926
000080 b0 20 12 3d 9c ef 04 bb 7d d4 ac 3b 87 a4 ae 3d
       0.035675704 -0.002028442 0.005274354 0.08527475
000090 27 eb 9c 3c 91 a8 ce bc 8a 8e 4e bd de 19 b6 bd
       0.019155098 -0.025226863 -0.050428905 -0.088916525
0000a0 41 1b b9 3d 86 fc 3e bb 49 75 cf bd 19 51 90 bc
       0.090384014 -0.0029142215 -0.10129792 -0.017616795
0000b0 31 c3 e2 bd 84 0f c2 3d 54 8a db 3d 1c fa df bd
       -0.11072386 0.094756156 0.10719743 -0.109363765
0000c0 4b c4 2e 3d af 5b 07 3d 4e d7 c7 3c 51 aa dc 3d
       0.04266767 0.03304642 0.024394657 0.10774673
0000d0 03 f1 8d bd b8 a7 4f bd ed d2 00 bd c6 7a 95 bb
       -0.06930735 -0.05069706 -0.031451155 -0.004561755
0000e0 82 52 50 3d 41 19 a6 bd a9 39 72 bd 55 12 ec 3c
       0.050859936 -0.081102856 -0.05913702 0.028817335
0000f0 f8 a2 d5 3d 44 d4 ca bd e3 b7 88 bc 79 a0 24 3d
       0.104314744 -0.09903768 -0.016689247 0.0401921
000100 67 6d a1 3c cb 1b a8 bd 5e 6a 85 bd 6d 17 c4 3d
       0.019705487 -0.08208426 -0.065144286 0.095747806
000110 e0 2a bd bd 91 d4 ae bc b6 71 95 3c f0 fd 97 bd
       -0.092366934 -0.021341594 0.018242698 -0.074214816
000120 6a 15 66 3c 64 d9 6e bd 57 ca 16 3e af 43 14 be
       0.014043191 -0.05831279 0.14725624 -0.14478944
000130 e6 bc fa bd 2d 32 8c 3d 2c c9 f9 bd ec ee bb 3d
       -0.12243061 0.06845508 -0.121965736 0.0917643
000140 34 4a 63 3d c8 9a 4d bd 81 d4 36 3e d2 5c b5 bd
       0.055490687 -0.05019644 0.17854501 -0.08855595
000150 03 b1 79 bd 9f 10 43 bc e5 0f d3 3c 41 22 fe 3c
       -0.060959827 -0.011905818 0.025764415 0.031022193
000160 02 af 77 ba 57 ae 84 3c 1b eb ea bd d3 a4 2c 3d
       -0.00094483804 0.016196413 -0.11470624 0.042149376
000170 8a ad 31 bc b3 60 c0 bd 27 74 43 3d 75 78 a5 bd
       -0.010844598 -0.09393444 0.047718193 -0.08079616
000180 ba 5e 22 bc 7a 36 39 bd d6 8a 70 3d 1e 95 38 bb
       -0.00991028 -0.04521797 0.058726154 -0.0028165053
000190 b3 45 1b bd d8 4b ee bb 9f 78 1b 3c 76 89 b0 3d
       -0.037908267 -0.007272225 0.0094892075 0.086199686
0001a0 b7 db e3 bd 81 94 26 3d 90 46 d3 bb e9 a4 c9 3a
       -0.11125892 0.040668968 -0.0064476207 0.001538423
0001b0 35 4b ee bd 1d 25 6f bd 15 92 bc bd 7b 03 88 3d
       -0.11635438 -0.058385003 -0.092075504 0.06641289
0001c0 3c 5b 40 bd ef 56 85 bc 51 31 11 bd d4 7d e2 3b
       -0.046962008 -0.016276805 -0.035447422 0.0069119725
0001d0 e7 6e 46 bd dc ee 17 3d d7 53 34 3c 3f c4 5d 3c
       -0.04844561 0.03709303 0.011006317 0.013535558
0001e0 5e 18 54 3c 69 b5 62 3c 99 79 b7 3d 64 28 d5 3d
       0.012945263 0.013837197 0.0895874 0.104080945
0001f0 75 61 22 3d 87 77 6a 3d 75 ba a1 3d 60 ad ae 3c
       0.039643724 0.057242896 0.07896892 0.021322906
000200 43 92 3a bd d9 b4 11 3d db f9 9e bd ce 1f a4 bc
       -0.045549642 0.03557286 -0.077625 -0.020034697
000210 04 3e 88 bd b5 f0 d8 bd 8c e1 91 3b 36 a0 b1 bd
       -0.066524535 -0.10592786 0.004451936 -0.08673136
000220 39 52 d9 bd e9 01 9f bc 3a 99 88 bd 85 71 4c 3b
       -0.10611386 -0.01941009 -0.06669851 0.0031195593
000230 ab c4 c2 bd c9 0c 8a 3d 73 de b9 bb 15 ec db bd
       -0.09510168 0.0674072 -0.00567227 -0.107383884
000240 15 e0 ba bd 37 f0 32 3d e3 d7 9e 3c 79 ff f8 bc
       -0.091247715 0.043686118 0.019390052 -0.030395256
000250 ff 53 e3 bd 9f 76 14 bb 1c 5a 36 bd 41 13 2c be
       -0.11100005 -0.0022653711 -0.04451953 -0.1680422
000260 b4 3c 22 bd 7e 9f 5d 3d 6c 6b a4 3c 95 12 a6 bc
       -0.039608672 0.05410718 0.020070754 -0.020272532
000270 3f b3 50 bc 68 38 bf 3b f7 fc aa 3c 5e 99 dc bd
       -0.012738048 0.0058355816 0.020872576 -0.1077144
000280 0e 0f d6 bc fc 9c 09 bd b3 e8 ac bd 09 37 c2 3d
       -0.026130226 -0.033596978 -0.08442821 0.094831534
000290 d9 8a 73 3c e4 a8 5d bb d5 71 f9 bc 49 00 5e bd
       0.014864647 -0.003382259 -0.030449787 -0.05419949
0002a0 38 24 fc bd e1 58 9e bd 71 e0 85 bd b0 3a 61 bd
       -0.12311596 -0.07731796 -0.065369494 -0.05498761
0002b0 df 79 0b 3d 40 9c 72 3d 78 8d 32 bd c4 19 86 bd
       0.034051772 0.059231043 -0.043591946 -0.06547883
0002c0 5d ca 34 3d fe 26 4f bd 1f fb 49 3d 05 c8 8b 3c
       0.0441383 -0.050574295 0.049311753 0.01706315
0002d0 7c ae 05 3e d0 82 24 3d 52 64 c8 bd 3d 4a 1e be
       0.13054842 0.040163815 -0.097847596 -0.15458007
0002e0 b4 c8 7d 3d 96 63 42 3d 11 d7 90 bd 01 d1 15 bc
       0.061958984 0.047458254 -0.07072271 -0.009144069
0002f0 a4 6e c9 bd 97 4f b7 bd af 45 69 bd 35 c3 12 3c
       -0.09835556 -0.089507274 -0.05695122 0.008957674
000300 f9 e8 a9 bd 5c 11 95 3b 8c b7 83 3d 4d 4b 82 bd
       -0.08296389 0.0045491885 0.06431493 -0.06362019
000310 f6 42 6d bd 6d 16 83 3d ec 71 10 bd a1 ec f8 3c
       -0.057925187 0.06400762 -0.035264894 0.030386271
000320 ee df c8 bc 96 c8 da bd 00 23 60 3c 8f f5 bd bc
       -0.02452084 -0.1068279 0.01368022 -0.02318838
000330 36 dc bb 3d 3b 0b 36 bd 2b a0 32 3d d9 e8 e3 bd
       0.09172861 -0.044444304 0.04360978 -0.111283965
000340 41 a2 52 3d c1 3d 92 3d 2e 49 c5 3d f7 c9 98 bc
       0.05142427 0.07140685 0.096330985 -0.018650992
000350 c1 b1 ad bd 61 5a 53 3d d6 e4 aa bc da 43 1d bd
       -0.084811695 0.051599864 -0.02086107 -0.038394786
000360 94 6e 3d bd b7 de 97 3d cd a1 c6 3d d9 09 09 bb
       -0.046248034 0.07415526 0.0969883 -0.002091041
000370 48 03 ae 3d 1d 9b 99 3d 5b e7 b8 3c 9d 64 70 3d
       0.084967196 0.07500289 0.022571256 0.058689702
000380 3d b3 86 3c 04 26 ff bb 40 97 6c bc f7 bb b1 bc
       0.01644289 -0.0077865142 -0.014440358 -0.021696074
000390 91 03 e7 3c c5 16 84 bd 16 54 95 bc 72 9c 09 bd
       0.028199943 -0.064496554 -0.018228572 -0.033596464
0003a0 e1 91 5d 3d 62 96 66 bc b9 38 de bc e6 ee 44 bd
       0.0540942 -0.01407394 -0.027126657 -0.048079394
0003b0 9a 4d 64 3d 98 6a 52 bd ef 00 41 3c 17 16 aa 3d
       0.05573807 -0.051371187 0.011780008 0.083049946
0003c0 0a 47 18 3d c0 50 e2 bd 5d b6 bd 3c ef b7 32 3d
       0.037177123 -0.11050558 0.023158247 0.043632444
0003d0 91 c9 3e bd b2 bd 4f 3d b7 23 05 bc e3 46 0b 3d
       -0.046578947 0.050718017 -0.008126191 0.03400315
0003e0 4c b0 f6 bd 2b 33 51 3d f2 29 dc bd bb 2b 18 bc
       -0.12045345 0.05107419 -0.10750188 -0.00928777
0003f0 a0 9f f0 3d a3 51 32 be 1a d8 90 bd cd aa 06 be
       0.11749196 -0.17413954 -0.07072468 -0.13151093

lstm1.weight_hh_l0 f4 [512, 128]
000000 2c 8e 47 bd d2 3b 6c 3d 85 64 58 3c 0e c8 e4 bd
       -0.04871957 0.057674237 0.0132075595 -0.1117097
000010 06 4b 3d 3b 07 ff 15 3d 41 ed c7 3d 06 c7 b9 3c
       0.0028883829 0.036620166 0.097620495 0.02267791
000020 f4 77 65 3c 82 82 28 bc 0d 81 7b bd 43 1b 18 3d
       0.01400565 -0.010285022 -0.06140237 0.037135374
000030 e2 56 69 bd 69 46 e7 bd af 23 9f 3d 4b ac 4d 3d
       -0.056967624 -0.112927265 0.07770478 0.05021314
000040 57 78 9e 3c b3 b5 9d 3c 06 27 c9 bd cd 24 72 bd
       0.019344492 0.01925168 -0.09821896 -0.059117127
000050 c1 2e 74 bd df 5b 1e be 82 5a cf bb d2 d7 b4 bd
       -0.0596149 -0.15464734 -0.006327928 -0.08830227
000060 b9 ff 34 3d 11 bf 32 3c be d6 e3 3d 24 4a b9 3d
       0.04418919 0.010909812 0.11124943 0.09047344
000070 e0 97 91 bd 4b 87 26 3d 17 0c 88 bc a7 d7 13 bd
       -0.07109046 0.04065637 -0.016607327 -0.036094334
000080 86 00 02 be 38 cd 20 bd b8 f3 9f bd 9d bd 4f bc
       -0.12695512 -0.03925821 -0.078101575 -0.012679485
000090 d7 65 a3 3d 0e 93 d7 bc 10 28 ca bd 2f 7b 48 3d
       0.07978409 -0.026315238 -0.098709226 0.048945602
0000a0 ba 55 3a 3b 30 8a 2d bd 15 85 00 be 24 7e c7 bc
       0.0028432445 -0.042368114 -0.12550767 -0.02435214
0000b0 b6 30 60 3d 3e 80 87 bd d9 4c c2 3d ab 33 86 3d
       0.054733954 -0.06616257 0.09487314 0.06552824
0000c0 1f 8c fa 3d aa 18 16 3d 23 30 2d bc a8 0a f3 bd
       0.12233757 0.036644615 -0.010570559 -0.11867267
0000d0 1e ae cf 3d e4 8d 32 bc 13 d9 5f 3d 07 96 80 bd
       0.10140632 -0.010898087 0.054650377 -0.062786154
0000e0 f6 36 01 3e 0d c6 02 3e b1 75 48 bd 5d 10 80 bd
       0.12618622 0.12770863 -0.048940364 -0.06253121
0000f0 77 91 ef 3d 85 8b 79 bc bb 1e dc 3d e0 5e 54 3d
       0.11697667 -0.015231018 0.10748049 0.051848292
000100 ab 8f 44 bc a6 b3 c6 3d 49 5c 91 3d fc bd 98 3d
       -0.011997144 0.09702234 0.0709768 0.07458112
000110 c3 4b d7 3c 6f 21 66 bd d6 d0 34 bc bf 2e d8 bd
       0.026281243 -0.05618423 -0.0110361185 -0.10555791
000120 82 d1 fe 3b 67 2b 17 ba da c6 65 3d ff c7 50 3d
       0.00777644 -0.00057666603 0.056097843 0.05097198
000130 0d a4 93 bb 92 40 45 3d 79 80 31 bd 44 83 29 3d
       -0.0045056404 0.048157282 -0.04333541 0.04138495
000140 bd 36 7c bc 69 ce 01 be ec 12 7b 3d 86 8f 0c bc
       -0.01539391 -0.12676395 0.061297342 -0.0085791405
000150 12 c2 ab 3c 4a 4a d5 3d 77 df e7 bd cb ed 5e bd
       0.020966563 0.1041456 -0.113219194 -0.054425996
000160 8e 12 fe 3d ac b4 b8 bc 81 a6 07 3d f2 4c b1 bd
       0.12405883 -0.022547089 0.033117775 -0.08657254
000170 8d 1c 69 3d cc 6c 78 3c dd 4f 01 bd cd 14 4a 3d
       0.056911994 0.015162658 -0.031570304 0.049336243
000180 b5 5e e0 bd c0 d1 1e bd 94 e1 5a 3c 5d eb a5 3b
       -0.10955564 -0.038774252 0.013359446 0.005063458
000190 1e 4f 43 bd a4 c9 59 bd ff 69 85 bd 20 eb 25 39
       -0.047682874 -0.053170815 -0.06514358 0.00015823217
0001a0 4b e5 79 bd 98 45 4e 39 e5 33 cd bc b6 da fb bd
       -0.061009686 0.00019671617 -0.02504916 -0.12297575
0001b0 f8 28 9f ba ae f8 44 bb bc 5c 81 3d 34 ac f2 bd
       -0.0012142947 -0.0030055451 0.06316516 -0.118492514
0001c0 42 31 1b bd ab 1b 2d 3d f2 e1 f0 3d 3b 30 05 be
       -0.037888773 0.042262714 0.11761846 -0.1300668
0001d0 4c 49 29 bd 8c 44 b2 bd d5 29 34 3d f5 57 a3 bd
       -0.041329667 -0.087044805 0.043985207 -0.07975761
0001e0 98 2c 3e bd ef 41 20 bd d4 79 ee 3c eb 41 5c 3d
       -0.046429247 -0.03912538 0.029110827 0.0537738
0001f0 2e d8 1f 3d c6 64 91 bb 55 15 8f 3c 44 29 e6 3d
       0.039024524 -0.004437062 0.017466227 0.112383395
000200 d9 b9 c4 3d 6c de b8 3d 86 a7 80 bc 78 d9 d3 3d
       0.0960576 0.090267986 -0.015704881 0.10344213
000210 fe d7 30 bd 63 d4 39 bd 61 7d ef 3c fd ad d5 bc
       -0.043174736 -0.045368563 0.02923459 -0.02608394
000220 c5 59 6a 3d 21 6c 9d 3d 86 42 8d bd 12 25 2d 3d
       0.057214517 0.076866396 -0.06897454 0.04227168
000230 67 ae c1 3d 83 88 27 bd e3 32 de bc 61 53 33 bd
       0.09457093 -0.040901672 -0.027123874 -0.04378069
000240 d6 3e 48 bd de 0e a4 bc ae 0c c9 bc c4 e7 ac bd
       -0.04888805 -0.02002662 -0.024542179 -0.08442643
000250 bf 9d 66 3d 2c 76 b6 bd 4c 68 25 bd dc a3 85 bc
       0.056302782 -0.08909258 -0.04038267 -0.016313486
000260 1e 73 fb 3d d9 a8 52 3c 9b ad bb 3d 6d 99 3a bd
       0.12277816 0.012857639 0.09163972 -0.045556474
000270 54 17 e0 bd 91 c4 f3 3c 58 33 cd 3c 62 72 8c bc
       -0.109419495 0.029756816 0.025048897 -0.017144386
000280 52 30 46 bd c5 16 20 bd c3 d0 bc bd bb f1 d5 bc
       -0.048385926 -0.039084215 -0.09219506 -0.026116243
000290 d3 0e 80 bd fc 93 1a 3e 1a 78 aa 3c 3b 57 7d 3d
       -0.062528275 0.15095514 0.020809222 0.061850768
0002a0 ae 84 d3 bc 02 bd bd bd c1 29 d4 3c 1a 7d 02 3d
       -0.025820103 -0.09264566 0.025898816 0.031857587
0002b0 d4 7c 85 bd aa 0a c4 bc 2f 6b ec 3d 93 21 fb 3d
       -0.0651795 -0.023930866 0.11543881 0.12262263
0002c0 56 35 8a bd 13 da 09 be 6d 50 a5 ba 33 43 85 3c
       -0.06748454 -0.13462095 -0.001261247 0.016267395
0002d0 35 70 20 3d 15 3c 8b 3d 5e 8d 06 3a 7c 2e 36 bb
       0.03916951 0.06798569 0.00051327597 -0.0027798703
0002e0 06 9b f9 3b c8 40 3b bc 85 5c 13 3d b6 b1 39 3d
       0.007617357 -0.011429019 0.035976905 0.045335494
0002f0 3b c6 a1 3d c1 96 68 bd e0 58 d8 bd 85 74 0c 3e
       0.078991376 -0.056784395 -0.105638266 0.13716324
000300 0b 3f 0a 3d 8a 0c d0 3d 14 77 e8 3d 1e 9a 2c 3c
       0.03375153 0.10158642 0.11350837 0.010534791
000310 c4 6a 7f bd ac 1d 4f bd 68 93 1a bd c0 a0 7b bd
       -0.06235768 -0.050565407 -0.037738234 -0.0614326
000320 cc a8 2d 3d 03 60 a4 3c 98 51 d8 bc 6b dc 11 3d
       0.042397305 0.020065313 -0.026406094 0.035610598
000330 4b 60 de 3d ac cb 06 be b6 52 be bd 10 7f eb bd
       0.1085821 -0.13163632 -0.092931196 -0.114988446
000340 c8 48 3b bd c7 b4 16 3d ca 42 2a bd 92 b4 21 bd
       -0.045723706 0.036793496 -0.0415676 -0.039478846
000350 5e a0 91 bb 0c 88 c9 3d a5 92 47 bd 8f 8a 16 bd
       -0.004444166 0.09840402 -0.048723835 -0.036753234
000360 68 7e ab 3d d8 73 92 bb a2 18 a1 3d 4b db aa 3d
       0.083737195 -0.004469376 0.078660265 0.08342608
000370 6d f7 e9 3c 01 14 d7 bd 2e 74 13 3e 4e d2 ca 3d
       0.028560365 -0.10501862 0.14399788 0.09903394
000380 69 76 93 3c e4 d5 93 bb 63 72 d7 b9 9e 64 c7 3b
       0.018000798 -0.0045115817 -0.0004109322 0.0060849926
000390 da ef f7 bd 7d 9a a0 bd 96 ad 84 3d 44 c6 b2 3d
       -0.12106295 -0.07841966 0.064784214 0.087292224
0003a0 98 25 1a bd 86 5c 34 bc 8b 10 9a 3d d3 8f 09 3d
       -0.03763351 -0.011008387 0.075226866 0.033584427
0003b0 f8 d8 e8 3d 55 17 96 bd ce c4 99 3b 2f 11 d1 bd
       0.113695085 -0.07328669 0.0046926504 -0.10208356
0003c0 fd 32 d2 bd f5 fe 81 3d 91 25 d7 3d 02 c1 52 3d
       -0.102636315 0.06347457 0.10505212 0.051453598
0003d0 f7 db e2 bd dd ee 60 3d ba 78 8d 3d 02 dc 35 bc
       -0.11077111 0.054915298 0.069077924 -0.011099817
0003e0 cb d5 05 bd 12 20 7d bd f5 e2 12 3d cb 39 b7 3d
       -0.032674592 -0.061798163 0.035860974 0.0894657
0003f0 ae 64 1a bc c4 a9 52 3d b3 83 30 bd f0 64 3d bd
       -0.009423418 0.051431432 -0.04309435 -0.04623884

lstm1.bias_ih_l0 f4 [512]
000000 4a 54 e4 bc df 73 23 be 6b c8 b7 3a 6a d5 27 be
       -0.027872223 -0.1596217 0.0014021521 -0.16390005
000010 78 c5 93 bc da ea 8f bc c6 97 e2 bd fb 42 c5 bc
       -0.018038496 -0.01756804 -0.11064105 -0.02407979
000020 b6 1e 71 bd 12 39 1e bd 33 48 22 bc 7d 17 6b bd
       -0.05886718 -0.038628645 -0.009904909 -0.057395447
000030 03 d9 05 be 24 2d 8c 3d 0e 2f 73 bd 12 f9 fb bd
       -0.13071065 0.068445474 -0.059371047 -0.12303366
000040 f5 2b 8f bd 61 84 d5 bd a0 63 f3 3b f8 99 1c be
       -0.06990806 -0.1042564 0.0074276477 -0.1529311
000050 00 21 8b bd 25 0b 52 bd dd a1 a1 3a 1a f6 e3 3c
       -0.067934036 -0.05128016 0.0012331564 0.027827311
000060 87 b2 8e 3c c4 17 17 3d 90 f1 44 3d 92 ff 0f bc
       0.017419113 0.0368879 0.048081934 -0.00878896
000070 d8 25 c7 bd 52 e6 39 3d b0 39 0d bd 5f 80 3a bc
       -0.09724015 0.045385666 -0.034478843 -0.011383145
000080 5b e3 b1 bd 10 8b 07 be 9d 76 27 bd b6 10 6e be
       -0.08685943 -0.13236642 -0.040884603 -0.23248562
000090 70 95 b8 3b 32 d1 b7 bd 1d 6e 31 bd 6c 6a bc bd
       0.0056330487 -0.08975448 -0.043317903 -0.09199986
0000a0 d2 9a 4a 3d 4d 1c 53 bd b3 29 f8 bd ec 83 04 bd
       0.049464054 -0.05154066 -0.121173285 -0.032352373
0000b0 d7 b8 4f bd 17 66 10 be ec ac 44 bc ac 1d 9c 3b
       -0.050713386 -0.14101444 -0.012004118 0.0047642794
0000c0 dd 90 2d bd 48 05 48 bd 3f 8d e5 bd f5 12 66 bd
       -0.04237448 -0.04883316 -0.11208581 -0.056170423
0000d0 7d 68 c5 bd 8c 09 b2 bd 7e 6f 23 be f2 34 be bd
       -0.0963907 -0.08693227 -0.159605 -0.09287442
0000e0 d6 5a 88 bd 4b 9d b1 bb fc cd ea ba dd 55 6a bb
       -0.066579506 -0.005420362 -0.0017914171 -0.0035756745
0000f0 50 19 94 3b e8 1e bf bd 78 79 a2 3b 41 48 6d bd
       0.004519619 -0.09332067 0.004958328 -0.057930235
000100 a7 a8 9c bb 64 4b b9 bc 97 09 94 bc 3e c3 98 bd
       -0.004780847 -0.022618957 -0.018070979 -0.074591145
000110 9c 6c 02 bd e2 e9 d2 3c 61 54 99 bd 40 16 65 bc
       -0.03184186 0.02574629 -0.07486797 -0.013982356
000120 a0 1f 6d bc 03 ad a7 bc 61 f1 9d bd 92 e6 94 3c
       -0.014472872 -0.02046824 -0.07712055 0.01817635
000130 78 9a 69 bd 54 11 5c bd b4 62 8e bc 5f ff bd bd
       -0.05703208 -0.053727463 -0.01738105 -0.09277224
000140 a5 9c d6 bd dc b7 32 bd bd 11 ad bd 29 ad 92 bd
       -0.10479096 -0.043632373 -0.08450649 -0.07161934
000150 90 73 9b bb 0d dc b1 bd f0 d9 84 bc 39 d6 18 bd
       -0.0047440007 -0.086845495 -0.016217202 -0.037313674
000160 a7 89 0b be d4 33 39 bc e1 e5 00 be ec 54 7a bd
       -0.13626729 -0.011303861 -0.12587692 -0.061116144
000170 0e 86 65 bd a0 26 13 bd 09 96 3c be 68 ad a9 bd
       -0.056036048 -0.035925508 -0.18416609 -0.08285028
000180 7e 73 a4 bd 60 4e a1 bd 48 2c 69 bd 82 81 8c 3b
       -0.08029841 -0.07876277 -0.056926996 0.0042878995
000190 98 d2 c3 3c 17 3b 8e bc fd b3 13 be eb ae f1 bd
       0.02390413 -0.01736216 -0.14424129 -0.11800941
0001a0 b0 06 46 bd aa 89 8d bd 2e 90 6d 3d d7 a6 88 bd
       -0.04834622 -0.06911023 0.05799883 -0.06672447
0001b0 f3 c8 ae bd 40 6e c1 bb 27 82 11 bd 8b 25 f4 bc
       -0.08534422 -0.0059030354 -0.035524514 -0.029803058
0001c0 d6 1a fa bd 37 91 2b 3d b4 7d 5e 3d 07 c0 73 3d
       -0.1221215 0.041886535 0.0543191 0.059509303
0001d0 20 f8 5a bd 36 16 e1 bd e1 6d a7 bd c2 2f 98 bd
       -0.053459287 -0.109905645 -0.081752546 -0.07430984
0001e0 79 32 16 be 7b fc 96 bd 49 a9 65 bd 0d 0f 08 be
       -0.14667691 -0.073723756 -0.056069646 -0.13286991
0001f0 af 0f 65 3c 38 89 04 be 45 da d1 bb 76 55 eb 3c
       0.01398079 -0.1294297 -0.0064041936 0.028727274
000200 8d 00 6b bd c2 1a 88 bd 06 de f8 bd c1 09 c6 bd
       -0.057373572 -0.06645729 -0.121517226 -0.09669829
000210 5b b9 e5 bc 24 b5 aa bd 18 28 ea bd c2 f1 6f bd
       -0.028042486 -0.08335331 -0.114334285 -0.058580168
000220 c8 1d a8 bc 07 a8 48 bd 69 01 d6 bd 42 11 be bd
       -0.020522013 -0.04898837 -0.10449488 -0.092806354
000230 ae 70 37 be e2 36 d6 bc ae ab 84 3b 86 d6 0c bd
       -0.17914078 -0.026149217 0.004048786 -0.034384273
000240 e8 7e 75 bd b8 18 d8 bd c2 c2 1d 3c eb 4f fe bd
       -0.05993548 -0.1055159 0.009628953 -0.12417587
000250 7a e5 f3 ba 1d b8 9d bd ec 3b b5 3c 6f ac d9 bc
       -0.0018607818 -0.077011324 0.0221233 -0.02657148
000260 bc 05 d5 bd ce 35 ea bd 72 9b 93 bd 78 68 e2 3c
       -0.10401484 -0.11436044 -0.07207383 0.027637705
000270 d9 26 0b be c7 5e a5 3c 92 b3 e0 bd b1 8e 89 3c
       -0.13589038 0.020186795 -0.1097175 0.016791673
000280 c1 03 fd bd 65 ba 7c bd dc 84 95 bd 16 ab 28 be
       -0.123542316 -0.061701197 -0.073007315 -0.16471514
000290 64 ae 8a bd 5a 61 59 bc 32 78 81 3c d3 f1 69 bd
       -0.067715436 -0.013267839 0.015804384 -0.057115387
0002a0 59 a6 a6 bd fb 42 37 3d 0f cf fb bd cc 6f 0f be
       -0.08137197 0.044741612 -0.12295353 -0.14007491
0002b0 06 b6 11 be de 39 06 bd 19 c4 37 be d5 a0 90 3d
       -0.14229593 -0.03277003 -0.17945899 0.07061926
0002c0 02 88 94 bc df 9b ec bd 0a c5 b8 3c 75 ec 07 be
       -0.01813126 -0.115531676 0.022554893 -0.13273795
0002d0 1e 45 b1 bd 68 54 ba bd 31 30 18 be 55 28 35 be
       -0.08655761 -0.090981305 -0.14862134 -0.17691167
0002e0 56 c9 b5 3c 61 b9 c6 bd 8a c7 72 bd 37 12 44 bd
       0.022190731 -0.09703327 -0.059272327 -0.047868934
0002f0 fd 94 ed 39 f1 3b 1a be de 12 8e bc 12 c1 0a bd
       0.00045315168 -0.15061928 -0.017342981 -0.033875532
000300 d9 de 0b 3d 4c a2 e6 bc 34 c1 0c be e4 eb ba bc
       0.03414807 -0.028153561 -0.13745576 -0.02281756
000310 90 ac 2d bd 07 11 56 3b c1 9b c5 bd 3e e2 e3 bd
       -0.042400897 0.0032663958 -0.09648848 -0.11127137
000320 87 c1 39 bd 8f fb a5 bd fd bf 0c be ac 43 e9 3c
       -0.045350578 -0.081046216 -0.13745113 0.028474651
000330 52 1f cb bc 19 eb 42 bc 73 ed 23 bd 88 81 d6 bd
       -0.024795208 -0.011896872 -0.04002137 -0.10473925
000340 8f e3 d3 bd f4 fe 29 bd 9e 70 b7 bd 0a 3e 46 3a
       -0.10346138 -0.041502908 -0.08957027 0.0007562345
000350 db c4 08 be 40 d3 a3 bc 9d 1f 0c bd 29 8a d7 3a
       -0.13356344 -0.019998193 -0.034209836 0.0016444373
000360 46 a2 44 be e2 5a a9 bd 9f 5b 94 3b be be e8 bd
       -0.19202527 -0.08269288 0.0045275236 -0.11364506
000370 31 ff 31 bd ff 8b c6 3c bf a3 16 be 78 00 94 bd
       -0.04345626 0.024236677 -0.14710902 -0.07226652
000380 73 99 0e be 2c a7 00 be 2b 66 92 3d b6 51 18 be
       -0.13925724 -0.12563771 0.07148393 -0.1487492
000390 89 ba 11 bd 70 d3 13 bd 0b 5a 0f be 5f a5 b4 bd
       -0.035578284 -0.036090314 -0.13999192 -0.088206045
0003a0 d1 68 21 be 38 3a 0e be ce b8 0d be e0 be 14 be
       -0.1576264 -0.13889396 -0.13840029 -0.14525938
0003b0 62 79 de bd 7c 2a d7 bd 14 3a 12 bd 90 58 dd bd
       -0.10862996 -0.1050615 -0.03569992 -0.108079076
0003c0 04 5e 23 be 4d bf 05 bd 92 de fd bd 60 d7 7d bd
       -0.15953833 -0.03265314 -0.123959675 -0.061972976
0003d0 b7 25 ec bd 83 c2 8c bb 36 d1 7f 3d 08 11 a0 bc
       -0.11530631 -0.0042956485 0.06245538 -0.019539371
0003e0 a0 27 0d bd f2 d4 b8 bd 28 77 dd bd 91 f5 72 bd
       -0.034461617 -0.09024991 -0.10813743 -0.05931622
0003f0 2e b1 20 be b6 46 cb 3a a4 91 c9 bc a8 a4 f0 bc
       -0.15692589 0.0015508744 -0.02460558 -0.02937539

lstm1.bias_hh_l0 f4 [512]
000000 b2 54 fa 3c 02 f8 f4 bd 2d 68 c3 3c a0 2d 43 bd
       0.030557964 -0.11961366 0.023853386 -0.047650933
000010 c0 4f b5 bd 30 19 48 bd 79 89 b7 bc c1 5f d2 bd
       -0.08853102 -0.048852146 -0.02240442 -0.1027217
000020 11 06 74 3d ad 4d c0 bd 7e ea 29 bb 3f c4 a9 bd
       0.059576098 -0.093898155 -0.0025927122 -0.08289384
000030 6c 1a 07 be e2 40 c1 3a f5 52 53 bd 5f 9e d9 bd
       -0.13193673 0.0014744068 -0.051592786 -0.1062591
000040 0b eb 04 bd 92 97 73 bd c7 f4 a1 bd 08 22 74 bd
       -0.032450717 -0.05947072 -0.07908016 -0.059602767
000050 57 85 a4 bc e2 18 84 bd c3 1d 1a be de af 44 bd
       -0.020083113 -0.064500585 -0.15050416 -0.048019283
000060 c0 1f b1 3d e8 9b 52 bd be ec eb 3c b4 e3 74 3c
       0.08648634 -0.051418215 0.02879941 0.014946867
000070 ba 90 9d bd cd f6 d3 bd 5c 41 5c bd 2f 35 e7 bd
       -0.0769362 -0.10349808 -0.05377327 -0.11289441
000080 99 d0 96 bd b0 ae 13 be 7e 6e 87 bd 18 f2 3f be
       -0.073640056 -0.14422107 -0.066128716 -0.18744695
000090 d8 84 2c bd de 4e b4 bb 30 7a 9a 3b 3e 8e 3d bc
       -0.042118877 -0.0055025658 0.004714273 -0.011569558
0000a0 e8 75 44 bd 19 c9 92 bd 8b d2 06 bd 64 65 01 be
       -0.047964007 -0.071672626 -0.032915633 -0.12636334
0000b0 45 eb 6c 3c 29 56 d5 bc 4a 47 d4 bc aa 11 1a 3c
       0.0144603895 -0.02604206 -0.0259129 0.0094036255
0000c0 72 08 4b be a8 bd e0 bd 3d 10 c7 bd 63 05 6e bd
       -0.1982744 -0.10973674 -0.09719894 -0.058110606
0000d0 7e d6 9a 3c 46 0a e2 bd 58 06 75 bd 05 ed 9e bd
       0.018901106 -0.11037116 -0.059820503 -0.07760052
0000e0 21 73 08 be 25 f8 ce bd 6d c4 5b bd e4 59 c9 bd
       -0.13325168 -0.101059236 -0.053654123 -0.098315984
0000f0 e2 f0 31 3d 72 11 9f bd d1 6e 49 bd 81 47 9b bd
       0.043442614 -0.07766999 -0.04917795 -0.07581998
000100 7f 21 c1 bd 5d bb ed bd c9 21 3d bd 48 57 f9 bd
       -0.09430217 -0.11608002 -0.0461748 -0.12174851
000110 8f 8f f6 bd 64 ef d8 bc 01 38 b3 bc f1 b8 4b 3d
       -0.120391004 -0.026481338 -0.02187729 0.04973692
000120 1c 0d 5b 3c d5 10 fa bd f3 c2 c4 3c b6 65 d5 bd
       0.013369825 -0.12210242 0.02401874 -0.104197904
000130 16 0f 30 3d 27 8d 0e 3c 11 ef 9e bd 62 62 3a bd
       0.042983137 0.0087006455 -0.07760442 -0.04550398
000140 59 c8 e0 bd 3e 27 19 bd 35 d9 47 bd 3d d2 b7 bd
       -0.10975713 -0.03739094 -0.04879113 -0.08975647
000150 5e 7c d3 bd 83 3f 00 bd 53 6b 94 bd cd 51 05 be
       -0.103264555 -0.03131057 -0.07247033 -0.13019486
000160 b1 c1 39 bd c5 6a 36 bd f4 61 e4 bd 5a fc c9 bd
       -0.045350734 -0.044535417 -0.111514956 -0.09862585
000170 6b 72 1a be 25 88 f6 3c 18 ac 22 be bc e2 7a 3c
       -0.1508271 0.030094216 -0.15885961 0.015312847
000180 f4 dc f3 bd c9 58 0c 3d c6 f3 cd bd ea 3f 04 bd
       -0.11907378 0.03426436 -0.10056262 -0.032287516
000190 cb 93 c7 bd 1d 8d fd bc 3b 84 14 be 07 79 e2 bd
       -0.09744986 -0.030951077 -0.14503567 -0.110582404
0001a0 0c be d7 bd 50 83 2d 3d 1a 00 9f bb 1f 81 9b 3c
       -0.105342954 0.042361557 -0.004852307 0.018982468
0001b0 f0 67 dc bc 55 39 35 3d b2 a4 6d bd d1 fb d1 bc
       -0.02690503 0.04424413 -0.058018394 -0.02563277
0001c0 39 bc 20 bd 42 df db bc f9 e2 fe 3c 26 50 ae bd
       -0.039242003 -0.026839856 0.031114088 -0.08511381
0001d0 b0 f9 25 be 27 32 73 bd cb 6a d1 bd f8 83 bf bc
       -0.1620853 -0.059374 -0.10225447 -0.023378357
0001e0 cb b5 95 bd f1 be f2 3b 04 15 42 bc 03 9b 2a be
       -0.07310065 0.007408016 -0.011845831 -0.16660695
0001f0 20 a1 d9 bd 61 ad 5d bd 5a ba 09 bd 4b 6c 05 3d
       -0.10626435 -0.054120425 -0.033624984 0.03257398
000200 d4 54 9b 3a 90 b3 af bd da da f6 bd 9d 1f 35 bd
       0.0011850842 -0.08579171 -0.120534614 -0.044219602
000210 74 29 01 be 3e cf c0 bd 1c 84 05 39 f3 d7 50 bc
       -0.1261347 -0.09414528 0.00012733083 -0.012746799
000220 cb 77 69 bd 92 c5 01 be 38 ba 30 bd a1 c6 f0 bc
       -0.05699901 -0.12673023 -0.043146342 -0.029391589
000230 db f5 48 be 27 dc c0 3d 88 d9 e6 ba 58 66 f2 bd
       -0.19625036 0.09416991 -0.0017612437 -0.11835927
000240 a4 ec 03 be ce a3 ff bd 88 c0 2c bd 47 3a 55 bd
       -0.1288324 -0.12482415 -0.0421758 -0.05205753
000250 a5 ff b4 bd 7c ad f0 bc 84 60 a9 bc cd 1f af bd
       -0.08837823 -0.029379599 -0.020675905 -0.085509874
000260 2c 29 96 bd ba 44 c1 bd 18 a5 63 3d 3c c4 18 bd
       -0.07332072 -0.09436937 0.055577368 -0.03729652
000270 53 c9 25 bd 31 1f 2b bd c5 3f 55 bd 86 cb 8b bd
       -0.0404752 -0.041777793 -0.05206277 -0.068259284
000280 3f 42 1a be 80 4a ec bd be a3 d1 bd 96 e8 08 be
       -0.15064333 -0.11537647 -0.102363095 -0.13369974
000290 aa 94 c6 bc a9 fe 3b be 6c 7a c6 3a 67 db 13 be
       -0.02424081 -0.18358864 0.0015142686 -0.14439164
0002a0 6c a8 65 bd 79 5d 55 bd 29 36 28 3c 90 9a 9d bc
       -0.056068823 -0.052091096 0.010266819 -0.01923874
0002b0 a1 3a 57 3c 20 37 2b 3c bb 69 82 bd 1c e7 22 3e
       0.013136537 0.010450155 -0.06367823 0.15908474
0002c0 92 12 54 bd 2a 22 9c 3c e9 e1 32 bc 9a 65 98 bd
       -0.051775523 0.01905926 -0.010918119 -0.07441254
0002d0 ea 86 0d be ec e4 ac bd 53 18 13 be ac 65 57 be
       -0.13820997 -0.08442101 -0.14364748 -0.21034878
0002e0 4e 07 f1 bc 1e 34 17 be 9b 87 cf bd 68 73 e7 bd
       -0.029422428 -0.14765975 -0.101332866 -0.11301309
0002f0 2d 48 04 be 6a 0b 12 be cc 4d 31 bd c6 7d 15 be
       -0.12918158 -0.14262167 -0.043287084 -0.1459876
000300 02 0b af bc 38 58 9a bd c7 bb fd bd 0e 93 d6 bd
       -0.021367554 -0.07536358 -0.12389331 -0.10477267
000310 7c 55 cd bd f1 89 44 bd e6 d3 4f bd 6a ea a7 bd
       -0.100260705 -0.047983114 -0.05073919 -0.08199008
000320 a5 9a d4 bd 33 43 0f bd c5 51 6c bd 2f 05 0e bd
       -0.103810586 -0.034976196 -0.05769517 -0.034672912
000330 77 5d df bd 04 b1 9c bd ee 52 2a bc 3e f4 b8 bd
       -0.10906499 -0.076509506 -0.010395749 -0.090309605
000340 fd 6d 42 bd 0a 25 27 bd d2 e4 33 be b3 a8 da bd
       -0.047468174 -0.040806808 -0.17567757 -0.10676708
000350 5c 88 07 bd 35 9b 77 bd 4a c2 e8 bc 74 ad 9c bc
       -0.033089027 -0.06045075 -0.028412957 -0.019125678
000360 36 97 1e bd b4 4c ea bd fb fb e6 bd 2d b6 4e bc
       -0.038718425 -0.11440411 -0.1127853 -0.012616676
000370 9f 07 af bc 11 56 0c 3c d2 de 07 bd 0b 8f 8e bd
       -0.021365939 0.008565442 -0.033171482 -0.06960877
000380 04 c5 16 be 7b 01 3b bd 42 6a 90 3d 28 ba ec bc
       -0.14723593 -0.04565571 0.07051517 -0.02889736
000390 7f 88 1b bd 8e 73 1d be 41 d8 27 bd e7 61 92 bd
       -0.03797197 -0.15376112 -0.04097772 -0.0714758
0003a0 4b ab 8f bd 85 85 06 be f1 9b 1d be e9 c4 b2 bd
       -0.070150934 -0.13136871 -0.15391518 -0.08728964
0003b0 ba 8b ab bd 8e 06 c9 bd f5 c0 be bd 96 74 35 3d
       -0.0837626 -0.09815703 -0.093141474 0.04430064
0003c0 b4 e4 39 be fe 36 3a bd 2a 97 9e bd 65 1a 32 bd
       -0.1815365 -0.0454626 -0.07743676 -0.043482203
0003d0 e3 ed ed bd a9 92 f8 bd db 10 6d 3c b8 21 5e bd
       -0.11617639 -0.12137348 0.014469351 -0.054231375
0003e0 41 81 0b be 76 83 03 bd 86 01 d6 bd 35 63 c4 bd
       -0.13623525 -0.032107793 -0.10449509 -0.09589235
0003f0 4b f1 4b bd 4f f8 55 bd 27 ca 0a be b4 4f 16 be
       -0.04979066 -0.05223876 -0.13553677 -0.14678842
