model/models/3d/trained_model.pt (torch, 666885 bytes, 17 tensors)

conv1.weight f4 [48, 5, 5]
0	0xbd251e50	-0.04031211
1	0xbe765725	-0.2405668
2	0xbe56527a	-0.209299
3	0xbc6c4553	-0.014420825
4	0xbd86b5c2	-0.06577636
5	0xbd06adab	-0.032880466
6	0x3c617e4b	0.013763021
7	0x3e079c2e	0.13243172
8	0x3e355ec8	0.17711937
9	0x3e150f47	0.14556609
10	0x3d5d99c1	0.05410171
11	0x3e13ad32	0.14421538
12	0x3dd7aec6	0.10531382
13	0xbdffd0dd	-0.124910094
14	0x3e2ce809	0.1688539
15	0xbd889bf4	-0.06670371
16	0x3e09717b	0.13422196
17	0x3d066eab	0.032820385
18	0xbe31b30c	-0.17353457
19	0xbe25ba89	-0.16184439
20	0x3dd502c8	0.10400921
21	0xbe904c07	-0.28183004
22	0xbdf71e22	-0.12066294
23	0xbe3e228d	-0.18567868
24	0x3dd5dc1e	0.10442375
25	0xbe10a351	-0.141248
26	0xbe5cf8be	-0.21579263
27	0xbd8e09d3	-0.069354676
28	0xbef1fd71	-0.47263673
29	0xbeac9594	-0.3370787
30	0xbe4b4410	-0.19850183
31	0xbe79be8a	-0.24389091
32	0xbe69976e	-0.22811672
33	0xbe3b7fe9	-0.18310513
34	0xbe3a7d06	-0.18211755
35	0xbe38fa97	-0.18064342
36	0xbe90ae43	-0.2825795
37	0xbeedaa67	-0.4641907
38	0xbe108038	-0.14111412
39	0xbe70b4dc	-0.23506492
40	0xbec0a971	-0.37629274
41	0xbec3c593	-0.38236675
42	0xbdb4de2c	-0.088314384
43	0xbe18df84	-0.14929014
44	0xbee2eb1d	-0.44320002
45	0xbdb9fbf6	-0.09081261
46	0x3dcf7b7d	0.101309754
47	0xbe100172	-0.14063051
48	0x3e38ed36	0.18059239
49	0xbe0c9a97	-0.13730846
50	0x3c9ce199	0.019150542
51	0x3e15211c	0.14563411
52	0x3de71559	0.112833686
53	0x3e16d972	0.14731386
54	0xbe89bcd0	-0.26901865
55	0x3df9bc60	0.12194133
56	0x3dc1e1f1	0.09466923
57	0x3de9973d	0.114057995
58	0x3e5d9abd	0.21641059
59	0xbe95f6f4	-0.29289973
60	0xbd6ac1d1	-0.057313744
61	0xbe3ff51a	-0.18745843
62	0xbdaa7770	-0.08323562
63	0xbbf9d540	-0.0076242983
64	0xbdb524b5	-0.08844892
65	0x3dcd5bcb	0.10027274
66	0x3c6f2737	0.014596752
67	0x3c3003d7	0.010743103
68	0x3e86d731	0.26336053
69	0xbb5fa7c4	-0.0034127096
70	0xbdf32f84	-0.11874297
71	0xbd546c33	-0.051861
72	0xbd8b2d4d	-0.0679575
73	0xbe9db26e	-0.30800194
74	0xbd11f81f	-0.035637017
75	0xbdfa0526	-0.12208013
76	0xbd3cbad4	-0.04607661
77	0xbe0b5941	-0.13608266
78	0xbea8223c	-0.3283862
79	0xbe3137df	-0.1730647
80	0xbd91613a	-0.070986226
81	0xbde0fd41	-0.10985804
82	0xbe5a44fb	-0.21315376
83	0xbdd7d5d4	-0.10538831
84	0xbdb45868	-0.08805925
85	0xbe6f1a58	-0.23349893
86	0xbe6051f0	-0.21906257
87	0xbd1c7682	-0.038198955
88	0xbe016ee7	-0.12639962
89	0x3c0856e2	0.008321496
90	0xbd55d556	-0.052205406
91	0x3d314689	0.04328016
92	0x3d1c557b	0.038167458
93	0xbd3c2b20	-0.045939565
94	0xbdb1a83c	-0.08674666
95	0xbd3cd45a	-0.04610095
96	0x3e057057	0.13031135
97	0x3e2da79a	0.16958466
98	0xbe3dd658	-0.18538797
99	0x3de59fad	0.11212096
100	0xbd96cbf4	-0.0736312
101	0x3e2c4d71	0.16826417
102	0xbdba104d	-0.090851404
103	0xbe4bd7b7	-0.19906507
104	0xbdba1ee3	-0.090879224
105	0x3e0622c3	0.13099198
106	0xbdcd7baa	-0.10033353
107	0xbe2a44db	-0.16627829
108	0x3e45bec9	0.1931106
109	0x3e3437dd	0.17599435
110	0xbd5f1ca0	-0.05447066
111	0x3ced1810	0.028942138
112	0xbd8d7214	-0.06906524
113	0xbd1dfb2c	-0.038569614
114	0x3deca132	0.11554183
115	0xbd69b698	-0.0570589
116	0xbe349547	-0.1763507
117	0x3d7bdc6c	0.061489508
118	0xbdfe959d	-0.1243088
119	0x3d44e2ec	0.048067972
120	0xbcfb4528	-0.030672625
121	0xbda0fdda	-0.07860918
122	0xbda0cfb7	-0.078521185
123	0x3e4c53d9	0.1995386
124	0xbdd748c3	-0.10511925
125	0x3d3f28a4	0.046669617
126	0xbd4284ea	-0.047490038
127	0xbdf64294	-0.120244175
128	0xbb433510	-0.0029786266
129	0x3e13040a	0.1435701
130	0x3de4cb47	0.111715846
131	0x3df4a528	0.119455636
132	0x3e8714c0	0.26383018
133	0x3d33c828	0.043892056
134	0x3e52845b	0.20558302
135	0x3e2b8286	0.1674901
136	0x3e19353a	0.1496171
137	0x3d5c2107	0.053742435
138	0xbd6f0863	-0.058357608
139	0xbd200597	-0.03906783
140	0x3af983f0	0.0019036513
141	0x3d107916	0.035271727
142	0x3c400895	0.011720796
143	0x3e3da29f	0.18519066
144	0x3e28db75	0.16489966
145	0x3cf85d9b	0.030318072
146	0xba8a585e	-0.00105549
147	0x3d8861d8	0.06659287
148	0xbd1726ce	-0.03690224
149	0x3dbfd1ae	0.09366165
150	0xbc67d272	-0.014149295
151	0xbe35deec	-0.17760819
152	0x3c88dad9	0.016705917
153	0x3cfed545	0.031107554
154	0x3d9cc980	0.076556206
155	0xbdc1e62f	-0.09467732
156	0x3dd2309a	0.10263176
157	0x3e122d5f	0.1427512
158	0x3d64a654	0.055822685
159	0x3db813ba	0.089881375
160	0x3de0ebd6	0.10982482
161	0x3cfb174b	0.030650755
162	0x3dee8097	0.1164562
163	0xbe241009	-0.16021742
164	0x3da4ac69	0.08040697
165	0x3d22e1ec	0.039766237
166	0xbe77bc03	-0.24192815
167	0xbe199e89	-0.15001883
168	0xbd4f2f5b	-0.05058227
169	0xbdd9bb80	-0.10631466
170	0xbe587e71	-0.21141984
171	0x3d89300d	0.06698618
172	0xbe9f384b	-0.31097636
173	0xbcdd2da4	-0.026999302
174	0x3d6c8f16	0.057753645
175	0xbd6e05d7	-0.058111038
176	0xbdc452c3	-0.09586098
177	0xbe5f5e7d	-0.21813388
178	0xbe476c58	-0.19474924
179	0x3e093401	0.13398744
180	0x3d6a0406	0.057132743
181	0xbde6da6e	-0.11272131
182	0xbe2cda0a	-0.1688005
183	0x3d12241e	0.035678975
184	0xbe84acf3	-0.259132
185	0xbc9f8cdf	-0.019476352
186	0xbdd6d837	-0.104904585
187	0xbe2afd13	-0.16698103
188	0x3dc28a01	0.094989784
189	0xbe503190	-0.20331407
190	0xbd38c842	-0.045112856
191	0x3e274dab	0.16338222
192	0xbcbffc37	-0.023435695
193	0xbd577b5c	-0.05260788
194	0x3dbcdc87	0.0922175
195	0xbdce0855	-0.10060183
196	0x3e19bf0e	0.15014288
197	0xbd778403	-0.06042863
198	0x3c7fe2df	0.015618055
199	0xbe7132a6	-0.23554477
200	0xbe7459fd	-0.23862453
201	0xbe187c1d	-0.14891095
202	0xbd95f9f1	-0.07323063
203	0xbe4228ab	-0.18960826
204	0xbde04dc0	-0.1095233
205	0xbe1e54a7	-0.1546198
206	0x3db9f06b	0.09079059
207	0xbd822fd4	-0.06356779
208	0x3d26029d	0.040529836
209	0x3e0ac448	0.13551438
210	0x3d5db7fb	0.054130536
211	0xbe3fd166	-0.18732223
212	0x3e176c3d	0.14787383
213	0x3e0c6879	0.13711728
214	0xbd829b82	-0.06377317
215	0xbe670a6f	-0.22562574
216	0xbd264827	-0.040596154
217	0xbd25fdaa	-0.040525116
218	0xbe68c886	-0.22732744
219	0x3e195efa	0.14977637
220	0x3d95b0b9	0.07309098
221	0xbe097719	-0.13424338
222	0x3cdf7c4f	0.027280955
223	0x3c26d08f	0.01018156
224	0x3e1da60e	0.15395376
225	0xbda8f5fa	-0.08250041
226	0xbd6a00bb	-0.057129603
227	0x3da4d124	0.08047703
228	0x3daecd80	0.0853529
229	0xbc73f4d6	-0.014889916
230	0x3d81888f	0.063248746
231	0xbd9525ef	-0.07282626
232	0xbd24d5cf	-0.040242966
233	0x3d7455b8	0.05965206
234	0x3c6abb3e	0.014326869
235	0x3d5d4eff	0.054030415
236	0x3caa8e04	0.020819671
237	0x3dff4c6b	0.124657474
238	0xbd1af987	-0.037835624
239	0xbda60543	-0.08106472
240	0xbe23c63c	-0.15993589
241	0xbdfb166b	-0.12260135
242	0xbe1de4ed	-0.1541936
243	0x3d7d6ef7	0.061873402
244	0xbc15d818	-0.009145759
245	0x3cd21066	0.025642585
246	0xbe74dd2d	-0.23912497
247	0xbd05d8f0	-0.03267759
248	0x3df18e19	0.11794681
249	0x3a7e546b	0.00097019103
250	0xbd8e74fa	-0.06955905
251	0xbe3c4f08	-0.18389523
252	0xbceb3a98	-0.028714463
253	0x3d04ce80	0.032423496
254	0x3cbfe370	0.02342388
255	0xbd3c8478	-0.04602477

conv1.bias f4 [48]
0	0xbc702eda	-0.014659608
1	0x3e3a1795	0.18173058
2	0xbde418fa	-0.111375764
3	0xbd8374ea	-0.06418784
4	0xbe244c23	-0.16044669
5	0xbe532b67	-0.20622025
6	0x3c9ce8aa	0.019153912
7	0x3deda299	0.11603279
8	0xbe1d863e	-0.1538324
9	0x3c4d5896	0.012533328
10	0xbe207488	-0.15669453
11	0xbe8a4234	-0.27003634
12	0xbe5c82d1	-0.21534277
13	0xbe076b7a	-0.13224593
14	0xbe55fa48	-0.20896256
15	0xbbb60860	-0.0055551976
16	0xbd042b40	-0.03226781
17	0x3df5fb1d	0.12010787
18	0x3d7127a1	0.058875684
19	0x3e7d8801	0.24758913
20	0xbd94f4d6	-0.07273261
21	0x3e3662cd	0.17811127
22	0xbd90c0b3	-0.070680045
23	0xbe2cd553	-0.16878252
24	0x3e3508ca	0.17679134
25	0xbe6ce2f6	-0.23133454
26	0xbc97f770	-0.018550605
27	0xbd374de0	-0.044752
28	0xbb8d8eef	-0.0043200175
29	0x3e291f49	0.1651584
30	0xbe6eb2c3	-0.2331038
31	0xbe86e02f	-0.26342914
32	0xbe059fd6	-0.13049254
33	0xbe0b480a	-0.136017
34	0xbc622220	-0.013802081
35	0x3e3627fd	0.17788692
36	0x3e3c2eee	0.18377277
37	0x3e6b0a7d	0.2295322
38	0x3c6fc768	0.0146349445
39	0xbdc8ac3b	-0.09798475
40	0x3e44c285	0.19214828
41	0xbd502b2d	-0.050822426
42	0xbe3074ab	-0.17232005
43	0x3e8743b7	0.2641885
44	0xbe0ea618	-0.13930547
45	0x3db4baae	0.08824669
46	0x3e5710f7	0.21002565
47	0x3e81f2e0	0.2538061

conv2.weight f4 [96, 48, 5]
0	0xbd0ae6cf	-0.033911522
1	0xbc621940	-0.013799965
2	0xbcbfe82c	-0.023426138
3	0xbbb36300	-0.005474448
4	0x3ca7c22e	0.020478334
5	0xbb8fe085	-0.0043907785
6	0x3c7d7ff6	0.015472403
7	0xbd7e6525	-0.062108178
8	0xbcddc503	-0.027071482
9	0xbdb9f3d1	-0.090797074
10	0xbd94f699	-0.07273597
11	0xbe036bcb	-0.12834089
12	0x3d8a5ab5	0.06755582
13	0x3d8e23ea	0.06940444
14	0xbcf4fc70	-0.029905528
15	0x3b3c1cf6	0.0028703786
16	0xbd6565fd	-0.056005467
17	0x3cec81cc	0.028870486
18	0x3d027b35	0.03185578
19	0x3d0b6495	0.03403147
20	0x3d4a6c80	0.04941988
21	0xbd114696	-0.035467707
22	0xbbbd0f80	-0.00576967
23	0xbcde50fe	-0.02713823
24	0x3d5ad8b4	0.05342932
25	0x3d6536da	0.055960514
26	0xbd850591	-0.06495202
27	0xbc9e0d6a	-0.019293506
28	0x3d40d4fb	0.047078114
29	0xbd7b300b	-0.061325114
30	0xbc856204	-0.016282089
31	0xbd0bbbae	-0.034114532
32	0x3cfcf33c	0.030877702
33	0x3d10ac0f	0.035320338
34	0xbcb71e49	-0.022353308
35	0xbd90fb49	-0.07079179
36	0xbcdd115d	-0.026985819
37	0x3b7e66f1	0.0038818682
38	0xbd8da964	-0.06917074
39	0xbba012ec	-0.004885068
40	0x3c20dc7a	0.009818191
41	0xbd706514	-0.058690146
42	0x3cf58556	0.029970806
43	0x3d3fd79b	0.046836477
44	0xbd21c1ca	-0.039491452
45	0x3d1ae790	0.03781849
46	0x3d197dc0	0.03747344
47	0x3d864ba5	0.06557397
48	0x3ce63132	0.02809963
49	0x3c8cfa17	0.017209096
50	0xbd27d283	-0.040972244
51	0x3d525da6	0.05135884
52	0xbd48a9fe	-0.048990242
53	0x3cbdedcc	0.02318468
54	0xbcda4908	-0.026646152
55	0x3dcc190c	0.09965715
56	0x3e196a6e	0.14982006
57	0x3d5002da	0.05078397
58	0x3cfbdc8e	0.030744817
59	0x3d5d95a4	0.054097787
60	0xbd109b62	-0.035304435
61	0xbc416d02	-0.011805775
62	0x3e0dd8d9	0.13852252
63	0x3e321229	0.1738974
64	0x3d6fffa9	0.058593426
65	0x3cb730b4	0.02236209
66	0xbc29bb6c	-0.010359626
67	0xbd06f5ff	-0.032949444
68	0x3d17b4ea	0.037037767
69	0x3d814f9f	0.06314015
70	0x3d5e9893	0.054344725
71	0xbb923bec	-0.0044627097
72	0x3da95f7b	0.082701646
73	0xbbbdf247	-0.005796704
74	0xbd3563f5	-0.04428478
75	0x3c333148	0.010937043
76	0xbcbe77ec	-0.023250543
77	0x3d80cc95	0.06289021
78	0x3b81d400	0.00396204
79	0x3d58a4cc	0.052891538
80	0x3d3dde46	0.046354555
81	0xbbcc9048	-0.0062427856
82	0xbb96c3b0	-0.0046009645
83	0xbca6a548	-0.020342484
84	0x3d63264c	0.055456445
85	0xbda36741	-0.079786785
86	0xbd82cf6c	-0.06387219
87	0xbd4ff482	-0.05077029
88	0xbd2306af	-0.039801296
89	0xbd8489da	-0.064716056
90	0xbd3b4db7	-0.04572841
91	0xbc5f8ef5	-0.013644923
92	0x3d38edfa	0.045148827
93	0x3c471e54	0.012153227
94	0xbd8091c2	-0.06277801
95	0xbcf68692	-0.030093465
96	0xbafedd47	-0.0019444608
97	0x3c34f83f	0.011045515
98	0xbe46a1cb	-0.19397657
99	0xbddcf748	-0.10789353
100	0x3ae95489	0.0017801683
101	0xbdc40966	-0.09572105
102	0x3c47f5b7	0.012204579
103	0x3c4d9aaf	0.0125490865
104	0xbca9c7c3	-0.020725137
105	0xbd882bba	-0.06648965
106	0xbd8017a3	-0.06254508
107	0xbc428baa	-0.011874119
108	0xbe2a3d2d	-0.16624899
109	0xbdd1aad0	-0.10237658
110	0xbd961bdc	-0.073295325
111	0x3ccde930	0.025135607
112	0xbd94fd64	-0.07274893
113	0xbd812df0	-0.0630759
114	0x3d431e5b	0.04763637
115	0xbd0b8ec6	-0.034071706
116	0xbce6cd50	-0.028174073
117	0xbc0dd3cc	-0.008656453
118	0x3c94afd0	0.01815024
119	0x3d4591f2	0.048234887
120	0x3cf3ad3e	0.029745694
121	0xbd1a1971	-0.03762192
122	0xbd73edb1	-0.059552852
123	0xbc77ba14	-0.015120048
124	0x3c9af6cc	0.01891651
125	0x3b7412fa	0.0037242756
126	0x3d57ce4e	0.05268698
127	0x3d50fe79	0.051023934
128	0x3e07ee1f	0.1327443
129	0x3d8c8b52	0.06862511
130	0x3c086d47	0.008326835
131	0xbd81754c	-0.06321201
132	0xbd211131	-0.039323036
133	0x3d48047d	0.048832405
134	0xbd8e9c32	-0.06963386
135	0x3bfdf6d0	0.0077503696
136	0x3c98fb7c	0.018674605
137	0xbbf4a180	-0.0074655414
138	0xbc20ede4	-0.009822343
139	0x3ca84828	0.02054222
140	0x3c9a5fd1	0.018844517
141	0x3be9bebb	0.0071333325
142	0xbcd80fe3	-0.026374763
143	0xbd588e4a	-0.052870072
144	0x3cffe369	0.031236367
145	0x3d5dd390	0.05415684
146	0x3c83f7a8	0.016109303
147	0x3cedbd9f	0.029021082
148	0xbb439ce2	-0.0029848148
149	0x3d0b5adc	0.034022197
150	0x3db93fba	0.09045358
151	0x3c78bab9	0.015181237
152	0x3bad6244	0.005291255
153	0x3db3c854	0.08778444
154	0x3d1669e6	0.036722086
155	0xbe2306fb	-0.15920632
156	0xbe1e308b	-0.15448205
157	0x3d23d90f	0.040001925
158	0x3e514e38	0.20439994
159	0x3e4b7a9f	0.19870995
160	0x3caf8047	0.021423472
161	0xbd7e78ec	-0.06212704
162	0x3ca1cd60	0.01975125
163	0x3c81eedc	0.015860967
164	0xbd3a1d23	-0.045437943
165	0xbd1c579a	-0.03816948
166	0xbcd0eeea	-0.025504548
167	0x3c8bdae0	0.017072141
168	0xbd70e631	-0.058813278
169	0x3ce556a4	0.027995415
170	0x3c32c161	0.010910363
171	0x3bae28cf	0.0053149234
172	0xbcca3e9d	-0.02468806
173	0x3cb7fceb	0.022459468
174	0xbcda3d10	-0.026640445
175	0xbd477e22	-0.048704274
176	0x3c88558f	0.01664236
177	0xbd995d4c	-0.07488498
178	0xbe5ec8ba	-0.21756259
179	0x3ba42ed2	0.005010464
180	0x3c50340f	0.012707724
181	0xbd9fbd8c	-0.07799825
182	0x3c0c0b2a	0.008547584
183	0xbdb13f66	-0.086546704
184	0xba5ff7ba	-0.0008543689
185	0xbd8e0295	-0.06934086
186	0xbd831511	-0.064005025
187	0x3cb71522	0.022348944
188	0x3b51c52d	0.0032008395
189	0xbd6b3c45	-0.057430524
190	0xbd14453b	-0.036198836
191	0xbd45aa96	-0.048258387
192	0x3d440640	0.047857523
193	0xbc6021a5	-0.0136798965
194	0x3a5f0fe0	0.00085091405
195	0x3cd01c3a	0.025404084
196	0xbd46c1f6	-0.04852482
197	0xbcba052e	-0.022707548
198	0xbce780a4	-0.028259583
199	0xbcf8d449	-0.030374663
200	0x3d018e61	0.031629924
201	0xbcedeb20	-0.02904278
202	0xbd8d403f	-0.068970196
203	0xbbae6de1	-0.005323157
204	0xbdb48c80	-0.08815861
205	0x3c1b6368	0.0094841495
206	0x3d0e6541	0.034764532
207	0xbd300a4a	-0.042978562
208	0xbd535258	-0.0515922
209	0xbd8b627a	-0.06805892
210	0x3dba7adc	0.09105465
211	0x3c26f9e5	0.010191415
212	0x3dc9c8c6	0.098527476
213	0x3d905265	0.070469655
214	0xbcb537d3	-0.022121346
215	0xbd8c0912	-0.068376675
216	0xbb18246c	-0.0023215069
217	0xbe07b4b8	-0.13252532
218	0xbe5262d6	-0.20545515
219	0xbdd34e83	-0.10317709
220	0xbce05acf	-0.02738705
221	0x3d90cf98	0.07070845
222	0x3d2fdc6e	0.042934828
223	0x3d019773	0.031638574
224	0xbd6a7067	-0.0572361
225	0xbce48108	-0.027893558
226	0xbd8706dd	-0.06593106
227	0xbd898ead	-0.06716666
228	0xbd4ca88b	-0.049965423
229	0xbb837eaf	-0.0040129046
230	0xbdc05f49	-0.09393174
231	0xbc93025f	-0.017945467
232	0xbd803811	-0.06260694
233	0xbb23d55d	-0.0024999
234	0xbd2867c0	-0.04111457
235	0xbdd654a3	-0.10465362
236	0xbe91a65f	-0.28447244
237	0xbdbee32f	-0.093206756
238	0xbc11f51b	-0.008908535
239	0xbe25f918	-0.16208303
240	0xbd3df4c5	-0.04637601
241	0xbd31f2c8	-0.043444425
242	0xbd224f7c	-0.039626583
243	0xbda91460	-0.08255839
244	0x3ced20df	0.028946338
245	0xbd2bc566	-0.0419363
246	0xbda26e56	-0.07931201
247	0xbd650059	-0.055908535
248	0xbd21a443	-0.039463293
249	0xbd576362	-0.052585013
250	0x3cb3c949	0.021946566
251	0x3be3e2bb	0.0069545186
252	0xbd009f72	-0.03140206
253	0xbce505ff	-0.02795696
254	0xbadb3dce	-0.0016726793
255	0xbc988cf3	-0.018621897

conv2.bias f4 [96]
0	0xbe02ddbd	-0.12779899
1	0x3c22a8db	0.009927954
2	0xbbb743ad	-0.0055927844
3	0xbd96f757	-0.07371395
4	0xbba93151	-0.0051633497
5	0xbd718e2b	-0.058973473
6	0xbd8f5986	-0.06999497
7	0xbcd3b911	-0.025845082
8	0xbbc17f61	-0.0059050773
9	0xbd8963c8	-0.06708485
10	0xbddbb4e4	-0.107278615
11	0xbd3562c7	-0.044283655
12	0xbdb71ec9	-0.08941419
13	0xbd671234	-0.056413844
14	0xbda473ff	-0.08029937
15	0xbcf6c894	-0.03012494
16	0xbd8d9a91	-0.06914247
17	0xbd196ce6	-0.03745737
18	0xbdb85057	-0.089996986
19	0xbda1accc	-0.078942865
20	0xbe1837e3	-0.14865069
21	0xbdc57c8d	-0.09642897
22	0xbdc76482	-0.09735967
23	0xbd5956ab	-0.05306117
24	0xbd349408	-0.044086486
25	0xbbd3f510	-0.0064684227
26	0xbd718e41	-0.058973555
27	0xbdc18efe	-0.09451102
28	0x3b6e3f00	0.003635347
29	0xbd658235	-0.05603238
30	0x395d1a29	0.00021085948
31	0xbd8c2d77	-0.06844609
32	0xbafdda94	-0.001936751
33	0xbda333ca	-0.07968862
34	0xbc7abd50	-0.015303925
35	0xbe124954	-0.14285785
36	0x3b5edd96	0.0034006587
37	0xbdb6f09f	-0.089326136
38	0xbde07156	-0.10959117
39	0xbdb6df26	-0.08929281
40	0xbcf783df	-0.030214248
41	0xbe00fc60	-0.12596273
42	0xbd990613	-0.07471862
43	0x3c111b57	0.008856616
44	0xbc98cdc8	-0.018652812
45	0xbd715a4a	-0.058923997
46	0xbc57a0ad	-0.013160867
47	0xbdf4dd67	-0.11956292
48	0xbd82626c	-0.06366429
49	0xbc678ba0	-0.01413241
50	0xbd9b3467	-0.07578354
51	0xbd8784fc	-0.06617162
52	0xbda23502	-0.07920267
53	0x3d132dac	0.035932228
54	0xbd8a5ee0	-0.06756377
55	0xbe03bb61	-0.12864448
56	0xbde63850	-0.112412095
57	0x3c1f554d	0.009724927
58	0xbcbcb587	-0.023035778
59	0xbd627583	-0.05528785
60	0xbd1b2831	-0.037880126
61	0xbd36423a	-0.044496752
62	0xbd45b3ca	-0.048267163
63	0xbd61054e	-0.0549367
64	0x3d0defa5	0.03465237
65	0xbdb9d113	-0.09073081
66	0xbd8062f2	-0.06268872
67	0x3c3a2429	0.01136116
68	0xbca6223d	-0.020279998
69	0xbd739929	-0.059472237
70	0xbdca1a09	-0.09868247
71	0xba870c07	-0.0010303267
72	0xbca01c26	-0.019544672
73	0xbdacecac	-0.08443579
74	0xbd6d850c	-0.05798821
75	0xbd4625b5	-0.048375804
76	0xbd85d758	-0.06535214
77	0xbdb3a86e	-0.0877236
78	0xbd9f7984	-0.07786849
79	0xbdbcfe4c	-0.09228191
80	0x3bb90396	0.0056461794
81	0xbd05844b	-0.032596868
82	0xbdd42027	-0.10357695
83	0xbcf6d48a	-0.030130643
84	0xbdb76b7f	-0.0895605
85	0xbe00efe1	-0.12591507
86	0xbd0c3bd1	-0.034236733
87	0xbd19ee77	-0.037580933
88	0xbce51f2b	-0.027968964
89	0xbd0f3c7c	-0.03496979
90	0xbd2b17be	-0.04177069
91	0xbd78c33e	-0.060733072
92	0xbc2cf89e	-0.010557322
93	0xbd0476d2	-0.03233988
94	0xbbfc2a56	-0.0076954765
95	0x39b7f28c	0.00035085191

lstm1.weight_ih_l0 f4 [512, 96]
0	0xbc918a43	-0.017766124
1	0x3d94621f	0.072452776
2	0xbc1138ec	-0.008863669
3	0xbde70a0c	-0.11281213
4	0xbcdce234	-0.02696333
5	0xbd2a112c	-0.041520283
6	0xbe006396	-0.12537989
7	0x3d765d97	0.060147848
8	0x3d4131dc	0.04716669
9	0xbd95a013	-0.07305922
10	0xbd052b1d	-0.03251182
11	0xbb1f32d0	-0.0024291761
12	0xbdc9a297	-0.09845465
13	0x3ce8b7cd	0.028407956
14	0xbcec7efa	-0.02886914
15	0xbd616475	-0.055027444
16	0xbd773414	-0.0603524
17	0xbc4ff480	-0.012692571
18	0xbcfe4754	-0.031039871
19	0xbdb23733	-0.08701935
20	0xbd314630	-0.043279827
21	0xbc849394	-0.016183652
22	0x3db58e65	0.0886505
23	0xbcb2cb8f	-0.02182558
24	0xbe0b4983	-0.13602261
25	0xbcfcfad6	-0.030881327
26	0xbd08a727	-0.033362534
27	0x3d167f2b	0.03674237
28	0x3dd2781b	0.102768146
29	0xbce096a8	-0.027415588
30	0x3d9599ca	0.073047236
31	0x3d5fe344	0.054660097
32	0xbe331308	-0.17487729
33	0x3c75dadd	0.015005794
34	0x3c28c0b1	0.010299847
35	0x3cf716e1	0.030162277
36	0xbc882de2	-0.016623441
37	0xbdb2659b	-0.08710786
38	0x3cddee4b	0.027091166
39	0xbcd5adae	-0.026083793
40	0x3dc5a291	0.09650148
41	0x3d902f96	0.07040326
42	0xbd2ef341	-0.042712454
43	0x3d967bf0	0.07347858
44	0x3d48c3da	0.049014904
45	0x3d16b81c	0.036796674
46	0x3c132d4c	0.008982968
47	0xbcd6c417	-0.02621655
48	0xbc01a4ca	-0.007912824
49	0xbdfa15ac	-0.12211165
50	0x3d261f1c	0.040557012
51	0x3c080db8	0.008304052
52	0xbc757fa6	-0.014984047
53	0xbd96a2f8	-0.073553026
54	0xbc244945	-0.010027234
55	0xbd88400a	-0.066528395
56	0x3d4ff7fb	0.050773602
57	0x3cb8ae6c	0.022544108
58	0x3c8b90f6	0.017036896
59	0xbc18f493	-0.009335655
60	0xbd5d95ba	-0.05409787
61	0xbd2ca47a	-0.042149045
62	0x3b8d3567	0.0043093446
63	0xbdcfbc12	-0.101432934
64	0x3d48682a	0.048927464
65	0xbdeeae82	-0.116543785
66	0x3c383c19	0.011244797
67	0xbdcdd298	-0.10049933
68	0x3dce382c	0.10069308
69	0xbd760bf8	-0.060070008
70	0xbd582f8f	-0.05277973
71	0xbc029b9e	-0.007971672
72	0xbdbc258d	-0.0918685
73	0xbca2e4f2	-0.01988456
74	0x3d18c5cc	0.03729801
75	0x3ddb711f	0.107149355
76	0xbb49c8d4	-0.003078987
77	0x3d854d4f	0.06508886
78	0xbddb6a10	-0.10713589
79	0x3cab2ad2	0.020894442
80	0xba65f356	-0.00087719166
81	0xbdc08ecb	-0.094022356
82	0xbdc09d9d	-0.09405062
83	0xbd16e4e9	-0.0368394
84	0xbd2857d5	-0.04109939
85	0x3c800ce9	0.015631156
86	0xbcd6c068	-0.026214793
87	0x3d608dbd	0.054822672
88	0xbd04ad41	-0.03239179
89	0x3d3b186d	0.04567759
90	0xbe032ece	-0.12810823
91	0x3ab88b48	0.0014079595
92	0xbde7a863	-0.11311414
93	0xb9a0cd16	-0.0003067038
94	0x3d440fd0	0.047866642
95	0xbd96bd59	-0.07360334
96	0xbdf0a2f6	-0.11749832
97	0xbcddfdf2	-0.02709863
98	0xbde960db	-0.11395427
99	0xbda23d74	-0.079218775
100	0xbc709d69	-0.014685967
101	0xbd993109	-0.07480056
102	0xbe6c53e9	-0.23078884
103	0xbd8574b0	-0.06516397
104	0xbd61edda	-0.055158474
105	0xbdaaef8b	-0.083464704
106	0xbccb091c	-0.024784617
107	0xbd28fc1f	-0.041256066
108	0x3cc431c6	0.023949515
109	0xbd9cd3f6	-0.07657616
110	0xbe1d5730	-0.1536529
111	0xbe097266	-0.13422546
112	0x3cb5a1cf	0.022171883
113	0xbd8b76fd	-0.068098046
114	0x3c8f812b	0.017517647
115	0xbdff84ca	-0.124764994
116	0xbe047b26	-0.12937602
117	0xbc9b75a2	-0.01897699
118	0x3c814f94	0.015785016
119	0xbd234d13	-0.039868426
120	0xbbd2b0d5	-0.0064297714
121	0xbca85b82	-0.020551447
122	0xbb858a05	-0.004075291
123	0xbdb3d5f2	-0.08781041
124	0x3abc425a	0.0014363036
125	0xbc48915a	-0.012241686
126	0xbdc32df6	-0.09530251
127	0xbd3c2644	-0.04593493
128	0xbe149013	-0.14508085
129	0xbd4f6527	-0.050633576
130	0xbd0799df	-0.033105727
131	0xbe01b88e	-0.12668058
132	0xbd2442c8	-0.04010275
133	0xbdc37d19	-0.09545345
134	0xbe417165	-0.18890913
135	0x3c7abda0	0.015303999
136	0x3a5fd2b2	0.0008538171
137	0x3c968c50	0.018377453
138	0xbd487875	-0.048943
139	0x3daf3ade	0.0855615
140	0x3d0b4933	0.034005355
141	0x3caae54b	0.020861289
142	0xbd9b09ba	-0.075702146
143	0xbe2c2c5b	-0.16813795
144	0xbe04540a	-0.12922683
145	0xbe94b8b9	-0.29047182
146	0xbd0e0a9b	-0.034678083
147	0xbb85333d	-0.004064946
148	0x3c36e6da	0.011163438
149	0xbc41b8c1	-0.011823834
150	0xbdbb427a	-0.09143539
151	0xbe0bef69	-0.13665546
152	0x3db3d090	0.087800145
153	0xbd8b9137	-0.06814807
154	0xbbbf5914	-0.0058394764
155	0xbdc326e7	-0.095289044
156	0x3df02001	0.11724854
157	0xbd0e9c87	-0.034817245
158	0x3cdf6844	0.027271397
159	0xbdf5cc87	-0.12001901
160	0xbe978bda	-0.29598886
161	0xbd5dfb5b	-0.05419479
162	0xbd8a74ae	-0.06760536
163	0xbe83f08e	-0.25769466
164	0xbd80cfef	-0.0628966
165	0xbe438970	-0.19095397
166	0x3d380224	0.044923916
167	0x3dcc0acb	0.09962996
168	0xbd636a24	-0.055521145
169	0x3cd6cd5d	0.026220972
170	0x3d50247b	0.05081604
171	0xbd2823fc	-0.041049942
172	0xbe1cc626	-0.15309963
173	0x3b00b316	0.0019637994
174	0xbb910d8e	-0.0044266647
175	0xbe2e5e6d	-0.17028208
176	0xbd115312	-0.035479613
177	0xbe5798f5	-0.21054442
178	0xbe8845ee	-0.26615852
179	0xbdb43ece	-0.088010415
180	0x3d722562	0.059117682
181	0xbcc96f2e	-0.024589147
182	0xbdb29b1e	-0.087209925
183	0xbc7951be	-0.015217243
184	0xbe97480b	-0.29547152
185	0x3d0863ea	0.03329841
186	0xbe0e8da3	-0.13921218
187	0xbda893a8	-0.08231288
188	0xbbbbc23c	-0.0057299417
189	0xbc819836	-0.01581965
190	0xbd9d40bc	-0.07678363
191	0x3cc19782	0.023631815
192	0xbd26899e	-0.040658586
193	0xbdc980d9	-0.09839029
194	0xbdca4f0f	-0.098783605
195	0xbe3d3d66	-0.18480453
196	0xbde1d34c	-0.1102663
197	0xbded7842	-0.11595203
198	0xbd200720	-0.039069295
199	0xbd2cb0be	-0.042160742
200	0x3d206f12	0.039168425
201	0xbd12829b	-0.035769086
202	0xbdb378c4	-0.087632686
203	0xbde17d23	-0.11010196
204	0xbc9b3c86	-0.018949758
205	0xbe00315c	-0.12518829
206	0xbda38a83	-0.079854034
207	0xbe5e9951	-0.21738173
208	0xbdf013c4	-0.1172252
209	0x3d3672f4	0.04454322
210	0x3d030653	0.031988453
211	0xbe06dd1d	-0.13170286
212	0xbe0a9d15	-0.13536485
213	0x3c212565	0.009835576
214	0xbda91e26	-0.082577035
215	0xbd792cd9	-0.060833786
216	0xbe494753	-0.19656114
217	0xbd8e714d	-0.06955204
218	0xbcf5e82e	-0.030017938
219	0xbd57d461	-0.052692775
220	0x3c48dd5a	0.012259806
221	0xbdd08079	-0.10180754
222	0x3c70869b	0.01468053
223	0x3cd65271	0.026162358
224	0xbe8cd8cf	-0.27509162
225	0xbc4a9b0a	-0.012366066
226	0xbde3c771	-0.11122025
227	0xbdab3978	-0.08360571
228	0xbcf0602c	-0.029342733
229	0xbe01a6f5	-0.12661345
230	0xbd8ee850	-0.06977904
231	0xbd2a5283	-0.041582596
232	0x3c4d92b6	0.012547186
233	0xbe02e35b	-0.12782042
234	0x3d074d46	0.033032678
235	0xbd2c04fc	-0.04199694
236	0xbda9e7b9	-0.08296151
237	0xbdba31a9	-0.09091503
238	0xbe83816e	-0.25684685
239	0xbd947555	-0.07248942
240	0xbd194e20	-0.03742802
241	0xbe7e9b83	-0.2486401
242	0x3d9a18cf	0.07524263
243	0xbcd94381	-0.026521446
244	0xbde55984	-0.111987144
245	0xbd719946	-0.058984064
246	0xbe00ae9a	-0.12566605
247	0xbc2cdef2	-0.010551201
248	0xbd136a9d	-0.035990346
249	0xbd1a8ba3	-0.037730824
250	0x3d104ac0	0.035227537
251	0xbde5ed2d	-0.11226878
252	0xbdf2653e	-0.11835717
253	0xbd3a6b2e	-0.04551237
254	0xbd64afe8	-0.05583182
255	0xbe3b3012	-0.18280056

lstm1.weight_hh_l0 f4 [512, 128]
0	0xbd1505f1	-0.03638262
1	0x3ccbd6d6	0.024882715
2	0x3d676a06	0.056497596
3	0x3d987fee	0.07446276
4	0x3d15837c	0.036502346
5	0x3d9e69f7	0.07735055
6	0x3d3b06f7	0.04566094
7	0x3c85bfce	0.016326811
8	0xbd661afb	-0.056178074
9	0x3db74868	0.08949357
10	0x3c9cfce1	0.01916355
11	0x3cb551ba	0.022133697
12	0x3db1790c	0.08665666
13	0x3e0f7fa2	0.14013532
14	0x3dd45c7a	0.10369201
15	0xbd2e1c41	-0.042507414
16	0xbd90839e	-0.07056354
17	0xbd884a20	-0.06654763
18	0xbd60c663	-0.054876696
19	0xbd00fc37	-0.03149053
20	0x3cfdd7a8	0.030986622
21	0xbdb3e393	-0.08783641
22	0x3dcb0884	0.099137336
23	0xbe04b3b1	-0.12959172
24	0xbe60fe7d	-0.2197208
25	0xbcffd78e	-0.031230714
26	0x3cbd6ce7	0.023123218
27	0x3cc4dfa2	0.024032418
28	0x3b8d6049	0.0043144566
29	0xbd8315f4	-0.064006716
30	0x3c4059a3	0.011740121
31	0x3d3d468d	0.04620986
32	0x3d0407a8	0.032233864
33	0x3d42f681	0.047598366
34	0x3d420c28	0.047374874
35	0xbb27861a	-0.0025562108
36	0xbd16f02e	-0.036850147
37	0xbdd4e1ad	-0.10394607
38	0xbda33810	-0.079696774
39	0xbab43896	-0.0013749774
40	0x3df19f4d	0.11797962
41	0x3d76d7cf	0.060264405
42	0xbb1a3189	-0.002352806
43	0x3de8b255	0.11362139
44	0xbc56786f	-0.013090237
45	0x3cbb5c80	0.022871256
46	0xbd415dea	-0.047208704
47	0xbc82c6af	-0.01596388
48	0x3d5abd46	0.05340316
49	0xbdf882a7	-0.12134295
50	0xbd2bd19a	-0.04194794
51	0x3ccbdaae	0.024884548
52	0x3cec4b3f	0.028844474
53	0x3d8547f4	0.065078646
54	0x3da8991a	0.08232327
55	0x3d9170dd	0.07101605
56	0x3d9b98a4	0.07597473
57	0xbcc95ec7	-0.024581326
58	0xbd57d4b5	-0.052693088
59	0xbcabee35	-0.02098761
60	0xbddf0596	-0.10889737
61	0xbd7fa6ac	-0.06241481
62	0xbd71b80a	-0.059013404
63	0xbc224f36	-0.009906581
64	0xbaf96ec4	-0.0019030203
65	0x3d6b6c4e	0.057476334
66	0xbd7d5ad2	-0.06185419
67	0x3d04609c	0.032318696
68	0xbd740955	-0.059579212
69	0xbd8a5435	-0.067543425
70	0x3d8c3c20	0.068474054
71	0xbd7c01d2	-0.061525173
72	0x3d3948c7	0.04523542
73	0x3d608049	0.054809842
74	0xbd486ece	-0.048933797
75	0xbcbda376	-0.023149233
76	0x3cd79cfb	0.026319971
77	0xbc884c66	-0.016637992
78	0xbd12e9bc	-0.035867438
79	0x3db0179e	0.085982546
80	0x3d958bbd	0.073020436
81	0xbd40d9ad	-0.04708259
82	0xbd87a458	-0.06623143
83	0xbd439603	-0.047750484
84	0xbd931f5a	-0.07183714
85	0xbb9182ea	-0.004440655
86	0xbd2d0263	-0.042238604
87	0x3d64155e	0.05568444
88	0x3b8c0f64	0.0042742956
89	0x3dcf5bfb	0.10124966
90	0x3dd7e5c9	0.10541875
91	0x3c584279	0.013199442
92	0xbda1a796	-0.078932926
93	0x3d5e3297	0.054247465
94	0x3d45942d	0.048237015
95	0xbd4effb5	-0.05053683
96	0x3b80598b	0.0039169244
97	0x3cbb8df5	0.022894839
98	0xbdad2b1a	-0.084554866
99	0x3db37298	0.087620914
100	0x3d306e2f	0.04307383
101	0x3db0bfe9	0.08630354
102	0x3c8778eb	0.01653715
103	0x3d433200	0.047655106
104	0xbc51188b	-0.012762199
105	0xbb326362	-0.0027219881
106	0xbd7711d2	-0.06031973
107	0x3dfcc129	0.1234153
108	0x3acc44b8	0.0015584445
109	0xbd945e24	-0.072445184
110	0xbc82d3ca	-0.01597013
111	0xbdbbb985	-0.091662444
112	0xbd9804f7	-0.07422822
113	0x3d7b2c81	0.06132174
114	0xbcf3568e	-0.029704358
115	0x3d37d65b	0.04488216
116	0x3d9cdec0	0.07659674
117	0xbd66f4ca	-0.056385793
118	0x3b15ef46	0.0022878214
119	0x3dafe5cb	0.085887514
120	0x3dc58e5e	0.09646295
121	0xbc9635f1	-0.018336268
122	0xbdbb7e7d	-0.09154985
123	0x3e058ec0	0.13042736
124	0xbd681e04	-0.05666925
125	0xbe21a1cb	-0.15784375
126	0x3d5e358b	0.05425028
127	0xbdc8977e	-0.0979452
128	0x3e20a9ed	0.15689822
129	0x3d844c2f	0.06459843
130	0x3e7f3ea4	0.24926239
131	0xbe4f5aba	-0.20249453
132	0xbe261310	-0.1621821
133	0x3befefca	0.0073222863
134	0xbaf516e6	-0.0018698841
135	0xbd4fe2d2	-0.050753422
136	0xbd5e2e26	-0.05424323
137	0x3d9a8e62	0.075466886
138	0x3e28e32e	0.16492912
139	0x3d1c7479	0.038197014
140	0xbd1db158	-0.038499206
141	0xbb48e15e	-0.0030651907
142	0x3d12eac7	0.035868432
143	0x3deacd07	0.11464887
144	0xbc1d2e4f	-0.00959356
145	0xbdae99b9	-0.08525414
146	0x3dd6c4e0	0.1048677
147	0x3c80a301	0.015702726
148	0xbc6a4d8d	-0.014300716
149	0xbe11da61	-0.14243461
150	0x3dd5aebe	0.1043372
151	0x3dfc6996	0.123248264
152	0x3e3c2ee1	0.18377258
153	0xbd0b09b0	-0.033944786
154	0xbc12112a	-0.008915225
155	0x3bc37705	0.005965116
156	0x3e4685ea	0.19387022
157	0xbbf6e1a6	-0.0075342236
158	0x3da4b08e	0.08041488
159	0x3e45bc77	0.19310175
160	0x3cd03506	0.025415909
161	0x3d03ea7b	0.03220604
162	0xbc915053	-0.017738497
163	0x3d06367a	0.032766797
164	0x3e161657	0.1465696
165	0xbde7f6d0	-0.113263726
166	0x3d7c376c	0.061576292
167	0x3d2f68fe	0.042824738
168	0xbd8aa500	-0.067697525
169	0x3d496ce0	0.049176097
170	0x3dd96301	0.106145866
171	0x3db5c3c0	0.08875227
172	0xbd81b90b	-0.06334122
173	0x3e12eedf	0.14348935
174	0xbd2962f5	-0.04135414
175	0x3dddb33d	0.108252026
176	0xbd2658c3	-0.040611994
177	0x3dfffec1	0.12499762
178	0x3e0e57d5	0.13900693
179	0x3da8ed0d	0.08248339
180	0x3e0faddd	0.14031167
181	0xbde149f3	-0.11000433
182	0x3dd2fcbd	0.10302112
183	0xbe060c2d	-0.13090582
184	0x3e2ffaf6	0.17185578
185	0xbd4a6bd9	-0.049419258
186	0x3e060f85	0.13091858
187	0xbd3999b6	-0.045312606
188	0xbd31aba1	-0.04337657
189	0xbd1cde17	-0.03829774
190	0xbd97b658	-0.07407826
191	0x3cc3f1f4	0.023919083
192	0x3d9696fc	0.07353017
193	0x3ddc1e73	0.10747995
194	0xbe06fc40	-0.13182163
195	0xbdce5b44	-0.10076001
196	0x3e05d232	0.13068464
197	0xbe42f213	-0.19037656
198	0x3deb6d53	0.11495461
199	0xbd13057d	-0.035893906
200	0xbd9c0276	-0.07617657
201	0xbd6ccbd2	-0.057811566
202	0x3d8a31d8	0.06747788
203	0xbca4035a	-0.02002113
204	0xbe018cc7	-0.12651359
205	0x3e031837	0.12802206
206	0x3dc37bbf	0.09545087
207	0x3c0be219	0.008537793
208	0x3e195b4f	0.14976238
209	0xbe4b4b2b	-0.19852893
210	0xbd15b05e	-0.03654515
211	0xbda50dff	-0.0805931
212	0x3e09b8e9	0.13449444
213	0x3d443cd7	0.047909584
214	0x3cc755e0	0.02433294
215	0x3b880e8d	0.004152125
216	0xbdda69c3	-0.10664704
217	0x3de4195b	0.11137649
218	0xbe271101	-0.1631508
219	0xbe3e47b5	-0.18582042
220	0xbe198fb8	-0.1499623
221	0x3d6fee33	0.058576774
222	0x3da85173	0.0821866
223	0xbd92cfde	-0.07168554
224	0xbe1f9c21	-0.15586902
225	0xbd42b169	-0.047532473
226	0xbdca0cfe	-0.09865759
227	0x3e24e272	0.16102007
228	0xbdc06656	-0.09394519
229	0xbdef60ff	-0.116884224
230	0xbc00b6b5	-0.007856061
231	0xbe0f57b4	-0.139983
232	0xbd8cdfe0	-0.06878638
233	0xbe196129	-0.1497847
234	0xbe125207	-0.14289103
235	0xbdda0ce4	-0.1064699
236	0x3d5ab3df	0.053394195
237	0x3d111934	0.035424426
238	0x3db73fcf	0.089477174
239	0x3ca4cc60	0.020116985
240	0xbe16a708	-0.14712155
241	0x3e0077ba	0.12545672
242	0x3d625304	0.05525495
243	0x3d2f0c5a	0.04273639
244	0xbb58fb02	-0.0033108597
245	0xbd9b3e0c	-0.07580194
246	0x3dfafbf3	0.12255087
247	0x3e1a6ce7	0.15080605
248	0x3d99ad07	0.075037055
249	0xbe57393a	-0.21017924
250	0xbe889db8	-0.2668283
251	0x3e309922	0.17245916
252	0xbd5a7212	-0.053331442
253	0x3c21cd12	0.009875553
254	0xbdae777d	-0.08518884
255	0xbd7f6119	-0.06234846

lstm1.bias_ih_l0 f4 [512]
0	0xbd83af1d	-0.064298846
1	0xbdfa75d9	-0.12229509
2	0xbe5c98d8	-0.2154268
3	0xbdc2fd45	-0.095209636
4	0xbe3ac2ab	-0.18238322
5	0xbe129f56	-0.14318594
6	0xbe77f5b4	-0.24214822
7	0xbdea80d4	-0.11450353
8	0xbd2a52bb	-0.041582804
9	0xbe208936	-0.15677342
10	0xbe1d48ef	-0.15359853
11	0xbdb2dc26	-0.08733396
12	0xbcedf2c5	-0.029046426
13	0xbd7d9eac	-0.0619189
14	0xbdac6841	-0.08418322
15	0xbd3ae3b1	-0.0456273
16	0xbd03e355	-0.032199223
17	0x3c395755	0.0113123255
18	0xbd1e9335	-0.038714606
19	0xbceffd1a	-0.029295493
20	0xbdb50245	-0.088383235
21	0xbcb24a32	-0.021763895
22	0xbd94a6c3	-0.0725837
23	0xbdf13158	-0.1177699
24	0xbe494f9a	-0.19659272
25	0xbd9559c7	-0.07292514
26	0xbdf2189e	-0.118211016
27	0x3ca2297d	0.019795174
28	0xbe1a7411	-0.15083338
29	0xbc12e860	-0.008966535
30	0xbddf8e67	-0.10915833
31	0xbe28a941	-0.16470815
32	0xbd62a9d6	-0.05533775
33	0xbd2ae8f0	-0.041726053
34	0xbdff2ade	-0.12459348
35	0xbd57433f	-0.052554365
36	0xbdb23fab	-0.0870355
37	0xbdcb20e2	-0.09918381
38	0xbbb5defe	-0.0055502644
39	0xbcfb9343	-0.030709868
40	0xbd16c5a6	-0.036809586
41	0xbe01d436	-0.12678608
42	0xbe1873d6	-0.14887938
43	0xbe2b3b0e	-0.16721746
44	0xbe38ef87	-0.18060122
45	0xbd9ea239	-0.07745785
46	0xbe596b83	-0.21232419
47	0xbe0f2aba	-0.13981143
48	0xbd6d7d80	-0.057981014
49	0xbdba814d	-0.091066934
50	0xbe2bea2e	-0.16788551
51	0xbe2a6653	-0.16640596
52	0xbc192a45	-0.009348457
53	0xbbd47e59	-0.0064847884
54	0xbd23353a	-0.039845683
55	0xbcda8594	-0.026675023
56	0xbe1e101b	-0.15435831
57	0xbdbb14eb	-0.09134849
58	0xbe5b2607	-0.21401225
59	0xbd40e2ae	-0.04709118
60	0xbde8fe29	-0.11376602
61	0xbdafeec9	-0.085904665
62	0xbd1523cb	-0.036411088
63	0xbd68c700	-0.056830406
64	0xbd32a56d	-0.043614794
65	0xbcbe8a54	-0.02325932
66	0xbd9e9c0b	-0.077446066
67	0x3c6f2374	0.014595855
68	0xbe67e7b3	-0.2264698
69	0xbe01b75b	-0.12667601
70	0xbcfab7a5	-0.030605147
71	0xbdf66c49	-0.120323725
72	0xbde5cafb	-0.11220356
73	0xbdd18829	-0.102310486
74	0xbe583fa1	-0.21118023
75	0xbca9abb9	-0.020711767
76	0xbe295569	-0.16536488
77	0xbccc5281	-0.024941685
78	0xbde6157f	-0.11234569
79	0xbe28b35e	-0.16474673
80	0xbd062625	-0.03275122
81	0xbe34cfd0	-0.17657399
82	0xbd9dfaf4	-0.07713881
83	0xbdd21b2a	-0.102590874
84	0x3b4000ed	0.0029297427
85	0xba08a501	-0.0005212576
86	0xbe4af72c	-0.19820851
87	0xbddd58ab	-0.10807928
88	0xbe0aa4f5	-0.13539489
89	0xbdd0162b	-0.10160478
90	0xbe6937f7	-0.22775255
91	0xbdda712f	-0.10666119
92	0xbdb7864c	-0.08961162
93	0xbd098452	-0.033573456
94	0xbcab5151	-0.020912798
95	0x3d461d96	0.04836806
96	0xbe0887a3	-0.13332991
97	0xbe7f3796	-0.24923548
98	0xbe00f161	-0.12592079
99	0xbd9fd0b7	-0.07803481
100	0xbe5e3360	-0.21699286
101	0xbd901624	-0.07035473
102	0xbdd615a3	-0.104533456
103	0xbd914afa	-0.07094379
104	0xbd17a752	-0.037024803
105	0xbd9f54ea	-0.07779868
106	0xbd38c20b	-0.04510693
107	0xbe1606b2	-0.14650992
108	0x3c5e9be7	0.013586975
109	0xbd586a5e	-0.052835815
110	0xbe19688c	-0.14981288
111	0xbe183aea	-0.14866224
112	0xbd9bbda7	-0.07604533
113	0xbdaf457d	-0.08558176
114	0xbe2eb1c8	-0.17060006
115	0xbdde4758	-0.108534515
116	0xbe0eb05b	-0.13934462
117	0xbe127b2d	-0.143048
118	0xbe301963	-0.17197184
119	0xbe283bca	-0.16429058
120	0xbd5ebfe1	-0.05438221
121	0xbda59865	-0.080857076
122	0xbc536891	-0.012903349
123	0xbd4ab31b	-0.049487215
124	0xbd845ed4	-0.064633995
125	0xbb580bed	-0.0032966093
126	0x3a8099e6	0.000981149
127	0xbe2e0fa1	-0.1699815
128	0x3d1e1d9b	0.038602453
129	0xbe91f2a4	-0.28505433
130	0xbdc6789e	-0.09690975
131	0xbde5fa45	-0.11229376
132	0xbe73e7ce	-0.23818895
133	0xbe080d80	-0.132864
134	0xbe376392	-0.17909077
135	0xbe07f92d	-0.13278647
136	0x3cd4b8e2	0.025967065
137	0xbe24e2df	-0.1610217
138	0xbe5fa278	-0.2183932
139	0xbd22dd1d	-0.03976165
140	0xbde63bc5	-0.11241869
141	0xbdf99f6a	-0.12188609
142	0xbd1b6eca	-0.037947454
143	0xbdf9b596	-0.12192838
144	0xbdf814fa	-0.12113376
145	0xbc714e86	-0.014728194
146	0xbd227c70	-0.039669454
147	0xbc04d344	-0.00810701
148	0xbdf54ff6	-0.11978142
149	0xbe2e09c6	-0.16995916
150	0xbcb0f4ce	-0.021601107
151	0xbdf1bf9d	-0.118041255
152	0xbe0e83c8	-0.13917458
153	0xbe250da1	-0.1611848
154	0xbe5649e6	-0.20926628
155	0xbd8fe5b9	-0.07026238
156	0xbb282c38	-0.0025661122
157	0xbda48c2e	-0.0803455
158	0x3c7f057f	0.015565275
159	0xbe5ae16e	-0.21375057
160	0xbd0e00be	-0.034668677
161	0xbe3c12d4	-0.18366557
162	0xbde886a8	-0.11353809
163	0xbe336461	-0.1751876
164	0xbc4b82b8	-0.0124213025
165	0xbd3406bc	-0.043951735
166	0xbe3c5d3c	-0.18394941
167	0xbd9d4f03	-0.07681086
168	0xbe6748f7	-0.22586428
169	0xbe8e6544	-0.27811635
170	0xbd45d45a	-0.048298217
171	0xbd6f66a0	-0.05844748
172	0xbda1cb79	-0.079001375
173	0xbe393e60	-0.180902
174	0xbe064834	-0.13113481
175	0xbda9f027	-0.082977585
176	0xbe48db6d	-0.19614954
177	0xbccf68d5	-0.025318542
178	0xbe0c687a	-0.1371173
179	0xbda85f13	-0.08221259
180	0xbd929362	-0.07157017
181	0xbd91fc9b	-0.07128259
182	0xbe0d8c85	-0.13823135
183	0xbcf48a81	-0.0298512
184	0xbdb76472	-0.08954705
185	0x3c54b4b1	0.012982533
186	0xbe401584	-0.18758208
187	0xbe05a732	-0.13052061
188	0xbe8e725f	-0.27821633
189	0xbd5a2900	-0.053261757
190	0xbe59af82	-0.21258357
191	0xbd9be7e7	-0.07612591
192	0xbd7229be	-0.05912184
193	0xbcd9a180	-0.026566267
194	0x3cdd665a	0.027026344
195	0xbc86f985	-0.016476402
196	0xbe77be08	-0.24193585
197	0xbd678353	-0.056521725
198	0xbe17e323	-0.1483274
199	0xbdbc62a7	-0.09198504
200	0xbd8b51b6	-0.068026945
201	0x3a1e0f99	0.0006029546
202	0xbe6421d7	-0.22278534
203	0xbcb72295	-0.022355357
204	0xbd06fe26	-0.03295722
205	0xbda79b97	-0.08183973
206	0xbdb44ebd	-0.08804081
207	0xbe6f48cf	-0.23367618
208	0xbcd0f03e	-0.025505181
209	0xbdc2fb4a	-0.09520586
210	0xbdf8b9cc	-0.12144813
211	0xbddef32f	-0.10886227
212	0xbbfebf49	-0.007774268
213	0xbd6b3019	-0.057418916
214	0xbe0e9cf5	-0.13927062
215	0xbe10b1db	-0.14130346
216	0xbd09a15c	-0.03360115
217	0xbde0b898	-0.109727085
218	0xbe4befd7	-0.1991571
219	0xbe2b4467	-0.16725312
220	0xbe0bb73b	-0.13644116
221	0xbd9d578e	-0.07682715
222	0xbcd82163	-0.026383108
223	0xbda138d6	-0.07872169
224	0xbd81503c	-0.063141316
225	0xbe776925	-0.24161203
226	0xbe3cc2b4	-0.18433648
227	0xbdb90c23	-0.09035518
228	0xbde447da	-0.11146517
229	0xbd10a5d9	-0.035314415
230	0xbdb2269a	-0.08698769
231	0xbe215dc6	-0.15758428
232	0xbe0c6700	-0.13711166
233	0xbd5fc9a0	-0.054635644
234	0xbe09360b	-0.13399522
235	0xbc56fdcc	-0.013122033
236	0xbe12058a	-0.14259925
237	0xbc078426	-0.008271253
238	0xbe1b0649	-0.15139116
239	0xbd8edcdf	-0.069757216
240	0xbdf87086	-0.12130837
241	0xbd60f9e7	-0.054925825
242	0xbd6747c7	-0.056464937
243	0xbd6d30b6	-0.057907782
244	0xbe2205f6	-0.15822586
245	0xbe0051fd	-0.12531276
246	0xbe3e13a6	-0.18562183
247	0xbe3223c6	-0.17396459
248	0xbe294ebf	-0.16533946
249	0x3b844748	0.0040368177
250	0xbd5b5327	-0.053546097
251	0xbe324d1a	-0.17412224
252	0xbc4d8fb3	-0.012546468
253	0xbe23ba9c	-0.15989155
254	0xbd5e0b98	-0.054210275
255	0xbe1740cf	-0.14770816

lstm1.bias_hh_l0 f4 [512]
0	0xbd44afb0	-0.04801911
1	0xbe1c3de6	-0.15257987
2	0xbe90f33f	-0.28310582
3	0xbdaf8047	-0.08569389
4	0xbdcea2ba	-0.100896314
5	0xbe22ae58	-0.1588682
6	0xbe62825b	-0.22120039
7	0xbd90903a	-0.07058759
8	0xbc8c4392	-0.017122064
9	0xbd0ff280	-0.035143375
10	0xbda46725	-0.08027486
11	0xbcb7211e	-0.022354659
12	0xbe307ce2	-0.17235139
13	0x3926991a	0.00015888028
14	0xbded5080	-0.1158762
15	0xbd2343d4	-0.039859608
16	0xbc426f7b	-0.011867399
17	0xbd7fbcdd	-0.062435973
18	0xbca75734	-0.020427324
19	0xbe2425ad	-0.16029997
20	0xbe0a2a2f	-0.13492654
21	0xbca6c7a9	-0.020358877
22	0xbc0c3b2c	-0.00855903
23	0xbdec47fe	-0.11537169
24	0xbe02b404	-0.12763983
25	0xbe664598	-0.22487485
26	0xbe60ca5a	-0.21952191
27	0xbd32aa91	-0.043619696
28	0xbc6ed0fb	-0.014576192
29	0xbe2c358d	-0.16817303
30	0xbdabefd5	-0.08395354
31	0xbe16ef9e	-0.14739844
32	0xbdfe5f89	-0.12420566
33	0xbdb1a177	-0.08673375
34	0xbe331d8d	-0.17491741
35	0xba34939a	-0.00068884494
36	0xbde48609	-0.11158378
37	0xbd343641	-0.043997053
38	0xbd16c476	-0.036808454
39	0xbe3460f0	-0.17615104
40	0xbc66804e	-0.014068676
41	0xbe27f906	-0.16403589
42	0xbdc66762	-0.096876875
43	0xbe11bec0	-0.14232922
44	0xbe167340	-0.14692402
45	0xbe23288d	-0.15933438
46	0xbe2d3fdd	-0.16918893
47	0x3bf4414e	0.007454074
48	0xbdf1580c	-0.11784372
49	0xbe0ed514	-0.1394847
50	0xbd95ff1a	-0.073240474
51	0xbd34e94a	-0.044167794
52	0xbe242016	-0.16027865
53	0xbdf8a353	-0.121405266
54	0xbe116512	-0.14198712
55	0xbe11521d	-0.1419148
56	0xbd7aca54	-0.06122811
57	0xbce9e434	-0.028551199
58	0xbe027591	-0.1274016
59	0xbdcc02fc	-0.09961507
60	0xbe54c5ee	-0.20778629
61	0xbd52e2d3	-0.051485848
62	0xbdd43555	-0.10361735
63	0xbdb5bbff	-0.08873748
64	0xbd9cd937	-0.07658618
65	0xbbcb2c39	-0.00620034
66	0xbc7b1cf0	-0.015326723
67	0xbdd0da95	-0.10197941
68	0xbe1103e9	-0.14161648
69	0xbd9a1a48	-0.07524544
70	0xbd170b8b	-0.036876243
71	0xbdfe21d3	-0.12408795
72	0xbdaae6ca	-0.08344801
73	0xbe11b7ad	-0.14230223
74	0xbde9acb5	-0.114098944
75	0xbd725d15	-0.0591708
76	0xbe1ba5a1	-0.15199901
77	0xbd90eb99	-0.07076187
78	0xbd83cb2a	-0.06435235
79	0xbdf043e1	-0.11731697
80	0xbd6d31ea	-0.05790893
81	0xbdb59954	-0.08867136
82	0xbdd87d5e	-0.10570787
83	0xbc87c958	-0.0165755
84	0x3bc623f4	0.0060467664
85	0xbdfed642	-0.1244321
86	0xbdfa5bc2	-0.12224533
87	0xbe1789a8	-0.14798605
88	0xbcf90f39	-0.030402767
89	0x3bc78032	0.00608828
90	0xbe6fe93b	-0.23428814
91	0xbde7b572	-0.11313905
92	0xbd27b78a	-0.04094652
93	0xbe415418	-0.18879735
94	0xbdc5ffed	-0.096679546
95	0xbdb1dbed	-0.08684526
96	0xbd954f3a	-0.07290502
97	0xbe85ab90	-0.26107454
98	0xbd003d9a	-0.031308748
99	0xbdb611bf	-0.088901035
100	0xbe259b96	-0.16172633
101	0xbe366108	-0.17810452
102	0xbe2f11a4	-0.17096573
103	0xbdb1562c	-0.08659014
104	0xbdb42567	-0.087961964
105	0xbde2aab0	-0.11067712
106	0xbde9a2aa	-0.11407979
107	0xbdc721ef	-0.09723269
108	0xbc8dbf2e	-0.017303076
109	0xb9d52707	-0.00040655604
110	0xbe2a2061	-0.16613914
111	0xbd913cd5	-0.07091681
112	0xbd846a69	-0.064656086
113	0xbd6a2775	-0.057166535
114	0xbd494d33	-0.04914589
115	0xbe54e4ea	-0.20790449
116	0xbdf6c22b	-0.12048753
117	0xbe07d840	-0.13266087
118	0xbe2969ad	-0.16544218
119	0xbd266289	-0.040621314
120	0xbe014c85	-0.12626846
121	0xbe3701fb	-0.17871849
122	0xbdfcd961	-0.12346149
123	0xbcb138e1	-0.021633567
124	0xbd725fe4	-0.05917348
125	0xbdb43dd1	-0.08800853
126	0xbe024410	-0.12721276
127	0xbcd41114	-0.02588705
128	0xbd95dd92	-0.07317652
129	0xbe98dcf4	-0.29856074
130	0xbe3fe758	-0.18740594
131	0xbe2aa05f	-0.16662739
132	0xbe35f1aa	-0.17767969
133	0xbe4fe9e7	-0.2030407
134	0xbe0d3566	-0.13789901
135	0xbe1568b6	-0.14590725
136	0x3b1edc25	0.0024240103
137	0xbdc8be28	-0.098018944
138	0xbe1ae879	-0.15127744
139	0xbe2c4bd1	-0.16825797
140	0xbe08714f	-0.13324474
141	0xbcefe3f5	-0.029283503
142	0xbd9625fd	-0.073314644
143	0xbd205e1a	-0.039152242
144	0xbe179e76	-0.14806542
145	0xbdbf1bd5	-0.093314804
146	0xbe1f41fe	-0.15552518
147	0xbe1fa8ab	-0.15591685
148	0xbd196934	-0.037453845
149	0xbd5da564	-0.054112807
150	0xbdb8c018	-0.09021014
151	0xbdcd9283	-0.100377105
152	0xbe9010be	-0.28137773
153	0xbe4ca097	-0.19983135
154	0xbe61ac22	-0.2203832
155	0xbd8bbda1	-0.06823278
156	0xbd44fd2b	-0.048093002
157	0xbe47fa2e	-0.1952903
158	0xbdb689c5	-0.08912996
159	0xbe4587ac	-0.19290036
160	0xbdb43d96	-0.08800809
161	0xbd0b7430	-0.034046352
162	0xbd92d8c2	-0.071702495
163	0xbe1c8903	-0.15286641
164	0xbe115cf6	-0.14195618
165	0x3c0b2740	0.008493245
166	0xbda96bb3	-0.08272495
167	0xbdc93ecf	-0.09826433
168	0xbe0a4bd7	-0.13505493
169	0xbe98d2d1	-0.2984834
170	0xbcf8f390	-0.030389577
171	0xbe2a9dd4	-0.16661769
172	0xbd02430d	-0.031802226
173	0xbd93b0a4	-0.07211426
174	0xbe25dcc1	-0.16197492
175	0xbe195960	-0.149755
176	0xbe6550c1	-0.22394086
177	0xbd50d217	-0.050981607
178	0xbd293b5d	-0.04131638
179	0x3c926f74	0.01787541
180	0xbda30f26	-0.07961874
181	0xbd784570	-0.060613096
182	0xbe1320b5	-0.14367945
183	0xbdf43cc3	-0.11925652
184	0xbd7995c3	-0.06093384
185	0xbd83c47a	-0.06433959
186	0xbdcd8b6f	-0.100363605
187	0xbc610aa5	-0.013735448
188	0xbe12b727	-0.1432768
189	0x3c11cb7a	0.00889861
190	0xbddc1326	-0.1074584
191	0x39e378bf	0.00043386777
192	0xbd0b7b9d	-0.034053434
193	0x3b37db0c	0.0028054146
194	0xbca3ac1a	-0.019979525
195	0xbd71b212	-0.05900771
196	0xbd973751	-0.07383598
197	0xbdddbddf	-0.10827231
198	0xbd100e1a	-0.0351697
199	0xbc518337	-0.012787632
200	0x3b9ebb2b	0.0048440895
201	0xbcc35776	-0.023845416
202	0xbe2ea24a	-0.17054096
203	0xbdfd1927	-0.12358313
204	0xbd62bb51	-0.05535442
205	0xbd61a485	-0.05508854
206	0x3d4426d4	0.047888592
207	0xbe523431	-0.20527722
208	0xbcbfcfc6	-0.023414504
209	0xbd26afad	-0.04069488
210	0xbc7bffd6	-0.01538082
211	0xbdd3775b	-0.103254996
212	0x3c967ddc	0.018370561
213	0x3ccf6103	0.025314813
214	0xbd2af319	-0.041735742
215	0xbe483296	-0.19550547
216	0xbe20e1ed	-0.15711184
217	0xbda483a2	-0.080329195
218	0xbe23f522	-0.1601148
219	0xbe4f57ea	-0.2024838
220	0xbcf51fc3	-0.029922372
221	0xbdee1a00	-0.11626053
222	0xbd8f2aee	-0.0699061
223	0xbd529648	-0.05141285
224	0xbd922752	-0.07136406
225	0xbe075a5c	-0.13218063
226	0xbdb91978	-0.09038061
227	0xbcff3a7c	-0.031155817
228	0xbe4453ae	-0.19172546
229	0xbe188360	-0.14893866
230	0xbe1b0a77	-0.15140711
231	0xbd5d92af	-0.054094967
232	0xbd8c02e2	-0.06836487
233	0xbe0b5bb1	-0.13609196
234	0xbdfce17a	-0.12347694
235	0x3cd5cae5	0.026097724
236	0xbe0a3647	-0.13497268
237	0xbd29a860	-0.04142034
238	0xbdd27fb9	-0.102782674
239	0xbdb63a75	-0.088978685
240	0xbdbb7c46	-0.09154563
241	0xbd4de7ef	-0.050270017
242	0xbd6276e3	-0.05528916
243	0xbdd550df	-0.104158156
244	0xbe390d88	-0.18071568
245	0xbe0116bf	-0.12606333
246	0xbe0c52ad	-0.13703413
247	0xbdce1fba	-0.10064645
248	0xbd9ebacb	-0.07750472
249	0xbd0be763	-0.034156214
250	0xbc7edd2d	-0.015555662
251	0xbe0fdce8	-0.14049113
252	0xbce04d38	-0.02738057
253	0xbd4dd0c1	-0.05024791
254	0xbcaa3d32	-0.020781133
255	0xbd52bd15	-0.051449854
