models/5m/trained_model.pt (torch, 666885 bytes, 17 tensors)

conv1.weight f4 [48, 5, 5]
000000 eb 49 6f bb 5b 4b 26 be 74 b6 b4 3c 21 09 c3 3c
       -0.0036512564 -0.16239683 0.022059657 0.023808064
000010 26 a1 e1 3d a5 24 01 3e 2f 44 0a be b1 44 bf bc
       0.11017065 0.12611635 -0.13502572 -0.023348184
000020 2a 32 58 bd e5 77 d8 3d 24 02 46 be 1f 70 87 bd
       -0.052782215 0.10569743 -0.19336754 -0.06613182
000030 68 07 a2 bd 8a 4e a1 bd 4b 55 00 3e 22 81 bc bd
       -0.07911569 -0.07876308 0.12532537 -0.09204318
000040 e1 c8 08 3e cc ab d1 3d 58 25 8e 3d 72 91 50 be
       0.13357879 0.10237846 0.069407165 -0.20367983
000050 73 d4 28 be 20 79 fc 3d f4 7c 43 be 0d 0d 68 be
       -0.16487293 0.1232779 -0.19090635 -0.22661228
000060 3f e3 3a be a0 17 65 be b9 e8 22 be 29 d1 17 3e
       -0.1825075 -0.22372293 -0.15909089 0.14825882
000070 26 b3 8b 3d 30 81 6f 3c 60 2f 39 3d 09 6b 23 3e
       0.06821279 0.014618203 0.045211196 0.159588
000080 c1 b2 06 be 9e 11 0f be 19 f2 4a 3e b6 f7 cd 3d
       -0.13154127 -0.13971564 0.19818915 0.10057013
000090 09 92 08 3e 85 99 85 3d de 1d 09 be da 0d dc bd
       0.13336958 0.06523422 -0.133903 -0.107448295
0000a0 39 81 82 bd 65 14 24 be 7d c2 2f be 86 eb 0c be
       -0.063723035 -0.16023405 -0.17164035 -0.1376172
0000b0 31 2e 4c 3e 4f 93 74 ba 13 aa 1a 3e 0d 06 8f bd
       0.19939496 -0.0009329812 0.1510394 -0.06983576
0000c0 e4 ca 02 be a5 eb 1a be 7d 70 b9 3d 22 77 52 bd
       -0.12772709 -0.15128954 0.090546586 -0.051383145
0000d0 9b b1 18 3e bb cc 72 bd 21 33 c1 3d 3d f7 ad 3c
       0.14911501 -0.059277277 0.0943358 0.021236056
0000e0 f3 f7 33 be 10 99 a6 3d 19 ba 24 bc 6b 67 96 3d
       -0.17575054 0.08134663 -0.010054135 0.07343944
0000f0 d8 95 4c be e2 b7 59 be 89 b9 2c 3e ec 4e 1d 3e
       -0.19979036 -0.21261552 0.16867651 0.15362138
000100 c7 e1 76 3e 66 71 01 3d ff 4a 62 3e 33 b3 b5 3e
       0.24109565 0.031602286 0.22098921 0.3548828
000110 e2 7c c0 bc 67 3b 7e 3e e8 ab 43 bd 50 d6 a6 3d
       -0.023497049 0.24827348 -0.047771364 0.081463456
000120 9b 69 e9 3d 4d 4f e8 bd d1 50 6f bd 7b 52 07 3e
       0.11397096 -0.113432504 -0.058426682 0.13215058
000130 49 03 9c 3c bc 8d 2e 3d 36 2f c0 bd 27 e1 c1 3c
       0.019044535 0.042615637 -0.09384005 0.023666931
000140 3e 6b ca bd 28 1b 03 be 59 ad 43 3e 5c 15 3d 3d
       -0.09883736 -0.12803328 0.19109096 0.046162948
000150 97 20 5d 3e 1b c1 ab bc 08 f6 0a be cb 43 0a 3e
       0.21594463 -0.020966103 -0.13570416 0.13502423
000160 54 81 66 bd f3 21 73 3e ad f5 35 3d 07 68 62 3e
       -0.05627568 0.2374342 0.044423748 0.22109996
000170 31 ec 31 3e e2 8b db 3d a7 c9 3d 3e bd 73 5f 3e
       0.17375256 0.1072004 0.18533956 0.21821494
000180 09 66 07 3e 7d b2 ff bd 11 36 2d 3e f7 36 07 3e
       0.13222517 -0.12485216 0.16915156 0.13204561
000190 ae 91 1c 3e ff f5 b8 3d 5a af 24 be 42 e7 d0 3d
       0.15289947 0.09031295 -0.16082516 0.10200359
0001a0 b4 7d 5b 3e 45 9e 38 3e 8d b5 dc bd fc 0c 2c 3e
       0.2143467 0.18029125 -0.107768156 0.16801828
0001b0 3e da 75 3e fb b4 87 bc 1e 1a 33 be 2a ad 8f bd
       0.24009034 -0.01656579 -0.17490432 -0.0701545
0001c0 11 35 07 be 35 18 8f bd 7f 86 4d 3e 76 e3 3f bd
       -0.13203837 -0.06987039 0.20070837 -0.046847783
0001d0 c0 03 f2 bd cf 69 7a 3e 08 f3 70 3e d3 76 cd 3d
       -0.118171215 0.24454425 0.23530209 0.100324295
0001e0 7e e1 8d 3d 30 de c7 3d c2 0f 34 be 86 b4 ce bd
       0.06927775 0.09759176 -0.17584136 -0.10093026
0001f0 9f 92 1f 3d 5f 54 29 be 4e a6 23 3e 15 a5 0d be
       0.03895819 -0.16536091 0.15981409 -0.13832505
000200 99 a8 04 be 6d 19 91 3d 9d 3a fd 3d 34 22 b4 bd
       -0.1295494 0.07084928 0.12364695 -0.08795586
000210 5d 20 23 be 53 4c fc 3a a9 17 0f bd df 5d 85 3d
       -0.15930314 0.0019248821 -0.034934673 0.06512045
000220 25 f3 62 bd 96 a1 58 bd b7 62 ec 3d 6f dc 3f be
       -0.055407662 -0.052888475 0.11542266 -0.18736432
000230 9f 03 b3 3d 07 a0 45 bb f4 39 60 be c5 4b 04 3d
       0.08740925 -0.0030155198 -0.21897107 0.032298822
000240 c1 86 67 bd 94 c8 4f be 0a bf a5 bd c1 81 d9 3d
       -0.056524996 -0.20291358 -0.080930784 0.10620452
000250 42 b6 ac 3d 9c 73 34 3e 16 0d bc bb b7 02 2d 3e
       0.084332004 0.17622226 -0.0057388647 0.16895567
000260 01 e4 21 be a5 57 40 be 9c ce 03 3e c3 93 33 be
       -0.15809633 -0.18783434 0.12871784 -0.17536835
000270 95 c6 50 3e 6d 42 42 3e 08 b8 10 3c 3c ec ce 3d
       0.20388253 0.18970652 0.008832939 0.10103652
000280 8e 67 0e 3d e3 1e 08 3d 79 8c 93 3c f7 dc 91 bc
       0.034766726 0.03323258 0.018011319 -0.01780556
000290 00 0e 44 bc ca 1e 8c 3d 77 ff ee 3d 7b 48 69 3e
       -0.0119662285 0.0684181 0.1166982 0.22781555
0002a0 39 03 6a 3e c8 75 34 3e 6f a7 3c be 49 11 30 3c
       0.22852792 0.17623055 -0.18423246 0.010746309
0002b0 75 8c 47 3d 3e 83 a5 bb d5 50 81 be 2e 2a a2 3e
       0.048717935 -0.0050510457 -0.25256982 0.31672806
0002c0 6c 37 3e bc 18 b9 51 be 84 23 55 be ef 4a 82 bd
       -0.011609893 -0.20480764 -0.2081433 -0.06361949
0002d0 d8 8b 18 3d eb ba 97 3d 35 b6 fa bd f6 05 9c bd
       0.03724274 0.07408699 -0.122417845 -0.076183245
0002e0 a3 94 90 be 41 01 b4 bd b2 b4 68 3e 02 9b 93 be
       -0.282384 -0.08789302 0.2272518 -0.288292
0002f0 9b 89 b4 be 2b 2d 11 be 24 76 d0 bd 3a e6 9b bc
       -0.35261235 -0.14177386 -0.101787835 -0.019030679
000300 6f 0f 9c be 8b 06 76 be ca 82 b0 be e6 31 be bd
       -0.30480525 -0.24025933 -0.34474784 -0.09286861
000310 7b 57 2e 3e df 7d 8d 3e e0 bc bc bd 1e fb a2 be
       0.17025559 0.27635095 -0.092157125 -0.31832212
000320 92 46 f5 bd 5d b5 11 be bf 0b d0 3d 02 89 f6 3c
       -0.11976351 -0.14229341 0.101584904 0.030094627
000330 48 e4 c8 bd 38 7f 02 be 6f 79 d3 bd 09 69 ca bd
       -0.09809166 -0.12743843 -0.10325896 -0.09883315
000340 52 06 45 3e 05 60 ff bd 24 88 17 be c3 c3 48 be
       0.19240692 -0.12469486 -0.14798027 -0.19605927
000350 a2 e4 f2 bd ea ed 26 3e cc c5 d9 3d b6 f3 73 be
       -0.118600145 0.16301695 0.1063343 -0.23823437
000360 6b 98 3d bc de 04 2b 3e ee d6 24 be 98 e7 42 3e
       -0.011571984 0.16701075 -0.16097614 0.19033659
000370 01 26 1c 3d 7d 28 1c be c9 73 92 3d f0 e2 ce 3d
       0.03812218 -0.1524982 0.071509905 0.10101879
000380 81 36 c8 3d 73 d6 49 3d b2 11 0d be 09 4c 05 be
       0.09776021 0.04927678 -0.13776281 -0.13017286
000390 b8 15 79 3d 7e a1 49 bd 25 3c 8b 3d b2 ef 88 bd
       0.06081173 -0.049226277 0.06798581 -0.06686343
0003a0 62 44 8c 3c 0f f5 49 3e f3 c6 02 be 6d c7 f9 3d
       0.017122451 0.19722389 -0.12771206 0.121962406
0003b0 29 76 ed bc 35 e6 0f 3e 8f af 99 bc 10 0d 3c 3e
       -0.028987007 0.14052661 -0.01876047 0.18364358
0003c0 c4 57 84 3d 29 3f 47 be 06 4b 5c be 27 80 08 3e
       0.064620525 -0.19457687 -0.21512994 0.13330136
0003d0 a1 87 5d 3d d6 17 7b 3d 4d 1c 41 be 4d fc 53 be
       0.054084424 0.06130203 -0.18858452 -0.20701714
0003e0 d7 0d a5 3d 48 de 30 3d 67 98 e2 bd 80 9a e0 3c
       0.0805928 0.043180734 -0.11064225 0.027417421
0003f0 56 8e 28 be 99 78 08 3e c0 f2 e5 bd 60 83 0c 3d
       -0.16460547 0.13327254 -0.112279415 0.034304976

conv1.bias f4 [48]
000000 6a 56 14 be cf 07 42 be c4 eb 2a be 9b 57 9f be
       -0.1448609 -0.18948291 -0.166915 -0.31121525
000010 69 6f 21 be 8a 72 1c be 61 af a7 be 7b e6 82 3e
       -0.15765156 -0.15278068 -0.3275099 0.25566468
000020 6a 94 32 be b5 1a ba 3d 33 55 b1 bd 83 df af bd
       -0.17439428 0.09087125 -0.086588286 -0.08587553
000030 29 b6 81 be 03 27 bf be f8 36 d1 be 8b 04 7c 3d
       -0.2533429 -0.3733445 -0.4086225 0.06152777
000040 a4 51 1a bd fd 64 e6 3d de 3c 75 be 9e cf c1 be
       -0.037675515 0.11249731 -0.23949 -0.37853712
000050 9d 09 16 3d 70 4c 5f be 70 5a b9 bd a1 b9 f1 bd
       0.03663026 -0.21806502 -0.09050453 -0.11802984
000060 c0 5b ba 3d 8b fb 3a be 25 b1 32 be 26 aa cb bd
       0.09099531 -0.18260019 -0.17450388 -0.099445626
000070 4f 5d 9d be c0 39 a4 3e 90 fa 10 be 00 04 b2 be
       -0.3073525 0.3207531 -0.14158082 -0.34768677
000080 0e 13 9a bd 39 68 87 3d 21 3f 90 be 03 88 22 be
       -0.07523166 0.06611676 -0.28173164 -0.15872197
000090 74 a9 c4 be d1 cc 00 be 71 e1 ad be 60 55 32 be
       -0.38410532 -0.12578131 -0.3396106 -0.1741538
0000a0 a1 dd 18 3e 2e cf 90 be b4 d4 60 be 3e 07 97 bd
       0.14928295 -0.28283066 -0.2195614 -0.07374428
0000b0 71 f2 ba be 78 e7 0a be 48 c7 26 be 26 05 37 bd
       -0.36513093 -0.13564861 -0.16286957 -0.044682644

conv2.weight f4 [96, 48, 5]
000000 76 72 77 3d fd 24 95 3c fa 30 7f bc 2c 02 e1 3c
       0.060411893 0.018206114 -0.015575642 0.027466856
000010 63 5b 7b 3d 66 b8 bb bc 6e 80 46 bd 28 c1 03 bd
       0.06136645 -0.022915076 -0.048462324 -0.03216663
000020 a7 69 c9 3c 0f 8a 09 bd 5e ef 91 3c 8e 9c bf 3c
       0.024586512 -0.03357893 0.017814334 0.02339008
000030 c8 71 ae 3d 5f af 5f 3e ae c5 26 3e 64 11 4a 3d
       0.08517796 0.21844243 0.16286346 0.04933299
000040 42 0f 94 3d b8 a2 d0 3d 79 2e 65 3e 51 09 be 3d
       0.07229473 0.10187286 0.22381009 0.09279121
000050 e2 c8 91 bd a4 15 01 bc 05 e0 e5 3d 7a 0f b3 3d
       -0.071183935 -0.007878695 0.11224369 0.08743186
000060 95 c5 01 3e 04 39 63 bd a8 d0 8f bd bd c9 d2 3c
       0.12673028 -0.055474296 -0.0702222 0.025730962
000070 31 a3 ab 3d 7d cf 1a 3d e0 79 5e 3d 8e 7f cc 3d
       0.08380736 0.037795532 0.054315448 0.099852666
000080 be 28 d6 3d ed 3e 18 3e e7 f0 8e 3c 96 90 8f 3e
       0.1045699 0.14867754 0.017448856 0.28039998
000090 66 1d 3b 3e 59 15 b8 bd f4 ea 98 be 8d 6e f5 bd
       0.18272933 -0.08988447 -0.29866755 -0.119839765
0000a0 0f 60 69 3a 8a 97 0e 3e 8e c2 bb bc 21 19 e7 bc
       0.00089025585 0.13924995 -0.02291992 -0.028210225
0000b0 20 a1 1b 3c d7 da 9b bc 73 96 10 bd eb 5f 9c bb
       0.009498864 -0.01902525 -0.03529973 -0.0047721765
0000c0 e6 7f 08 bd fb 01 d8 3d 72 71 51 3d 44 b0 d8 3c
       -0.0333251 0.10547253 0.05113358 0.026451237
0000d0 04 a6 3c 3d e0 b9 d6 3c 58 66 ce bb bc ad 6e bc
       0.046056762 0.026211679 -0.0062988214 -0.014567789
0000e0 c4 6c ff bc b5 66 05 bd 0e 7c 3d 3d 7e ae 80 bd
       -0.031179793 -0.032568652 0.046260886 -0.06283282
0000f0 10 c9 27 3d 04 00 47 3c 11 cb 98 3d eb c4 79 3e
       0.040963233 0.012146 0.07460607 0.24391524
000100 36 00 61 3e 6d f1 83 3d 78 aa 32 3c fa 80 c6 3d
       0.21972737 0.06442533 0.010904901 0.09692569
000110 b3 ff cd 3d d6 0f 90 3d 19 b9 a0 3c 85 25 cc 3d
       0.100585364 0.070342705 0.019619511 0.09968094
000120 2a d3 d7 3d 7a ac 43 3e ec 5d 4a 3d b9 90 31 bd
       0.10538323 0.19108763 0.049405977 -0.04335091
000130 a2 c0 83 bd 4c 04 91 bd 0f 08 53 3d 27 68 f8 bc
       -0.06433226 -0.07080898 0.051521357 -0.030323101
000140 73 b9 b5 bd 2d 03 35 bd a6 9e 9b 3c 91 95 35 3d
       -0.08873262 -0.04419248 0.018996548 0.04433209
000150 8a 02 ea bc ad 40 32 bc 85 3b 62 3d a2 88 a4 3d
       -0.028565664 -0.010879678 0.055232543 0.08033873
000160 91 b0 c3 3d 3f ba 93 3d 10 2c 47 bd 5f 50 11 bd
       0.09555162 0.07213258 -0.048626006 -0.03547704
000170 ec f9 fe bb f3 24 8d 3e 81 75 f2 3d cd 71 24 bc
       -0.007781258 0.27567253 0.11838818 -0.010036898
000180 76 8b ea 3d e4 ae 36 3e 43 d5 67 3e f0 ed 4a 3d
       0.11452381 0.17840153 0.22639947 0.04954332
000190 ee 42 26 3d 81 ab 6f b9 e7 2b 2e 3d 9f 3b 36 3e
       0.040591173 -0.00022856706 0.042522337 0.17796181
0001a0 75 a3 37 3e b0 ef ee 3b 1a e1 bd 3d af 64 84 bc
       0.17933448 0.0072917566 0.0927145 -0.01616129
0001b0 d5 a3 e4 3d a7 73 2e 3e 88 87 5f 3c 38 c4 e2 3c
       0.11164061 0.17036305 0.013643153 0.027681455
0001c0 84 0b 5a 3d f6 c8 0b bd c0 11 53 3d a1 cc 87 3c
       0.05323364 -0.0341272 0.0515306 0.016577067
0001d0 5c 83 3f 3d c9 13 18 bd 7f 2c 89 3d 51 dd 2c 3d
       0.046756133 -0.037128244 0.0669794 0.04220325
0001e0 74 0e 4b 3d ed df b3 3c db 79 61 bc e5 9d 7e 3d
       0.04957433 0.021957362 -0.013761963 0.0621623
0001f0 82 05 bf 3a 96 ca 70 3d 54 5d 82 3c 88 07 fc 3c
       0.0014573785 0.05878695 0.015913643 0.03076531
000200 c0 59 69 3d 08 ae a6 3c 8f 96 27 3d 4b f3 21 3e
       0.056970358 0.020346656 0.04091507 0.15815465
000210 36 fa 8c 3d d5 78 93 3e b2 65 44 3e 57 8f 03 bd
       0.068836614 0.28803125 0.19179419 -0.03211912
000220 32 c8 2f b9 7c d6 b3 3b e3 98 ca 3d 7e 5b 3c 3d
       -0.00016763879 0.005488215 0.09892442 0.04598569
000230 ac 5a 05 3d 49 39 d1 3d d1 26 07 3e bf a4 44 3c
       0.032557175 0.102160044 0.13198401 0.012002169
000240 21 35 f1 3c 3e 7d e2 bc 35 ec bd 3c 18 fb f9 bd
       0.02944428 -0.02764761 0.023183921 -0.122060955
000250 0b 43 d6 bd 4b 2a c4 3d 4d da d7 3b 8a 57 44 3d
       -0.10462006 0.09578379 0.006587303 0.047935046
000260 c5 e1 a2 3d 71 ef 59 3e a0 39 ae 3e 82 e7 4e bd
       0.07953218 0.21282746 0.3402834 -0.05051375
000270 52 9e cb 3d 6f eb 1f be 6c fa 3a 3e 64 c0 ee bc
       0.099423066 -0.15617155 0.18259591 -0.029144473
000280 dc b6 fa 3c 93 4a 92 3d b8 52 b5 3d c6 4a 59 3e
       0.030604772 0.0714313 0.08853668 0.2121993
000290 65 01 28 3e c5 89 d0 bd d2 66 6f 3b bd b1 81 3c
       0.16406782 -0.101825275 0.0036529792 0.015831823
0002a0 28 b7 e2 3d b3 2c 0e 3e f3 35 5e bd 47 28 77 bd
       0.110700905 0.13884239 -0.05425067 -0.060341146
0002b0 27 fa 49 3d ef 24 84 3e 4f b0 cb bc cb 2b a9 bc
       0.04931083 0.25809428 -0.024864344 -0.020650765
0002c0 7d b8 11 3d 00 5b d7 3d ce 64 bc 3d bc d5 2a 3e
       0.035576332 0.10515404 0.091989145 0.16683096
0002d0 eb 89 48 bc 08 6e 75 3d 10 7b 20 3e 5f 08 45 3d
       -0.012239913 0.059919387 0.15671945 0.048103686
0002e0 21 85 91 3d 4e 81 fb 3c 2f d8 0f bb 96 52 30 bb
       0.071054704 0.030701306 -0.0021948924 -0.0026904694
0002f0 f8 e0 0c 3d 1f a9 50 3d 48 3d 01 bc 27 e1 10 bd
       0.034394234 0.050942536 -0.007888146 -0.035370972
000300 14 16 aa 3c 9d b1 6c 3e 30 2c 64 bd c2 43 25 3d
       0.02076248 0.23114629 -0.055706203 0.040347822
000310 18 8c 8d 3d c9 3c 00 bd 2b b1 c6 3b e4 85 e0 3c
       0.069114864 -0.03130797 0.0060636005 0.027407594
000320 e5 7a 17 3d 52 aa e4 bc 5c cd 69 ba 87 3f 38 bd
       0.036982436 -0.027913246 -0.00089188456 -0.04498246
000330 4b a4 29 3d b3 11 4d 3d ee 7c 3f 3c 5c a3 05 3e
       0.041416448 0.050065707 0.0116875 0.13050598
000340 f3 0a 31 3d 06 92 95 3d 70 eb 23 bd 9d e7 9f 3c
       0.043223333 0.073032424 -0.040019453 0.019519622
000350 dd 07 dd 3d c4 38 63 3e d7 61 36 3e 8e fd 7e bd
       0.107925154 0.22189623 0.1781076 -0.062253527
000360 3f 6f a8 3c df e0 1b bd 1f 07 05 3b f6 f7 48 3d
       0.020560859 -0.03805625 0.0020298434 0.0490646
000370 c9 91 ab bc f3 2a c9 3c 65 2d a1 3d 31 c5 08 3e
       -0.02094354 0.024556613 0.078699864 0.13356473
000380 7a 44 37 3d 30 19 dc 3b 10 99 2e 3d de 9b 3b bd
       0.04474304 0.00671687 0.04262644 -0.045802943
000390 ae 36 65 3d a2 54 5f 3d b3 18 4a 3c fe cb 4d 3d
       0.05596035 0.05452407 0.01233499 0.05024337
0003a0 68 23 90 3d fa f7 07 3e a4 eb 34 3e 27 43 90 bc
       0.07038003 0.1327819 0.17668015 -0.017610146
0003b0 da 72 ab bb aa 51 5f 3d d5 d9 18 3e 34 53 fc 3d
       -0.005232197 0.05452124 0.14926846 0.12320557
0003c0 0b 3a 1b bc e7 a3 a0 bb d7 7c 86 bd 1f 72 2d bd
       -0.009474288 -0.004902351 -0.0656678 -0.042345162
0003d0 a6 56 64 bc 50 e6 ed 3b fc b2 13 3d cc 5a b4 3c
       -0.013936674 0.0072601214 0.036059365 0.022015952
0003e0 d0 15 a5 bc 90 96 d2 bb b5 55 90 bd 0f 00 e9 bd
       -0.020152003 -0.00642664 -0.07047597 -0.11376964
0003f0 18 e4 a6 3d 21 7b b4 3d b9 69 83 3d 07 df 9a 3d
       0.08148974 0.088125475 0.06416649 0.0756207

conv2.bias f4 [96]
000000 b8 ff 6e 3b ca 57 58 bd 39 9f 00 3d d4 24 2c be
       0.0036468338 -0.052818097 0.031401847 -0.16810924
000010 99 59 ed bd 29 9d c0 3c d9 60 a5 3c af 7a 91 bd
       -0.11589355 0.02351244 0.020187782 -0.07103478
000020 e1 0a c2 bd e2 b3 05 be c4 5f 4d bd 49 0d 2f bd
       -0.09474731 -0.13056901 -0.050140157 -0.04273728
000030 60 b6 7f bd 47 fc df 3c a8 65 4e bd 77 9c ab 3a
       -0.062429786 0.027341975 -0.050389916 0.0013092895
000040 aa d9 6a bd 33 57 04 be ea 92 b1 bd 77 fd 98 3c
       -0.057336487 -0.12923889 -0.086706 0.018675549
000050 c5 2a 08 bc 18 42 b1 bd c0 3e 59 bc 04 c1 3f be
       -0.008310978 -0.086551845 -0.01325959 -0.18725973
000060 55 61 11 3e b7 da ea bc 3f 0f 9f bd a7 af b8 bc
       0.14197285 -0.028668744 -0.0776658 -0.022544695
000070 3a ef 01 be e3 fe 90 bd f3 43 85 bc 14 1e 89 ba
       -0.12688914 -0.07079866 -0.016267752 -0.0010461234
000080 ef e3 43 b9 b5 4c 86 bd 70 09 5f be 7b 67 79 bc
       -0.00018681561 -0.065575995 -0.21780944 -0.015222426
000090 90 77 d9 3c 85 81 99 bc 0d 50 76 bc ae 45 4f bb
       0.02654627 -0.018738518 -0.015033734 -0.0031627226
0000a0 be 84 be bd 79 8d cb bd 24 7c c3 bd a7 58 ad bc
       -0.09302662 -0.09939093 -0.09545162 -0.021160437
0000b0 42 65 cc bc 9d 78 97 bb 52 8f 0a bd 5c e5 7f 3c
       -0.024950627 -0.0046225325 -0.033828087 0.015618648
0000c0 03 29 cb bc 6c 5a ee bc 67 e6 e4 3b 14 73 e8 bc
       -0.02479983 -0.02909585 0.006985474 -0.028375186
0000d0 6f ab a0 bd f0 1d 5d bb ed a1 bf bd 9b ef 11 be
       -0.07845198 -0.0033739768 -0.09357057 -0.14251558
0000e0 c6 71 f9 bd 41 e6 9a bb 9d 63 fb 3d 03 50 e9 3c
       -0.12179904 -0.0047271554 0.12274859 0.028480535
0000f0 7e e1 05 be 93 56 0d 3d ec 50 e1 bd a9 48 fe 3b
       -0.130743 0.03450639 -0.11001763 0.0077601266
000100 b7 0a 1f be 63 bd 7e bd 65 f6 af bc 96 a4 95 3d
       -0.15531431 -0.062192332 -0.021479795 0.07306783
000110 09 94 88 bd d7 f9 7c bd ea 71 0a 3e 4c 04 3c bc
       -0.066688605 -0.061761703 0.13520017 -0.011475634
000120 f8 2a 2b bb e5 fb a2 3d 08 04 aa bd 57 67 b3 bd
       -0.002611814 0.07958201 -0.0830155 -0.08759945
000130 e6 6b c6 bd ea 53 f0 bd e0 c3 52 3c 3a 13 ac be
       -0.09688549 -0.11734755 0.012864083 -0.3360842
000140 f9 13 2d 3b bc a6 94 bc 45 c4 b0 bd e8 ca 9d bd
       0.002640961 -0.018145911 -0.086311854 -0.07704717
000150 ba 34 84 bd 86 9c 64 bc 83 cf 7b bd e8 b4 51 be
       -0.06455369 -0.013953334 -0.061477195 -0.20479167
000160 3d 1e 9a bc 9c 07 af 3e 93 ed 37 bd 99 e6 e2 bd
       -0.018813247 0.34185493 -0.044904303 -0.11079139
000170 16 5a b8 bd fe 86 b6 3c 70 62 c7 3d 9a 54 ff 3a
       -0.090015575 0.022281166 0.09735572 0.0019480169

lstm1.weight_ih_l0 f4 [512, 96]
000000 cf fb b8 3d cd 4f 3a 3e 95 05 6f 3d 07 70 d0 3b
       0.09032404 0.18194504 0.058354933 0.006361011
000010 2c f5 d9 3d e8 2f b3 bc a1 ee 10 3e 13 68 c0 bd
       0.10642466 -0.02187343 0.1415353 -0.093948506
000020 8b 18 ad 3d 52 39 d8 3d de 65 4b 3e a6 92 9c bd
       0.08451947 0.10557808 0.19863078 -0.076451585
000030 6b 7e ba bc fa 83 04 3e 1e c2 a6 bd b2 7a a5 3d
       -0.022765359 0.1294097 -0.08142494 0.08080043
000040 42 c7 d7 3d 54 64 41 3e a6 30 cf 3d 00 8f c8 bc
       0.10536052 0.18885928 0.10116701 -0.02448225
000050 18 2e 99 3d 57 c0 78 3d 2e 87 08 bd d4 a7 7e 3e
       0.07479495 0.060730305 -0.033332042 0.24868709
000060 29 8c 01 3e 05 fe ec bd 0c 9c 2f 3d 02 f1 f0 bc
       0.12651123 -0.11571888 0.042873427 -0.029411796
000070 14 1d 0b 3e 6e 5e 8f 3d 6c 1f 52 3c 83 92 c8 3c
       0.13585311 0.07000433 0.012824874 0.024483925
000080 4d e5 2d 3e 1e 45 6c bd de 34 3a bd ea 35 77 3d
       0.16982003 -0.057683103 -0.045460574 0.06035415
000090 15 af 91 3d 6d 44 e6 3d 89 42 8d bd 50 80 b7 3c
       0.07113472 0.1124352 -0.06897456 0.022400051
0000a0 92 b9 89 3e 64 6f 3e 3e 34 7c 0a 3c 82 ca e3 3d
       0.2689939 0.1859718 0.008452464 0.1112261
0000b0 50 a7 75 bd a2 e6 8c 3c c7 9f 67 3c 72 1a fb 3d
       -0.059974015 0.017199818 0.014137215 0.122609034
0000c0 94 84 be 3d 68 53 c3 3c d9 a6 c1 3d 10 21 00 bd
       0.09302631 0.023843482 0.09455652 -0.03128153
0000d0 e6 e4 98 3d 7b 4a 0a 3d a7 d5 b1 bc 6f 41 64 3d
       0.07465534 0.033762436 -0.021708323 0.055726465
0000e0 d4 78 11 3e 7f 5b 19 3d 6d dc b2 3d 65 d2 05 3d
       0.14206249 0.037440773 0.08733449 0.03267135
0000f0 ae c5 38 3e d5 d0 b5 3d a8 38 22 3e f3 52 c7 3d
       0.18044159 0.08877722 0.15841925 0.09732618
000100 ac 1b ed 3d 2e 2a 48 3d 8e 40 3c 3d 6b 5f dc 3c
       0.115775436 0.04886835 0.04596 0.026900968
000110 ff c2 9e 3c c6 b7 af 3d d9 0e fd 3d 68 50 10 3e
       0.01938009 0.08579974 0.123563476 0.14093173
000120 3c 0d 45 bd e5 1d 78 3c ee ab 39 bd a8 da 98 bb
       -0.048108324 0.015143846 -0.04532998 -0.0046647377
000130 13 fa d4 3d 20 77 20 3e 1c b6 0b 3e e3 f3 3e 3e
       0.1039926 0.15670443 0.13643688 0.18647723
000140 f4 eb ed 3d 59 86 ff 3d fc 26 50 3e fb c4 47 3d
       0.1161727 0.12476797 0.20327371 0.04877184
000150 12 73 18 bd fe d4 8e 3d e8 d2 76 3c 3b 00 22 3e
       -0.037219115 0.06974219 0.015064932 0.158204
000160 f0 7d fa 3d c2 cf 31 be d1 46 a6 3d 15 32 c9 3d
       0.12231052 -0.1736441 0.08118976 0.098240055
000170 50 8a 25 3c 21 80 2f bd c8 25 16 3d 46 ba f8 bc
       0.010103777 -0.042846803 0.036657125 -0.03036226
000180 ad 01 50 3e 84 e1 ac 3d de 78 c7 3c b1 bb 23 3e
       0.2031314 0.08441451 0.024349626 0.15989567
000190 cd 9f fe 3d 7b 4f ca 3d ee 7b 4e 3e 90 48 44 3d
       0.12432823 0.09878441 0.20164463 0.047920763
0001a0 e0 be de 3d 6f ae 79 3e 6c 01 9a 3d db 62 ab 3d
       0.1087625 0.24382947 0.075198025 0.083684646
0001b0 17 15 06 bc 71 9f 18 3e 31 62 28 bc 04 61 13 3d
       -0.008183739 0.14904572 -0.010277317 0.035981193
0001c0 76 f5 57 3e c4 d4 f9 3d c7 d9 7f 3e 64 b1 d4 bc
       0.2108973 0.12198785 0.24985419 -0.025963493
0001d0 c2 46 f4 3d 3a 0e 81 3c 65 2c 72 bd db 5b e6 3d
       0.119275585 0.015753854 -0.05912437 0.11247989
0001e0 41 6c d8 3c 63 ec 65 bc 58 e9 35 3e 4d 22 f1 3d
       0.026418807 -0.01403341 0.17764795 0.117741205
0001f0 ae f2 4d 3e 4c e4 29 bc e3 d4 86 bc 56 2f 1f bd
       0.20112106 -0.010369372 -0.016458934 -0.038863502
000200 df ec 62 3e 32 f7 ae 3c e8 dd 0d 3d cb 39 85 3e
       0.22160672 0.021358106 0.034635454 0.26020655
000210 b5 4e 26 3e f6 94 4d bd f4 38 ad 3d e1 af 06 3e
       0.16240962 -0.05019089 0.084581286 0.1315303
000220 60 24 76 3e ff 47 fa 3d 97 de 83 3a 18 a1 37 3d
       0.24037313 0.122207634 0.0010060844 0.044831365
000230 5d 00 08 3d 8f 40 c5 3d a3 a4 0b 3d d9 85 10 3e
       0.03320347 0.09631454 0.034092557 0.14113559
000240 40 3b 44 3e b4 f7 91 3d 5e c8 a2 3d fc 0c 1a 3d
       0.19163227 0.07127324 0.07948373 0.03761004
000250 f7 3b 68 3d f4 79 94 3d ac 33 b0 3c 50 b3 8a 3e
       0.056697812 0.07249823 0.021509014 0.2708993
000260 52 ab 9c bc 66 0a 22 3d 9d cb ed 3c 46 86 74 3d
       -0.01912466 0.039560698 0.029027754 0.059698366
000270 23 b1 fd 3d 61 0d d2 3d ad 85 89 3d a5 d3 07 3d
       0.12387302 0.10256458 0.0671495 0.033160824
000280 74 b7 b1 bb 75 bc 8e 3e 6f 2f d7 3d 1c 47 c1 3d
       -0.0054234806 0.27878156 0.10507094 0.09437391
000290 a1 1a 80 3b 72 21 09 3c 50 da a2 3d d5 67 61 3e
       0.0039094244 0.00836979 0.07951796 0.22012265
0002a0 8b 02 fc 3d c6 7a cb 3d 0d 77 da bc f6 64 0f bd
       0.123051725 0.099355265 -0.026668096 -0.035008393
0002b0 b7 08 94 3e 59 16 64 3e 07 0f 45 3e 6f 42 7f 3b
       0.289129 0.2227415 0.19244014 0.003894951
0002c0 73 4c 3c 3e d2 83 e7 3d d5 ab 53 3e 18 e3 28 3d
       0.18388538 0.113044396 0.20671017 0.0412322
0002d0 04 66 82 3d 2f d7 cb 3c a4 25 30 bd 90 39 e1 3d
       0.06367114 0.024882881 -0.043004647 0.10997307
0002e0 1c 0f 62 3e b1 57 49 be f2 af 52 3d 2a ee 18 3e
       0.22076076 -0.19662358 0.051437326 0.14934602
0002f0 f4 3d 31 bd ac 7b 27 3c 56 13 98 3d 11 00 c4 3c
       -0.043271974 0.010222357 0.07425563 0.023925813
000300 d5 ea f3 3c 75 93 92 3d 89 7d d8 bc 4d fc a7 3a
       0.029775063 0.071570314 -0.026427047 0.001281628
000310 af de 41 3c 30 ae 83 3b c5 49 7e bc 31 ad a4 bd
       0.011832877 0.0040185675 -0.015520518 -0.08040846
000320 85 04 da bd 2c 94 0a 3d 2c 96 be bc 3f e6 bc bc
       -0.10645393 0.033832714 -0.023264967 -0.023059009
000330 ee 65 2a 3c 1e ef 9c bd 08 09 15 bd e0 cd 17 bd
       0.0104002785 -0.076627955 -0.036385566 -0.037061572
000340 c2 98 90 bc ab 4e 90 3d eb ec 27 3d 30 eb 8d bd
       -0.017650966 0.07046255 0.040997427 -0.06929624
000350 08 5d 79 3d 55 15 91 bd df 66 3a bd 70 c7 6e bd
       0.060879737 -0.07084147 -0.04550826 -0.058295667
000360 68 cd bc 3d 01 f8 54 bd 81 13 1f 3d b3 9c a1 bd
       0.09218866 -0.051994327 0.03883696 -0.07891216
000370 d7 17 9a bc cb 69 9c 3c 18 62 86 bd fa d1 be 3c
       -0.018810196 0.019093415 -0.06561679 0.023293484
000380 c3 c2 40 3d e7 f9 3a bd 8e 5f bd bd 88 bb 90 3c
       0.04706074 -0.04564848 -0.09246741 0.017667547
000390 e7 ca b7 3d 15 38 74 bd 49 bf 0b bc 4c cb 4a bd
       0.089742474 -0.059623796 -0.008529493 -0.049510285
0003a0 fa b0 07 bd 91 28 70 bd 54 50 12 bd fb 99 c3 bd
       -0.033127762 -0.058632437 -0.035721138 -0.09550854
0003b0 3b 64 50 3d 93 d2 ff bc ed b9 58 3d 37 38 d4 bb
       0.050876837 -0.03122834 0.052911688 -0.006476428
0003c0 39 40 eb bd fc 3c 6d bd bd 0a 68 bc 79 fd b9 bd
       -0.11486859 -0.057919487 -0.014162716 -0.09081549
0003d0 9b 0d c9 b9 66 67 56 bd c4 06 47 3d 75 55 81 bc
       -0.00038347844 -0.052344702 0.048590437 -0.01578782
0003e0 9b c4 fc 3c 7f 5b f3 3c 6f 28 a7 bd 12 5c f9 3c
       0.030855468 0.029706715 -0.08162009 0.03043941
0003f0 ca c1 62 bc 34 f4 32 bd 9a 6c a5 bd 0f 50 e2 bd
       -0.013840148 -0.04368992 -0.08077355 -0.11050426

lstm1.weight_hh_l0 f4 [512, 128]
000000 a0 04 41 be 5f f9 1d be 54 12 15 be 3d bb 37 be
       -0.1884942 -0.15427159 -0.14557773 -0.1794252
000010 4e de ba bd bf 28 33 3e 4d e6 08 3e e0 dd 0b 3e
       -0.091244325 0.17496012 0.13369103 0.13658857
000020 c7 f4 e8 bd 20 f4 73 be 26 a6 fb 3d 80 95 2f 3c
       -0.113748126 -0.23823595 0.1228755 0.010716796
000030 ec 5f 0e 3e f7 45 3c bd 9d 42 90 bc a5 91 fd 3d
       0.13903779 -0.04596516 -0.017609889 0.12381295
000040 57 6e 62 3e 92 a4 02 3e 69 b0 14 3e 3e dc d5 bd
       0.22112404 0.12758091 0.1452042 -0.104423985
000050 58 15 0c 3e 03 0f 7c bd 4c 42 1f 3d ab fc 4a 3e
       0.13680017 -0.061537754 0.038881585 0.19822948
000060 ae 99 86 bc 61 bc 3a 3e aa d8 22 3e e9 d8 d0 3b
       -0.016430702 0.18235923 0.15902963 0.006373514
000070 c8 38 0f be b6 fe 82 bd f9 e8 02 3e c5 10 80 be
       -0.13986504 -0.063962385 0.12784185 -0.25012794
000080 ee b9 cd be 07 b1 49 be 40 c6 44 be 1a fa 60 3e
       -0.40180916 -0.19696437 -0.19216251 0.21970406
000090 a6 2f 90 be 1d f4 0a 3e 29 36 32 be 28 fa 04 be
       -0.28161353 0.13569684 -0.17403473 -0.12986052
0000a0 0d 34 f2 3d 82 6b 13 3e 28 54 90 3d 42 c8 e3 3d
       0.11826334 0.1439648 0.070473015 0.111221805
0000b0 6b 71 14 3e 2d 4c 02 be 5a f4 a1 be 54 54 90 bd
       0.1449639 -0.12724371 -0.31631738 -0.07047334
0000c0 35 72 20 3e 58 5d 60 be e6 ed f0 3d f8 39 35 be
       0.15668567 -0.21910608 0.117641255 -0.17697895
0000d0 be e4 7f be 2b 9a 0c be 6f 46 a1 3e 85 91 1f be
       -0.24989602 -0.13730685 0.3149905 -0.15582855
0000e0 bf 8e e0 3c de 05 66 3e e9 9b 64 3d d3 30 c5 bd
       0.027411817 0.22463176 0.05581275 -0.09628453
0000f0 32 87 88 bd 2f d0 27 be ac e7 e2 bd 2c 32 78 be
       -0.066664115 -0.1638801 -0.11079344 -0.24237889
000100 8d 85 fd 3d 79 ba 89 3e 59 f4 5a bd 62 15 00 3e
       0.123789884 0.2690008 -0.053455684 0.12508157
000110 83 bb 4d be ae b5 1d 3d f6 2f 1c 3d 22 e9 10 3e
       -0.20091061 0.03850334 0.038131677 0.14151433
000120 59 97 90 3d d9 60 4f be 44 6e ad 3e f6 64 01 3e
       0.07060117 -0.20251788 0.33873188 0.1263617
000130 10 42 02 3e 01 41 91 3e 99 d0 21 3e 85 c3 eb bd
       0.12720513 0.28369907 0.1580223 -0.11511902
000140 c5 d8 b6 3d 53 b2 87 3c 4a 5a 46 be b8 d5 36 3d
       0.08928064 0.016564524 -0.1937038 0.04463741
000150 46 62 fd 3d d7 4a 6b 3e 41 ae 95 3c 04 04 30 3e
       0.1237226 0.22977768 0.018271567 0.17189032
000160 73 ad 43 bd e9 e9 59 3e cf 4e 3d be e2 e9 d1 3d
       -0.047772836 0.21280636 -0.18487094 0.10249688
000170 bf f1 14 3e 39 27 07 be bf 5d 5b bc e4 40 02 be
       0.14545344 -0.13198556 -0.01338905 -0.12720066
000180 d1 a7 2e bd 08 7a b4 3e 6a 31 94 3c 10 5b 4e be
       -0.04264051 0.35249352 0.018089969 -0.20151925
000190 19 63 36 3e 37 40 5c bd 85 61 c7 3d ad 3a 7a 3d
       0.1781124 -0.053772178 0.09735397 0.061091114
0001a0 08 7b 09 be 6e 24 83 3d 58 d5 a0 3d f7 69 45 3e
       -0.13425839 0.06403433 0.07853192 0.19278704
0001b0 e3 07 57 3e cb 8e 14 3e 63 bf 09 3e 5f 6c 7d be
       0.20999102 0.14507596 0.13451914 -0.24748372
0001c0 64 4e 11 3e 8b d5 ef bc 4d 53 64 bd 40 60 33 3e
       0.1419006 -0.02927663 -0.055743504 0.17517185
0001d0 b2 aa 56 be 00 c4 6b bd a6 a5 81 be 63 6f ae bd
       -0.20963553 -0.057559967 -0.25321692 -0.08517339
0001e0 0f 4b 32 be 7d 71 09 be 82 46 c1 bd 39 a0 1f bd
       -0.17411445 -0.13422199 -0.094372764 -0.03897116
0001f0 7a 17 5d 3e a2 ee 14 be 7a 05 13 3d f6 b5 af bd
       0.21590987 -0.14544156 0.035893895 -0.08579628
000200 6d e2 e6 3d 7b b2 ec bd b7 dc 80 be 4c 72 48 be
       0.11273656 -0.1155748 -0.25168392 -0.19574851
000210 6a e3 8b be c4 81 8a 3d 0f 23 b6 3d 24 98 1a 3c
       -0.2732194 0.06763032 0.08893406 0.009435687
000220 34 5d 0b be 60 4a 0d 3e a2 bf bb 3d 9f ce b4 3d
       -0.13609773 0.13797903 0.091674104 0.08828472
000230 73 c8 53 bd b3 29 2f be 1f 80 6c 3c 95 87 08 3e
       -0.051704835 -0.1710575 0.014434843 0.1333297
000240 bb 90 0c 3e 3b 5e 4b 3e 03 c7 1a 3e da b2 7c be
       0.13727085 0.19860165 0.1511498 -0.24677601
000250 04 2b 3d 3e 04 af f2 3c 96 3e 5b 3e 92 57 bd 3d
       0.1847344 0.02962447 0.21410593 0.09245218
000260 79 ba e4 bc 8b 4e 34 3e 5b 5c 1e 3e d3 af d3 bd
       -0.027920948 0.17608087 0.15464918 -0.1033627
000270 99 a0 31 be 6d 35 9a bb 97 ef 67 3e 8c 70 0f be
       -0.1734642 -0.004706076 0.2264999 -0.14007777
000280 e7 4e 8a be 15 69 8b be 69 6e 7a be 0d 6a 8a 3e
       -0.27013323 -0.2722861 -0.2445618 0.27034035
000290 67 11 4e be 8f 98 c7 bd 55 7b 14 be 71 9f 8b be
       -0.20123826 -0.09745895 -0.14500172 -0.27270082
0002a0 39 cd 86 3c 90 0e 03 3e cf dd 30 3e 05 cb 4e 3e
       0.01645528 0.12798524 0.17272113 0.20194633
0002b0 64 1e 10 3e ec a8 9a be bf c9 2c be cf 0c 0b 3e
       0.14074093 -0.30207002 -0.16873835 0.13579105
0002c0 34 35 c9 3d 9c 87 aa be 28 92 65 3e 13 0a 7c be
       0.09824601 -0.33306587 0.22419035 -0.24613218
0002d0 b3 2b 99 be 15 67 a5 bd 21 28 35 3e 1b 6d 28 be
       -0.29916152 -0.08076302 0.17691089 -0.1644787
0002e0 d8 52 16 3e 45 9e 0e 3e cd 37 4f 3e 99 57 0c be
       0.1468004 0.13927563 0.2023613 -0.13705291
0002f0 27 84 6c be f4 99 fa bd 9a d2 81 be 4e fa 2f 3c
       -0.23097287 -0.122363955 -0.2535599 0.01074083
000300 64 30 5d 3e 89 c0 9c 3e a4 97 53 bc bd 25 7b 3e
       0.21600491 0.30615643 -0.012914572 0.24526115
000310 5b 03 3b be f5 57 29 be 54 ad b7 3d 29 77 e3 3d
       -0.18262999 -0.16537459 0.089686066 0.11106712
000320 78 44 fe 3d a3 c4 76 be c5 ca ac 3e 56 80 8b 3e
       0.12415403 -0.24098448 0.3374845 0.2724635
000330 b9 23 07 3e ab 00 09 3e 34 03 39 3e 82 57 38 be
       0.13197221 0.13379161 0.18067628 -0.18002132
000340 46 b4 9e bc 34 9d 8d bc 3c b7 d5 bd 31 a6 d6 3d
       -0.01937307 -0.017286874 -0.1043534 0.10480917
000350 67 05 0a 3e ac 9d 09 3e 57 b6 03 3d 3a ac 29 3e
       0.13478623 0.13439053 0.032156315 0.16569605
000360 34 44 b5 3d 46 3b 92 3e 1e 17 34 bd 1b 55 20 3e
       0.08850899 0.28560847 -0.04396736 0.15657465
000370 17 7c cc bd ab e7 e7 bd b9 b7 28 3e a9 20 9e 3c
       -0.09984606 -0.11323484 0.16476335 0.019302683
000380 ec 14 ad bc 13 c3 9f 3e 53 ac fc bd b9 b3 6f be
       -0.02112814 0.31203517 -0.12337556 -0.23408403
000390 98 3e 01 3e 62 39 a6 bc ed ac a9 bd ca 31 0c be
       0.12621534 -0.020291034 -0.08284936 -0.13690868
0003a0 23 e3 49 be 96 b2 2a 3d 71 cf 8c 3b c3 7d 09 3e
       -0.19715552 0.04167422 0.00429719 0.1342688
0003b0 64 c9 c6 3d e7 73 4c 3e 67 55 fa bd 81 48 ab be
       0.09706381 0.19966088 -0.122233205 -0.33453754
0003c0 ea 90 39 3e 50 ae e5 3d 23 7a 51 bd 50 22 10 3e
       0.18121687 0.11214888 -0.05114187 0.14075589
0003d0 c5 22 fd bd 3a e0 63 be 24 79 79 be 93 e2 21 3d
       -0.123601474 -0.22253504 -0.24362618 0.03952272
0003e0 46 4f ff bd 9d 9f 30 be 28 cb 6e be 4d c9 a3 be
       -0.12466292 -0.17248388 -0.23319685 -0.31989518
0003f0 43 29 8d 3e b3 57 5d be 56 b6 70 3d 20 d8 94 bd
       0.27570543 -0.21615486 0.05876764 -0.07267785

lstm1.bias_ih_l0 f4 [512]
000000 24 ea 20 bd e3 b7 fa bc d6 22 00 3e b3 22 eb bc
       -0.039285794 -0.030605262 0.12513289 -0.02870307
000010 6d 13 53 3d 1f fd fa bd fc 6a 0f be 11 33 44 3e
       0.051532198 -0.1225531 -0.14005655 0.19160105
000020 ac 18 a2 3c 40 8c 2b be 92 a9 7c bd 98 1b 3e be
       0.019787155 -0.1675272 -0.061685152 -0.18565214
000030 1a 07 5d bd d1 96 bc bd 3f 8c 33 be a0 dd e4 bd
       -0.05396185 -0.092084534 -0.17533968 -0.11175084
000040 f7 4e 01 be b7 83 3d 3e 13 c7 a0 bd 3c f0 dc bd
       -0.12627779 0.18507276 -0.078504704 -0.107880086
000050 1f 37 20 bc 91 7b 00 be e1 98 d0 3d 79 fb 1d be
       -0.009778767 -0.12547137 0.10185409 -0.1542796
000060 98 da c8 bd 8f 45 0f be bb ca 1d be 72 ed 44 3d
       -0.098073184 -0.13991378 -0.15409367 0.048078008
000070 a9 52 8f bd a6 54 01 3e cf 1a a1 3d f8 3e 9f 3c
       -0.06998188 0.12629947 0.078664415 0.019439206
000080 43 eb a1 bd 0d b4 d3 bc 3e af 08 3e 29 9d ed bd
       -0.07906201 -0.02584269 0.133481 -0.116022415
000090 3a 3e f3 3d 00 a4 e5 3d 77 b3 ff 3c f8 ce 9e bd
       0.11877103 0.11212921 0.031213505 -0.0775432
0000a0 7f 87 78 39 ce 54 0c be 30 d4 e6 bd d0 4b a3 bd
       0.000237016 -0.13704225 -0.1127094 -0.079734445
0000b0 ef a1 b7 bd bb 27 5e be 31 1d 39 bd ca 39 39 be
       -0.08966433 -0.21694843 -0.045193855 -0.18088451
0000c0 30 3e 73 bc c5 50 1a be 5e d6 e5 bd 39 96 df bd
       -0.01484637 -0.15069874 -0.11222528 -0.109173246
0000d0 97 f1 10 bc 44 42 3f bd 90 86 4d 3d 0c eb d5 3c
       -0.008846662 -0.046694055 0.050177157 0.026113056
0000e0 2f 2f 8d bc a2 1e ff bd 27 63 4c 3e ed 28 88 3c
       -0.017234413 -0.124570146 0.19959699 0.016621077
0000f0 ff cc 1a 3e 24 e5 33 bd ff c7 00 be 1b d5 0b 3d
       0.15117262 -0.043919697 -0.12576292 0.03413878
000100 10 32 49 bc fa 57 d0 3d 50 f8 70 3d 9e 5e c5 bd
       -0.012280002 0.1017303 0.05883056 -0.096371874
000110 fc a5 9b bd ae cc af bd 8f 20 31 bd 6b 89 e9 bc
       -0.076000184 -0.085839614 -0.04324394 -0.028507909
000120 00 bc 8c bd b1 06 98 3b 04 c3 fe bd aa 87 15 bd
       -0.06871796 0.0046394696 -0.1243954 -0.036506332
000130 22 5a 7b be 6e 59 04 be 73 3b 0f be bb e4 0a be
       -0.24546102 -0.1292474 -0.13987522 -0.13563816
000140 01 71 ea bc 56 69 8f 3d 71 6a e3 bd 13 32 de bd
       -0.028618338 0.07002513 -0.111042865 -0.10849395
000150 23 34 d5 3c ab 01 ab 3d f8 30 8f bd 5c be 14 be
       0.026025837 0.083499275 -0.06991762 -0.14525741
000160 0d a4 24 bd 31 29 03 be 62 1a 52 be 00 20 09 be
       -0.040195514 -0.12808682 -0.20517877 -0.13391113
000170 6f ea 9b bd 55 ac 18 be 6c f3 1f 3c 08 b3 17 be
       -0.07613074 -0.1490949 0.009762626 -0.14814389
000180 fe 20 59 bd 32 e8 25 be 13 22 2b 3e c6 31 50 bd
       -0.05300998 -0.16201857 0.16712217 -0.050828718
000190 13 8f 62 be 15 7c 3b 3e de 0d 2f bd bb c4 54 3e
       -0.22124891 0.18309052 -0.042737834 0.20778172
0001a0 d2 38 8c bd c0 e7 1e bd 49 10 19 bd b6 49 4c 3c
       -0.06846775 -0.038795233 -0.037369046 0.012468746
0001b0 7b 01 31 be 43 88 60 bd 2f 62 46 bd 4e 11 fe 3d
       -0.17285721 -0.05481745 -0.04843348 0.12405644
0001c0 51 e3 bc 3d 02 12 96 3d 91 b6 ec bd e5 be 77 3d
       0.09223045 0.073276535 -0.11558259 0.060484786
0001d0 49 7e 7e bd 04 7e bd bd 46 e6 65 bd 73 42 0f be
       -0.062132154 -0.09252551 -0.05612781 -0.13990192
0001e0 2b fb c8 bd 0d 26 a6 bd b1 4a 05 be 0e 7f 24 be
       -0.098135315 -0.08112726 -0.13016774 -0.16064093
0001f0 f6 35 10 be 92 32 9d 3d a4 04 15 3e 19 df 56 bc
       -0.14083084 0.07675661 0.14552552 -0.013114714
000200 14 49 55 3e 4f 15 02 3e 84 3c 78 3e b0 bd 5d 3d
       0.20828658 0.12703441 0.24241835 0.05413598
000210 9c a7 25 3e fd df 02 be bc 17 58 be 0a fe bb 3d
       0.16177219 -0.12780757 -0.21102804 0.091793135
000220 c1 b7 0c be ae bd 76 be b0 0f bf bd 08 0c 49 be
       -0.13741972 -0.24095795 -0.09329164 -0.19633496
000230 16 17 3b be 55 c5 ba 3d 51 13 57 be 6a 46 89 bd
       -0.18270525 0.09119669 -0.21003462 -0.067028835
000240 79 55 16 3c 82 2f b3 3d 4e ae 1d be 7a d0 fc bd
       0.009175652 0.08749296 -0.15398523 -0.12344451
000250 cb c6 e7 bd eb 20 81 3e 71 d0 16 3e 70 3e 59 be
       -0.113172136 0.25220427 0.14727952 -0.21215224
000260 85 09 11 3e 3d 68 62 3b 55 d1 93 bd 2d 68 1a 3c
       0.14163788 0.0034546994 -0.07217661 0.0094242515
000270 d5 fe 97 bd ce 36 34 3e bd 77 ab 3d 53 42 c4 3d
       -0.07421652 0.17599031 0.08372448 0.09582963
000280 9f 65 e4 bd 6e a9 c8 bd 40 7e 2d 3e 2a c8 99 3d
       -0.11152195 -0.09797941 0.16942692 0.075088814
000290 48 32 b0 bc f9 e4 19 3e 02 94 f4 3d fe 1b 04 bd
       -0.021508351 0.15028752 0.11942293 -0.032253258
0002a0 c1 52 3a be b4 99 3e bd 1e d9 0a 3d 25 d0 d9 bd
       -0.1819563 -0.0465333 0.033898465 -0.106354035
0002b0 36 de d5 bd 91 a8 b9 bd 6b e7 11 be 2f c5 92 be
       -0.10442774 -0.090653546 -0.14248435 -0.28666064
0002c0 ee 91 38 be 25 81 6e be 43 eb 73 3d ff 08 45 3e
       -0.18024418 -0.23291452 0.059550535 0.19241713
0002d0 c3 31 3e bc b8 34 23 bd c8 b8 68 3e aa e2 10 bb
       -0.011608544 -0.0398452 0.22726738 -0.0022107759
0002e0 fe d4 4b 3e 83 03 5e bd 49 a5 9e 3d 20 18 5b 3e
       0.19905469 -0.054202568 0.077463694 0.21395922
0002f0 a7 a0 eb 3b ef 5b be bd 24 e7 a3 bd 84 2e 06 3e
       0.007190782 -0.09294879 -0.08003071 0.13103682
000300 a7 bd 37 be 01 16 39 3e 5b aa 3d 3e b1 ca 3b bd
       -0.1794344 0.180748 0.18522017 -0.0458476
000310 ed 62 07 be 82 a8 0f be 4b df 2b be 2a 4a 71 3d
       -0.13221331 -0.14029124 -0.16784398 0.05890862
000320 a5 dd 60 be 04 8e 34 3e b0 a2 10 be 67 f7 39 3d
       -0.2195955 0.176323 -0.1412456 0.045401957
000330 79 bf 30 be bf 1e 88 be 08 66 22 be 55 69 9d bd
       -0.17260541 -0.26585957 -0.15859234 -0.07686106
000340 f8 2a be bc ca 3f b7 bd dd 37 4b 3d 38 4d 12 be
       -0.023213848 -0.08947714 0.049613822 -0.14287269
000350 30 86 0a 3d fb bd 80 3e 11 bd 25 3e 6f 95 32 be
       0.033819377 0.25144944 0.16185404 -0.17439817
000360 0c 83 89 3d 6a 43 ef bd d7 97 28 be 9d 4b d7 3c
       0.06714448 -0.1168278 -0.16464172 0.026281172
000370 32 ca 16 be 39 68 93 bd 84 86 3c bd 64 04 21 3d
       -0.14725569 -0.07197613 -0.04602672 0.039310828
000380 a3 b7 87 bc bd 53 84 bd 86 fc dd 3d c0 d0 19 bc
       -0.016567057 -0.06461284 0.10839181 -0.009388149
000390 95 59 46 be 8d e7 60 3e e3 89 8c 3e 2d 8a 8b 3d
       -0.1937011 0.2196333 0.2744895 0.06813464
0003a0 24 2e 04 be 7d 73 7a 3c 84 1b 34 be 1e 43 17 bc
       -0.12908226 0.015286324 -0.17588621 -0.009232311
0003b0 df 23 4f be 00 39 3b be f5 2e 19 3e 10 3a 32 3e
       -0.20228527 -0.18283463 0.14959319 0.17404962
0003c0 cc 06 28 3e ad ce 68 3e ea 7a c2 3d 97 fa 4e 3c
       0.16408843 0.2273509 0.094961 0.012632987
0003d0 7d 65 92 bd 9b c3 1f be 0d 7d 1f 3e af d3 67 bc
       -0.071482636 -0.15601961 0.15575047 -0.01414959
0003e0 ed a0 f7 bd a8 6e e7 bd 1f 6e 52 be ca 8b 5f 3e
       -0.12091241 -0.11300403 -0.2054982 0.21830669
0003f0 92 1a 19 be 07 39 a0 3d 0b 2d 0f 3e db a0 88 3d
       -0.14951542 0.07823377 0.13982026 0.06671306

lstm1.bias_hh_l0 f4 [512]
000000 1a 0a 06 be 66 a6 00 be e3 a5 90 3d 21 75 ca bb
       -0.13089791 -0.12563476 0.070628904 -0.0061785136
000010 36 e4 f6 3d 06 d1 f3 39 2c 5b 36 be 39 87 3e 3e
       0.120552465 0.00046504306 -0.17808217 0.18606271
000020 c3 e5 84 bd b2 c1 aa bd c1 e8 09 3c f3 d2 21 be
       -0.06489136 -0.08337726 0.008417309 -0.15803127
000030 40 6e 3e 3c 12 ad 45 3b 88 4b 08 be 76 0b 3a bd
       0.011622965 0.0030162972 -0.13310063 -0.045421086
000040 42 bc 21 bd 98 19 15 3e 2a db ff bd 72 d1 ce bd
       -0.039486177 0.14560544 -0.12492974 -0.10098542
000050 8b 3f 84 bc 5e b2 29 be 10 6d 28 3e 45 09 bd bd
       -0.01614358 -0.16571948 0.16447854 -0.09230284
000060 da fc 05 3c 7f e3 5e bb 80 93 7c bd 4e 32 95 3d
       0.00817796 -0.003401011 -0.061664104 0.072849855
000070 71 78 2b be 81 41 44 3e 4d 1e 3f 3e e1 32 df 3c
       -0.16745164 0.19165613 0.18663903 0.02724594
000080 07 46 5b be 1a ff 8a bc 5a 6a ca 3d b4 63 ae bd
       -0.21413432 -0.016967345 0.09883566 -0.085151106
000090 8e 63 0c 3c 45 7c ae 3d af 75 06 bd b1 5a 4a 3b
       0.008568658 0.08519796 -0.032827076 0.003087681
0000a0 3d a0 00 be 26 eb aa bd 1f c4 bb 3a 79 2b 77 bd
       -0.12561126 -0.08345632 0.0014325416 -0.060344193
0000b0 a2 5b 08 bd 45 6b 65 be b5 f6 02 be e0 89 e0 bd
       -0.033290513 -0.22404201 -0.12789424 -0.109637976
0000c0 69 a6 c8 bb b4 ba 44 be 75 bb b2 bd 2f 3c 17 3d
       -0.0061233533 -0.19211847 -0.08727161 0.03692263
0000d0 10 a3 a4 bd ca 34 bc bd 62 42 92 3d fe f8 17 3d
       -0.08038914 -0.09189756 0.07141568 0.03710269
0000e0 9a a9 72 3d 28 63 31 be fb 7a 8a 3d c1 8c 32 3e
       0.059243776 -0.17322981 0.06761738 0.17436506
0000f0 7d 34 e3 3d 05 df 13 be 27 a9 83 bd d3 3c d5 3c
       0.11093996 -0.14440544 -0.064287476 0.02602998
000100 3a 13 54 3d 9c 07 21 3e 75 71 3b 3c 82 f3 21 bd
       0.05177615 0.15725559 0.0114406245 -0.039538868
000110 97 17 2b be 5d 78 e7 bc 7f e4 dc bd dc f7 d9 bd
       -0.16708218 -0.028255636 -0.1078577 -0.106429785
000120 70 cc b3 bc eb 95 22 3d e1 31 0b bd d0 03 ea 39
       -0.02194807 0.039693754 -0.033983115 0.00044634799
000130 be 1e 33 be b6 74 43 bd 61 23 91 ba 9b c1 06 be
       -0.17492196 -0.047718726 -0.0011073166 -0.13159792
000140 1f a1 81 bc d6 40 a1 3c 9b 1d 04 be 9c f2 0b be
       -0.015823899 0.019684236 -0.12901919 -0.13666767
000150 aa d4 97 3b a6 17 29 3d f1 81 6a bd 3a d1 b7 bd
       0.004633506 0.04128232 -0.057252828 -0.08975454
000160 f6 aa fe 3d 28 ef 0a be d1 60 27 be e5 36 98 bd
       0.12434952 -0.13567793 -0.16345526 -0.07432345
000170 e3 6f c3 bd 6a 29 0a be f0 1d fc 3c a6 76 e4 bc
       -0.09542825 -0.1349236 0.030775994 -0.027888607
000180 44 2f 4c be 26 b7 13 be ad 57 80 3d ff fb 81 bc
       -0.19939905 -0.14425334 0.06266723 -0.015867231
000190 ee 23 ac bd de 81 b9 3d c9 4b 90 bd f6 df 94 3d
       -0.084052905 0.09057973 -0.07045705 0.0726928
0001a0 3f 86 28 be cc 0d de bc f8 34 ba bd 5e 7b f4 bd
       -0.16457461 -0.027106188 -0.09092134 -0.11937593
0001b0 1d 0c 46 be 61 1c 85 bd 42 6e c4 3c 4f 81 e4 3d
       -0.19340558 -0.064995535 0.023978356 0.11157476
0001c0 a8 87 a8 3d 24 d1 96 3d f6 6c 9f 3c e0 46 ab bc
       0.082289994 0.07364109 0.019461136 -0.02090782
0001d0 b3 30 c2 bd 0f 84 4d be 09 77 25 be b8 8a 41 bd
       -0.09481945 -0.20069908 -0.1615869 -0.047251433
0001e0 ff 59 e0 bd bb a9 a7 bd 7f a3 ab bd 86 32 3d bd
       -0.109546654 -0.081866704 -0.08380794 -0.04619076
0001f0 95 3f bd bd c5 a2 8f 3d 63 d8 f7 3d bc cb 1d bd
       -0.09240643 0.07013468 0.12101819 -0.038524374
000200 41 92 9e 3d 5d b5 0b 3d 24 4f 19 3e a4 23 13 bd
       0.077427395 0.03410851 0.14971596 -0.03592266
000210 e9 18 84 3d 30 1b 1a bd e1 4c 57 be 78 99 3e 3e
       0.06450064 -0.037623584 -0.2102542 0.18613231
000220 c0 e9 d2 bc 6c 90 75 be 13 0f ea bd 34 f0 48 be
       -0.025746226 -0.23980874 -0.114286564 -0.1962288
000230 ee c6 2f be 51 92 ca 3d dc e3 12 be 3c 9a 7e bd
       -0.1716573 0.09891189 -0.14344734 -0.062158808
000240 33 0e 7a 3c fa 90 69 3d 36 e0 0f be 4a 4c ee bd
       0.015262174 0.057023026 -0.14050373 -0.11635645
000250 72 1d ab bd 5b 61 28 3e 22 bd 33 3e 58 53 72 be
       -0.083552256 0.16443388 0.17552617 -0.23664606
000260 ba da 54 3e 90 1e 41 3d 3f 36 07 be d3 3c cf 3d
       0.20786563 0.047148287 -0.13204287 0.10119023
000270 2f f3 e0 bd c8 14 d5 3d cb e5 19 3e 45 e9 5d 3e
       -0.109838836 0.10404354 0.15029065 0.21671017
000280 fe a6 05 be 0a 82 25 bd 79 35 5b 3e 15 f8 c2 3d
       -0.13051984 -0.040407218 0.21407117 0.09519974
000290 c3 51 fc 3d c1 76 13 3e a7 74 11 3e 09 0c c1 bd
       0.12320282 0.1440077 0.14204656 -0.09426124
0002a0 f9 cd af bd 26 30 43 be 2a 81 e3 3c e3 bb ee bd
       -0.08584208 -0.19061336 0.027771551 -0.1165693
0002b0 e0 64 de bc 91 74 c4 bd 79 48 84 be 26 cc 43 be
       -0.02714771 -0.09592546 -0.25836542 -0.19120845
0002c0 61 6d 73 bd 11 2c 5a be 5a 9d d4 3d 4f 31 4c 3e
       -0.059430484 -0.21305872 0.10381575 0.19940685
0002d0 f7 d9 9b 3c 4b 67 0f 3d 62 fc 24 3e 3c c4 a1 3d
       0.019024832 0.035010617 0.16111901 0.07898757
0002e0 8e 40 6d 3e 11 f4 bf bd d9 b4 ea 3d cb 0a 1a 3e
       0.23169157 -0.09372724 0.11460275 0.1504318
0002f0 ce 08 86 3d 35 7f 19 be b3 9e 34 3d 24 4c 89 3d
       0.06544648 -0.14989932 0.04409666 0.06703976
000300 6c f4 8e bd 8b ae 82 3e 01 32 c5 3d 89 f7 1a bd
       -0.069802135 0.2552379 0.09628678 -0.037833724
000310 93 53 1e be fc 23 0e be c0 7a 54 be 9e 2e 32 3d
       -0.15461569 -0.13880914 -0.2074995 0.04350149
000320 8d 98 4d bd e3 53 2b 3e c0 69 80 be c1 0d 54 3d
       -0.050194312 0.16731219 -0.2508068 0.05177093
000330 5a 8f 2b be 67 94 94 be 12 d1 e9 bd 58 c5 dc bd
       -0.16753903 -0.29019472 -0.1141683 -0.10779828
000340 56 cb e9 b9 c9 70 2e bd 05 9c 47 bd 08 eb 3e be
       -0.0004459272 -0.04258803 -0.048732776 -0.18644345
000350 d6 cd 69 3d 78 36 53 3e 28 56 03 3e c8 1e 6b bd
       0.057081066 0.20626247 0.12825835 -0.057402402
000360 55 d7 89 bb 71 c9 07 be 09 27 82 be 3b c5 06 be
       -0.004206578 -0.13260438 -0.25420406 -0.13161175
000370 8f 13 5a be 7b 1a a9 bd cc af 45 bd 64 88 00 bd
       -0.21296524 -0.08257004 -0.048263356 -0.031380072
000380 0d 80 72 3c de e3 17 bd 3d 62 85 3e 9c dd c3 bd
       0.0148010375 -0.037082545 0.26051512 -0.09563753
000390 c6 a5 cc bd ab ee 1a 3e 09 3c 90 3e c9 91 2d 3e
       -0.09992556 0.15130107 0.28170803 0.16950144
0003a0 fd a1 8e bd 9e db 95 bd a1 bb 0a be 94 27 87 bd
       -0.069644906 -0.07317279 -0.13548137 -0.06599346
0003b0 ae 5d e2 bd 92 6b 31 be 23 e6 4c 3e d6 f3 7f 3e
       -0.11053024 -0.17326191 0.20009665 0.2499536
0003c0 45 47 b1 3d 8b 8e d2 3d 80 74 8f 3d 50 81 f5 3d
       0.08656172 0.10281094 0.070046425 0.11987555
0003d0 17 93 80 bd ac 0c b9 bd 0a b4 19 3e b4 34 2d 3d
       -0.06278055 -0.0903562 0.15010086 0.04228659
0003e0 43 d6 46 be 7a 18 1a be 89 48 3e be 23 08 49 3e
       -0.19417672 -0.150484 -0.18582357 0.1963201
0003f0 42 47 4c be c0 7e a8 3d b2 b6 68 3e bd 0a ad 3a
       -0.19949058 0.08227301 0.22725943 0.0013202053
