model/models/1w/trained_model.pt (torch, 666885 bytes, 17 tensors)

conv1.weight f4 [48, 5, 5]
00000000: 4e5b bd3d c847 193d 7e58 16be 4081 59bd
00000010: 3e4e a73d 0275 d43d 9752 273e 3d86 dfbd
00000020: 0070 9eb8 b915 113e d373 adbd 409d d8bd
00000030: 9161 193e 2cd1 733d b564 1d3e f038 f5bc
00000040: b84c 40be a8d7 99bc fabf b63d d893 23be
00000050: 2cff 6b3d 4e9b 1abe 9a34 b4bd 2061 743c
00000060: 0932 1a3e d83d c43c c17f de3d 01c1 d23d
00000070: 69d8 04be 9b51 44be 518e f73d fc9b 15bd
00000080: b11f a7bd 8a91 31be 8082 c1bd a590 76be
00000090: 85ce ae3d 26b1 d7bc 9456 e93b 00c1 933c
000000a0: c88b 41be ebe1 4abe 8fea aebd d29a 4e3e
000000b0: 726f 47be ab3a 943d 3df7 913d 0a09 e3bd
000000c0: 52c8 c03d 3d47 c1bd fe4e dfbd 84d0 a3bd
000000d0: 11b9 703e ba4d eebd d239 173e bd06 fd3d
000000e0: d3e7 fc3c b25c 9d3d a55b 2c3c 6ac5 5e3e
000000f0: 6e0e 2a3e 6562 6b3e 735a 5dbd 8e32 4b3e
00000100: 677d 403e cd3d fa3d 3939 7b3e f511 4dbc
00000110: ed35 803e 12c2 c33c fb13 da3a ad9e 09be
00000120: 3d05 21be 3e47 37bd 1bbf 37be fd25 01be
00000130: 29bf 9abd 7d9f 03bd ce2a 65be 8878 123d
00000140: 1ed2 203e ffae d03d 5655 9dbc c887 9abd
00000150: 2a52 283e 285c 5bbe 5664 18be f007 8dbd
00000160: 5f66 62be 2927 c93d efbf f73d a679 ac3d
00000170: d791 3cbe b3b6 093e 9768 f83d 69ee 853d
00000180: 4b10 89bd 2f4e f2bd 2c6d 39bd ea0a 2a3e
00000190: 7a0e 6cbd 29cd 0a3e d688 fcbb 8181 323e
000001a0: a39f a7bc f697 efbd c8e2 9f3d 1ec4 21be
000001b0: 2ac4 f6bd f82e a13c 3022 be3c ac12 003e
000001c0: 0013 113e 16ba 2dbe 32ab 3d3e 7dbe 763e
000001d0: d612 afbd 7abf edbd f55d 24be 676a 37be
000001e0: bd1c 573e 1537 45bd cd68 a93d 2a35 12bc
000001f0: 91e8 533e 777c 9f3d 9401 023e 6375 19be
00000200: 3e5e b4bd 99f3 053e 7be0 43bd 4f60 a33d
00000210: 16e6 16be cac0 c4bd ba8d 8fbd f05b cebd
00000220: 4d57 53bc ed7d ff3d 7d3d 4c3e 444a 0b3e
00000230: 437f f5bd 637d c9bd df70 223d 8f58 49be
00000240: e46e ccbc 0f14 87bd 150d b43d 02b1 5d3d
00000250: d160 bb3c aff2 c4bb f114 32be 0226 313d
00000260: 1418 b6bc c246 51be e53b 67be b376 31be
00000270: 58fd d2bd 09f5 1d3d fa03 193e 92db c7bd
00000280: c466 fe3d c9ad 283e 4140 20be b913 3dbc
00000290: 9fea 253e 8bcf c93d 222a dd3d ca38 5dbd
000002a0: 6de9 f6bd 4667 0a3e 33ad ba3d 0c16 b6bd
000002b0: 4500 0c3e 4877 4cbd 4d23 31bd 0c42 cc3c
000002c0: 96f0 8f3d 324f a03d afe6 fe3d 2bb7 2dbd
000002d0: abce 6dbd 6a29 b43d a367 1d3e 6361 5c3e
000002e0: 5962 08bd e33c a23d a825 213e c699 4e3e
000002f0: 7bf8 323e fb38 173e c235 b0bd 56da 993d
00000300: f583 5a3d 05ce fb3d c4cd a43d 36bb c1bd
00000310: 65f4 05bd cbd2 863d a4b4 0b3e da85 d83d
00000320: 8283 8c3d d0c1 72bc a0ac 3a3c 687d 18be
00000330: aa15 15be f4a3 2c3d 2ded 2a3e 6018 fabb
00000340: c4a1 06be 38bb 1a3d b5ac 47be 206e 2fbc
00000350: 1809 433d c19a 463e a58f 1f3e f457 253d
00000360: 5a7b b5bd cfdc 47be 4a37 0ebe 5025 3abc
00000370: 0c07 1dbd a76a cabd 9481 6a3d 506f 1a3c
00000380: 7a14 ee3d f741 d3bd e8d1 e93c e1e1 97bd
00000390: 6277 ed3d a6bc f7bd eb1a 0d3e 7ad0 ce3d
000003a0: 85fe 4d3e 0757 773d 3645 e5bd 52d9 843d
000003b0: 1f7a 36be a050 9d3c 0493 fe3d cf13 033e
000003c0: 859c 07be 3a8f d8bd ebba a8bd 1d1d abbd
000003d0: c3d6 033e 2ab9 e6bd 2088 303d e81b b13d
000003e0: 214a 6dbd e4c4 d7bd 1bd0 12be c03c 4c3e
000003f0: bac2 5d3e 2cb2 7dbd e953 773d b89e 513e
0.092459306 0.03742197 -0.14682195 -0.053101778 0.081692204 0.1037388 0.163401 -0.10914276
-7.554889e-05 0.14168443 -0.08469357 -0.10576868 0.14978625 0.059525654 0.15370448 -0.029934376
-0.18779266 -0.01877959 0.089233354 -0.15974367 0.057616398 -0.15098307 -0.087990955 0.0149157345
0.1505815 0.02395527 0.10864211 0.10290719 -0.12973179 -0.19171755 0.120876916 -0.03652571
-0.081603415 -0.17340675 -0.09448719 -0.24078615 0.08535484 -0.026329588 0.0071209166 0.018036366
-0.18900979 -0.19812743 -0.08540832 0.20176247 -0.19476107 0.072377525 0.07127235 -0.110857084
0.09413208 -0.09437416 -0.109037384 -0.079987556 0.23508097 -0.11635919 0.1476815 0.12354801
0.030872261 0.07683696 0.010519897 0.21754995 0.16607067 0.22986753 -0.054041337 0.19843504
0.18797837 0.12218819 0.24533547 -0.012516488 0.25041142 0.02389625 0.0016638035 -0.13439436
-0.15724654 -0.044745676 -0.17943995 -0.12612148 -0.07555992 -0.03213452 -0.2237961 0.03575948
0.15705153 0.10189628 -0.01920573 -0.075454295 0.16437593 -0.21421874 -0.14882025 -0.068862796
-0.22109364 0.09821922 0.12097155 0.0842164 -0.18415008 0.134486 0.12129324 0.06539614
-0.06692561 -0.118313186 -0.04527013 0.16605726 -0.057630993 0.13554825 -0.007706742 0.17432214
-0.020461863 -0.11698906 0.07806927 -0.15797469 -0.12049134 0.019675717 0.023209661 0.12507123
0.14167404 -0.16965517 0.18522337 0.24096103 -0.085485145 -0.11608787 -0.16051467 -0.17911683
0.21007057 -0.048148233 0.08271942 -0.008923808 0.20694186 0.07787412 0.12695915 -0.14986186
-0.08807038 0.13081206 -0.047821503 0.07977354 -0.14736208 -0.09607084 -0.07009454 -0.100761294
-0.012899232 0.1247519 0.19945331 0.13602549 -0.11987164 -0.09838369 0.039658424 -0.19662689
-0.02495522 -0.06595623 0.08791558 0.054123886 0.022873314 -0.0060103755 -0.17390801 0.043249138
-0.022228278 -0.20437148 -0.22581442 -0.17330436 -0.10302228 0.03856376 0.14942923 -0.097586766
0.12421945 0.16472544 -0.15649511 -0.011540347 0.16202782 0.09854039 0.10799052 -0.054009236
-0.12056241 0.13515958 0.091150664 -0.08890924 0.13671978 -0.049918443 -0.043246556 0.024933837
0.0702831 0.07827605 0.12446343 -0.04241101 -0.058058422 0.087969616 0.15371566 0.21521525
-0.033296917 0.079217695 0.15737021 0.20175847 0.174776 0.1476783 -0.086040035 0.075123474
0.0533485 0.122951545 0.08047059 -0.09459536 -0.032703776 0.06583174 0.13643128 0.10572405
0.068610206 -0.014816716 0.011393696 -0.14891589 -0.14559045 0.042148545 0.16692038 -0.0076323003
-0.13147646 0.037776202 -0.19499476 -0.010707408 0.047616094 0.19394971 0.1558214 0.04036708
-0.08861418 -0.19517826 -0.13888279 -0.011361435 -0.0383368 -0.098836236 0.05725248 0.009425953
0.11624999 -0.10315316 0.028542474 -0.0741613 0.11595036 -0.12096529 0.137798 0.100983575
0.20116623 0.06038573 -0.111948416 0.06486763 -0.17820023 0.019203484 0.12430385 0.12800525
-0.13243301 -0.10574193 -0.08238777 -0.08355162 0.12874894 -0.11265786 0.04309857 0.08647901
-0.057932023 -0.10535601 -0.14337198 0.1994505 0.21656314 -0.061937496 0.060382757 0.20470703

conv1.bias f4 [48]
00000000: 3728 3ebe ccb2 e4bd 45ce 863d 81e2 5cbe
00000010: 61e1 373e b33a ee3d b189 47be 7d27 ca3c
00000020: ef48 2dbe f273 e8bd a93d 75bd fa1f 93bd
00000030: ab74 cf3d 95d2 bbbd 01d0 233e 7cbb 673d
00000040: e9aa 053e 6d47 04be ffa7 d83d 09de 1b3d
00000050: 9a58 b8bd a509 16be 884a 943d 9e5c 263e
00000060: 61d4 12be d707 b0bd 203e 1bbe bc1e e9bd
00000070: 2f87 233d 1466 a03b c48f 123d fdc9 23bc
00000080: 98b3 01be 6f76 94bd 7380 6bbc 4a60 d6bd
00000090: 10cf d73c dd6c 03be cdb6 2e3e 7cb9 a4bd
000000a0: 690e 25be a084 e1bb 0351 e6bd 10a5 213d
000000b0: 5d38 083e 5d31 5bbc 56d3 00be 8ab2 0bbe
-0.18570028 -0.11166915 0.065823115 -0.2157078 0.17957069 0.1163229 -0.19486119 0.024677033
-0.16922353 -0.1135024 -0.059873257 -0.071838334 0.101296745 -0.09171025 0.15997316 0.056575283
0.13053478 -0.12917872 0.10578918 0.038053546 -0.090012744 -0.14652117 0.07240778 0.16246268
-0.14338829 -0.08595245 -0.15160418 -0.11382815 0.039923843 0.004894981 0.035781637 -0.009996888
-0.12666166 -0.07249152 -0.014373886 -0.104675844 0.026343852 -0.12834497 0.1706192 -0.08043191
-0.16118778 -0.006882265 -0.112459205 0.039464056 0.13302751 -0.013378468 -0.12580618 -0.13642326

conv2.weight f4 [96, 48, 5]
00000000: b20c 4c3d b175 6fbd 9469 fbbc 6083 783c
00000010: f485 1bbd 6cb4 61bc abac 7bbd e8c8 d73c
00000020: 406c 88ba ea95 493d f97a ea3c aae2 87bd
00000030: d5fd f4bc cb05 b9bd d6b8 953c a560 8fbc
00000040: 9ec9 71bd 188f 813c 1e62 553d 9460 52bd
00000050: 8038 e4bb dd13 163d ec62 5abd c4d2 d4bc
00000060: dbbb 453a 8424 ed3b 9a28 03bc 3c14 b8bd
00000070: 7ffb adbd a718 1fbd 748c a7bc 3a5e 223c
00000080: 3536 ce3c 73e8 03bd 78fb 9fbd cee0 79bc
00000090: 9dd4 52bd 6285 093d 2443 9bbd 06b0 c4bd
000000a0: ec86 6c3d 393e 15bd c843 6f3c ba53 5d3d
000000b0: 1870 bebc 6c78 4c3d e0ce 5a3c d02f e53c
000000c0: 80cf 34ba a810 47bd d50e 3f3b 7fdc 91bd
000000d0: ca88 bdbd c3c7 d3bb dae2 ae3c 4dc4 cf3c
000000e0: ed26 cc3c 3de2 293d 6136 8bbd 9b27 4b3c
000000f0: e176 783c d3c9 b1bc 021b 78bc ac29 ea3c
00000100: 732f 7cbb 48f9 893c 3fa3 b6bd 8b07 8dbc
00000110: 7c7e 31bd 362f 9a3b 2ce8 babd f535 ab3c
00000120: 899f 1fbd f8db 90bd 3efe b1bc eb60 523b
00000130: 1e47 04bd 4980 1ebd e54b 3a3d 60c0 cc3c
00000140: f2d0 d7bc 8b9d 003a f38c 3b3b 9c22 7ebd
00000150: bc38 35bd f555 03bd 4469 4bbc ba54 5f3d
00000160: b2e5 403d 3860 7f3c eeb8 9ebc 6a72 8abd
00000170: b68e a0bd 03c6 47ba 0538 233c ebfd 90bd
00000180: 2a42 20bc c505 bdbd a400 5fbc 5fa4 adbc
00000190: 9d12 1cbd 52c2 01bd 27e4 77bd df00 85bd
000001a0: 1afe 3bbd f40d 61bd 5419 9ebc 9a13 b1bb
000001b0: 3fce a6bc bd6c 5dbd 5e70 aabb ab0f b03b
000001c0: 845a 75bc 3f31 38bd bbfb a83c 1b90 3a3c
000001d0: 202e 93bc ca21 49bd 7286 f13c 01cc a4bd
000001e0: f754 aebb f4f2 8cbc 4869 893d da73 cabc
000001f0: 73fc 82bc 4ec8 903a 34e8 9e3d 1bdd 2c3c
00000200: 44f5 493d ac6d 24bd fcb7 9ebc c4dc 023d
00000210: f8a7 81bb e418 fd3c faa3 6cbd 3790 a3bd
00000220: e364 b63d 85b7 9ebc 4fe0 b13d 2f22 51bd
00000230: b809 bbbd 839d 4cbd cf29 82bd 81b7 6dbd
00000240: 949a c7bd 43ea 2abd 295b 35bd 375c fd3c
00000250: efe4 953c b538 a339 71b0 95bd dfb3 97bd
00000260: cf0f dd3c a9ba 02bb db18 723c 9b8e 55bd
00000270: 5f0c 9eba 0c9e c4bd 8d68 1cbc 2782 153c
00000280: a090 11bc ba71 48bd 48f5 313c da15 03bd
00000290: 5ed1 08bd 93d6 cbbc fa16 383d 0d21 16bd
000002a0: 29cb 623d fa00 423d 57b5 b1bc 66cd 7bba
000002b0: 8a2e 81bd 1b66 70bd 98bd 58bd 00df e13a
000002c0: aa54 503d 0096 04b9 00e1 98b9 60c0 013d
000002d0: b557 a83c 5f37 923a 2222 9dbd 10bd b2bc
000002e0: 3b69 50bd 7930 fb3c 1109 81bd b16b 13bd
000002f0: 8ec9 acbd 98ec 983c 1fae f8bb 1108 c53b
00000300: 0ed9 ff3c 2385 6cbd 84bb 92bd 9b12 1dbc
00000310: 8883 b1bc 5332 923c 9f33 52bd d8fd aabb
00000320: e005 0abb cc74 4ebc 64e1 403d 7cd2 c93c
00000330: 648e 5fbd 6034 523c 4060 14bd 00d2 6b3a
00000340: 8045 b3ba 262e 2d3d 0eee d43c e1e8 82bd
00000350: d1d5 29bc 9a55 833b 039b bb3d 728a 3ebd
00000360: 3319 cfbc a2aa 86bc f304 89bc f440 37bd
00000370: ac92 9bbd ce28 a5bd 9df7 a93c dbe8 bbbc
00000380: 3c72 96bd 2b66 10bd a945 9cbd 161e 4dbd
00000390: c7c2 523d 9c2d b4bd 88ac b93c 906a d5bb
000003a0: 190b 71bd bc4c 34bc ea76 2b3d 1ad2 5e3d
000003b0: 9836 f03c ae4c 7dbd 4c16 7bbd 0063 9939
000003c0: 2224 4abd ee47 743d ca88 61bd d4bf 6a3d
000003d0: e812 9d3c 8084 663d ec9b d23c 1d6a 143c
000003e0: 8dc0 86bd 184e 07bc 7335 bd3d 2684 f33d
000003f0: 514c ca3d a37b e43d 6e13 373d 8676 00bd
0.049816795 -0.05846185 -0.030689992 0.015168041 -0.037969545 -0.013775926 -0.061443966 0.026340917
-0.0010408238 0.049215235 0.028623091 -0.066350296 -0.029906193 -0.09034308 0.018276613 -0.017502138
-0.059030168 0.015815303 0.052095525 -0.051361635 -0.006964743 0.036640037 -0.053316996 -0.025979407
0.0007542946 0.007237019 -0.008005286 -0.089882344 -0.08495235 -0.03884187 -0.020452715 0.009910161
0.025172332 -0.032204103 -0.07811636 -0.0152513515 -0.051472295 0.03357447 -0.075811654 -0.09603886
0.05774586 -0.036436293 0.014603563 0.054034926 -0.02324681 0.04991953 0.013354987 0.0279769
-0.0006897375 -0.04859987 0.0029153128 -0.071221344 -0.09254606 -0.0064630224 0.021348406 0.025362158
0.024920905 0.041475523 -0.06797481 0.012399579 0.015165062 -0.021702683 -0.015143158 0.028584324
-0.003848043 0.0168425 -0.089178555 -0.01721551 -0.043333516 0.004705335 -0.091263145 0.020899752
-0.038970504 -0.07073206 -0.021727677 0.0032101225 -0.032294385 -0.03869656 0.045482535 0.024994075
-0.02634475 0.0004906288 0.0028617948 -0.062044725 -0.04424356 -0.032064397 -0.012415234 0.05452416
0.047094055 0.015586905 -0.01937529 -0.06760104 -0.0783972 -0.00076207536 0.009962087 -0.07079681
-0.0097814 -0.09229616 -0.013610993 -0.021196542 -0.03810369 -0.03167946 -0.060520317 -0.06494307
-0.045896627 -0.054944947 -0.019299187 -0.005403948 -0.020362018 -0.05405878 -0.0052013835 0.0053729615
-0.014975194 -0.04496884 0.020627847 0.0113868965 -0.01796633 -0.04910449 0.029483054 -0.08046723
-0.005320187 -0.017205693 0.06709534 -0.024713445 -0.015989518 0.0011046024 0.07759133 0.0105507625
0.04930617 -0.040143654 -0.01937484 0.03194882 -0.003956791 0.030895658 -0.057773568 -0.07986491
0.08905961 -0.019374618 0.086853616 -0.05105799 -0.09132713 -0.049954902 -0.063556306 -0.05803633
-0.0974628 -0.041727316 -0.04427639 0.03092776 0.01829764 0.00031132033 -0.07309044 -0.074073546
0.026985077 -0.0019947684 0.014776434 -0.052137952 -0.001205813 -0.096004575 -0.009546411 0.009125269
-0.008884579 -0.048936583 0.010861702 -0.03200326 -0.033402793 -0.02488259 0.044943787 -0.036652613
0.05536953 0.047364213 -0.021692915 -0.0009605497 -0.06307705 -0.058691125 -0.052915186 0.0017232597
0.050861992 -0.0001264438 -0.00029159337 0.031677604 0.020549634 0.0011155418 -0.07672526 -0.021818668
-0.050881606 0.030662762 -0.063005574 -0.035991374 -0.08436881 0.018667504 -0.007589116 0.0060129245
0.03123143 -0.057744157 -0.07164672 -0.009586955 -0.021669164 0.017846262 -0.05131876 -0.005218249
-0.002106063 -0.012601089 0.04708995 0.0246365 -0.054579154 0.01282987 -0.036224604 0.0008995831
-0.0013677329 0.04228034 0.02599242 -0.063920744 -0.010365919 0.0040080072 0.091604255 -0.04651875
-0.02528057 -0.016438786 -0.016725993 -0.04473968 -0.07596335 -0.080644235 0.020747954 -0.022938183
-0.07346007 -0.035253685 -0.07630474 -0.05007752 0.051455285 -0.08797762 0.022665277 -0.0065129474
-0.058848474 -0.011004623 0.041861452 0.054399587 0.029322907 -0.061840706 -0.06130056 0.00029256195
-0.049350865 0.05963891 -0.055062093 0.057311848 0.019174054 0.056278706 0.025709115 0.0090585025
-0.06579695 -0.008258365 0.0923871 0.1189044 0.098778374 0.11156394 0.044696264 -0.031363033

conv2.bias f4 [96]
00000000: 8e20 8dbd c43f 48bd 5129 a4bd e3a7 c63c
00000010: e606 b1bd 4a5a 1cbd 96da 813c 2030 b9bc
00000020: d527 853c 52ce 51bd a225 82bc 1546 cebd
00000030: e801 c0bb e99b 36bd b978 49bd 146b 83bc
00000040: 4d55 8dbc e04e e3bc cd6b d63c 1bed 88bb
00000050: 9a73 15bc 72e2 8cbd d933 6f3b 3866 70bd
00000060: 6eb6 4cbd 0b7c 52bd 16a1 f6bc d781 913b
00000070: 08bc 83bd 3230 46b6 88a6 313c 7a64 9a3c
00000080: 0091 53bd 679d 213d d8f8 aabc 4733 d23c
00000090: b318 c8bd e879 c4bc dfd0 0a3e d878 12bd
000000a0: 204e 9fbd 9403 c8bd d9e1 c53c a178 123d
000000b0: 0ffd 113d 3c85 82bc 9738 a6bd d5b0 4e3c
000000c0: 98c5 97bd 4757 d0bd dcb5 3a3c 9277 c6bd
000000d0: 6f4f 6dbd bc4d c8bc 2246 aebd 464a e1bb
000000e0: 2f11 fd3b 887f 4cbb f228 8ebd fa08 a9bd
000000f0: 9cc0 a3bd 722e 52bd 24c8 9cba ff7b dc3c
00000100: 7a4d 28bd 9552 53bb 5b73 603c 7aac 1ebd
00000110: 45f5 78bd 490f 363c 9194 64bc 6937 9ebd
00000120: 354d 5abd 6521 08bd fd99 45bd 3ecd 8dbc
00000130: b212 213a e970 61bd dac5 7ebd b1f2 abbb
00000140: b129 ba3b bacc bfbc 005f 0c3d 03cc e33c
00000150: c49d 653b e57c 02bc 769d 3dbd 4fcc 81bd
00000160: c33a fdbb 6f74 74bc 162f dc3c a950 bbbd
00000170: 68ee 75bd 06b6 85bd 0e17 143d 6a25 14bc
-0.06890975 -0.048888937 -0.08015693 0.024249977 -0.08643894 -0.038172044 0.0158513 -0.022605956
0.016254345 -0.051222153 -0.015887085 -0.10071961 -0.0058596022 -0.04458228 -0.049187396 -0.01604227
-0.017252589 -0.027747571 0.02617445 -0.004178656 -0.0091218 -0.068791285 0.003649941 -0.058691233
-0.049978666 -0.051387828 -0.030106109 0.004440527 -0.064323485 -2.9532353e-06 0.010842927 0.01884674
-0.051651955 0.03945675 -0.020870611 0.025659217 -0.09770336 -0.02398391 0.1355624 -0.035759777
-0.07778573 -0.097663075 0.024155544 0.035759572 0.035641726 -0.015932672 -0.081162624 0.012615402
-0.07410735 -0.10172897 0.011395898 -0.09690775 -0.057937082 -0.02445113 -0.085094705 -0.006875309
0.0077229957 -0.0031203944 -0.069414034 -0.08253665 -0.07995722 -0.051313825 -0.0011961502 0.026914595
-0.041089512 -0.0032245268 0.013699378 -0.038738705 -0.060780782 0.011112043 -0.013951437 -0.077254124
-0.053296287 -0.033234973 -0.048242558 -0.017309781 0.00061444484 -0.05503932 -0.062200405 -0.005247437
0.0056812395 -0.02341305 0.034270287 0.027807241 0.0035036663 -0.0079643475 -0.046292745 -0.06337797
-0.007727952 -0.014920338 0.026877921 -0.09146244 -0.060041815 -0.06528859 0.0361548 -0.009042123

lstm1.weight_ih_l0 f4 [512, 96]
00000000: 50e6 c13b 5ded f53a 91d7 f23b 22ff 5bbd
00000010: 7e41 923c fb36 fd3c b8ca 0ebd 4660 56bd
00000020: 8eb6 d5bd ffae 6fbc dbd3 60bd 9fc0 14bc
00000030: 6926 a5bd 5dda acbd 8ac0 47bd a8c5 debd
00000040: e678 873d 1314 033d 8491 9ebc b3aa ecbd
00000050: 267f 70bd 7429 62bb 291f 3d3d 41a0 f8bc
00000060: 971e 4f3d cefe e0bd c1aa 92bc 32a3 fd3c
00000070: dd11 bd3c bff6 c03c 1753 55bd a3a6 9cbd
00000080: 935f d4bc 1757 0e3c 293d 90bc 7208 403d
00000090: d093 283d f078 cfbd 7ab3 153c 5e04 91bd
000000a0: 1e2e 3dbd 504a 613c 7872 9fbd 54db 8d3d
000000b0: 5cfe 69bd 4622 11bd 7d26 debd 583e 0dbc
000000c0: 9af8 e53a 2e83 17bd e289 bb3c 3d7b b7bd
000000d0: e337 82bd 303e b53c 0f80 503d a34a 493c
000000e0: 4fd7 4bbd 2500 f3bd ac2f ff3c af58 6ebd
000000f0: cf32 6fbd 8fd8 77bb 232b 9e3c 27e2 01bd
00000100: 1427 c43c 5c15 88bd aae3 393d d29f 893d
00000110: 3e01 46bd b328 8cbd 66c9 f43a 6590 fcbd
00000120: 2ee8 71bd d5f7 1dbd 92df 37bd e024 823c
00000130: b408 a3bd b2f7 653c 0da1 353d 9bd2 c1bc
00000140: 5a81 38bd 1c77 55bd 0197 693d f723 52bd
00000150: 6ab5 8abd c433 bf3d 89b7 46bd 0d9b c5bd
00000160: fb0f a5bd 8816 113d da8e 1c3d a388 a23c
00000170: f6a7 203d 43c1 d5bd 918b 7a3d d680 77bc
00000180: b1d2 2f3d c9da dbbc fd6f a8bd 1bf9 6dbd
00000190: bbc5 713b 10fe 1abd ad41 ecbd c4f0 b7bd
000001a0: 18fb aabb 4842 e1bc f4e8 febd 1c1f 31bd
000001b0: c446 c1bd 1094 81bd 3b69 553c cd13 9cbb
000001c0: 5be2 debd 8b74 1bbd 83ab 05be ee01 32bd
000001d0: c245 d0bc e160 2b3b c482 153d e496 99bd
000001e0: ea6c 89bd 6752 efbd 5b82 aabd 7aff e9bd
000001f0: cb22 ec3c 3a40 20bd 4a8a 90bd 74d5 d5bd
00000200: 1e1d 11be 50ff 2fbe f23c 393c 2e1c 62bd
00000210: 1f15 a8bd 415b 03be c1e3 4fbd 774b d6bd
00000220: d2ea 7b3c 0ecf 0bbd a24f d9bd ad1b 1cbe
00000230: d034 e4bd 31c7 82bd a7f2 cabd 7fd2 0dbe
00000240: 9e94 d8bb 2ae6 013d 4042 893b 41ee 96bd
00000250: 158d e0bd f24d 55bd 7dd0 e5bd 1b10 d6bd
00000260: d92c 9b3c ef09 cebd f696 b8bc d64a 9dbc
00000270: d024 bcbc a65f babd 715e c1bd 2eee 51bc
00000280: bd94 5abc 6f63 64bb 719a 0abe 1136 9fbc
00000290: 349f b8bc b964 e7bd baf1 983c a1f0 40bd
000002a0: 3bea 7bbd 351b 153c 8d42 423d cb3c bebc
000002b0: 6269 b7bd 74d1 cc3c 1760 8dbd 1520 1d3d
000002c0: 1363 38bd 2e2b c7bd 9505 edbd 8f38 fabd
000002d0: 1e5f c5bd e578 c0bd bfc5 95bd fbc2 eebd
000002e0: 1427 e33c aeed 1bbe 3d2d b53a 9ee8 bf3b
000002f0: f47c 55bd bea3 563d ca43 f8bd f4cf 8fbd
00000300: 952d 83bd abf6 373d 49fb 88bb ee8f 043d
00000310: 7859 073d 302f c3bb 0d0f 243d 5432 863d
00000320: 7186 34bd 76f4 91bc 28f2 9f3d f28d 843d
00000330: e264 fc3d e035 a33d 47a2 af3c f5c1 88bd
00000340: b8c5 043e b8a1 33bb d589 1e3e a98a 75bc
00000350: 5d12 64bc eea3 b33d e66d abbd f0f9 d73d
00000360: 1705 47bc fe09 5dbd 9b63 c73c 560d 5cbd
00000370: 2301 9d3c c6a8 a33d cfb1 aa3d a24e 143e
00000380: 6193 afbd e50a 493d 1e40 b03d 9305 003e
00000390: 93a1 143e f078 48bd 9120 f73d 2183 163d
000003a0: 5952 bd3d 9b0b cb3d 0e12 2a3d 0ec1 6f3d
000003b0: 1c78 df3d 8c85 58bd 330b cebd 0501 e03d
000003c0: 7278 603d 6472 033e 2bd5 8db9 89f8 9b3c
000003d0: 461e 083d 8f47 c23d 21fa 223d 7984 ba3d
000003e0: e32e 62bd 6339 1a3e 6048 df3d 6fb6 493d
000003f0: 7170 753d 366d 183e df55 17bd fafc 40bd
0.005917348 0.0018762756 0.0074109514 -0.05371011 0.017853495 0.030910006 -0.034861296 -0.052337907
-0.1043521 -0.014629125 -0.05488954 -0.009079128 -0.08063967 -0.08440087 -0.048767604 -0.10877544
0.066148564 0.032001566 -0.019356497 -0.11555996 -0.05871501 -0.0034509571 0.046172295 -0.030349853
0.050566282 -0.109861 -0.017903687 0.030961607 0.023079807 0.023555158 -0.052081194 -0.07648971
-0.02592448 0.008687756 -0.017607288 0.046883054 0.04115659 -0.10130489 0.009137029 -0.07080911
-0.04618656 0.013750628 -0.07785505 0.06926599 -0.05712734 -0.035433076 -0.10847185 -0.008620821
0.0017545403 -0.036990337 0.022892896 -0.08959053 -0.06358316 0.02212438 0.050903376 0.012285861
-0.04976588 -0.11865262 0.031150661 -0.058190044 -0.058398064 -0.0037818288 0.019307679 -0.031709816
0.023944415 -0.06644699 0.045383133 0.067199364 -0.04834103 -0.068437 0.0018675744 -0.123322286
-0.059059314 -0.03856643 -0.044890948 0.015886724 -0.07960644 0.014036106 0.044343043 -0.023659995
-0.045045234 -0.052115545 0.057028774 -0.05130383 -0.06772883 0.093360454 -0.048514877 -0.09648714
-0.08059689 0.035421878 0.03822217 0.019840544 0.03922268 -0.10437252 0.061168257 -0.0151064005
0.04292554 -0.026837723 -0.08224485 -0.058098894 0.0036891538 -0.03783995 -0.11535964 -0.08981469
-0.005217921 -0.027497426 -0.12446776 -0.04324256 -0.094373256 -0.06327069 0.013025577 -0.0047631026
-0.10883018 -0.03795294 -0.13053708 -0.04345887 -0.025423888 0.0026150274 0.03650166 -0.07499483
-0.06710227 -0.11685639 -0.083256446 -0.114256814 0.028825184 -0.03912375 -0.070576265 -0.104411036
-0.14171264 -0.17187238 0.011306034 -0.055202655 -0.082071535 -0.1282778 -0.050754312 -0.104636125
0.01537581 -0.03413301 -0.10610892 -0.15244932 -0.11142886 -0.06385649 -0.099095635 -0.13849829
-0.0066095134 0.031713642 0.004188806 -0.07369662 -0.10964409 -0.052076288 -0.112214066 -0.104522906
0.018942283 -0.100604884 -0.022532921 -0.019200724 -0.022966772 -0.09100275 -0.094418414 -0.012813134
-0.013341126 -0.0034849306 -0.13535477 -0.01943496 -0.022536851 -0.11298508 0.018669952 -0.04710448
-0.061502676 0.009100725 0.04742675 -0.023222348 -0.08955647 0.025002219 -0.06903093 0.038360674
-0.04501636 -0.09725033 -0.1157333 -0.12217819 -0.09637283 -0.09398059 -0.07313108 -0.11658283
0.027728595 -0.15227386 0.0013822686 0.0058565876 -0.052121118 0.05240225 -0.12122305 -0.07022086
-0.064051785 0.044912975 -0.004180346 0.032363825 0.03304431 -0.005956553 0.040053416 0.06552568
-0.044073526 -0.017816763 0.078098595 0.064723864 0.12323929 0.0796926 0.021439685 -0.06677619
0.12966049 -0.0027409624 0.15482266 -0.014986672 -0.013920394 0.087715015 -0.08370571 0.10545719
-0.01214721 -0.053964607 0.024339488 -0.053723656 0.019165581 0.07991175 0.083346955 0.14483121
-0.08573032 0.049082655 0.086059794 0.12502126 0.1451476 -0.04894346 0.120667584 0.036746148
0.09244222 0.09914323 0.041521125 0.05853372 0.10911581 -0.052861735 -0.1006073 0.109376945
0.054802366 0.12836605 -0.00027052438 0.01903941 0.033231996 0.09486305 0.039789323 0.091072984
-0.055220496 0.15060954 0.10902476 0.049246248 0.059921686 0.1488541 -0.036947127 -0.047116257

lstm1.weight_hh_l0 f4 [512, 128]
00000000: 09bb abbd 0b0d a03b fcd7 ae3c 32a4 d13c
00000010: 7979 83bc 21f3 75bd f036 24bd 0fea 8cbd
00000020: 88db 6e3d f96d ba3c c029 163d 729d f9bc
00000030: 92fb e73c 60f7 69bd c55e 8abd f07b 55b9
00000040: 0e2d ca3c 7b6b b73c eec8 943a 4adb 14bd
00000050: fedd 2d3d 28ce 91bd ab83 d6bb 6b6e 103c
00000060: c3ec 16bd a2e8 853b 2bbb 463d 950a 523d
00000070: 7f58 703d 0ddd 693c 209d abbc 66c0 a0bb
00000080: dfec cfbd 6362 ae3b 3613 8dbd c78c debc
00000090: c234 e0b9 6d54 82bd c44d c0bc 6cb9 d6bd
000000a0: 243c 5cbd 005f 103c 9b72 053d 9249 593c
000000b0: 96a0 9c3d 5f60 4d3d 39b1 783d 3620 0ebd
000000c0: b3cf 88bd 7ef5 b8bd 43ea 473c 129c 14bd
000000d0: b016 89bd ae1e fc3c a374 8abc 02e7 a63c
000000e0: 1c23 b9bd 2e39 01bd afd4 423d a56c 54bd
000000f0: 00b8 b8bd e682 023c aa76 e13d 0011 7d3d
00000100: 0738 01bd 6462 71bd 14b8 6c3d 0139 04bd
00000110: acb6 69bc b1bb 243d c009 c23c bca3 6dbd
00000120: e3a6 593a 0d0d dabd db28 e73c 76a6 bdb8
00000130: 2780 d73a 9c17 88bb ebd9 193c 8e4f e5bc
00000140: c9c8 07bb 1fb7 c23d afc9 d43c bdcd 18bd
00000150: 6271 98bd 8a6d c43d 3a8d 6bbd 64c0 d7bc
00000160: 64ae 07bc a050 403d 0f41 70bd 0ac7 24bd
00000170: 0a1b b5bd 0459 b23c 5a6b 8dbb d04d aa3d
00000180: 5a6f 1bbd c11d 07bd 05a6 59bd ef88 64bd
00000190: 2319 2a3d 869d 833c e8a2 de3d e756 adbc
000001a0: c841 073e 5ad3 48bd 9fce a6bd 5868 bf3b
000001b0: 82d7 8dbc 09d4 8cbd 3091 f9bd 3ce7 993d
000001c0: 9aba 7ebd 0867 a4bb 4317 763d 2490 823d
000001d0: 7d7c bd3d db20 e0bd 5868 133d b5ca 3d3d
000001e0: 8eb0 8b3d 4ac1 b23b 0a95 5dbb 1f2c 1c3b
000001f0: 0b01 d13a c36b 373d 570c cbbd 3626 d03d
00000200: 8bca 14bc 8820 5c3d f310 583d cbbe 233b
00000210: a7bb 1b3d 1b99 75bd 5eba e33d 6623 12be
00000220: 72bd 1f3e 833c e9bd eab1 8dbc baa1 26bc
00000230: 94f4 f2bd e6c2 f53b 2685 d63d c223 083e
00000240: fced b03d f52d b5bd ab7a 093d d9ac 0abd
00000250: f49f ce3d b13e bcba 0faf f83d 31f2 dabd
00000260: 0450 95bd 8cf8 14bb d913 05be e89d eb3d
00000270: b93b 0fbe e75c 163d a86e d3bd cc3f 83bd
00000280: 6cc0 dc3d 4159 6cbd 6de6 933b c232 e1bc
00000290: 5056 05be ca3e bc3d 28dd ccbd a46a 073e
000002a0: cde9 0a3d d4ea 513d c56b 18bd 46d1 d1bc
000002b0: 9e6c 3c3d c497 f73d a4ce e9bc a50f 5e3d
000002c0: 5541 f6bd 189d 17bd 89a0 eebd 8157 de3d
000002d0: 72b4 d93b 29b4 c03d f335 a5bd 5062 b4bd
000002e0: ee9d 2c3c c013 e1bd 701e 3e3a ac53 abbc
000002f0: fede 7bbd 6ef6 1bbd 3ea6 d13d 0981 933d
00000300: 6c8d 45bd f4ad 0f3b 106f e53b f92b ecbd
00000310: e53d e5bd a360 fbbd c91d b3bd 938d 133c
00000320: d570 673d 609a 4abd b580 ae3c bbff febc
00000330: ce6a e93b 1427 90bd c9e5 1ebd 8a79 533d
00000340: 481e a83c 5cd2 d93d 8b22 943d 5c27 8a3d
00000350: 3661 d8bd 3344 37bb 8f1f d7bc 8461 b7bd
00000360: 567e a03d 2bb6 be3d 56d2 5c3c 7833 11bd
00000370: aa44 263d 5068 95bd ed2d 753d 80ca 753c
00000380: 2f5f 9abd 40e5 033c 94b1 bb3d 239d ecbd
00000390: c8b6 febc 1788 af3d 5618 16bc 2dcb 69bd
000003a0: 44e5 1a3d b5fb 8bbc c6d9 ac3d 6244 70bd
000003b0: fe82 78bc dc3b 8bbd d6f0 723c a850 1e3d
000003c0: b7cd 0cbe e85e 6c3d 1272 44bc b5e9 093e
000003d0: 26c4 99bd 7a77 46bd bd44 5ebd 6eab eebd
000003e0: 71be 32bd a2f3 9f3d 8081 c63d 51d2 e7bd
000003f0: efd3 cdbd 743c 363c 10f4 1d3e d3ae 0a3d
-0.083852835 0.0048843673 0.021343224 0.02559099 -0.016049134 -0.06004632 -0.040091455 -0.06880581
0.05831483 0.022757517 0.03666091 -0.030470584 0.0283182 -0.05712068 -0.06756357 -0.00020359433
0.024679687 0.022390118 0.0011351386 -0.036341943 0.042448036 -0.07119399 -0.0065464578 0.008815388
-0.036846887 0.00408657 0.04851834 0.051279623 0.058678146 0.014273894 -0.020948946 -0.004905748
-0.101526015 0.005321787 -0.0688843 -0.027166737 -0.00042763917 -0.06363759 -0.023474582 -0.10484585
-0.053768292 0.008811712 0.03258 0.013262169 0.07647817 0.050140735 0.060715888 -0.034698687
-0.066802405 -0.09031199 0.012201848 -0.036281653 -0.066937804 0.030776348 -0.01690132 0.020373825
-0.090399 -0.03154867 0.047566112 -0.051861424 -0.0901947 0.007965779 0.110089615 0.06178379
-0.031547572 -0.058931723 0.057792738 -0.032280926 -0.014264744 0.04021806 0.02368629 -0.058017477
0.0008302761 -0.106470205 0.028217724 -9.043228e-05 0.0016441391 -0.004153205 0.009390335 -0.027992036
-0.0020719043 0.09507584 0.025975076 -0.037305582 -0.07443501 0.095912054 -0.05750773 -0.026336856
-0.008281324 0.04695189 -0.058655795 -0.04022888 -0.08843048 0.021770962 -0.004315776 0.08315623
-0.03794799 -0.03298736 -0.053136844 -0.055794653 0.04152788 0.016066324 0.10870916 -0.021159602
0.13208687 -0.049029686 -0.081448786 0.005841296 -0.017314676 -0.0687638 -0.121858954 0.075148076
-0.062189676 -0.005017165 0.060080778 0.06375149 0.0925226 -0.10943767 0.03598818 0.046335895
0.068207845 0.0054551708 -0.0033810758 0.002383001 0.0015945745 0.044780504 -0.09914463 0.10163538
-0.009081493 0.05374196 0.05275054 0.0024985548 0.038020756 -0.059960466 0.11119531 -0.14271316
0.15599611 -0.11388495 -0.01729675 -0.010170395 -0.11863056 0.0075000403 0.10474615 0.1329489
0.08639142 -0.08846656 0.03356425 -0.033856247 0.100891024 -0.0014361945 0.12142765 -0.106907256
-0.072906524 -0.0022731153 -0.12995853 0.115047276 -0.13987626 0.036709692 -0.103238404 -0.06408653
0.10778889 -0.057702307 0.004513553 -0.027490024 -0.13021207 0.091916636 -0.1000312 0.13224274
0.033914376 0.05124934 -0.037212152 -0.025612485 0.046002023 0.12089494 -0.028540917 0.05421414
-0.1202418 -0.03701505 -0.116517134 0.10856534 0.006643825 0.09409363 -0.080669306 -0.08807814
0.0105357 -0.10990095 0.00072524603 -0.020913921 -0.06149196 -0.03807681 0.10236786 0.07202346
-0.048230574 0.0021923753 0.007001765 -0.115318246 -0.11193446 -0.12274291 -0.087459154 0.009005922
0.05650409 -0.04946363 0.021301607 -0.031127801 0.007123328 -0.070387036 -0.03879336 0.05162958
0.020522252 0.10635826 0.07233151 0.067457885 -0.105654165 -0.0027964234 -0.026260165 -0.089541465
0.07836597 0.093120895 0.013477882 -0.035449475 0.040592827 -0.07295287 0.05985825 0.015001893
-0.07537686 0.008050263 0.0916473 -0.11553409 -0.031093016 0.08570879 -0.009161076 -0.05707853
0.0378163 -0.017087797 0.084399745 -0.058658965 -0.01516795 -0.06798527 0.014827928 0.03865114
-0.13750349 0.057707697 -0.011990087 0.13468058 -0.075081155 -0.048453785 -0.054264773 -0.11653791
-0.04363865 0.07810141 0.09692669 -0.113194115 -0.10050189 0.011122812 0.15425134 0.03385813

lstm1.bias_ih_l0 f4 [512]
00000000: cf7e 873d f229 03be c4d8 febc 49ec 9e3c
00000010: 4f8b 8ebd 1b91 a23d 54c4 24bc 1559 3cbd
00000020: 4907 a63d c8e1 b8bd 295c d3bd be01 b43d
00000030: e49f 8abc 20c0 d4ba 29d9 72bc 6281 073d
00000040: 16ee ca3d ced0 00be 215c b53d f6a9 403c
00000050: 44e0 19be 7ab3 29bc 97ae bc3c e943 6a3d
00000060: 8bbc 9d3c a939 43bc 4296 c43d 86b7 5ebb
00000070: 9e5d 353d 39f1 853c 7590 15be 94fd 82bd
00000080: 1aea c7bd d313 7cbd 9282 203e 0399 52bc
00000090: 49f3 bdbc c24a 663b 9c68 cd3c 0373 44bd
000000a0: 463a bebd c95e e13c d023 693d 3c58 9d3d
000000b0: 6eec babc 744c a4bd 6eeb d6bb 4407 ed3b
000000c0: c6c5 97bd a31b c93d 9902 0b3d 67d4 80bd
000000d0: 5cbc f63b 049e 73bd b931 b83c e7a8 e0bd
000000e0: b8a7 03bd 2093 ae3d b697 943d 6495 903c
000000f0: 7acf 003d 8b2e 7d3c 1658 adbd 2b2f 84b9
00000100: aadc 44bd 60ff 43bd 30e1 e2bc 9054 173e
00000110: 45f4 dd3d 0519 25bc 4d64 ae3d ba37 063d
00000120: b73c dd3b 5781 c3bd f8d0 133c 25ec 5bbc
00000130: 446e 4f3d 0a0d f7bc 8479 9cbd 8293 aabd
00000140: 96d1 41bd 5dcc c8bd cb74 36bb b9e3 453d
00000150: ca44 28bd 89d0 a83d f588 72bd 5332 2c3d
00000160: 0a99 05bd 99e8 e2bc 1c0f 863b 20ef 18bc
00000170: 835a 843d 4e6c df3d d8e3 6ebc 7580 74bb
00000180: 6cd3 11be df1a 013d f182 49bd 4c47 00bc
00000190: 9d42 3bbd 5dfd 88bc 1a8d 813d 0d13 41bd
000001a0: 74cb 983d 9455 573d a2da 833c 02cb 8dbd
000001b0: 2588 a7bd 1eba c0bc 1886 06bd 6c3a 623d
000001c0: 7c94 17bd af1b f83c 54c9 4abc e2d2 433c
000001d0: e147 2a3c 777a a83d 6da4 32bd 40d3 1fbb
000001e0: 662b 9dbc 957d 9e3d c937 363d 67e5 f23b
000001f0: c983 55bd c861 ec3c dfed bf3d 2cac d3bb
00000200: efab 493d 70fb 5cbd daa3 cbbc c347 90bd
00000210: ca2c e6bb 0501 363b 8960 56bd 49fb 4ebd
00000220: e7c5 d0bd e6a0 6cbd 4229 cb3b eabd 353c
00000230: b501 ba3d d44a 12bd 3d64 ebbc 3c15 fe3c
00000240: 007a ee3d 2a7b 04bd 5015 603c 443b debd
00000250: 7bf0 95bd ee8e 63bd 6c8d 813d 04bf b0bc
00000260: 12f7 33bc 0d7a 36be f2ce c9bd c267 313d
00000270: 5235 91bd 50a8 85bd da4a 03bd df5f ffbd
00000280: 4e6b 243d fa70 a8bd ef17 d03b 065c e63c
00000290: 5910 b3bd 36fe 333d 7274 76bd 64ab c4bd
000002a0: 3924 debb 3620 3f3d e8b2 debd 20af be3c
000002b0: 54c5 803d 3b79 c53c 7136 70bb eeb3 e73b
000002c0: b5e3 3bbd 1134 11bd 0091 4dbd d793 55bd
000002d0: 8899 c4bc bed2 6dbc da24 9dbd 008d 0cbd
000002e0: ab92 e73c 31f9 883d 2842 36bd be48 36bd
000002f0: 830b b2bc af06 d13c 4e04 02bd cb10 77bd
00000300: 841d 553c 0cbd 4e3d 9c3d 7ebd 1a5f 923d
00000310: e3f2 c13d 9e3a 25bd 30c8 39bd e492 2a3c
00000320: 0950 2dbd 6154 bebd ce26 6abd 907c 96bb
00000330: 8a30 8d3d e093 093c 1345 e6bd 396d 0abd
00000340: d398 89bd 2590 adbb 84b1 4c3b beee 5cbc
00000350: 5622 f4bd 9c28 db3c 8a80 b03d 662d 53bd
00000360: 4956 09be 0274 c1bd 5319 a3bc 2163 99bd
00000370: dc78 03bd fabd 7dbd 33f0 a63d 5c53 2c3d
00000380: d90c e2bd d071 89bd 91c9 68bd ce1e 5a3d
00000390: fd7c 3cb9 5057 95bc 2ac2 493d cd32 d7bb
000003a0: b18c a6bd e380 0c3d 7371 9cbd 852c 80bb
000003b0: a788 a6bc 3633 13bd befb 0cbd 52da 6a3d
000003c0: 8db5 dc3d 96e9 803d 6311 06be 54e9 1b3c
000003d0: ed02 c0bd 8f19 59bd e8fe fc3c b932 70bd
000003e0: 4591 b43d b3a6 0abd 0805 36bd dad9 dabb
000003f0: d00b 7b3c ff4c 15bd 33ba 09bd 1f37 1d3c
0.06615984 -0.1280897 -0.031109221 0.019399779 -0.06960165 0.07937833 -0.010056574 -0.045983393
0.08106858 -0.09027439 -0.103203125 0.08789395 -0.016921945 -0.0016231574 -0.014822283 0.033082373
0.099086925 -0.12579653 0.08855463 0.011759272 -0.15026957 -0.010357732 0.02303247 0.05719367
0.019254943 -0.011915603 0.09598972 -0.00339839 0.044278733 0.016350375 -0.14605887 -0.063960224
-0.09761448 -0.061542343 0.15674809 -0.012853864 -0.023187296 0.0035139774 0.025074296 -0.047961246
-0.092884585 0.027511017 0.05691892 0.07682845 -0.022817817 -0.08022395 -0.006558827 0.007233532
-0.07410769 0.098197244 0.033938024 -0.062905125 0.0075297784 -0.059476867 0.022484647 -0.109697156
-0.03214237 0.085241556 0.07255499 0.01764936 0.031447865 0.015452991 -0.08464067 -0.00025212145
-0.048062004 -0.047850966 -0.027695268 0.14778352 0.10837606 -0.010076766 0.085152246 0.03276799
0.0067516225 -0.09546154 0.00902199 -0.013423 0.050642267 -0.030157585 -0.07640365 -0.08328916
-0.047319017 -0.09804604 -0.002784061 0.048312876 -0.041081227 0.082429 -0.059212644 0.04204018
-0.032616653 -0.027698802 0.0040911566 -0.009334356 0.06462576 0.10909329 -0.014580689 -0.0037308012
-0.14240807 0.031519767 -0.04919714 -0.0078294985 -0.045717824 -0.016722376 0.06325741 -0.04713731
0.074606806 0.052571848 0.016095463 -0.06923486 -0.081802644 -0.023526248 -0.032842726 0.055231497
-0.03700684 0.030286638 -0.012377102 0.011952134 0.010393114 0.08226483 -0.04361384 -0.002438739
-0.019185733 0.077387966 0.044486795 0.007412601 -0.052127633 0.02885522 0.09371542 -0.0064597335
0.049236234 -0.053950727 -0.024858404 -0.070449375 -0.0070243822 0.0027771604 -0.052338157 -0.050532613
-0.10193997 -0.057770632 0.0061999867 0.011092642 0.09082357 -0.035715893 -0.02873432 0.031015985
0.116443634 -0.03234402 0.013676956 -0.10851148 -0.07321259 -0.05555623 0.06325802 -0.021575458
-0.010984199 -0.17819996 -0.09853925 0.04331184 -0.07090248 -0.06526244 -0.032053806 -0.12469458
0.040141396 -0.082246736 0.0063505094 0.028120052 -0.087433524 0.043943606 -0.060169645 -0.09603003
-0.0067792204 0.046661578 -0.108739674 0.023276865 0.06287637 0.024105659 -0.0036653543 0.00707101
-0.045871455 -0.035450045 -0.05018711 -0.052142944 -0.02399899 -0.014515577 -0.076730445 -0.034314156
0.028268179 0.066881545 -0.044496685 -0.044502966 -0.021734005 0.025515882 -0.031742387 -0.06031875
0.013007525 0.050473258 -0.062070474 0.071470454 0.09470155 -0.040339105 -0.04535693 0.010410998
-0.042312656 -0.09293438 -0.057165913 -0.0045924857 0.06894024 0.008397073 -0.112436436 -0.03379557
-0.06718602 -0.0052967244 0.0031233737 -0.013484655 -0.119206116 0.026752762 0.08618267 -0.051556967
-0.13411821 -0.09445955 -0.019909536 -0.074896105 -0.032097682 -0.061948754 0.08151283 0.042071685
-0.11037607 -0.06711161 -0.056832854 0.053252034 -0.00017975639 -0.01823011 0.049257435 -0.006567335
-0.081323035 0.034302603 -0.07638826 -0.003911557 -0.020328833 -0.03593751 -0.034419768 0.057337113
0.107768156 0.06294553 -0.1309257 0.009516079 -0.09375558 -0.05300289 0.030883268 -0.058642123
0.088167705 -0.033850383 -0.044438392 -0.006678802 0.015322641 -0.036450382 -0.03362484 0.009595661

lstm1.bias_hh_l0 f4 [512]
00000000: 343a 283d a9b8 92bc f209 e43d 578a 713d
00000010: dba2 0bbe 9681 1c3d 2386 83bd 2ec7 a53d
00000020: bffc cf3d 6eb0 9dbc 89f7 34bd 1a16 e83c
00000030: 337f 23bd b6f6 98bd e116 603d 12d1 0e3d
00000040: 9174 c53d ab41 e6bd 53d2 fd3c 23fe ddbd
00000050: 411e 29be a867 eebc c7d6 983d f319 963d
00000060: 5ce4 9b3d 5c92 19be 23ac 8d3d 3d6d babd
00000070: 6c68 913c 2a31 3a3c a209 2cbd 2869 1e3b
00000080: 24a5 6bbd e72a d13c 7703 bd3d e857 d73c
00000090: 1b4d bfbd d01d 56bd c5c2 89bd dbfb 29bc
000000a0: 8fdf 2c3b 2bf4 833d 5afd 4a3d 7ef3 893c
000000b0: a673 27bd 189a c2bb 03e9 3cbd 1b90 03be
000000c0: 65a8 4b3d 3a07 573d da06 a13d 64d9 ca3c
000000d0: d34f fcbc 8f43 d4bc 88bb 8d3c 4e5d 98bd
000000e0: f81e 5fbd f3bd 783b fba5 bcbc 8e3d d1bd
000000f0: e789 d73b 0584 57bd 6841 51bd 7b03 1ebd
00000100: b85d c9bd ad33 a0bd 5cd6 42bd 7096 b43c
00000110: f92e 1e3c 0786 c8bd c4e6 ac3c 4871 fd3d
00000120: 70da b33d 62e3 df3c f3c1 2e3d 52f1 2cbd
00000130: 16bf 98bb 6e7e 93bc d5b1 e0bc 7a16 44bc
00000140: 0ba7 993c e1fc 69bd 0832 dabd f63a 11bd
00000150: 1af9 fcbd 092d c43c 83e0 36bd 91d9 7a3d
00000160: 8f46 93bd 4472 aebd 1d69 223c d188 a7bc
00000170: 04c8 fcbb 061b cb3d f5df b63d 80b5 003d
00000180: 4ced b0bd d3c2 97bc a69d 91bd 600b fd3d
00000190: 609e 04be 3a33 95bd 8e6a f63c 9b17 a8bd
000001a0: c933 85bd b14c c63c 66b5 02bd 209e a9bc
000001b0: 87c4 82bd 20f7 8cbd fe37 e83b ca13 153d
000001c0: bf8c 973d 1ace 5c3d f577 99bc 1b46 58bc
000001d0: cf6f 5e3c b8fd 9d3d 75fb 8d3d 10c0 9bbc
000001e0: 2027 c2bc 6d61 38b9 f665 7ebd b732 f5bc
000001f0: 860d b03b 2999 853d 18be 17bd 3a2e 84bd
00000200: 2d57 07bd fa89 8bbd ee0b c4bc ee08 47bc
00000210: 782a d9bd 438e 103d 0184 f5bd fb9b d53c
00000220: 0cfb 6abd c207 c2bd 2e48 7e3d 53f9 c0bd
00000230: 9f3a 6fbd 539c d7bd 0d41 373d 7e92 663a
00000240: 2f0b 4fbd 42aa 11bd c2f1 af3d 7192 7cbd
00000250: 72e7 22bd 7107 99bc 8978 9fbb bab5 b8ba
00000260: 1f72 e7bd e2c4 c0bd 7e9d 43bc ca0d 533c
00000270: efae 84ba 3a5a bdbd 7cfa afbd 77c5 d0bd
00000280: feeb 2dbd 50c6 b9bd bd42 e43d cd63 d1bd
00000290: e941 12bd b443 85bd bcb6 4bbd 5f79 e03c
000002a0: 13b6 88bd 0e25 273d 6e7a 12bd 863f 33bb
000002b0: feb3 acbd ad97 f23c 1963 26bd 07e3 78bd
000002c0: 235a 5a3d ece3 13bb 4a28 c33b 71d3 58bd
000002d0: 8469 96bc 91d7 8abd 89b5 93bd 5529 55bd
000002e0: 928a a03c b05e 603d e281 e3bd 6884 103c
000002f0: 665b 47bd 9e0d f9bd a56a e3bd c3ad aabd
00000300: 48d9 9fbd f91d 03bd a078 e6bc 1280 fd3b
00000310: 4956 e63d 9462 123c 8f5c 0abd 2435 183e
00000320: aa56 91bc ce85 f33b 46e5 f5bd 2513 e83c
00000330: e691 403d 10df 27bd 89d6 d13c 50c4 253c
00000340: 56ec f0bd 975f b0bd ba5a 47bd bd45 d6bc
00000350: 5dc8 00be 74b2 efbd 6092 013d 3dad c83c
00000360: 013e dabd 6c1b c3bd e395 78bd 9a63 3dbb
00000370: b55d adbd 6a90 623d 3cef 6b3d c744 22bc
00000380: dded 663c 7535 ef3b a8e8 cdbd 88fa a13c
00000390: 7fda bfbd 9492 0cbd 26ca 423d ca3b 52bd
000003a0: 22a5 8d3d e928 e5bd fa84 04bd 0a8f f4bd
000003b0: ed81 c0bc 8f57 b1bd 7404 c8bd 5d67 e6bd
000003c0: 4468 38bc 29d2 ba3c 6147 00be 44dd 38bd
000003d0: 4c70 c9bd 5825 dd3d bc45 ce3d 9487 153b
000003e0: d6f1 bcbb b2d5 05bd 9cd6 8fbd 4c63 4c3d
000003f0: eb69 cbbd b7bd 763b 99b9 29bd 9a4e 453b
0.04107113 -0.017910318 0.111347094 0.05896982 -0.13636343 0.03820952 -0.06422069 0.08094631
0.10155629 -0.019249167 -0.04418138 0.028330851 -0.03991623 -0.074689314 0.05470932 0.034867354
0.09641374 -0.11242994 0.03098408 -0.10839488 -0.16515447 -0.029102162 0.074628405 0.07329168
0.076119155 -0.14997238 0.06917598 -0.09102867 0.017749988 0.011364261 -0.042001374 0.0024171565
-0.057530537 0.025533153 0.092291765 0.026287034 -0.093408786 -0.052274525 -0.067266025 -0.010374988
0.0026378368 0.06443056 0.04955802 0.016839739 -0.040881775 -0.0059387796 -0.046120655 -0.1284794
0.04972114 0.052497126 0.07862635 0.024761863 -0.030799782 -0.02591112 0.017301336 -0.074396715
-0.054472893 0.0037955015 -0.023028364 -0.10216819 0.0065777185 -0.052616138 -0.051087767 -0.038577538
-0.098323286 -0.078223564 -0.04756771 0.02204439 0.009654754 -0.09791189 0.021106131 0.12375122
0.08781898 0.027330104 0.042665433 -0.04222233 -0.004661451 -0.018004622 -0.027428547 -0.011968249
0.01875641 -0.05712593 -0.10654074 -0.03545662 -0.123522 0.023947256 -0.044647705 0.061242644
-0.07191192 -0.08517888 0.009912756 -0.020450981 -0.0077142734 0.09917264 0.08929435 0.031423092
-0.08639011 -0.018525517 -0.07110147 0.12355685 -0.1295104 -0.07285161 0.030080106 -0.082076274
-0.06504018 0.024206491 -0.031911276 -0.020705283 -0.06385141 -0.06883073 0.007086753 0.036395825
0.07399892 0.05390749 -0.018733958 -0.013200308 0.013576462 0.07714409 0.06932727 -0.019012481
-0.023700297 -0.00017583901 -0.062108956 -0.02993141 0.005372706 0.065233536 -0.037046522 -0.064541295
-0.03304212 -0.06813426 -0.02393147 -0.012148125 -0.106038034 0.03529192 -0.11988068 0.026075354
-0.057368323 -0.09474136 0.062080555 -0.09422555 -0.058405515 -0.10527863 0.04473977 0.0008795633
-0.050547775 -0.03556276 0.085910335 -0.061663095 -0.039771505 -0.018680306 -0.004866664 -0.0014092245
-0.11301064 -0.094125524 -0.0119394045 0.012881706 -0.0010122935 -0.09245725 -0.08592698 -0.101939134
-0.042461388 -0.09071028 0.11145542 -0.102241136 -0.035707388 -0.06507054 -0.049734816 0.027401624
-0.06675353 0.040806822 -0.03576129 -0.0027351095 -0.08432768 0.02961334 -0.04062185 -0.060763385
0.053308617 -0.0022566272 0.0059557306 -0.05293602 -0.01836086 -0.06779397 -0.072123595 -0.05204137
0.019597325 0.0547778 -0.111087576 0.008820631 -0.04867115 -0.121608004 -0.11104325 -0.08333924
-0.07805115 -0.032011006 -0.02813369 0.0077362144 0.11246926 0.008934636 -0.033779677 0.14864022
-0.01774152 0.0074317222 -0.12006621 0.028329441 0.04701414 -0.040984213 0.025614994 0.010117605
-0.117638275 -0.08611982 -0.048670508 -0.0261563 -0.12576433 -0.11703959 0.031633735 0.024496669
-0.106563576 -0.09526715 -0.060689818 -0.0028898478 -0.08465139 0.055313505 0.0576012 -0.009904093
0.014094797 0.0073000737 -0.10054141 0.019772783 -0.09367847 -0.034319475 0.047556065 -0.05132655
0.06916262 -0.111894436 -0.03235338 -0.11941345 -0.023499453 -0.086592786 -0.09766474 -0.11250184
-0.011255328 0.02280529 -0.12527229 -0.04513289 -0.09835872 0.107981384 0.100718945 0.0022816407
-0.005766134 -0.0326745 -0.07023355 0.049899384 -0.099323116 0.00376497 -0.041436765 0.0030106665

lstm2.weight_ih_l0 f4 [128, 128]
00000000: 6cde 0d3e 20ed dfbd 4138 543e 0c39 3b3e
00000010: 12da 2a3e 8b99 f9bd cbb5 863d fe53 53bd
00000020: 169d e73d cdcb 443d 82b2 c5bc 3e20 c43c
00000030: 7959 123c 5fe8 d3bd aa7d 093d 6884 313e
00000040: cafe 583e 03a0 6bbe bd68 273e 2166 1d3e
00000050: 8ab7 b6bd c9f4 0ebe d494 1c3e 14bd e73c
00000060: 3497 d2bd c473 19bd 5c33 6ebe ab0b 36be
00000070: b419 f0bc 5e01 163d 90f8 dbbd 9320 3e3e
00000080: a599 d0bd b94a 2f3e 3e4f 513e 5192 c5bd
00000090: ba85 f33d a85f 1f3e b9b2 b0bd f1fa 0e3e
000000a0: 1a6e 053e 0505 da3d a2c5 013d 6882 a6bd
000000b0: 7bdb a23d f947 1a3e 9e4f 183e 8a36 42bd
000000c0: 994a 143e a78a ac3b 8710 013e e3fd 2a3e
000000d0: ec43 b2bd 28ae c4bc 2bb9 653d 4e9b c3bd
000000e0: c09e fc3c d1c4 c3bd f3f3 053e 2ca9 533e
000000f0: 32da a43d 6c45 0dbe c680 263e e725 ab3d
00000100: bcc3 173e d15a 63bd 266b d83d 4a59 a93d
00000110: fe78 a63d 423f 08be f537 9fbd c115 783d
00000120: 0500 1d3d d935 a5bc c50f 4d3e 0247 223e
00000130: a532 5ebe 86e5 17be 664c b43d 8d69 68bd
00000140: 5b95 1cbc 946a 34be 727e dd3d 67f7 8c3e
00000150: 3e39 e33d ebf7 b83d d569 313e 01db d4bd
00000160: 1ef2 f23d 9af8 04be 5825 d2bc 5bbd 82be
00000170: 41b2 bfbd 3b17 8bbd bc7d 06bb e03b 893d
00000180: ce97 ea3c dc04 bbbd 9089 6c3e 9065 43be
00000190: 1a91 923d a7ec aa3d f5e0 edbd d995 643e
000001a0: 21a4 1d3d df69 3abe 1957 7f3d a0ca 30be
000001b0: 47b0 a7bd a774 653d 0a8d a23d 0e70 293e
000001c0: 980a 313d 8450 ebbd 4f43 19be 06bf f23d
000001d0: becd 253e 508e ee3d fc81 be3d 2449 a5bd
000001e0: c13d 16be d30a 0cbd bd78 b63d a532 52be
000001f0: bf25 03bd fd2b b0bd c4d4 913c 84d7 45be
00000200: a451 183e 7a36 8e3d 46f7 1bbe 4780 f6bd
00000210: afd5 3dbe 3717 7ebc 1bfe 0cbe fb87 56bd
00000220: 7866 5c3d f136 283e 8441 143e 1d2b 823d
00000230: 94ce dfbd ac64 4c3e 618a 0b3e 4c37 e03d
00000240: 52b1 323e ce81 dabb 37c8 93bd bf95 383b
00000250: 3acf 16be c849 c43c 1bc1 d13d de04 013d
00000260: 77f9 f5bd faa5 ed3d 61ea 2b3e abfa 0a3d
00000270: 5c48 cf3d 6b8a 453d f076 433d 8f52 263e
00000280: 8fca 9f3d 5273 16be 442a b3bd 4085 21be
00000290: 76ea 8ebd a370 fe3d be97 42bd be1c 10bc
000002a0: bf47 27bd 6cf1 d73a 9ae2 8c3c 1265 bd3c
000002b0: 5e8b f43d de4f 44bd 29b9 21be f9e4 e6bd
000002c0: 71e9 f53d b911 d9bc dbca ca3d f032 e73d
000002d0: f68d d7bd b51f 023e af79 363e 0f07 20be
000002e0: bb58 a93c 37a7 d8bc bf7f 8dbd f479 d43d
000002f0: 9335 ff3d 9351 5bbe edcb f23d 163d ebbd
00000300: 3d47 90bd 57d9 33be ec3d 253d 96d2 143d
00000310: 0fba dc3d dcb3 f1bd 2d72 0ebd 0464 a3bd
00000320: f7b1 b3bd 280a 0f3e 2a84 c1bd 577b a63b
00000330: 114e ccbb 3237 18be 68c6 82bd 4394 a93d
00000340: a02a b23d b710 1abe a0a1 0c3e b131 8e3c
00000350: 2a23 afbc ca55 893d 260d 603d c4a1 1bbe
00000360: 14ad 46be 8554 e9bd df6a ad3d a50a acbd
00000370: f97e 713c ce85 0ebe e2fb 3d3d e986 88bc
00000380: 57e5 0abd 6ba0 183d 2f0e 2f3c 1253 e43d
00000390: 86b8 3fbe 6d21 fd3d cb7f a4bd 08df 9d3d
000003a0: 0dc9 293e 341f 0b3c c55d 433b 2f7e aabd
000003b0: c8a8 e83d 3b01 29be 71b8 1b3e fc99 b33c
000003c0: c28a f4bc 3eb0 f83c 6780 eabc 16a2 003d
000003d0: 0313 93bd 756d 033e 9a8f 0fbd 16f2 e7bd
000003e0: 4b35 49bd 53de e43d 06cb f8bd 798b a93d
000003f0: 14bd e0bc 0955 a3bd 085d 993d 44d4 4c38
0.13854378 -0.109339 0.20724584 0.1828348 0.1668475 -0.12187489 0.06577643 -0.051593773
0.11309259 0.048045922 -0.02413297 0.023941156 0.008932465 -0.10347056 0.03356711 0.17335665
0.21190944 -0.23010258 0.16348548 0.1537099 -0.08921726 -0.13960566 0.15291148 0.028288402
-0.10282746 -0.03746392 -0.2326178 -0.17777888 -0.029309131 0.036622398 -0.10740769 0.18567114
-0.10185555 0.17118348 0.20440385 -0.09647048 0.11890741 0.15563834 -0.08627839 0.13962914
0.13030282 0.10645489 0.031682618 -0.08130342 0.07952019 0.15066518 0.14874122 -0.047415294
0.14481582 0.005265552 0.12603961 0.16698413 -0.08704361 -0.024008825 0.056084793 -0.095511064
0.030837417 -0.09559024 0.1308134 0.20670003 0.0804943 -0.13796014 0.1626006 0.08356839
0.1482076 -0.05550653 0.10567312 0.08268984 0.08128546 -0.13305381 -0.07774345 0.06056762
0.038330097 -0.020167278 0.20025547 0.158474 -0.21699007 -0.1483365 0.08803634 -0.056741286
-0.0095570935 -0.17618781 0.10815133 0.27532503 0.110949025 0.090316616 0.17325528 -0.10393334
0.118625864 -0.12985459 -0.025652573 -0.25535092 -0.09360171 -0.0679154 -0.002052172 0.067008734
0.02863684 -0.09131786 0.23099351 -0.19081712 0.07156582 0.08345919 -0.11615173 0.22322787
0.038486604 -0.18204449 0.062338922 -0.17264795 -0.08187919 0.05601945 0.07937057 0.16546652
0.043222994 -0.114899665 -0.14967082 0.11852841 0.16191766 0.11648238 0.09302136 -0.08070591
-0.14671995 -0.03419001 0.08909748 -0.20527132 -0.03201842 -0.0860214 0.01780165 -0.19320494
0.14874893 0.06943984 -0.15231046 -0.12036186 -0.18538545 -0.015508465 -0.13768809 -0.052375775
0.05380866 0.16427208 0.14478117 0.063558795 -0.109280735 0.19960278 0.13627006 0.10948047
0.17450455 -0.006668306 -0.07215922 0.0028165428 -0.14727488 0.023960963 0.1024191 0.031498782
-0.12010472 0.11603923 0.16788627 0.03393046 0.10121223 0.04822771 0.04772085 0.16242431
0.07802307 -0.14692429 -0.08748296 -0.15773487 -0.069783136 0.124238275 -0.047507994 -0.008795915
-0.040839907 0.0016475148 0.017197896 0.023119483 0.11940645 -0.04792773 -0.15793289 -0.11274142
0.12007416 -0.026497709 0.09901973 0.112890124 -0.10525124 0.12707408 0.17819856 -0.15627693
0.020672193 -0.026446922 -0.06909131 0.10374823 0.1246139 -0.21417837 0.11855302 -0.114862606
-0.070448376 -0.17563377 0.040342256 0.036333643 0.10777675 -0.118018836 -0.034776855 -0.07978061
-0.087741785 0.13968718 -0.094490364 0.005080621 -0.006234892 -0.14864805 -0.06385499 0.08280232
0.08699536 -0.15045439 0.1373353 0.01735768 -0.021379072 0.06705816 0.05470004 -0.15198427
-0.19401962 -0.11393074 0.0846765 -0.08400468 0.014739745 -0.1391823 0.046382792 -0.016665893
-0.03391012 0.03726236 0.010684534 0.11148657 -0.18722734 0.12359891 -0.08032187 0.077085555
0.16580601 0.008491326 0.002981053 -0.08324849 0.113603175 -0.16504376 0.15207078 0.021924011
-0.029851321 0.030357476 -0.02862568 0.031404577 -0.071813606 0.12834723 -0.03504906 -0.11325471
-0.04912309 0.111752175 -0.12148099 0.082785554 -0.02743391 -0.079752035 0.074884474 4.8835078e-05
