model/models/15m/trained_model.pt (torch, 666885 bytes, 17 tensors)

conv1.weight f4 [48, 5, 5]
00000000: a0b8 16be 24f5 f63c 1b4b a8bd cdb7 083e
00000010: 5148 f3bd 07e1 39be 07cd 82bd 28f8 e13c
00000020: f882 1fbe c738 bf3d aae0 0abe fc5f b8bc
00000030: c287 c9bc abef b83c 4d29 7abd b020 393c
00000040: aff8 193e 01e6 333e 4b0e b5bd 8b1c 6cbc
00000050: ba3e 853d 7d0f 443e 2afb 8cbd 72f1 08be
00000060: 0722 b8bd 39a8 98bc 87f8 9b3c 75cf 03be
00000070: 90cf 2d3e 84c5 8fbd 1812 b23c 7808 973d
00000080: ad16 0f3e 796e 5bbe b2a1 87be 7333 03be
00000090: 1053 5cbe 2781 3abd fe99 a0be b12e 3abe
000000a0: 715b 9b3d 55b3 d83d a58c b23e 664d f9be
000000b0: 0615 e0bd 6f2d 81bb df8e 7ebd d149 953e
000000c0: c358 753e 2c45 3ebe e7ad acbd 6feb 4a3e
000000d0: 9317 433e 9ae4 48be ab97 443e d7e3 253e
000000e0: 9245 34be 5bc5 23be b438 083d d37a e8bd
000000f0: 7d61 c7bd 9171 3e3e 3ed6 13be 751d 11be
00000100: 86f0 8b3d 26c7 09be a217 e53d a0f1 e0bb
00000110: 62e3 e83d c58c 47be 902d cfbd 72b5 ea3d
00000120: 2836 a33c 844a 613d 30ec d8bd c562 e1bd
00000130: c434 80bd 83ab 5abe 436b f63c 37ac 1ebe
00000140: 5c3b 013e cc2c 97bc 4940 91bd cf7e 1f3e
00000150: 6687 0e3d 016c de3d a63c 693d 3602 66be
00000160: 50ca 65bd 3912 e8bd a8f3 1b3e 6650 0bbd
00000170: c772 c3ba 3d27 43bc 78f4 153e b080 03be
00000180: fc71 083e 3de5 d33d ba44 4ebd 9e00 ef3c
00000190: ee49 b9bd b787 653d 3ad5 02be d96e aabd
000001a0: d41f 30be 79d0 64bd 2101 00be 314f 77be
000001b0: 3046 353d 1012 163d 0804 d0bc ee9e 7fbe
000001c0: d78c e23c ad16 013d e901 3d3c 0c06 51be
000001d0: f3d0 1cbe 0498 65be aabb 0dbe 33cd e73d
000001e0: 57dd 39be c4d5 91bb 1116 22be 23bc bfbc
000001f0: c6fc 56be 45d8 c5bd 5a94 9a3d 1c5a 343e
00000200: cd41 d6bd 2eda 8ebd ebf6 fcbd 4c85 9d3a
00000210: 135e b43e fab4 373e 8aaa 93bd 0292 25be
00000220: f677 69be 02cc f5bc 4d5a 85bd 0dc0 4bbe
00000230: 37f8 c83d cfd9 42be c322 d63e 4181 843e
00000240: 0821 c33e 3190 8abc ada8 813e 625f 1f3e
00000250: af7c c5be 5871 55be 4b28 403d 9715 fd3d
00000260: 2582 693e d996 7cbe 0db0 0b3d d96a d63c
00000270: 4ba7 213e 9353 893e 17dc 8e3d d297 653e
00000280: a55e 6fbc 03cd 0cbe 30e7 523d 2b11 3d3e
00000290: 9afa 65bd 5303 69be b80d 033e 3a69 c73e
000002a0: 595c 103e 90b1 683d 133c e139 a1d5 1cbd
000002b0: 4482 14be 4382 06be 8e99 6dbd 74fc 483d
000002c0: 21df a0bc f69d 24be 0bba ec3c 0acf 2b3d
000002d0: 5f96 d73d ae63 453e 87d3 4ebd e609 a73e
000002e0: ba79 6c3e b320 0e3c 587e 013e acdc 4dbe
000002f0: 2f98 bf3d e013 05be 3c31 a93d a04b 4ebd
00000300: 2d2d aa3d 659e d53e 2d07 b23e 9628 973e
00000310: b4bd 5d3e 8de1 afbe 503e 813d 60ba a0be
00000320: 4d5d 1cbe a8de dcbc 391a 483e 9fed 3e3d
00000330: a5f8 44be e12e fdbd ec94 9e3c 0fad b53e
00000340: a19f c83d 7cf0 8a3e 47ad 263b a9b3 d53d
00000350: c7a8 783e 30ac 85be 0a98 f43d 265f a8bd
00000360: b127 003d 02e8 9a3d bd36 5bbd e716 1d3f
00000370: 5fe0 c2be 4b6a 72bd b6bb 07bd 00e3 803e
00000380: c782 973c 77d0 80be b00b 423e 9531 4abe
00000390: b090 64bd 4c4c cabd d62c 3d3d 9da3 d5bd
000003a0: 01b1 903e 2ef6 61be 26b6 c43e 9cb1 24bd
000003b0: b3ab 40bd 6e0d b8bd ef0f e2bd 06cb 153e
000003c0: 63bd 303e 9f8d e93d 69c8 1e3e 7ad0 81be
000003d0: 5a29 353f d0c5 a0bc 3e9e 9abe 0c60 39be
000003e0: c090 7f3e fdcd 8b3e 18d9 843c e7d7 153e
000003f0: dab9 20be 6034 73bd 0855 60bd ba28 40be
-0.14718866 0.030146189 -0.0821745 0.13351364 -0.11879028 -0.18152247 -0.06386762 0.02758415
-0.15577304 0.09337001 -0.13562265 -0.022506706 -0.024600867 0.02257522 -0.061074544 0.011299297
0.15036272 0.17568208 -0.08840617 -0.014411102 0.06506105 0.19146533 -0.06883843 -0.13373354
-0.08990865 -0.018634902 0.019039406 -0.12872107 0.1697371 -0.07020095 0.021737143 0.07374662
0.13973494 -0.2142886 -0.2649055 -0.12812595 -0.21516061 -0.045533326 -0.31367487 -0.18181874
0.075858004 0.1058108 0.34872928 -0.48691863 -0.1094151 -0.0039421837 -0.06214797 0.2915788
0.23959641 -0.18581074 -0.08431607 0.19816373 0.19051962 -0.19618455 0.19198482 0.16200195
-0.17604664 -0.15993254 0.0332572 -0.11351552 -0.09735391 0.1859801 -0.14437196 -0.14171393
0.068329856 -0.13454875 0.11186148 -0.0068647414 0.11371495 -0.19487293 -0.10116112 0.11460389
0.019923285 0.055002704 -0.10591924 -0.11005167 -0.06260064 -0.21354489 0.030080443 -0.15495382
0.126203 -0.018453978 -0.070923395 0.15575717 0.034797095 0.10860444 0.056942604 -0.22461781
-0.056101143 -0.11331601 0.15229666 -0.03401222 -0.0014911526 -0.011911211 0.14644039 -0.12842059
0.13324732 0.10346458 -0.05035851 0.029175099 -0.09047304 0.05603763 -0.12776652 -0.08321924
-0.17199641 -0.055862878 -0.1250043 -0.24151303 0.04425639 0.03663832 -0.025392547 -0.2496297
0.027655048 0.031515766 0.0115361 -0.20412463 -0.15314083 -0.2242127 -0.1384112 0.113184355
-0.1815084 -0.0044505317 -0.1582873 -0.02340514 -0.20994863 -0.09660391 0.07547827 0.17612499
-0.10461769 -0.06975208 -0.12351783 0.0012017875 0.35228023 0.17940131 -0.07210262 -0.16168979
-0.22799668 -0.030004505 -0.06511364 -0.1989748 0.09812968 -0.190284 0.41823396 0.25879863
0.38111138 -0.016914459 0.25324002 0.1556373 -0.3857169 -0.20844018 0.046913426 0.123576336
0.22803552 -0.24666919 0.034103442 0.026173996 0.15786473 0.26821575 0.069755726 0.22421196
-0.014609967 -0.13750081 0.05149001 0.1846358 -0.056147195 -0.22755174 0.12798202 0.3894747
0.14097728 0.05680996 0.00042960103 -0.03828967 -0.14502817 -0.13135628 -0.05800777 0.049068883
-0.019637646 -0.16075882 0.028897306 0.041945495 0.10526728 0.19276306 -0.050494697 0.3262474
0.2309331 0.008674788 0.12645853 -0.20103711 0.093551986 -0.12995863 0.08261344 -0.05036509
0.08309398 0.41722408 0.347711 0.29523152 0.21654397 -0.3435177 0.06310713 -0.31392193
-0.15269966 -0.02696164 0.19541253 0.046613332 -0.19235475 -0.12362457 0.01935812 0.35483596
0.09796072 0.271366 0.0025432871 0.10434658 0.24283133 -0.2610793 0.11943062 -0.08221273
0.031287853 0.07563783 -0.053519 0.6136307 -0.38061807 -0.0591834 -0.033138 0.25173187
0.018494977 -0.25159046 0.18949771 -0.19745477 -0.055802047 -0.09877834 0.046185337 -0.104315974
0.28260043 -0.22066566 0.38420218 -0.040208444 -0.047038745 -0.089869365 -0.11038195 0.14628229
0.17259745 0.11403965 0.15506138 -0.25354367 0.7076622 -0.019625574 -0.30198854 -0.18103045
0.24957561 0.27305594 0.0162168 0.14633141 -0.15695897 -0.05937612 -0.054768592 -0.18765536

conv1.bias f4 [48]
00000000: e9ca 02be 417e 843d eade 10be 719f 34be
00000010: fe7d 1f3d c42a 81bd 404b a8be ff37 babe
00000020: e332 24be a149 fdbd c32c 13be 9508 aabd
00000030: 11ec 7ebe e14c 7bbe d398 a6bd 65b8 ab3d
00000040: d796 b5be f82b 3fbe aed4 83be bfa4 68bd
00000050: f6d4 20bd 950f 6bbe 7255 803e dcf1 2fbe
00000060: 9f06 243e 319b 5e3e 9564 473e 585e 42be
00000070: 79af a0be 2fa5 f1bd ba04 98be eb15 bdbd
00000080: aa7a 03be ef51 bb3d b4b0 40be e367 9cbe
00000090: 8395 dbbc c821 d2bd 20c4 c4be fa29 a0be
000000a0: ceac d5bc d0b3 09bd 538e b53d 5cf4 9e3e
000000b0: 7c5f 153e 0a30 26be 60ab 233c d27b 303e
-0.12772717 0.064693935 -0.14147535 -0.17638947 0.038938515 -0.06306985 -0.3286991 -0.36370847
-0.16035037 -0.12367559 -0.14372544 -0.08302418 -0.2489474 -0.24541046 -0.08134618 0.0838478
-0.35466644 -0.18669116 -0.257482 -0.05679774 -0.039265595 -0.22955163 0.2506519 -0.17182106
0.16018151 0.21738888 0.19471963 -0.18981302 -0.31383875 -0.117990844 -0.29691106 -0.09232696
-0.12839761 0.09146487 -0.18817407 -0.3054801 -0.026804691 -0.102603495 -0.38430882 -0.31282026
-0.026083376 -0.03361875 0.08865037 0.31045806 0.14587206 -0.16229263 0.009989589 0.17234734

conv2.weight f4 [96, 48, 5]
00000000: b43f dbbc 2800 3a3d a052 543d ac4b 5bbc
00000010: a8bc 533d 25c6 9f3c 5d1a 42be 876f 5e3c
00000020: d40d 73be affa f33d 5fb3 04bd 8062 32bc
00000030: 6ce6 5cbd 689e 1b3d 5255 4c3d 08a2 05bc
00000040: 4292 713d 7895 033c c05f c2ba 00ab aa3c
00000050: ec96 a2bc 7071 12bb 17d8 24bd 2d8f 823d
00000060: 3cd0 413d 8e66 5a3d edf0 d63d 4467 e7bb
00000070: c485 a1bd b58e df3d 0f3b 663c b8f0 253c
00000080: bbd1 183e 2dd3 bebd c370 253e 87d7 31bd
00000090: bfaf 873e 14b8 403e 023c 873d 4281 c43d
000000a0: 36a3 1f3a 1db2 cdbb fd34 5c3e 2189 57be
000000b0: d339 d1bd 88f7 923d 52cc d9bd 8162 043e
000000c0: b175 cabd ffd2 53bd 50ce 0dbc 0856 373c
000000d0: 5c12 3a3d c906 4cbd f03e 233d 5088 81bd
000000e0: 769e 6c3d ac78 ba3c 1ed8 a7bc 1e6c 24bd
000000f0: b2f2 143c 4171 393d f170 163e 1c66 b6bd
00000100: 591f a13b 4193 883a 0381 803c 3e32 1f3e
00000110: 483f 63be f44c 103e f0d0 29bb a0e3 5fbb
00000120: d8f2 7a3c 77b3 50bd 7091 6cbb 2c8c 433d
00000130: 2dfb 48bc 4af1 bd3c a9ab eabc 4da4 123d
00000140: 6cac 48bd 27d1 213e 0208 993e c846 8bbd
00000150: 20f8 8339 ace5 dcbc ac0c 07bc c021 61bb
00000160: 14c2 05bd 00b9 eeb9 b2bf 653d 7cf0 d03d
00000170: 475e 8f3b 6b22 25be ac42 13bd 7ae6 663d
00000180: 98df 483e db6e 4e3e 11c2 a2be 2b63 143f
00000190: 9436 41bd b7cf 51bd 35f4 45bc 4283 c23c
000001a0: 35be 0c3d 2efb a7bc 8ff6 f7bc b598 903e
000001b0: 3505 9cbd 9811 153d f7dc afbd 5741 67be
000001c0: 97fc 92be 32e6 4fbe e55b eabe 6a75 f0bd
000001d0: 9f87 8a3d c87f 633e 9dca 36be 9265 043e
000001e0: dd97 07be 2b2d 84be 309f 31bf a2d8 acbe
000001f0: 5249 b0be 5721 dabe ac6d 82be 6a1a d2bd
00000200: 8f1e 93be 49dd 6c3e d3d8 a1be 8c9b 6bbe
00000210: 2d44 d7bd f309 01bf 4139 353e ee46 e9bc
00000220: a435 1f3d 08fb 29bd e0e1 303c 44c1 9d3c
00000230: 7b5f 0d3d 49d5 c93d 6b93 1d3e 977c 17bd
00000240: a9e9 5d3d f5a5 0bbb b8b6 b83d 523c c43c
00000250: e0c9 32bd a4cd a33c 6264 0d3d 0a2c 1c3e
00000260: 6be1 af3e d7cf 06be 822e 603d fcad 393d
00000270: 0847 25bc ec4f 02bd 1c68 66bd d994 24bc
00000280: b20a dbbc 0d3c f23d 6b89 2d3d fe7c e33d
00000290: 7c85 6a3d 64c0 78be 1b96 aebe 5737 1ebf
000002a0: 2980 9dbe 6988 243c bb7a 6bbb e612 77bd
000002b0: 14fc 32bc 900b 14bc 222f 583d 68a0 853d
000002c0: 2061 943d 0ac0 963e 0701 84bd 1a44 a93d
000002d0: 50dd 84bd a9d8 173c e6c5 9bbd f4a5 9fbe
000002e0: fa01 4e3e 5974 37bc 4e52 8a3c 0db3 9f3d
000002f0: a99f 2fbe 6cb6 1d3e 9f00 bd3d b548 2a3e
00000300: 39a6 063f 04f5 fdbc 31f4 74bd f884 29bb
00000310: 5eeb 603e 7a25 8e3d 14ac 753e 4627 35bc
00000320: 1ee7 4d3d 8426 d3bc cf8a 4bbb ebca 6fbd
00000330: 294e 41bd 58e2 29bd f0a8 043c 0776 68bd
00000340: fcf9 493d 204a b53b 23c9 cdbe 823f 8f3d
00000350: f53c b13c 2eb4 8abe 7654 f13d 2ac1 92be
00000360: 2b1f 2a3d 8556 0abf 08d3 1bbe e468 1ebe
00000370: bcb6 d6bd e18f 01bd 6de1 20bd d0c6 96be
00000380: 964a 54be de2b 61bd 002e 033d ecc5 8a3e
00000390: e9b4 5cbd e962 ec3d c3e6 75bd f279 7d3d
000003a0: 8415 41bd c09d 74bd 004d 6eba f0da 85be
000003b0: 204b 00bf ef3f 90bd 0bdc 95be 3759 c33e
000003c0: ed00 c2bc 3036 673d 1683 c5bc 2ff3 4a3d
000003d0: 1eb9 cabc 3e6f 7ebd d415 863c a626 90bd
000003e0: b3b3 f63c 966a 73bd 7c34 2abd 3d7b 823d
000003f0: 5b01 46bd 447c 57bd d4a7 3e3d 63d2 44bc
-0.026763774 0.045410305 0.05183661 -0.013384741 0.05169359 0.019503662 -0.1895537 0.013576395
-0.23735744 0.119130485 -0.032397624 -0.010887742 -0.053930685 0.037992865 0.049886055 -0.008156307
0.058977373 0.008031242 -0.0014829561 0.020833492 -0.019847356 -0.0022345446 -0.04024514 0.06374965
0.04731773 0.05332046 0.10495172 -0.007061871 -0.07886842 0.10915891 0.014052167 0.010128193
0.14923756 -0.09317622 0.16156296 -0.043418434 0.2650127 0.1882022 0.066032425 0.095949665
0.0006089689 -0.0062773363 0.21504588 -0.21048404 -0.10216107 0.07176119 -0.10634674 0.12928201
-0.09885729 -0.051714893 -0.008655146 0.011189945 0.045427665 -0.04981116 0.039854944 -0.06324828
0.057768308 0.022762619 -0.020488795 -0.04014217 0.009091066 0.045274023 0.14691521 -0.089061946
0.004917067 0.0010419862 0.015686518 0.1554651 -0.22192109 0.14091855 -0.002591189 -0.0034162775
0.0153166875 -0.0509524 -0.003609743 0.0477411 -0.012266916 0.023186345 -0.028646307 0.03580122
-0.04899256 0.15802442 0.29888922 -0.0680061 0.00025171135 -0.026964985 -0.008242767 -0.0034352392
-0.03265579 -0.00045532733 0.056091018 0.10202119 0.0043752524 -0.1612641 -0.035952255 0.056372143
0.19616544 0.20159476 -0.31788686 0.5796382 -0.04717119 -0.051223483 -0.012082149 0.02374423
0.034361083 -0.020505514 -0.030268935 0.28241506 -0.07618181 0.03639373 -0.085870676 -0.22583519
-0.28708336 -0.20302656 -0.45773235 -0.11741145 0.06764149 0.22216713 -0.17850728 0.12929371
-0.13241525 -0.2581571 -0.69383526 -0.33759028 -0.3443094 -0.4260356 -0.25474298 -0.10258944
-0.28734252 0.23131289 -0.31610736 -0.23008555 -0.105110504 -0.50405806 0.17697622 -0.028476205
0.038869515 -0.041499168 0.01079604 0.019257195 0.034514885 0.09855134 0.15388267 -0.036984053
0.054177914 -0.0021308635 0.09019226 0.023954544 -0.043649554 0.019995518 0.03451956 0.15251175
0.34351668 -0.13165222 0.054731853 0.04533194 -0.010087736 -0.0318145 -0.05625163 -0.010045254
-0.026738498 0.1182786 0.04236738 0.11107825 0.057256207 -0.24292141 -0.34098896 -0.6180319
-0.3076184 0.010042288 -0.0035931307 -0.060320757 -0.010924358 -0.00903596 0.052779324 0.06524736
0.072450876 0.2944339 -0.064455085 0.082649425 -0.064875245 0.009267964 -0.076061055 -0.311813
0.20117941 -0.011197173 0.016884949 0.07797823 -0.1715075 0.1540162 0.09228634 0.16629298
0.52597386 -0.031000622 -0.05980319 -0.002586661 0.21964785 0.06940742 0.23991424 -0.011056727
0.05026924 -0.025775202 -0.0031058078 -0.058543127 -0.04719368 -0.041475624 0.008096918 -0.056753185
0.04931067 0.005532518 -0.40192518 0.06994535 0.021635512 -0.2709059 0.11783688 -0.28662997
0.04153363 -0.5403827 -0.15217221 -0.154697 -0.104840726 -0.031631354 -0.039277483 -0.29448557
-0.20731577 -0.054973476 0.03202629 0.27104127 -0.053883467 0.11542303 -0.060034525 0.061883874
-0.04713966 -0.059720755 -0.00090904534 -0.261436 -0.5011463 -0.07043444 -0.29269442 0.38154003
-0.023682082 0.05644816 -0.024110358 0.049548324 -0.024746474 -0.062117808 0.01636783 -0.070386216
0.030114984 -0.05942782 -0.04155396 0.06371162 -0.048341136 -0.052608743 0.046546772 -0.012013051

conv2.bias f4 [96]
00000000: e06f 7dbe b97a 27be 5677 5ebd 956c 6dbd
00000010: 155b b3bd 93f1 e8bc 4f0b 2dbd 8135 ec3c
00000020: 2dc5 c23a e134 7fbc 0c9c 57bd b499 d93c
00000030: abe2 ad3d a0a1 0ebe 9b0b 6fbd 5f53 16bd
00000040: 5707 54bd 9a99 4d3c 623c 8abd ff08 53bd
00000050: dff4 3bbd 1958 b6bd b383 f23d caaf d8bd
00000060: 46e3 f1bd f99f 18bd 966a 83bd ddf5 3abe
00000070: c7e3 82bd 4d99 393c 2d05 61be f055 50bc
00000080: 79dd a2bd a1d1 c3bd 850f 3abb ad37 993d
00000090: 99cd 9fbd 8b66 97bd ae20 a9bd deac 3abe
000000a0: 443c d73d aa75 94bd 841e cebc f174 97ba
000000b0: a323 313c 2742 03bc aa20 88bd 752a 6dbd
000000c0: df7d 893d a62c c43b 0bd1 2ebd 11be d2bd
000000d0: 4ad1 c9bd 2c40 96bc a9ce 77bc bdc9 bc3c
000000e0: d7c2 b2bd d41c a4bd 0233 47bd 41ca 25bd
000000f0: fab9 4abd acf9 5dbd 571e b2bd 8a48 aabd
00000100: 636f abbd 3cf1 abbd d641 fdbc 0739 fabd
00000110: 6cfa fc3c 610f c2bd f9ad 57be 065f 9ebd
00000120: b9e7 94bd 4e84 56bd e931 c43a beef bdbd
00000130: 3f5f 0cbd 43a3 193b 0a29 9abd 85eb b0bd
00000140: 3029 953d aeb3 7bbc 7f7e 48bb 78d8 8dbd
00000150: 5017 5d3b d08f 20bd 413c 4cbe d190 0dbe
00000160: d8e6 87bd fe8b 72be 5594 cbbd a838 17ba
00000170: 62eb 0fbe cac4 d6bc 04ab b33c f8b6 2fbd
-0.24749708 -0.16355409 -0.054313026 -0.05796488 -0.08757607 -0.028435504 -0.042247113 0.028834106
0.0014859788 -0.015576572 -0.052639052 0.02656255 0.08490499 -0.13928843 -0.058360677 -0.036700603
-0.051764812 0.0125488285 -0.06749798 -0.05152225 -0.045887824 -0.08903522 0.11841526 -0.10580404
-0.11810927 -0.037261937 -0.06416814 -0.18257852 -0.06391101 0.011328054 -0.2197463 -0.012715802
-0.07952399 -0.09561468 -0.0028390598 0.074813224 -0.078028865 -0.073926054 -0.08258186 -0.18230006
0.10509542 -0.07249005 -0.025161035 -0.0011555237 0.010811719 -0.008011377 -0.06646855 -0.05790182
0.06713461 0.005986768 -0.042679828 -0.102901585 -0.09854372 -0.018341146 -0.015124955 0.023045415
-0.08728569 -0.08013311 -0.04863263 -0.040476087 -0.049493767 -0.054193184 -0.08697193 -0.08314617
-0.08370855 -0.08395621 -0.030915182 -0.12217908 0.03088113 -0.094755895 -0.21062459 -0.07732968
-0.0727076 -0.05237227 0.0014968488 -0.09274243 -0.03427052 0.0023443259 -0.07527359 -0.08638672
0.072832465 -0.015362663 -0.0030592976 -0.06926054 0.003373582 -0.03919965 -0.1994486 -0.13824774
-0.06635827 -0.23686215 -0.099404015 -0.00057686353 -0.14054635 -0.026216883 0.021932133 -0.042899102

lstm1.weight_ih_l0 f4 [512, 96]
00000000: 5b71 c53d c188 cbbc 32c4 cdbc d670 483d
00000010: 4952 4bbd a7a4 8b3d 44a2 13bd 0c98 e4bd
00000020: ad7b 383d b66d b63c 2d9d 66be 0b13 513d
00000030: 4621 a2ba b57f bb3a 269e 93bd 85f1 c6bb
00000040: 431f 5dbd 8626 bd3d fe80 03be 0fee 2d3d
00000050: 5b85 59bc 5641 f23d c33d a3be 84d1 84bb
00000060: 4fb8 99bd 8431 973d 7468 e63d 421f bfbd
00000070: ce69 4ebe e24e c0bd 2516 623d bc68 73be
00000080: 6c1a b5bc 708d 653c 5a6b d5bc 2c56 8cbd
00000090: 320b 003d dd72 003e 1660 a7bc a9e3 97bd
000000a0: 14c6 103d fd21 61bc 8ecc 483d 0c62 79bd
000000b0: 195c 45bd 37be e23d 78ba a03d 4829 943d
000000c0: 3b4b bcbd 7413 cf3d 69d4 ef3d ccd7 0a3d
000000d0: b4f2 5d3d 7d1c 4cbd 5ac7 8d3d 1382 e1bd
000000e0: d715 ea3d 4e26 b9bd fd40 a9bd cd99 6a3d
000000f0: c2be afbd 5e48 c9bc b5c6 fc3c ddd0 cbbb
00000100: c357 1c3d e405 073d 6ae1 26bd da33 26bd
00000110: 3ffc a7bc 2d91 8dbc a1c6 f3bb d242 95bd
00000120: 7751 033c 3f92 a5bb f5ea d93d aeca d03c
00000130: fb85 53bc 1655 6e3d 6cea 95bd d691 37bd
00000140: bdb0 343c 01b2 4d3d 0690 d73c 75b4 69bd
00000150: 94b9 48bd 820f 54bd 956f c93a 4744 babd
00000160: 222c 563d a3af a4bd 978f 353d 1c73 d83d
00000170: 85a8 0dbd bc44 02be ec17 9cbd e184 63bd
00000180: 0b54 893e 01af e1bb 3a9e 883d 881b d73d
00000190: c5eb b53d 5465 cd3d def5 da3c 6b5e 92bd
000001a0: 9ee1 a4bc d5ca 55bd 2755 54be 93ff e6bc
000001b0: 7875 8cbc ae0f 103e fb80 b23c d94d 373e
000001c0: 9e43 dc3d 9e7f 963d e5f5 cf3e 4cf4 96bc
000001d0: dc30 613d 10e6 e83d d54d afbb 357d a33d
000001e0: a2f6 483d 026b 0dbd 3bd6 19bd b531 5d3d
000001f0: f2d2 94be c11a 033c cf14 173e d8f2 01bf
00000200: ad79 04bd c6c6 d7bc f2ad 823c d900 793d
00000210: a20a 91bd 8861 42bd 44d7 d3bc a888 41bc
00000220: ca34 dc3d 43d7 433d 7668 913b 45a7 5fbb
00000230: 1300 993d c807 193c 025c 753c 9fb3 3d3d
00000240: be87 6abd b2bd 67bc 2237 b63d a8e5 02bc
00000250: cd25 9fbc 0fc3 fb3d 6435 103d 6697 113e
00000260: 14cb b5ba 1658 593d 1df9 213e 89a5 2a3c
00000270: cdce e43c e31a 803d e92f dd3c b6a3 dfbb
00000280: f228 d83d 65af e23b bf7f 9c3d 3751 be3c
00000290: d018 113d e98c b93d 6197 423e f6be 8a3d
000002a0: bd5a 1d3e b6f5 0a3d 39ee a43d 411e b83d
000002b0: e32f 273e 65eb ea3d deab 223e 9cf8 133e
000002c0: ce12 03bb f29a 39bd 89a9 a13b 6a80 a03c
000002d0: 3e8d 1c3e c401 1b3e 1360 a73d 46a2 ea3d
000002e0: e229 7f3d 8a0f fa3e ff4e 6ebc cd7b d93d
000002f0: ed35 063d e340 023e d7d5 b7bc 5cf3 0f3d
00000300: f826 d9bb 0ae3 223c b8f8 6f3d 07c1 9cbc
00000310: 0520 c3bd f167 93bd db09 fabc 2570 0f3e
00000320: f626 54bd 9b3a b33c 7caa 2a3e 1d92 153d
00000330: b434 70bd 1d3e 223d 71db 8c3d f9ba 003d
00000340: f906 84bd 3c16 cc3d b506 1e3e 6afb 04be
00000350: 7c99 b2bd c079 8bbc d238 2d3e 71c8 2f3d
00000360: 1262 223d daf7 4abd 5059 09bd 079f ce3c
00000370: 72ee ff3d 31fc c2bc afb8 1d3d 5b43 1a3e
00000380: 2f27 3fbd a4bc 403c 6ab1 b03d 6c6c cb3d
00000390: 2127 e43c 5816 b6bd e006 aebc e4fa 6d3d
000003a0: ba87 913d 7a4e db3d a3a9 163d b0c4 a03d
000003b0: 96a0 9d3d 25c1 34bc b080 2d3d 1766 12bd
000003c0: a76e aa3d 7de3 0dbd 29d9 873c 42dc 4ebd
000003d0: 2052 9cba d8c6 a63c 4ea0 b5bc 08e6 1c3e
000003e0: 7a24 553d f41a 1cbd e54f 4a3d 35fb 7e3b
000003f0: 5f75 503d e68a c63d e8ab e6bd aca9 fa3c
0.096407615 -0.024845483 -0.025117967 0.048935734 -0.04963902 0.06818514 -0.03604342 -0.11161813
0.04503982 0.022269111 -0.22520895 0.05104355 -0.0012369535 0.0014305027 -0.07207899 -0.006071272
-0.05398489 0.092358634 -0.12842175 0.04246336 -0.013276423 0.11828868 -0.31883058 -0.0040532965
-0.07505857 0.07382491 0.112503916 -0.09332134 -0.20157549 -0.09390046 0.0551969 -0.23770422
-0.022107325 0.014010772 -0.026052166 -0.068523735 0.031260677 0.12543817 -0.02043156 -0.074164696
0.035345152 -0.013741014 0.049023204 -0.06088452 -0.048183534 0.11071437 0.07848066 0.07234436
-0.091940366 0.10111132 0.11710436 0.033897206 0.054186538 -0.049831856 0.06922789 -0.11011138
0.11429947 -0.09040509 -0.08264349 0.057275582 -0.08581306 -0.02457064 0.03085647 -0.006219967
0.038169634 0.032964602 -0.040742315 -0.040576793 -0.020506022 -0.01728114 -0.00743945 -0.072881356
0.008015028 -0.0050528343 0.106405176 0.02548727 -0.012910361 0.058186613 -0.07320103 -0.044816814
0.011028466 0.050218586 0.026313793 -0.057056863 -0.049005106 -0.051772602 0.0015368337 -0.09095054
0.052288182 -0.080413125 0.04432639 0.1056883 -0.03458454 -0.12721533 -0.0762175 -0.055546645
0.26821932 -0.006887317 0.06670804 0.10503298 0.0888286 0.100290924 0.026728567 -0.07146915
-0.020127114 -0.05219539 -0.20735608 -0.02819804 -0.017145857 0.14068481 0.021790018 0.1790079
0.107550845 0.0734856 0.4061729 -0.018427037 0.054978237 0.11372006 -0.0053498545 0.07982866
0.049063332 -0.03452588 -0.03755782 0.054002482 -0.29067189 0.008001984 0.14754032 -0.50761175
-0.0323426 -0.0263399 0.015952084 0.060791824 -0.07082106 -0.047456294 -0.025859483 -0.011812367
0.10752256 0.04781271 0.0044375015 -0.00341268 0.07470717 0.009340234 0.01497555 0.04631388
-0.05725836 -0.014144348 0.088972345 -0.007989325 -0.019427205 0.12293064 0.035207167 0.1421791
-0.0013869726 0.05306252 0.15817685 0.010415443 0.027930642 0.06255128 0.027000384 -0.006824936
0.10554685 0.0069178813 0.07641553 0.023232086 0.035424054 0.090600796 0.19003059 0.06774704
0.15366645 0.033925734 0.0805325 0.089901455 0.16326861 0.11470679 0.15885875 0.14450306
-0.0020000222 -0.045313783 0.0049335402 0.019592483 0.15288255 0.15137392 0.081726216 0.114567325
0.062295802 0.4883998 -0.014545201 0.10619316 0.03276627 0.12720065 -0.022440834 0.035144195
-0.00662696 0.009941826 0.058586806 -0.019135011 -0.095275916 -0.071975596 -0.030522278 0.14007623
-0.05179497 0.021878531 0.16666597 0.036516298 -0.05864401 0.039610017 0.068777926 0.03142831
-0.064466424 0.09965178 0.15432246 -0.12986532 -0.08720681 -0.017025828 0.16916206 0.042915765
0.03964431 -0.049552776 -0.03353244 0.025222315 0.12496652 -0.023801895 0.038506206 0.15064757
-0.046668228 0.011763725 0.08627589 0.09932789 0.02785069 -0.088909805 -0.021243513 0.058100596
0.07105966 0.107083276 0.036782872 0.07850015 0.07696645 -0.011032377 0.042359054 -0.03574189
0.083218865 -0.034640778 0.016583042 -0.050503023 -0.0011926331 0.020358488 -0.022171166 0.15322125
0.05203674 -0.038111642 0.0493926 0.0038907055 0.050893184 0.096944615 -0.11263257 0.030598484

lstm1.weight_hh_l0 f4 [512, 128]
00000000: 6ac2 053c 4be5 933d f03c f8bd 19e6 7bbb
00000010: f6d8 08bd 4146 4cbd 7520 3dbe e010 a03c
00000020: 4c70 debd ed0f 1bbe 7584 90bd 66f6 2a3e
00000030: b109 913d 1daf f9bd a720 c33d 9c82 49be
00000040: 7f3d bc3c d92c 20bd c5cb b43d 21b6 fbbd
00000050: 78ce 5f3c e8b7 ebbd d15f cd3d 15e6 403d
00000060: 3acb 14bd 6637 08bc 98b2 a7bd 4561 a13d
00000070: f3fe e8bd 384b 063e 573a a2bc 115b 633a
00000080: 9766 08be 79bd 3fbe b825 62bd 233f 743c
00000090: ec25 333d d1c4 253e 3a98 403e 32a8 013c
000000a0: 24ca 18bd 8b45 ffbb 6031 a1bd a040 ca3d
000000b0: 8bfe adbb c766 e73d acf1 cf3c a644 17be
000000c0: 9884 0dbc a540 9abd b376 ec3c 6808 aa3d
000000d0: 4e61 01be 79de 273d 72af 3bbe f6cb 00bd
000000e0: fb6d 03be aa70 c6bd 713a 353e f41b b0bb
000000f0: 7edf e7bd 5e64 9fbd 48c3 2ebd b9af 6f3c
00000100: c13a 853c 85aa 26be 8839 88bd 1eaf d8bd
00000110: bc1e baba eae9 0fbe 2a51 85bd 37e5 053e
00000120: 3983 d23c 99c2 4abd 96aa 153d 4d83 3dbd
00000130: 3b1f e23d daa4 983c 21df b4bd 6dcf 873d
00000140: a95a 883d 1dfe c53d e423 4dbc 5555 a33c
00000150: 2519 bdbd d9b5 b03b 1c4b 3d3d a406 78bc
00000160: 5244 e1bd fecb bb3c 6698 d53e 3517 8d3d
00000170: 7cef 1c3e 361f 103e 0526 4cbe 3bd1 cb3d
00000180: 74d2 8b3e 6864 963c b29a a0bd d729 dc3c
00000190: afbd 2abd 391f e83c cfbb d1bd e26e 8b3d
000001a0: ece4 00be 0745 20bd 252d 693d b791 97bd
000001b0: b924 03be 80f1 92bd 2bb4 113d 3ace cabd
000001c0: bffe 0abd fb59 283e f74a 703e b531 bb3d
000001d0: 064a 3e3d 22f0 afbc effe 543d db1b 433c
000001e0: afc0 5fbe 6826 c9bd d16f 143d 5304 88be
000001f0: 1099 a8bd 4c3d 05bd 5954 bebc baa4 88bd
00000200: 1e2c fabd d323 0bbe 478c a23c 7cd3 c3bd
00000210: 75dd d0bd 74bb fabb 0dbe a6be 6058 e7bc
00000220: 93d7 3c3e bc10 e8bd ddfc 633d 3b31 453e
00000230: bdff afbd 897b d6bd d5bb cdbd eb52 c8bd
00000240: d49f 7e3e 9341 0b3d 6e73 1cbd bb41 a2bc
00000250: f0c9 c03c c620 e63d 8678 143e 08bc 17bd
00000260: 5088 16be e5b7 6dbd 47a7 26bd aa79 713d
00000270: e980 dfbd da7f c93d 4507 e23d 1b11 c13d
00000280: 6b8c 033c 72ca 64bd d6b9 d13c c044 e43d
00000290: bbee fbbd 319a 303e 244e 9e3e 1dbd db3b
000002a0: 13f8 f9bc c10a 4ebd 3ec3 88bd 1019 7d3c
000002b0: aa73 0dbe 8de6 bfbd 05a4 f6bc 6ce2 92bd
000002c0: 5f05 2a3d d28f 303d 5228 27bd 6e57 9dbb
000002d0: 9039 c3be b58a f13b aaf2 12be 1adb 083d
000002e0: 7e8f 4a3c 36d5 083d a348 4a3e 0188 a13d
000002f0: 14db e43d 9960 02bd 0de7 1e3d 8115 e8bb
00000300: 289d 953d e8ab 38be 2af5 c03d 1e8a d03b
00000310: c7bf f3bc cab6 18be 5fcf debc e5b7 07be
00000320: 5367 debd b55b 8d3d 5c0d 08be c80d 61bd
00000330: 7ec9 ccbc f990 373c 9c96 2cbd dfd6 cb3d
00000340: 7b55 173d 13c2 03bd 5258 2fba 8540 993e
00000350: 7f63 de3d 503c 57bd 6fbd d63d 2bbe 093e
00000360: b6be 9d3d 474c a83d 937a 173e 2ff8 babb
00000370: f286 403e 88ef 69bd 35c6 b43d 29fe e53c
00000380: 5c36 9e3e 33dc 57bc d624 ca3c 4d70 aebd
00000390: 0a0d ad3d b03d ebbd 8e4b c13d 3cd2 533c
000003a0: b341 df3d 37a2 4abd c337 d5bd e230 dbbc
000003b0: 47b4 a93c 7995 34bc bfac f43d ef10 6e3d
000003c0: ba33 4e3d 36f1 183d d417 143d 8563 9f3c
000003d0: c972 a0bd 8930 923a b903 7c3e 4519 f3bd
000003e0: ab87 00be 00f3 50be b1e0 a13d 209e 67be
000003f0: 6fbb 293e 9605 8a3d 4524 d63c 9b55 a33d
0.008164028 0.072214685 -0.12120998 -0.003843671 -0.033410035 -0.049871687 -0.18469413 0.019539297
-0.10861263 -0.15142794 -0.07056514 0.16695556 0.070819266 -0.12191603 0.09527712 -0.1967873
0.022978542 -0.03910527 0.088279285 -0.12290598 0.013660066 -0.11509687 0.10028041 0.047094423
-0.036326624 -0.008313989 -0.08188361 0.07879881 -0.11376753 0.13114631 -0.01980321 0.0008672933
-0.13320385 -0.18724622 -0.055211753 0.014907631 0.043737337 0.16188361 0.1880807 0.007913636
-0.03730215 -0.0077902726 -0.07870746 0.098756075 -0.005309885 0.112989 0.025383793 -0.14772281
-0.00863757 -0.07531861 0.028865194 0.083023846 -0.12634775 0.04098365 -0.18328646 -0.031444512
-0.12834923 -0.09689458 0.17698075 -0.005374426 -0.113219246 -0.077828154 -0.042666703 0.014629298
0.016263368 -0.16275986 -0.06651598 -0.10580276 -0.0014199833 -0.14054075 -0.065096214 0.1307572
0.025697337 -0.04950199 0.036539637 -0.046267796 0.11041113 0.018633295 -0.08831621 0.0663136
0.06657917 0.09667609 -0.012520764 0.01993815 -0.092333116 0.0053927717 0.046214208 -0.015138302
-0.10999359 0.02292442 0.41717833 0.06889192 0.15325731 0.14074406 -0.19936378 0.09952017
0.27309 0.018358424 -0.07842006 0.02687542 -0.041684803 0.0283352 -0.102409 0.068082586
-0.12587327 -0.03912833 0.05692782 -0.0740084 -0.12806977 -0.07174969 0.035572212 -0.09902616
-0.03393435 0.16440575 0.23466097 0.0914034 0.046457313 -0.021476809 0.052000936 0.011908497
-0.21850847 -0.098217785 0.03623945 -0.265658 -0.08232319 -0.03252916 -0.02323358 -0.06672044
-0.12215446 -0.13587885 0.01984228 -0.09561822 -0.101984896 -0.0076517407 -0.32566872 -0.028240383
0.1844161 -0.11331317 0.05566107 0.19257061 -0.085937 -0.10472781 -0.10045592 -0.0978144
0.24865657 0.033998083 -0.03819602 -0.019806733 0.023533791 0.1123672 0.14499101 -0.037044555
-0.14700437 -0.058036704 -0.04068687 0.05895392 -0.109132595 0.09838839 0.11036543 0.09427091
0.008029084 -0.05585713 0.025601309 0.111459255 -0.123013936 0.1724632 0.30918992 0.0067058937
-0.030513799 -0.050303224 -0.066778645 0.01544787 -0.13813654 -0.09370146 -0.030107507 -0.07172093
0.04150903 0.043105908 -0.040809937 -0.004801682 -0.38129854 0.0073712715 -0.14350381 0.033412077
0.012363313 0.03340646 0.19754271 0.07887269 0.11174598 -0.031830404 0.038794566 -0.0070826416
0.07305366 -0.18034327 0.09421761 0.006364121 -0.029754533 -0.14913478 -0.027198492 -0.13253744
-0.10859551 0.06902257 -0.13286346 -0.054944783 -0.024998423 0.011203998 -0.04213582 0.09953093
0.036946755 -0.032167505 -0.0006688881 0.29932037 0.10858821 -0.052547753 0.1048535 0.1345145
0.07702391 0.08217674 0.14792852 -0.0057058553 0.18801478 -0.0571132 0.088268675 0.028075295
0.30900848 -0.013175058 0.024675768 -0.085175134 0.08449753 -0.11486375 0.09438239 0.012928542
0.10901203 -0.049471106 -0.10411026 -0.026756708 0.020715846 -0.011021965 0.11947011 0.058121618
0.0503423 0.03733941 0.036155537 0.019456634 -0.078343935 0.0011153381 0.24610795 -0.11870054
-0.12551753 -0.20405197 0.079041846 -0.22618914 0.16575406 0.06739347 0.026140342 0.07975312

lstm1.bias_ih_l0 f4 [512]
00000000: c26a 40bd ed0b 703d 1d5a 353c f28c 3abe
00000010: ec69 16be 783d 6c3d 0131 073e d648 bd3d
00000020: e211 b4bd 6fe6 8cbe 226c 573b 03e8 6bbd
00000030: a41a 0a3d f327 c3bd 8483 fb3b a4c3 a1bc
00000040: ac3d c9bc 60a1 2f3d d43e d7bc d8c2 10ba
00000050: 447c 5a3e 8454 923c 97e2 b83c 0007 2ebc
00000060: b5f4 0dbb 0866 2abd 2d5c 10be f633 acbd
00000070: a6b3 0c3d bbd0 bfbe e2f8 123e 80f9 33bd
00000080: 5b2f 223d 868b 653d fc4c 0ebe 8871 2cbe
00000090: efab d9bd 2e73 53be 9f1f bbbd 47de b13d
000000a0: 08b0 55bc ee64 c1bd 86e6 bebb 6302 593c
000000b0: 628e 04be d582 02bc 99cb bcbd df30 d63d
000000c0: c48a 50bd f9ba 89bc a9ef d13d 287e c13b
000000d0: a270 0c3e db28 c3be 5e3d 1e3d d08c e03c
000000e0: 4f7b 1b3d da18 d03d 7916 b7be 3ed7 f2bd
000000f0: 98e5 a43b 2752 483b f588 b53d b2c7 273d
00000100: f043 c53d 0554 203e 418b 48bc 4a0e dbba
00000110: db50 933d 226b b93d 7835 b8be 8a09 10bc
00000120: 5f16 ba3c 4982 3d3b 1d14 97bd 3147 6f3d
00000130: e274 9c3d 4c58 253d 7e48 d5bd 84b6 e83d
00000140: 8236 3b3e 0645 b03b 5779 e73c 368e 58bd
00000150: c961 d2bd 9c3e 673c a76d a23d 4f8c af3d
00000160: ab03 b2bc 3b9e d73c 408c a53d a9d4 413d
00000170: b45c afbd 9a2b be3c d515 e23c e3af 063e
00000180: b992 fd3d 1be2 adbc 9277 703d 0335 923d
00000190: 60fe bd3d d107 7cbb 0b14 213d 4293 353d
000001a0: e609 073d d3ea 1fbd 32a6 383d 68e3 28be
000001b0: d25a dc3d a8f4 a73d a0d2 993d 333f 80bd
000001c0: 0427 653d c32b e0bb 870f 343d aed6 99bc
000001d0: 80e2 603d 6703 9abd 533c c4bd 2d7b 8c3c
000001e0: 4ab0 033c fea3 c4bd 1439 a53a 2013 3cbe
000001f0: 93d5 36be 5e43 27be 8bf1 1cbe d760 0e3d
00000200: 4603 793d dd3d a8bc 6239 373e d6bb 20be
00000210: 586a f1bd ff7a b03d 196c 163e 6beb a43c
00000220: 95ac f4bd 3586 333e 8699 f8bc 855d 1fbd
00000230: de29 44bd 3987 fbbd 8ba4 19bc 1462 6dbd
00000240: d21f 4bbd 92ed c4bd 5464 003e 2eb6 e43c
00000250: 664c ecbd 5fd1 a73d 4b64 9bbd 42b7 d9bb
00000260: 8679 c83d 500d 193e 4b81 dbbd 3afd f5bd
00000270: 5889 3bbe 0bf6 0bbe 348f 4b3d 5966 4ebd
00000280: 00ca 01be 3af8 183d 5aa6 8a3d 382c 6fbe
00000290: a0e7 203b 6062 babe c2cd 0e3e 883d 033e
000002a0: 4709 d03c 6cf9 10be 869a 14bd 5347 c53c
000002b0: 5988 0abe 05cd 1ebd fc28 493c 328a 1fbe
000002c0: 3226 65be 3612 673c d5d9 c03c 21a2 2f3d
000002d0: e30e b23d 96ec 4abe 4530 8b3d 1644 ce3c
000002e0: 8cab 2ebe 75ca 46bc 61e5 903d 9bf5 e3bd
000002f0: 479e 0d3e 4b78 5f3d 6d5b bfbd f2c6 f83c
00000300: 77d6 85bb ee15 95bd 2b07 0abe 4065 58bd
00000310: f271 c8bb 931a 263e e086 dfbd 3b75 e83d
00000320: 0650 f8bd fb74 c13c 8659 e13d c355 243c
00000330: e4d9 b53d 01a2 35bd c5fc c43c 56b8 b33c
00000340: b629 11bb cbf8 c6bd 191d a23d ddad 25be
00000350: 5321 b4bd d3cb f1bd b7ef 02be a5c2 093e
00000360: 4ab3 0a3e b963 063d 23ec 0abd 03c4 f33d
00000370: b8c5 84bd 7e0e 47bc f6e6 ea3d c775 e23d
00000380: df24 2f3e 78e3 e33d d400 163e 250e babd
00000390: 4ad6 ec3b f2bb 643a 89e9 373d ce4c 0f3c
000003a0: c5a7 a3bc f455 b0bc 1fa8 11be e6c8 aebc
000003b0: 5f22 06be c7f5 583c 3eb2 0e3c c978 8fbe
000003c0: cbec 0c3e 8735 35be e7a9 3abd a363 713d
000003d0: 4d79 893d 23ab ddbd e869 6d3e 5ec3 17bd
000003e0: 35f2 3abe 242a efba bede 82bd 5ffb a5be
000003f0: 0024 69be b053 1e3e 64bb 313c 513b ef3d
-0.046976812 0.058605123 0.011068848 -0.18217829 -0.14688843 0.05767581 0.13202287 0.09242408
-0.087924734 -0.27519557 0.0032870849 -0.05759431 0.033716813 -0.09529104 0.00767559 -0.019746609
-0.02456554 0.04287851 -0.026275076 -0.0005522198 0.21336466 0.017862566 0.022568984 -0.010621786
-0.002166075 -0.04160121 -0.14097662 -0.08408348 0.034351014 -0.37463936 0.14352754 -0.043939114
0.039595943 0.056041263 -0.13896555 -0.16840184 -0.10628497 -0.20649406 -0.091368906 0.08684974
-0.013042457 -0.09443079 -0.0058258204 0.013245198 -0.1294494 -0.007965763 -0.09218521 0.1045854
-0.050913587 -0.016812788 0.1025079 0.0059049316 0.13714841 -0.38117108 0.038632743 0.027410895
0.037959393 0.1016099 -0.35759333 -0.118574604 0.0050322525 0.0030566545 0.08864013 0.04096193
0.09632099 0.15657051 -0.012240232 -0.0016712632 0.07193156 0.09053637 -0.35978293 -0.008791337
0.022715745 0.0028916767 -0.07376883 0.058417503 0.07639481 0.04036741 -0.104142174 0.11362937
0.18282512 0.005379322 0.028256102 -0.052869998 -0.10272557 0.014114048 0.07931071 0.085716836
-0.021730265 0.026320567 0.08083391 0.04732195 -0.085626036 0.02321415 0.027598301 0.13153033
0.12381501 -0.02122598 0.05870778 0.071390174 0.09277034 -0.0038456807 0.039325755 0.04432989
0.032968424 -0.039042305 0.04508037 -0.16492999 0.1075951 0.08200961 0.07510877 -0.06262054
0.05594541 -0.0068411543 0.04396012 -0.018779125 0.054903507 -0.0752018 -0.095818184 0.017148579
0.008037636 -0.096015915 0.0012605512 -0.1836667 -0.1785491 -0.16334292 -0.15326516 0.034760322
0.060794137 -0.020537311 0.17892984 -0.15696654 -0.117878616 0.0861721 0.14689673 0.020131787
-0.1194698 0.17531665 -0.030346643 -0.038907547 -0.04789149 -0.12281651 -0.009377609 -0.057954863
-0.049590893 -0.096156254 0.12538272 0.027918901 -0.11538009 0.08194231 -0.07587489 -0.0066441605
0.09788804 0.14946485 -0.1071802 -0.1201119 -0.18314111 -0.13668077 0.049697116 -0.050390575
-0.12674713 0.037346102 0.0677001 -0.23356712 0.0024552122 -0.3640318 0.13945678 0.12816441
0.025395049 -0.14157647 -0.036280178 0.024081862 -0.13528575 -0.03876974 0.012277838 -0.15580061
-0.22377852 0.014103463 0.02354137 0.042879228 0.08694246 -0.19816813 0.06796316 0.02517895
-0.17057627 -0.01213323 0.070750006 -0.1113083 0.1382991 0.05455808 -0.0934361 0.030368302
-0.004084404 -0.072795734 -0.13479297 -0.052830935 -0.006117099 0.16221075 -0.10914397 0.11350485
-0.12124638 0.023615351 0.11003403 0.010030213 0.0887945 -0.044343952 0.024046311 0.021938484
-0.0022150106 -0.09715422 0.07915706 -0.16179605 -0.087954186 -0.118064545 -0.12786756 0.13453157
0.13544956 0.032809947 -0.033916604 0.11902621 -0.06483024 -0.012149451 0.114698336 0.110576205
0.17103909 0.111273706 0.14648753 -0.09084729 0.0072276937 0.0008725516 0.04490045 0.008746339
-0.01997746 -0.02152536 -0.1422429 -0.02133603 -0.13099049 0.013242192 0.008709488 -0.2802184
0.13762204 -0.176962 -0.045572188 0.05893291 0.067125894 -0.10823657 0.23184931 -0.03705155
-0.18256457 -0.0018246812 -0.06390141 -0.32418343 -0.22767639 0.15461612 0.0108479 0.116812356

lstm1.bias_hh_l0 f4 [512]
00000000: 4970 333c 0897 ba3d ab23 7f3d 5e32 34be
00000010: fcfb 0fbd 583e 0ebd 2198 d33c b79c 573d
00000020: 902b ccbd 8048 dbbe 164c 9d3b 340a abbd
00000030: 6920 1d3e da0b 86bd 9342 603d 1073 33bd
00000040: fbea 20bc 25be e33c 0a5b bb3c 07ab fbbc
00000050: 4791 683e 16d8 023d d41a c2bb 1462 b63d
00000060: 812b 353d 32f9 1ebd ccbe 94bd 5bc4 bfbd
00000070: edae c33c d5c9 61be 9ae8 2d3e 2c56 b1bd
00000080: 3728 a03d 25e1 90bd c8aa d7bd 0066 37be
00000090: c315 6d3d 3f1c 0ebe 9378 4dbe 702b 203d
000000a0: a1d0 0fbd 5f45 823b 3fe2 78bd fbfc 123d
000000b0: 3308 8cbe 6950 543d d70f 6dbd d9f2 cb3d
000000c0: d430 6cbd bb5c 6fbd 49d2 43bb 9c79 84bb
000000d0: 1167 463d 0939 79be 397b 153e a43b 1d3c
000000e0: fc2c 093d f05d 883d eb04 b8be 0b2f 0dbd
000000f0: 3d31 c63c 9d32 65bd 3e92 083e 6649 f53d
00000100: cd82 b63c 5a6d 8b3d d46b 39bd 22f6 40bc
00000110: be85 193d 8ae0 b93d d09e 8ebe 8482 80bc
00000120: cb38 8d3d 5e7a 663d 3e07 7ebd 2923 ee3c
00000130: 4f7d 173e 427a e73d 0cdf bdbd 39fe 5f3d
00000140: 5e23 ba3d 3b41 c53b de0b 703d 2ef9 15be
00000150: b88f 28be 1455 0ebe 7c98 753d ebca 513d
00000160: 073b d5bc d290 ba3d 6621 3cbc fd0f 163d
00000170: bfba 87bd 9aa8 a23d 897c a23d ab02 0a3e
00000180: 7036 f23d d25a d4bc d864 4f3d 734b 1fbd
00000190: c08b 843d 5c12 073d b90b 6a3b 13da 943d
000001a0: a468 1bbd 5ddf 1bbd d1f6 84bd 70de 0bbe
000001b0: 9dd1 c23d 04f6 ca3d 2cbf 883d a147 b6bd
000001c0: 60e4 583d 91fc 50bd 8d58 ee3c 380e cfbc
000001d0: c43f be3d 62fa 5e3c cc0e 97bc dbb3 133d
000001e0: 120e d2bd c081 10bd 070a 9bbb ae6e 23be
000001f0: b1c7 40be ec55 64bd 24bc c1bd 206b d23c
00000200: 1e29 ec3c e59f e33d 1a5f 1c3e 34c4 13be
00000210: 616f fabd 017b 6c3d e69c 033e f6ee 8a3d
00000220: 76f5 e2bc 10e8 2a3e 3c9f 3e3d f3fd 62bd
00000230: 1fe1 bcbd ef45 9ebc bc08 653d 93f6 30bd
00000240: c234 e2bd aa5d adbd 5532 b53d b1d4 733c
00000250: de67 59bd 42ab 2e3d f8c6 bebc bb8c 8c3d
00000260: a802 f63c eec7 b33d 04ac 0abe 8137 bcbd
00000270: 4222 13be d874 94be 76ac e03c 42d8 c93c
00000280: 4497 0ebd 5c40 873d 0b95 2c3c 82d3 13be
00000290: bada 183c a617 bdbe 319e ec3d ab00 d03d
000002a0: cb4a e2bd e71b 83bd 0d93 153b 60ef 343d
000002b0: b849 5ebe 73cb e2bc 82a3 acbd a46d d6bd
000002c0: b842 6bbe 3e76 2b3c 7d36 f8bd abd5 543d
000002d0: 6fa6 2d3e 12bb 3ebe 361b 53bd 990e 64bd
000002e0: a6e0 fdbd 3b87 f53d c283 63bd a1bf bfbd
000002f0: 5af9 ebbb e53f b33d 2f21 00be 1ad5 08bd
00000300: e17d 3b3d f09a c1bd 48c6 1bbe 255a c3bc
00000310: 0615 853d f942 db3d 905c 8fbd 8393 e23c
00000320: af49 06be 1e2c febb e9de aa3d 23c6 02be
00000330: 2101 923d 452d 8e3d 669a 0cbe 660c e4bc
00000340: 2564 4b3d 7a6d c5bd 9dfb 0b3e d005 febd
00000350: e92b d0bd ddee fabd 8624 36be e25c 103e
00000360: 9f15 7e3d 121d cb3c 6bc4 cbbd 0fa2 183e
00000370: c0e7 02be aa83 983d 9b97 6b3d bd46 903d
00000380: 5fe2 fb3d fbdc 203c b0b1 04bc 9982 82bc
00000390: b67b 75bd 51a2 b63a b20a 053e c8de 8d3c
000003a0: 47f5 afbd 74f1 c5bd 6116 33bd e6cd b9bd
000003b0: 81d0 aebd b1ee 8f3b 97e2 50bc 1845 bdbe
000003c0: 43f2 ae3d 77a6 4dbe e648 30be 6dff 72bd
000003d0: 64ec 0e3e dc03 09be a296 5e3e 9bad 9c3d
000003e0: 85e6 efbd 6fff 6a3d e09b 96bd 5fb0 a2be
000003f0: 7e1e 7ebe f560 1c3e efc4 983c f8a0 953d
0.010952064 0.09110838 0.062289875 -0.17597339 -0.03515242 -0.034727424 0.025829377 0.05263969
-0.099692464 -0.4282875 0.00480033 -0.083515555 0.15344395 -0.06545229 0.05475099 -0.043810904
-0.009821649 0.027800629 0.02287056 -0.0307212 0.22711669 0.031944357 -0.0059236083 0.08905426
0.04423094 -0.03881187 -0.07262954 -0.09363624 0.023887122 -0.22049649 0.16983262 -0.08659014
0.078201704 -0.07074193 -0.10530621 -0.17910004 0.05788208 -0.13877963 -0.20065527 0.039103925
-0.035111073 0.003975555 -0.06076264 0.035885792 -0.27350006 0.051834498 -0.057876434 0.09958429
-0.057663754 -0.058438044 -0.0029879978 -0.0040428173 0.048438136 -0.24338163 0.14597787 0.009596739
0.033490166 0.06658542 -0.35941252 -0.03446869 0.0241934 -0.05595647 0.13337037 0.1197689
0.022279168 0.068079665 -0.04526885 -0.011777433 0.037481062 0.090760306 -0.2785554 -0.015687235
0.06895598 0.056269042 -0.062018625 0.0290695 0.14793895 0.11302616 -0.092710584 0.054685805
0.09088777 0.006019739 0.058605067 -0.14645836 -0.16461074 -0.13899642 0.059959874 0.05121891
-0.026029123 0.091096535 -0.011482572 0.03663634 -0.06627416 0.079423144 0.079339094 0.1347758
0.118267894 -0.025922213 0.05063328 -0.038890313 0.06471968 0.032976493 0.0035712554 0.07268157
-0.03794159 -0.038054813 -0.06492389 -0.13659072 0.09512637 0.09910205 0.06677088 -0.08900381
0.05295217 -0.051022116 0.029094959 -0.025275335 0.09289506 0.013609501 -0.018439673 0.036060195
-0.1025659 -0.03527999 -0.00473142 -0.1596019 -0.18826176 -0.055746004 -0.09459713 0.025685847
0.0288282 0.11114482 0.15270653 -0.14430314 -0.12228275 0.057734493 0.12852821 0.067838594
-0.027704936 0.16690087 0.046538576 -0.055417966 -0.09222626 -0.019320456 0.055916533 -0.0432039
-0.11045219 -0.084651306 0.08847491 0.014882253 -0.05307757 0.042643793 -0.023288235 0.0686278
0.030030563 0.08778368 -0.13542181 -0.09190274 -0.14368537 -0.28995395 0.027425986 0.024639253
-0.034812227 0.066040725 0.0105335815 -0.14436153 0.009329492 -0.36932105 0.1155361 0.101563774
-0.11049422 -0.06401806 0.0022823245 0.0441736 -0.21707809 -0.027684903 -0.08429624 -0.10470131
-0.2297467 0.010465203 -0.12119768 0.051961582 0.1695802 -0.18626049 -0.051539622 -0.055677984
-0.12396364 0.11988684 -0.055545576 -0.09362722 -0.007201356 0.08752421 -0.12512659 -0.033406354
0.045774344 -0.0945338 -0.15212357 -0.023846695 0.064981505 0.107061334 -0.07000077 0.02765823
-0.13114046 -0.007756724 0.08343298 -0.12770896 0.071291216 0.06942228 -0.13730773 -0.027837943
0.049656052 -0.096400216 0.13670202 -0.124034524 -0.10164625 -0.12252591 -0.1778737 0.14097932
0.06203234 0.024794135 -0.09949573 0.1490557 -0.12783718 0.07446988 0.05751763 0.07044742
0.12299036 0.009818311 -0.008099005 -0.015931414 -0.059932433 0.0013933872 0.12992361 0.017318144
-0.08591705 -0.09665194 -0.043722514 -0.09072475 -0.08535863 0.004392468 -0.012749336 -0.36966777
0.085423015 -0.20083033 -0.17215309 -0.059325624 0.13957363 -0.13380378 0.2173715 0.076503
-0.1171389 0.057372507 -0.073539495 -0.31775185 -0.2481632 0.15271361 0.018648593 0.07306093

lstm2.weight_ih_l0 f4 [128, 128]
00000000: c8ca 8abd 6044 363e 1fe4 05be c741 0abd
00000010: fc20 503d df73 c7bd 76da a2be 56c2 00bd
00000020: 1f0f 01be 96e1 9cbc 26f5 94bd 3045 cd3c
00000030: 8682 47be df88 5fbe 0388 e23d 1509 ccbd
00000040: 1f5c 17be 7ee3 fe3d 7175 c73c c6d2 953b
00000050: 32c6 e23d 396d c1bc 0059 843d d62a 203e
00000060: ce53 4ebd 4edc dcbd a5d2 c33c 14fe 073e
00000070: 9bbe 1a3e 2d5b aa3e be1a 0e3e 4b04 ce3d
00000080: 3590 0e3e 674f 553e 0186 c63d 34fa 2dbe
00000090: 6f17 973d efdd 9c3e 0fe0 703e 0827 40be
000000a0: ab1d 3b3e 6cc3 a7bc 2235 263e e236 243e
000000b0: b77c d5bd 1e30 633e 14e1 dd3c 87f7 00bd
000000c0: 4cb0 42be 3256 dbbd 0333 f73d afd1 d03d
000000d0: 5b2b 12be 9f95 a23d 91ba 15be 4f42 9bbd
000000e0: 47d1 abbb 26ca 593e 4b13 853e 0a5e d9bd
000000f0: 524a b7bd 4dab df3c c3fb 5e3d 7b54 01be
00000100: 263a 92bd 16a7 a9bd fd09 47bd abb7 3bbe
00000110: d9d8 053e 5b1f cabe ac41 cb3c 50cf 0f3e
00000120: 23c5 9bbc 9bfa 3fbe dd48 8bbd 5d37 4b3e
00000130: 83f7 dd3d 377f 273e a3ab a2bd f5b1 c83d
00000140: c81e e5bd 444b 993d 6225 9c3d 4213 90bd
00000150: 490e 013e 99c7 0c3e 742e 06bc 54dd 51be
00000160: 4f77 28be 24ca 66bd b2bc 613e f15a b53d
00000170: 7429 b9bd 203e acbc a504 c8bd 6709 21bd
00000180: a582 ab3e a522 25be 37e1 f9bd 66d8 083e
00000190: a5db 9a3d 64d6 b5bd 9c99 d23d 5011 bf3d
000001a0: 5c6c 23bd 9a12 57be 64d3 4fbd 6567 263d
000001b0: 1bc5 94bc 14c9 2fbc 22a7 54be a09b 003e
000001c0: 8835 15bd 77ff 7f3e 5391 0bbd bfd4 0a3e
000001d0: 6bad 983c 921f cdbc c053 393d 9347 aebd
000001e0: 8ea0 1fbe c662 f1bd a845 e23d 4535 79bd
000001f0: 362e a03b dd0f 2b3e 7067 4bbd 58cc 28be
00000200: 1b13 693e 90eb a03e f7cf 163e 4626 2f3c
00000210: 7846 a43e 5d70 9d3c d8c6 5e3e e4a1 bd3d
00000220: 7763 bd3d 7fe6 6cbe bf33 43be 60d3 44be
00000230: 80d0 adbd c2a7 efbc 7336 1b3c de72 e63d
00000240: 983d aebd dc28 c1bc f800 073e 64d8 89bd
00000250: 1c3d 493e 5ef5 653d 8b42 a6bd 3898 cfbd
00000260: 05c9 423e b328 ac3d 6a19 9b3c 9060 173e
00000270: fb7c 1a3e f08d 39bd 5963 fbbc 0232 0b3e
00000280: 74fc 01be ae02 123e 2f0f 833d 44f0 0cbe
00000290: 81e1 cabc 88fc 93be 5852 7ebe 89a8 d53d
000002a0: d216 a7bd cfe7 a43d ab74 10bc f1d9 183e
000002b0: ee8a 4bbe 0b90 1dbd 7bf4 703c 8193 2e3c
000002c0: 6c6d 4ebe 8018 76be d9c8 853e 8ec8 913e
000002d0: 03bb 563e 0eea c0bd 790e a33d dc60 21bc
000002e0: a80b 7e3e 76a0 25be aa75 84be 0306 ab3d
000002f0: 0bde d83d 158e 6ebd f646 943e d785 773e
00000300: 21d6 433e 6864 663e 1d6a abbc 3163 bf3d
00000310: f505 913e e800 023f f012 96be 374a b1bc
00000320: d0a8 983e 944b 453d 0e21 b6bb e4f6 29bd
00000330: 7834 e03a 71c9 543e 037c 803e fd8d 9cbd
00000340: db7a 673e 3a44 593e 00a7 873e 673c 60be
00000350: ddb0 c2bd a226 6bbe 5396 1fbe b66c 84be
00000360: c6ce e33d f6cc 673d d87d 3b3c 5fa3 923c
00000370: 306c 97be a242 863e 39b4 2bbd 47bf 06bd
00000380: eb44 5ebd 3b0d 1abe bc57 acbd c8aa 59be
00000390: a2cd a5bd 4f50 8d3e f352 10bd 8ecc 28bd
000003a0: fc7d 1e3e 3177 7abd 04e8 07be 64d6 bfbe
000003b0: 76a8 fe3d 86fc 57be 46c5 1dbc 7d63 d13c
000003c0: dbf8 e0bb 95b8 76be 81e3 e9bd 2202 413e
000003d0: 0826 8c3d 50c7 93ba b29f e4bc 5071 b5bd
000003e0: 360a 223e d170 9cbd 5155 7dbe e61a 1bbc
000003f0: c040 a6be 4ea8 5f3f 900c 57be 196d 4c3d
-0.06776959 0.1779952 -0.13075303 -0.033754136 0.050812706 -0.097388975 -0.31807297 -0.031435333
-0.12603424 -0.019150537 -0.07273321 0.025057405 -0.19483384 -0.21829556 0.110610984 -0.0996267
-0.14781235 0.124457344 0.024347993 0.0045722453 0.11072959 -0.023611652 0.06462288 0.1564134
-0.05037289 -0.10784207 0.023904154 0.13280517 0.15111773 0.33272687 0.13877389 0.100594126
0.13922198 0.20831071 0.09693528 -0.16989976 0.073775165 0.30638072 0.23522972 -0.18764889
0.18273036 -0.020478927 0.16231206 0.16036561 -0.10424178 0.22186324 0.027084865 -0.03148606
-0.19012564 -0.107098 0.120702766 0.10196244 -0.14274351 0.07938694 -0.1462195 -0.07581007
-0.0052434537 0.2126852 0.25991282 -0.1061364 -0.08949722 0.027303362 0.054439317 -0.12629883
-0.07139997 -0.08283822 -0.04859351 -0.18331783 0.13071002 -0.39477047 0.024811588 0.14043927
-0.0190149 -0.18747942 -0.06801007 0.19845338 0.10838225 0.16357122 -0.07942893 0.097995676
-0.11187512 0.07485059 0.07624318 -0.07034923 0.12603106 0.13748015 -0.008189786 -0.20494586
-0.16451763 -0.05634512 0.22044638 0.08855236 -0.0904111 -0.021025717 -0.09766511 -0.039315607
0.3349811 -0.16126497 -0.122011594 0.133638 0.07561425 -0.088787824 0.10283205 0.09329474
-0.03989826 -0.2100319 -0.050738707 0.04062595 -0.018160393 -0.010729093 -0.20766881 0.12559366
-0.036428005 0.24999796 -0.03407414 0.13557719 0.01863738 -0.025039468 0.045245886 -0.085097454
-0.1558859 -0.11786418 0.11048442 -0.060841817 0.0048883213 0.1670527 -0.049659193 -0.16484201
0.22761194 0.3142972 0.1472777 0.010690277 0.32085013 0.019218618 0.2175554 0.09259394
0.09247487 -0.23134802 -0.19062708 -0.19221258 -0.08487034 -0.029254798 0.009473431 0.11252378
-0.08507842 -0.023579054 0.13183963 -0.06730726 0.19652218 0.056142204 -0.08118161 -0.10136455
0.19021995 0.084062 0.018933017 0.1478293 0.15086739 -0.045301378 -0.030687021 0.13593295
-0.1269396 0.14258835 0.063993804 -0.13763529 -0.024765732 -0.28903604 -0.24836099 0.10432536
-0.081586495 0.080520265 -0.008816878 0.14926888 -0.19877216 -0.03846745 0.014706726 0.010655285
-0.20158929 -0.24032784 0.26129797 0.28473324 0.20969777 -0.094196424 0.07961745 -0.009849753
0.24809134 -0.16174492 -0.2587102 0.08350756 0.10589226 -0.05824097 0.2896039 0.2417215
0.19124652 0.2249924 -0.020924622 0.09345091 0.28324857 0.5078263 -0.29311323 -0.021641834
0.29816294 0.04816778 -0.0055581396 -0.04149522 0.0017105481 0.20779969 0.25094613 -0.076442696
0.2260546 0.21217433 0.26494598 -0.21898042 -0.0950639 -0.22963956 -0.15584688 -0.2586419
0.11123423 0.05659195 0.011443578 0.017900167 -0.29574728 0.26222712 -0.04191992 -0.03289726
-0.054264944 -0.1504411 -0.084151715 -0.21256554 -0.08095862 0.27600333 -0.035235357 -0.041210704
0.15477747 -0.061148826 -0.132721 -0.37468255 0.12434475 -0.21092424 -0.009629553 0.025560135
-0.0068656034 -0.2409385 -0.11420346 0.1884847 0.068431914 -0.001127461 -0.02790818 -0.08859503
0.15824208 -0.076387055 -0.24739577 -0.009466862 -0.32471275 0.8736619 -0.21000886 0.04990873
