model/models/12h/trained_model.pt (torch, 666885 bytes, 17 tensors)

conv1.weight f4 [48, 5, 5]
-0.09036393 0.1521404 -0.24280049 -0.020955712 -0.16637802 0.161006 0.0026851392 -0.29496115
-0.14523876 -0.285152 0.15847181 0.0633835 -0.062810086 -0.14571646 -0.1598766 -0.10958622
-0.15339836 -0.2777483 -0.10283594 -0.0802202 -0.030992921 0.040750667 0.115437515 0.117478825
0.16792601 0.15681222 0.08007524 0.097799756 -0.049936086 0.056637302 -0.21369246 0.09961371
-0.11675677 -0.16017342 0.13970424 -0.1786861 -0.04166482 -0.012002635 -0.09026525 -0.020173073
-0.03942679 -0.12105123 0.10323533 -0.11331928 -0.051279947 -0.054060847 -0.03030782 -0.1241559
-0.01392588 -0.1512132 0.09348017 0.083852194 0.08674101 -0.02982745 0.044358734 0.036073413
-0.05244772 0.15967023 0.10831122 -0.12308184 0.16441496 0.15338527 -0.006222871 0.07005813
0.13773184 -0.07500328 -0.1486984 0.10881377 -0.0064603556 -0.02356657 0.0617946 -0.023902819
-0.002353316 -0.07335022 0.1419071 0.18575372 0.17329831 0.05152498 0.12049426 -0.13526757
0.026463985 -0.13445985 -0.12609753 0.0591933 0.16863264 0.10961376 -0.18714912 -0.18935148
-0.17941797 -0.12048502 -0.05437474 -0.0945122 -0.12036159 -0.09273317 -0.032561854 -0.03227465
-0.041695476 -0.18698004 0.021063805 0.03974518 -0.18441574 0.031722315 0.11207629 -0.083486095
0.15626903 0.063979015 0.1974208 -0.055153966 0.16288671 0.073749974 0.097262 -0.059412412
0.11116256 0.17871726 0.02523901 -0.12551807 0.14603265 0.1683856 -0.016868055 -0.006984232
-0.23172244 -0.16239524 -0.15569758 -0.21067367 0.049361344 0.018785046 0.111858286 0.1443882
-0.23095517 -0.027203267 0.112593435 0.1039266 -0.08182647 -0.06906425 0.06529331 0.16089472
0.020251019 -0.07727178 -0.13048922 0.14978252 0.1763218 0.12792057 -0.0155383805 -0.12728944
-0.16000123 0.0045557125 -0.15845424 -0.119832605 -0.16746286 0.07002043 0.019137837 0.010032774
0.20188893 0.16346635 -0.10212716 -0.11420362 -0.12957227 0.15810709 0.06660104 -0.15910915
-0.008883442 0.11661492 -0.041732114 0.19435114 0.13322595 -0.017228754 0.11990017 0.0898289
0.08674095 -0.1668521 0.017177077 -0.10649107 0.09115121 0.03294348 -0.11871285 0.09529443
0.09796975 0.13274252 -0.09536971 0.16541477 -0.18828192 0.050573915 -0.05997941 0.14418393
-0.15780051 -0.16353804 0.018606238 -0.13300335 0.010226669 -0.07983428 0.037814066 -0.04804157
-0.08040368 -0.009966315 -0.21634693 0.093950465 -0.1382854 0.11040855 0.14722572 -0.15960538
-0.040905993 0.15078424 0.11693458 0.12175755 0.13239425 -0.055588964 0.07119271 0.07369619
0.065539435 0.14073242 -0.018690867 -0.024886299 0.15719835 0.014492121 -0.016977003 0.037305173
-0.13441141 -0.12903966 0.18145658 -0.07037768 0.06276388 -0.118076175 0.20776995 -0.08801613
0.09135873 0.15486896 -0.080177695 0.14579812 -0.023333646 -0.07186736 0.09363228 0.099456355
0.00539347 0.14030012 -0.06825556 -0.1480272 -0.08336226 0.03228494 0.017356373 -0.08022658
-0.0020962437 0.024494817 0.21819934 0.10456903 -0.12353586 -0.118809484 -0.0534739 -0.18061256
-0.15991598 0.03589859 -0.074216545 -0.15327965 0.12763742 -0.14904346 -0.2047144 0.015013552
00000000: b910 b9bd b1ca 1b3e b1a0 78be 50ab abbc
00000010: 005f 2abe c2de 243e 29f9 2f3b 2605 97be
00000020: 78b9 14be 71ff 91be 6f46 223e 35cf 813d
00000030: 93a2 80bd b236 15be b1b6 23be bd6e e0bd
00000040: 7614 1dbe 0635 8ebe a69b d2bd 7d4a a4bd
00000050: dee4 fdbc 2cea 263d 816a ec3d bd98 f03d
00000060: ccf4 2b3e 6293 203e 7dfe a33d 3d4b c83d
00000070: c889 4cbd 84fc 673d 32d2 5abe 4602 cc3d
00000080: 2c1e efbd 8004 24be a10e 0f3e 7df9 36be
00000090: bba8 2abd b3a6 44bc fddc b8bd 0042 a5bc
000000a0: fc7d 21bd b5e9 f7bd 0b6d d33d f013 e8bd
000000b0: ec0a 52bd e86e 5dbd 1b48 f8bc 7345 febd
000000c0: 6029 64bc a2d7 1abe 8872 bf3d b3ba ab3d
000000d0: 45a5 b13d b258 f4bc 81b1 353d b7c1 133d
000000e0: 6cd3 56bd 9880 233e 46d2 dd3d 5512 fcbd
000000f0: 655c 283e 0711 1d3e 3ae9 cbbb a37a 8f3d
00000100: 9309 0d3e 529b 99bd 6544 18be c1d9 de3d
00000110: 64b1 d3bb ae0e c1bc 561c 7d3d d8cf c3bc
00000120: 173a 1abb a438 96bd 1850 113e 3936 3e3e
00000130: 1d75 313e dc0b 533d b2c5 f63d 9583 0abe
00000140: 00cb d83c d8af 09be b61f 01be ac74 723d
00000150: 09ae 2c3e 2e7d e03d 05a4 3fbe 5be5 41be
00000160: 58b9 37be dac0 f6bd 0cb8 5ebd 9d8f c1bd
00000170: 2380 f6bd e3ea bdbd 945f 05bd 6c32 04bd
00000180: e0c8 2abd b277 3fbe 008e ac3c d8cb 223d
00000190: 7bd7 3cbe 42ef 013d 4188 e53d c2fa aabd
000001a0: fd04 203e 6e07 833d ae28 4a3e 20e9 61bd
000001b0: c6cb 263e 3a0a 973d 4d31 c73d 6e5a 73bd
000001c0: 32a9 e33d a801 373e 0ac2 ce3c cf87 00be
000001d0: 9589 153e 466d 2c3e e02e 8abc fcdb e4bb
000001e0: a648 6dbe f04a 26be 306f 1fbe d7ba 57be
000001f0: 1f2f 4a3d 19e3 993c f515 e53d 80da 133e
00000200: 837f 6cbe 63d9 debc 6397 e63d 78d7 d43d
00000210: a394 a7bd 8f71 8dbd 80b8 853d 96c1 243e
00000220: 77e5 a53c ab40 9ebd f79e 05be 9760 193e
00000230: b48d 343e 9cfd 023e b194 7ebc 2a58 02be
00000240: 5dd7 23be 1648 953b d441 22be cc6a f5bd
00000250: 627b 2bbe df66 8f3d f4c6 9c3c 8160 243c
00000260: f9bb 4e3e b963 273e 0b28 d1bd 96e3 e9bd
00000270: 98ae 04be d3e6 213e 2066 883d 82ed 22be
00000280: db8b 11bc ced3 ee3d 4bef 2abd fc03 473e
00000290: 626c 083e 5123 8dbc 388e f53d 37f8 b73d
000002a0: 3da5 b13d 47db 2abe f1b6 8c3c fd17 dabd
000002b0: 7cad ba3d beef 063d b91f f3bd ba29 c33d
000002c0: 5da4 c83d a8ed 073e 3251 c3bd 7d62 293e
000002d0: facc 40be 9826 4f3d f8ac 75bd f4a4 133e
000002e0: 7596 21be 8476 27be 1c6c 983c 0832 08be
000002f0: c28d 273c 2880 a3bd ece2 1a3d 3dc7 44bd
00000300: afaa a4bd c149 23bc 0d8a 5dbe 1a69 c03d
00000310: b09a 0dbe e11d e23d 57c2 163e 986f 23be
00000320: 0b8d 27bd 2f67 1a3e 667b ef3d 065c f93d
00000330: 5c92 073e 41b1 63bd 7ccd 913d 07ee 963d
00000340: 8a39 863d 291c 103e 971d 99bc 5ade cbbc
00000350: 9bf8 203e 5c70 6d3c 5b13 8bbc 4fcd 183d
00000360: 25a3 09be f922 04be c1cf 393e 2c22 90bd
00000370: 598a 803d ecd1 f1bd a5c1 543e cd41 b4bd
00000380: 491a bb3d f895 1e3e 3434 a4bd 1a4c 153e
00000390: 3426 bfbc 322f 93bd 48c2 bf3d c6af cb3d
000003a0: b5bb b03b d6aa 0f3e 92c9 8bbd 7194 17be
000003b0: d5b9 aabd 373d 043d f42e 8e3c d54d a4bd
000003c0: 2261 09bb 5ba9 c83c a66f 5f3e 4a28 d63d
000003d0: 5e00 fdbd 6352 f3bd 7307 5bbd 80f2 38be
000003e0: 04c1 23be 660a 133d d8fe 97bd 57f5 1cbe
000003f0: 62b3 023e d99e 18be a7a0 51be 67fb 753c

conv1.bias f4 [48]
0.16033036 -0.14862587 -0.11866523 -0.16808978 -0.010498751 -0.3326199 -0.17319022 -0.22941427
-0.17115618 -0.120979644 0.0011302652 0.039444547 0.019944133 0.1498563 -0.16114397 -0.09156254
-0.08510679 0.08118316 0.029747939 0.18876837 0.13159141 0.14776847 -0.14989932 -0.24813657
-0.12494943 0.07971695 0.25363234 -0.20712747 0.10438248 0.22988367 0.2946843 0.02280154
-0.08569399 0.0015405422 -0.23815523 -0.1289719 0.16127647 -0.21179713 0.10651941 -0.03437011
-0.20894155 -0.20428327 -0.045089584 -0.12563822 -0.1887079 -0.1638484 -0.13336119 -0.0700614
00000000: a42d 243e 6131 18be c206 f3bd ba1f 2cbe
00000010: f402 2cbc 284d aabe c758 31be 93eb 6abe
00000020: 9143 2fbe 2dc4 f7bd 6825 943a 9b90 213d
00000030: e161 a33c ee73 193e ed02 25be 2485 bbbd
00000040: 784c aebd 5b43 a63d f3b1 f33c 7f4c 413e
00000050: e6bf 063e 9e50 173e 357f 19be 8317 7ebe
00000060: 7de5 ffbd a442 a33d 19dc 813e 3919 54be
00000070: 7bc6 d53d a066 6b3e dce0 963e 4cca ba3c
00000080: 5580 afbd 05ec c93a f7de 73be 3611 04be
00000090: a925 253e 59e1 58be d926 da3d acc7 0cbd
000000a0: c6f4 55be a22f 51be dbaf 38bd 4ea7 00be
000000b0: a53c 41be e0c7 27be d68f 08be 5a7c 8fbd

conv2.weight f4 [96, 48, 5]
-0.013352436 -0.03834253 -0.104642965 -0.09241867 -0.045390945 -0.060972035 -0.0040478073 0.018965892
-0.050599683 0.063527495 0.0076436168 -0.08633036 -0.07068186 -0.07523626 -0.079209484 0.027888365
-0.052269287 -0.014658179 -0.021467369 0.06346748 -0.03174285 -0.022554463 0.0067937924 -0.020507906
0.021130266 -0.04951841 0.0043145833 -0.06277512 -0.05694527 0.023185503 0.029914211 -0.09228972
0.0017456 -0.048625696 -0.03927226 -0.061311156 0.07310174 -0.043250438 0.034489393 0.041773647
0.03544424 -0.07326001 0.007045645 -0.000625088 0.011772296 -0.08399395 0.0044838875 -0.022833416
0.006112794 0.0046778396 -0.038737558 -0.0254537 -0.043765664 -0.0043920754 0.010009248 -0.049929492
0.008893211 -0.013850737 -0.022268994 0.021491954 -0.044358525 -0.072111316 -0.03990089 -0.06034783
-0.007138418 -0.051609352 -0.003494782 -0.028665135 -0.08728085 -0.050347988 0.03275294 -0.024001084
-0.063632965 -0.03565917 0.042074643 -0.033967637 -0.06548447 -0.060630582 -0.09530675 -0.015919268
0.022381902 0.03175058 0.0344102 0.027523026 -0.02951264 -0.103048444 -0.10001125 -0.048451766
0.0023837697 -0.034019835 -0.057376165 -0.090174966 -0.061691534 -0.018197358 -0.028327383 0.0026626699
-0.04723974 -0.0026897534 -0.013514865 -0.05591039 -0.0805059 -0.0005883972 -0.0073500155 -0.05809531
-0.040708125 0.003096479 0.0022467498 0.029398678 -0.07072865 -0.013137979 0.055656947 -0.029126357
-0.046059377 -0.04373914 0.031606577 0.049981967 -0.049760558 0.059472643 -0.017378438 -0.02145233
-0.040989768 -0.071313195 -0.07640559 0.012683351 -0.08380428 -0.09696643 -0.09075092 -0.024908686
0.015709465 0.0077405646 0.030897498 -0.024444954 -0.07987786 -0.015668536 -0.040136565 0.012766165
0.0088477265 0.00499321 0.06106917 0.07046948 -0.062136937 -0.0385059 -0.0477203 -0.0064051305
-0.039568305 -0.0636484 -0.014433386 -0.026424084 0.020077651 -0.076149814 -0.04427434 -0.041059338
-0.10420866 0.013016064 -0.006564233 -0.033223726 0.027948678 -0.048287727 -0.048869524 0.05987192
0.016084798 -0.070752025 -0.06699825 0.014809597 -0.059591964 0.020510286 -0.07731096 -0.015603123
-0.08648085 -0.087660685 0.0005472379 -0.060295496 -0.08569168 -0.062343933 0.00078278326 0.01910902
-0.019796334 -0.09200118 -0.08954276 0.030371007 0.026434617 0.0035686207 0.017976986 -0.013627511
-0.07241849 -0.022358548 -0.055483498 -0.04190593 -0.036786795 0.07789508 -0.043735582 -0.017303435
-0.0056142565 -0.06372329 -0.00092207605 0.040576443 0.020537026 0.022658408 -0.0045178607 -0.062543795
-0.06328806 -0.026776467 0.059623368 0.030089632 0.05972454 0.016617779 0.006026457 -0.023643715
0.05124841 0.019444836 0.043318916 -0.0230507 0.0019170502 0.031727385 -0.037860837 0.047897674
-0.03606843 -0.031832743 -0.03710405 0.023120532 -0.058410574 0.031999227 0.07053301 -0.061374296
0.0036447342 -0.095211826 -0.0574303 -0.045573924 -0.008173603 0.028183844 -0.034289423 0.038068254
-0.046562165 -0.04656023 -0.0111595085 -0.033022325 0.0028502184 -0.033616703 0.06820662 -0.054769967
-0.10359099 -0.061928112 -0.00077127013 0.007331167 0.0102595845 -0.009491246 0.007671654 0.061149083
0.017333664 -0.015307657 0.026526626 0.10836321 0.075229816 -0.10230213 -0.07017396 0.059345134
00000000: 2dc4 5abc 0f0d 1dbd 0d4f d6bd 0046 bdbd
00000010: dbeb 39bd d0bd 79bd 78a3 84bb 5c5e 9b3c
00000020: 9d41 4fbd b41a 823d 4e77 fa3b f9cd b0bd
00000030: a7c1 90bd 7815 9abd 9538 a2bd 2476 e43c
00000040: 5218 56bd dc28 70bc 56dc afbc 3dfb 813d
00000050: ca04 02bd 23c4 b8bc 769e de3b 3200 a8bc
00000060: 6119 ad3c d1d3 4abd 5961 8d3b 3e90 80bd
00000070: 723f 69bd 86ef bd3c a60e f53c 6502 bdbd
00000080: 9ecc e43a bd2b 47bd f3db 20bd 6821 7bbd
00000090: 5db6 953d 5f27 31bd c044 0d3d d81a 2b3d
000000a0: fb2d 113d 5809 96bd 27df e63b f2dc 23ba
000000b0: 97e0 403c 0505 acbd 93ed 923b 250d bbbc
000000c0: d54d c83b 9048 993b 46ab 1ebd 4784 d0bc
000000d0: a043 33bd 66eb 8fbb d4fd 233c de82 4cbd
000000e0: d5b4 113c 34ee 62bc 776d b6bc e50f b03c
000000f0: 49b1 35bd 19af 93bd 1e6f 23bd 492f 77bd
00000100: 64e9 e9bb 5464 53bd b608 65bb 25d3 eabc
00000110: 4dc0 b2bd b139 4ebd f227 063d ec9d c4bc
00000120: 0052 82bd 5a0f 12bd 7656 2c3d a621 0bbd
00000130: b91c 86bd c657 78bd 2f30 c3bd 2069 82bc
00000140: 405a b73c e50c 023d b6f1 0c3d f877 e13c
00000150: 7ec4 f1bc 100b d3bd b3d2 ccbd 5c75 46bd
00000160: 0539 1c3b 6258 0bbd 4503 6bbd a7ad b8bd
00000170: 43b0 7cbd a012 95bc d40e e8bc 3080 2e3b
00000180: 757e 41bd 9346 30bb 746d 5dbc 4b02 65bd
00000190: 47e0 a4bd ab3e 1aba 66d8 f0bb 59f5 6dbd
000001a0: 90bd 26bd 4cee 4a3b 353e 133b 7fd5 f03c
000001b0: 2fda 90bd ae40 57bc 8af8 633d 669a eebc
000001c0: c2a8 3cbd d027 33bd e675 013d e4b9 4c3d
000001d0: bad1 4bbd 9699 733d 3a5d 8ebc ccbc afbc
000001e0: e3e4 27bd a70c 92bd 897a 9cbd d4cd 4f3c
000001f0: 94a1 abbd 5696 c6bd 9edb b9bd 4d0d ccbc
00000200: 23b1 803c 90a4 fd3b c01c fd3c c940 c8bc
00000210: 0197 a3bd 4d5b 80bc 3d66 24bd 2d29 513c
00000220: 0ef6 103c 159e a33b aa23 7a3d 4d52 903d
00000230: 4d83 7ebd 5db8 1dbd 5c76 43bd 21e2 d1bb
00000240: 6012 22bd 185a 82bd 027a 6cbc 5277 d8bc
00000250: e379 a43c 6ff4 9bbd 0359 35bd d62d 28bd
00000260: 5a6b d5bd 5441 553c c718 d7bb 9a15 08bd
00000270: a0f4 e43c 5ac9 45bd 692b 48bd 423c 753d
00000280: 44c4 833c 70e6 90bd 6136 89bd f4a3 723c
00000290: b416 74bd 3005 a83c 3555 9ebd 3ea4 7fbc
000002a0: df1c b1bd 7287 b3bd 8474 0f3a 69f8 76bd
000002b0: 1f7f afbd 5a5c 7fbd b233 4d3a 858a 9c3c
000002c0: ec2b a2bc 1d6b bcbd 3262 b7bd 9ecc f83c
000002d0: 698d d83c 85df 693b 7944 933c ed45 5fbc
000002e0: 2550 94bd 4629 b7bc aa42 63bd 8da5 2bbd
000002f0: c0ad 16bd 7587 9f3d 1524 33bd efbf 8dbc
00000300: ccf7 b7bb 5b81 82bd 7ab7 71ba 7c33 263d
00000310: 443d a83c 209e b93c 900a 94bb f616 80bd
00000320: 2c9d 81bd 525a dbbc a237 743d 887e f63c
00000330: b8a1 743d 0222 883c 9679 c53b 77b0 c1bc
00000340: dae9 513d c74a 9f3c 2d6f 313d d2d4 bcbc
00000350: 8845 fb3a 93f4 013d f713 1bbd 5a30 443d
00000360: 7dbc 13bd 0d63 02bd 6bfa 17bd 4567 bd3c
00000370: ed3f 6fbd 9f11 033d 9c73 903d 9d63 7bbd
00000380: 7edc 6e3b 6bfe c2bd 093c 6bbd b9ab 3abd
00000390: 93ea 05bc cee1 e63c 1173 0cbd 75ed 1b3d
000003a0: f8b7 3ebd f1b5 3ebd 5fd6 36bc 6b42 07bd
000003b0: bbca 3a3b abb1 09bd eaaf 8b3d 7956 60bd
000003c0: 8327 d4bd 55a8 7dbd 102f 4aba 493a f03b
000003d0: d117 283c 2c81 1bbc 8062 fb3b 7677 7a3d
000003e0: 54ff 8d3c f8cc 7abc 5e4e d93c 88ed dd3d
000003f0: 1712 9a3d c783 d1bd 5db7 8fbd e213 733d

conv2.bias f4 [96]
0.0059419074 -0.16252929 -0.06496225 -0.13630101 -0.051387757 -0.10783937 -0.07321 -0.10180852
-0.08651011 -0.06029432 -0.13214278 -0.084696405 0.05637869 -0.060407896 -0.07165061 -0.027283981
0.016933238 -0.034208022 -0.022789441 -0.06771379 -0.081634924 -0.1046314 -0.047918405 -0.10430002
-0.10462104 -0.06923193 -0.16402666 -0.02975028 -0.14142248 0.011267217 -0.06763988 -0.052816052
-0.032754906 -0.092443064 -0.08754187 -0.14696509 -0.12967752 -0.14090507 -0.12140485 0.008855371
0.024551678 -0.105407506 -0.09381335 0.003312867 -0.13678156 -0.028205996 -0.08464752 -0.066286996
-0.07552217 0.12493565 -0.04942349 -0.1364152 -0.12702401 -0.100359276 -0.13331254 -0.08428482
-0.017060438 -0.03245231 -0.058089934 -0.12054914 -0.082260706 -0.1196089 -0.09302781 -0.11141402
-0.114039496 -0.09785265 -0.01804354 -0.026884604 -0.016572006 -0.041238315 -0.06812313 0.024725163
-0.008564889 -0.13253775 0.008399229 -0.084107526 -0.06339848 -0.13841078 -0.09809098 -0.0744193
-0.11244687 -0.1294511 -0.004268884 -0.08422975 -0.15461107 0.040792584 -0.14440002 -0.10149172
-0.12934653 -0.12803143 -0.08221549 -0.13397823 -0.0684884 -0.07217322 -0.05011071 -0.1030503
00000000: 55b4 c23b 146e 26be ee0a 85bd 7e92 0bbe
00000010: f87b 52bd e3da dcbd 20ef 95bd fc80 d0bd
00000020: 362c b1bd 2df7 76bd 7050 07be 4f75 adbd
00000030: 57ed 663d 456e 77bd 8ebd 92bd a882 dfbc
00000040: 93b7 8a3c b61d 0cbd ecb0 babc 87ad 8abd
00000050: 3630 a7bd fd48 d6bd 1746 44bd 409b d5bd
00000060: 8e43 d6bd 78c9 8dbd 9bf6 27be dcb6 f3bc
00000070: 0ed1 10be 229a 383c c786 8abd a555 58bd
00000080: 022a 06bd ca52 bdbd 2749 b3bd 047e 16be
00000090: 2fca 04be 6b49 10be 1ba3 f8bd 1e16 113c
000000a0: 9a20 c93c e4df d7bd 3721 c0bd af1c 593b
000000b0: 7710 0cbe 4310 e7bc ae5b adbd 7ac1 87bd
000000c0: 5eab 9abd 43de ff3d 4970 4abd 6db0 0bbe
000000d0: 9512 02be 2a89 cdbd 1583 08be 859d acbd
000000e0: 55c2 8bbc b7ec 04bd b6ef 6dbd 78e2 f6bd
000000f0: 4d78 a8bd 83f5 f4bd 5d85 bebd 092d e4bd
00000100: 8a8d e9bd f866 c8bd 0cd0 93bc 1a3d dcbc
00000110: 04c2 87bc 82e9 28bd 2484 8bbd 6d8c ca3c
00000120: c053 0cbc fab7 07be eb9c 093c 9140 acbd
00000130: 10d7 81bd 8ebb 0dbe ece3 c8bd 2569 98bd
00000140: 8b4a e6bd d48e 04be ffe1 8bbb a680 acbd
00000150: 5d52 1ebe 2016 273d 99dd 13be e4da cfbd
00000160: 6b73 04be ac1a 03be 9860 a8bd 9731 09be
00000170: a543 8cbd 8ecf 93bd e340 4dbd 090c d3bd

lstm1.weight_ih_l0 f4 [512, 96]
-0.0025408263 0.025076482 -0.050145246 0.031337097 0.09386261 -0.049056686 0.006274238 0.048650898
0.04327525 -0.08861843 0.106488585 -0.00860754 -0.035697464 0.09314348 0.07866567 0.039727785
-0.008258507 0.114254735 0.03370861 -0.0021574462 -0.05445628 -0.066163436 -0.12056872 -0.04659367
-0.049796928 -0.092333056 0.03729033 0.044796687 0.062362935 -0.09574634 -0.046555027 0.018563764
-0.31595045 -0.043073118 0.005186844 0.099460065 -0.062073108 0.07250892 0.06624998 -0.051547505
-0.2128479 0.0041497196 -0.17060088 -0.09653237 -0.0006146629 -0.059656285 0.0045835124 0.041713323
-0.09868876 -0.13747497 0.014984903 0.107424974 0.03128813 -0.05810582 -0.0050374973 0.023254992
-0.04585707 0.090178914 -0.059694882 -0.026831862 0.042090073 0.040568974 0.041606847 -0.047818683
0.05344564 0.03188399 -0.046299838 -0.0606306 -0.09887734 0.010766377 0.035716016 -0.004151724
0.09412527 0.07065473 0.01688579 -0.0012752938 -0.06307086 -0.08265727 -0.043533824 -0.105822
0.034267943 -0.039888676 0.016697908 -0.008102822 0.13056333 -0.25764018 0.010569792 0.092773184
0.012218201 -0.101059966 -0.014932449 -0.04884915 -0.019802015 -0.049641583 0.03426084 0.04484629
-0.089354075 0.2314058 0.03318553 0.048064653 -0.0059059616 0.06537637 0.031306475 0.054378513
0.022016145 -0.048689347 0.0022176001 -0.01340192 0.027725935 0.03884198 0.06593873 -0.0041438546
0.019769987 -0.020199621 -0.040210236 0.042973846 0.0060707405 0.11372981 0.0026209953 0.102599554
0.108779855 -0.06588795 0.07491507 0.027216818 0.11271165 0.04396816 0.1283075 -0.025953857
0.15549529 -0.023925558 0.022709569 0.006972574 -0.008638765 0.14632878 0.09891321 -0.09272785
0.11937914 -0.017279292 -0.10430243 -0.07357748 0.05744972 -0.029451486 0.10002004 0.06478576
0.02675322 0.11510467 0.100791804 -0.04372545 0.040517006 0.052134424 0.09362735 -0.048628833
0.023286246 0.07665569 0.08659765 -0.014093186 0.023196284 0.026329486 -0.039580144 0.024914352
0.014734417 0.15704091 0.05291458 -0.07882245 -0.034983084 -0.07611906 -0.0015158006 0.04876816
0.11950669 0.10708528 0.028479444 0.027975695 0.039279014 -0.014857985 0.057931166 -0.0120191695
0.13249336 -0.04183972 -0.0332211 0.1057169 -0.024427487 0.06432257 -0.02794046 0.12919533
0.110203095 0.06166456 0.08955448 0.09231552 0.18648496 0.09703877 0.045341443 0.04962968
0.028373253 -0.09578828 -0.05290318 0.05191949 -0.034083348 -0.19913404 -0.05009906 -0.099499606
-0.046867184 -0.060704518 -0.14356887 -0.08721249 -0.042651825 -0.11090191 0.054319374 -0.13486362
-0.111874714 -0.16607256 -0.091709435 0.03439525 -0.12630197 -0.105655245 -0.0015085832 -0.021749495
0.0016134786 0.065463826 -0.1313231 -0.0047905715 -0.007860555 -0.01698173 -0.09620679 0.0132121965
0.074136704 -0.026369281 -0.10878654 0.009265357 0.010122959 -0.062631726 -0.16943756 0.09102149
0.101901434 -0.060238015 0.06561998 -0.06751105 -0.10555959 -0.122784205 -0.13914064 -0.03023695
-0.15823603 0.007387478 -0.057111017 -0.011726021 -0.13808885 -0.022784255 -0.058081668 0.024931896
-0.04306538 -0.01958946 -0.015399445 -0.083924115 -0.09456054 0.0010476471 -0.091553435 0.02093985
00000000: fe83 26bb 326d cd3c 1a65 4dbd 545b 003d
00000010: 0a3b c03d aaef 48bd 2098 cd3b 2a46 473d
00000020: 6341 313d 947d b5bd b016 da3d a406 0dbc
00000030: 8137 12bd 02c2 be3d 771b a13d 9ab9 223d
00000040: b04e 07bc 63fe e93d 0a12 0a3d f163 0dbb
00000050: 8c0d 5fbd b280 87bd bcec f6bd 01d9 3ebd
00000060: ddf7 4bbd 1d19 bdbd bfbd 183d bb7c 373d
00000070: 4770 7f3d a816 c4bd 7cb0 3ebd 0913 983c
00000080: 42c4 a1be 706d 30bd 67f6 a93b b8b1 cb3d
00000090: 5f40 7ebd 8f7f 943d 12ae 873d 7a23 53bd
000000a0: cdf4 59be 5ffa 873b ffb1 2ebe c3b2 c5bd
000000b0: 5421 21ba 265a 74bd 4a31 963b 97db 2a3d
000000c0: 551d cabd 3dc6 0cbe 3d83 753c a001 dc3d
000000d0: fb27 003d 5e00 6ebd 9711 a5bb 4181 be3c
000000e0: 9fd4 3bbd b9af b83d 9f82 74bd 7ece dbbc
000000f0: a466 2c3d a72b 263d f16b 2a3d 86dd 43bd
00000100: d1e9 5a3d c998 023d e6a4 3dbd cb57 78bd
00000110: 3480 cabd 7565 303c f54a 123d 2f0b 88bb
00000120: c0c4 c03d 6db3 903d 1154 8a3c c227 a7ba
00000130: 4c2b 81bd 3748 a9bd 8650 32bd 34b9 d8bd
00000140: 8b5c 0c3d 4f62 23bd 0dca 883c b3c1 04bc
00000150: 65b2 053e 6ae9 83be ec2c 2d3c deff bd3d
00000160: d92e 483c 87f8 cebd 3ba7 74bc 0c16 48bd
00000170: d637 a2bc f954 4bbd 1855 0c3d beb0 373d
00000180: 45ff b6bd a4f5 6c3e 8ded 073d 71df 443d
00000190: cc86 c1bb 0ce4 853d 383b 003d 01bc 5e3d
000001a0: 345b b43c 7b6e 47bd 2855 113b ba93 5bbc
000001b0: 8021 e33c c518 1f3d e30a 873d 2cc9 87bb
000001c0: abf4 a13c ad79 a5bc 7db3 24bd 5805 303d
000001d0: 10ed c63b 2deb e83d 01c5 2b3b b71f d23d
000001e0: f9c7 de3d 43f0 86bd 126d 993d cef5 de3c
000001f0: 5ed5 e63d f517 343d 0b63 033e 2f9d d4bc
00000200: 283a 1f3e 88ff c3bc 6b09 ba3c 317a e43b
00000210: 9b89 0dbc 36d7 153e 0293 ca3d 19e8 bdbd
00000220: 0d7d f43d 4d8d 8dbc 839c d5bd caaf 96bd
00000230: 6650 6b3d 3e44 f1bc 4fd7 cc3d 66ae 843d
00000240: 9229 db3c ffbb eb3d ef6b ce3d 7519 33bd
00000250: 29f5 253d e88a 553d b2bf bf3d 072f 47bd
00000260: ccc2 be3c a9fd 9c3d 1c5a b13d 1be7 66bc
00000270: 2206 be3c efb0 d73c ca1e 22bd 2f19 cc3c
00000280: a068 713c 55cf 203e f5bc 583d aa6d a1bd
00000290: 6c4a 0fbd 4fe4 9bbd d4ad c6ba 1fc1 473d
000002a0: ecbf f43d 874f db3d b94d e93c 492d e53c
000002b0: 08e3 203d e86e 73bc 3b49 6d3d 0dec 44bc
000002c0: 57ac 073e 2060 2bbd d912 08bd 1a82 d83d
000002d0: 271c c8bc 8dbb 833d 64e3 e4bc c84b 043e
000002e0: 29b2 e13d fa93 7c3d 5768 b73d eb0f bd3d
000002f0: eaf5 3e3e 43bc c63d f3b7 393d 7e48 4b3d
00000300: 066f e83c a52c c4bd 01b1 58bd 88a9 543d
00000310: fb9a 0bbd cbe9 4bbe ac34 4dbd 73c6 cbbd
00000320: cef7 3fbd 4da5 78bd b803 13be 769c b2bd
00000330: aeb3 2ebd 8a20 e3bd fe7d 5e3d b019 0abe
00000340: 921e e5bd ed0e 2abe 28d2 bbbd 09e2 0c3d
00000350: 4e55 01be c761 d8bd a7bb c5ba ff2b b2bc
00000360: 5c7b d33a e611 863d 9079 06be 3afa 9cbb
00000370: 8fc9 00bc 451d 8bbc 1108 c5bd f877 583c
00000380: fcd4 973d 6404 d8bc 7acb debd b9cd 173c
00000390: c4da 253c 1045 80bd 0a81 2dbe 7a69 ba3d
000003a0: b3b1 d03d 23bc 76bd c563 863d 3c43 8abd
000003b0: a02f d8bd 4976 fbbd e27a 0ebe 7bb3 f7bc
000003c0: a008 22be a812 f23b 3eed 69bd 7f1e 40bc
000003d0: 2a67 0dbe 0ca6 babc 0be7 6dbd fa3d cc3c
000003e0: 5365 30bd 137a a0bc f44d 7cbc 68e0 abbd
000003f0: f5a8 c1bd 3451 893a 5e80 bbbd 0c8a ab3c

lstm1.weight_hh_l0 f4 [512, 128]
0.016471362 0.09107745 0.10420907 -0.061815288 0.12962513 0.075037755 -0.10259665 0.005619768
-0.1064876 -0.0023078113 0.02010043 0.015351968 0.056309223 0.03358739 0.051922437 0.083437696
-0.06953567 -0.03338051 -0.050400943 -0.021985117 -0.04452078 0.15387654 0.111864954 -0.16472143
0.036334082 -0.08103907 0.16558419 0.051168792 0.046554152 -0.07266456 0.111419216 0.011993541
-0.15626903 -0.12984617 -0.024018776 0.112813346 -0.051774226 -0.10174279 -0.062117577 0.039601646
0.07361448 -0.06732456 -0.103242286 -0.13859987 -0.0663408 -0.23186174 -0.17225529 0.014938924
0.02916342 0.046224058 0.07908348 0.18318935 -0.08007715 0.024757247 -0.05889641 0.0064403364
0.1082754 -0.136164 -0.16323528 -0.04829766 0.031363066 -0.01815933 -0.10800319 0.016230747
-0.03677652 0.0034148009 0.059548836 0.07854103 -0.053270057 0.072458886 -0.028446691 0.02985562
-0.13683772 -0.102500126 -0.06264063 0.17997395 0.06914043 -0.03307126 -0.08003355 -0.038289383
-0.057668336 -0.14670146 -0.058865704 0.020387307 0.09805563 0.059974365 0.094945066 -0.16829413
0.053598054 0.06383281 -0.04758713 -0.091564335 0.07854299 0.025305165 -0.021589715 -0.046252657
-0.02606359 -0.009063134 0.09711952 -0.028610643 -0.048263773 -0.04500326 0.07229446 0.02922897
0.0066073253 -0.07283667 0.061474007 -0.17174469 0.13518569 -0.07983225 0.0046108044 -0.1297162
0.07272603 -0.05163526 0.06936603 -0.02365623 -0.00030917366 0.010877866 -0.007797891 -0.04868396
0.08796576 -0.16638732 -0.094781354 0.050148074 -0.09349733 -0.0004131229 0.013515612 0.013400978
-0.014826831 -0.07009486 0.1432415 -0.09905038 0.044625808 0.008782309 0.045607746 0.026913026
0.01163683 0.061627157 0.06053572 -0.04968886 -0.04398633 0.03298839 -0.070827186 0.008227908
0.05360182 0.0040537054 0.05722774 -0.061248533 0.010889624 -0.05103668 0.08208732 0.1479453
0.06995616 -0.037591845 -0.13030487 -0.025410054 -0.0888592 -0.15886673 -0.086681135 0.087757334
0.06577854 -0.059588745 -0.03730547 0.00029130274 -0.06138418 -0.07724182 0.027155085 0.07054041
0.049291223 -0.0051416 -0.09159198 0.07853643 0.08232993 0.117834 0.10033725 -0.11530087
0.0064792205 0.036246505 0.02133908 -0.013156563 -0.037523862 -0.065077655 -0.038523942 -0.048963293
0.03762564 -0.078176014 -0.015474761 -0.04396844 0.018517502 -0.06809127 -0.04186061 -0.0033921022
-0.01762641 0.09567248 -0.07597411 0.004460525 0.10746418 -0.015199529 0.030515924 -0.014648285
0.102689035 0.030580616 -0.010947331 0.076758265 -0.07256491 0.015045352 -0.04574031 0.037996054
0.0051769135 -0.02909062 0.0870283 0.0053008106 -0.022764377 -0.030112896 -0.051322702 0.10589211
0.023511155 0.07887534 0.04253166 0.11191175 0.08051958 0.01059749 0.011712183 0.07595568
-0.041916642 -0.026426427 0.049418848 -0.027687082 -0.09323791 0.014049508 -0.02099135 -0.049871814
0.10544851 -0.014127813 -0.059326902 -0.035566367 -0.04634328 -0.013428194 0.13861473 -0.030249901
-0.052836396 -0.06619986 0.018694757 0.030331435 -0.04679075 -0.046402268 0.009934014 -0.10210603
-0.092825405 -0.076541685 0.032283954 -0.04359646 0.09532459 0.01118579 0.015896074 -0.0085184565
00000000: f3ee 863c d086 ba3d 916b d53d 0732 7dbd
00000010: 73bc 043e 65ad 993d 311e d2bd 0826 b83b
00000020: 2c16 dabd a63e 17bb a8a9 a43c d286 7b3c
00000030: 80a4 663d ee92 093d 9fac 543d 62e1 aa3d
00000040: b868 8ebd 00ba 08bd 3871 4ebd 221a b4bc
00000050: 6c5b 36bd d091 1d3e 7419 e53d bcac 28be
00000060: 0cd3 143d d0f7 a5bd e78e 293e 5e96 513d
00000070: 91af 3e3d 28d1 94bd c22f e43d 8f80 443c
00000080: fd04 20be 65f6 04be 06c3 c4bc af0a e73d
00000090: 3611 54bd 865e d0bd 006f 7ebd 5635 223d
000000a0: 30c3 963d 75e1 89bd b170 d3bd 20ed 0dbe
000000b0: afdd 87bd 2a6d 6dbe b163 30be 64c2 743c
000000c0: 20e8 ee3c 7055 3d3d 85f6 a13d fd95 3b3e
000000d0: 7dff a3bd b6cf ca3c 5d3d 71bd 7509 d33b
000000e0: 7ebf dd3d 936e 0bbe 2627 27be c4d3 45bd
000000f0: 8f76 003d e0c2 94bc c730 ddbd 58f6 843c
00000100: faa2 16bd daca 5f3b 7be9 733d 1fda a03d
00000110: b431 5abd 5365 943d 0909 e9bc c693 f43c
00000120: 301f 0cbe 96eb d1bd bb49 80bd 174b 383e
00000130: 7f99 8d3d bb75 07bd a1e8 a3bd 54d5 1cbd
00000140: a235 6cbd e838 16be 2a1d 71bd 4803 a73c
00000150: 64d1 c83d aea7 753d 8f72 c23d 4c55 2cbe
00000160: a289 5b3d c7ba 823d b9ea 42bd 1586 bbbd
00000170: 26db a03d c74c cf3c eadc b0bc 6d73 3dbd
00000180: 4f83 d5bc 8a7d 14bc 99e6 c63d de60 eabc
00000190: 3cb0 45bd 5755 38bd 1e0f 943d 9871 ef3c
000001a0: 4382 d83b 642b 95bd 2bcc 7b3d d7dd 2fbe
000001b0: 1e6e 0a3e 177f a3bd 3b16 973b 53d4 04be
000001c0: 63f1 943d 7f7f 53bd c70f 8e3d b6ca c1bc
000001d0: 9618 a2b9 1439 323c 7385 ffbb d568 47bd
000001e0: 6427 b43d 7061 2abe ba1c c2bd 1168 4d3d
000001f0: 877b bfbd 6b98 d8b9 9670 5d3c c78f 5b3c
00000200: 3dec 72bc e58d 8fbd e6ad 123e edda cabd
00000210: 8dc9 363d ace3 0f3c 30cf 3a3d b578 dc3c
00000220: 67a8 3e3c c26c 7c3d 4ef4 773d 8c86 4bbd
00000230: 032b 34bd d61e 073d d80d 91bd 59ce 063c
00000240: 958d 5b3d f2d4 843b a267 6a3d bedf 7abd
00000250: 656a 323c d60b 51bd 661d a83d f97e 173e
00000260: 2d45 8f3d e8f9 19bd a46e 05be bf28 d0bc
00000270: d0fb b5bd f6ad 22be e185 b1bd 1eba b33d
00000280: e6b6 863d 5413 74bd 9fcd 18bd feb9 9839
00000290: fa6d 7bbd f630 9ebd 5774 de3c 7e77 903d
000002a0: 98e5 493d de7a a8bb 9394 bbbd b5d7 a03d
000002b0: 989c a83d f452 f13d 9e7d cd3d dd22 ecbd
000002c0: a44f d43b 3777 143d 4bcf ae3c a08e 57bc
000002d0: 9fb2 19bd 6f47 85bd 48cb 1dbd bc8d 48bd
000002e0: 581d 1a3d bf1a a0bd da89 7dbc 4018 34bd
000002f0: 04b2 973c 7073 8bbd 0876 2bbd 084e 5ebb
00000300: 4365 90bc efef c33d 5098 9bbd 9829 923b
00000310: 2e16 dc3d 7207 79bc 88fc f93c 5cff 6fbc
00000320: a14e d23d 3384 fa3c 6f5c 33bc 7033 9d3d
00000330: e99c 94bd c880 763c 315a 3bbd c0a1 1b3d
00000340: 19a3 a93b 744f eebc e53b b23d 6cb2 ad3b
00000350: 5c7c babc 52af f6bc c137 52bd f6dd d83d
00000360: 779a c03c 6589 a13d ae35 2e3d fd31 e53d
00000370: 73e7 a43d 18a1 2d3c 75e4 3f3c a78e 9b3d
00000380: c9b0 2bbd 3c7c d8bc 6b6b 4a3d 05d0 e2bc
00000390: 84f3 bebd e82f 663c 0df6 abbc 6346 4cbd
000003a0: 63f5 d73d 5878 67bc c400 73bd 0aae 11bd
000003b0: 73d2 3dbd ee01 5cbc 05f1 0d3e a4ce f7bc
000003c0: fa6a 58bd cb93 87bd bf25 993c a179 f83c
000003d0: a8a7 3fbd 4e10 3ebd 46c2 223c f71c d1bd
000003e0: 3f1b bebd e3c1 9cbd 2e3c 043d 3492 32bd
000003f0: 8a39 c33d 9b44 373c 7c38 823c ff90 0bbc

lstm1.bias_ih_l0 f4 [512]
0.03444719 0.00018931726 -0.10783037 -0.1316395 0.05047195 -0.008553424 -0.09969574 -0.0061067347
-0.032434322 -0.12822123 -0.09326548 -0.07587683 0.001964944 -0.055027835 0.017963883 -0.13491744
-0.1490485 -0.030355345 -0.24369043 -0.0015754042 -0.14496717 -0.050610173 0.054226134 -0.060320973
-0.1715261 -0.12052814 -0.10959917 -0.11264384 -0.07817498 -0.10164976 -0.09326729 -0.05672499
-0.10898527 -0.01998183 0.024384532 -0.0063481317 -0.1593329 -0.0024402665 0.001314532 -0.11689481
0.0024555086 0.0032489556 0.049416494 -0.07173914 0.0472423 -0.05003189 -0.17188737 0.021125954
-0.04311303 -0.019435309 -0.061892882 -0.116841726 -0.09195752 -0.13806249 -0.08940759 -0.12574592
-0.124771975 -0.062387656 -0.048325013 -0.1488449 -0.11014296 -0.042196345 -0.039044302 -0.056276307
0.019267479 -0.04738303 -0.017921416 -0.16577631 -0.008649356 -0.15602057 -0.109600276 -0.07254186
-0.10183473 -0.08064446 -0.15757225 0.0028628616 -0.07224177 0.022832273 -0.03153669 0.011457193
-0.124413095 -0.0492099 -0.013547743 0.05557017 -0.024743604 -0.06866748 -0.12672351 0.069223635
-0.13532665 -0.13988784 -0.09179064 -0.0692581 0.00926867 -0.09089987 0.0014932879 0.007156432
-0.16036521 -0.11994514 -0.06844204 -0.043114964 -0.046327665 -0.0799267 -0.07884541 -0.06654184
-0.1055286 0.019179875 -0.11721142 -0.0021548276 -0.1226289 -0.022249408 -0.055637654 -0.028567191
-0.0040945862 -0.17063726 -0.058092333 -0.08596865 -0.11813769 -0.009569379 -0.07088155 -0.034146637
-0.02708769 0.039376818 0.010713276 -0.08943263 -0.03895406 -0.10917552 -0.1251449 -0.038725946
0.068385586 -0.020074716 -0.07971246 -0.06134373 -0.04089621 -0.119846836 0.015595262 -0.024839088
-0.13897233 -0.039353848 0.014059949 -0.117030896 -0.12283608 0.026534101 -0.100215964 -0.0243565
-0.13808884 -0.047707662 -0.19632222 -0.10725751 -0.10125364 -0.092457354 -0.14509854 -0.044268996
-0.13785459 -0.027618598 -0.061724395 -0.012249768 -0.05777122 -0.04512353 -0.146624 -0.011638751
-0.11886833 -0.16530336 -0.051647488 0.010803584 -0.24678096 0.006627171 -0.1511934 -0.10177045
-0.05253133 -0.14383866 -0.16018678 -0.13898122 0.0027780384 -0.11641846 -0.25271183 -0.016574787
-0.037026536 -0.18322116 -0.017218804 -0.2471789 -0.107300594 -0.0858573 -0.14283596 -0.14980151
-0.06529687 -0.19712049 0.08207482 -0.12331066 0.009294231 -0.041823313 -0.056354355 -0.061311424
0.02068058 -0.08749855 -0.09431093 -0.1398721 -0.00924409 -0.1465682 -0.08792903 -0.09714008
-0.0030960308 -0.16575724 -0.11116599 0.040162567 -0.14179769 1.2802193e-05 -0.110912375 -0.09120031
-0.0032509142 -0.19328043 -0.054407306 -0.07590554 -0.013442538 -0.010116684 -0.16904572 -0.00037678107
0.009416565 -0.07479118 -0.02625922 -0.025793457 -0.010648631 -0.17076203 -0.09613573 -0.024596814
-0.11453448 -0.06655052 -0.04971433 -0.12284357 0.026212351 -0.02838764 -0.046387464 -0.1791765
-0.1374309 -0.072791465 -0.033584725 -0.054018088 -0.12769382 -0.05873913 -0.1157874 0.08442342
-0.043937445 -0.12357469 -0.07871352 -0.111853264 -0.046375655 -0.081112176 -0.046916656 -0.124085456
-0.10137172 0.005440667 -0.12721844 -0.16525787 -0.02881065 0.008619996 -0.0999133 -0.042797912
00000000: 7f18 0d3d 7783 4639 2bd6 dcbd 81cc 06be
00000010: adbb 4e3d a923 0cbc 482d ccbd 011b c8bb
00000020: dad9 04bd 6d4c 03be f901 bfbd 5065 9bbd
00000030: 4ac6 003b de64 61bd fe28 933c cc27 0abe
00000040: 2ca0 18be c6ab f8bc fc89 79be cb7d ceba
00000050: 4672 14be 9d4c 4fbd 391c 5e3d 2013 77bd
00000060: 8aa4 2fbe 75d7 f6bd 8875 e0bd d0b1 e6bd
00000070: 341a a0bd c02d d0bd ec02 bfbd 7758 68bd
00000080: ab33 dfbd efb0 a3bc 12c2 c73c fd03 d0bb
00000090: 2a28 23be e1ec 1fbb 604c ac3a 8c66 efbd
000000a0: 99ec 203b 6eec 543b f368 4a3d f8eb 92bd
000000b0: 2481 413d 3dee 4cbd 3e03 30be 5610 ad3c
000000c0: 4a97 30bd cc36 9fbc 6483 7dbd b74a efbd
000000d0: 3954 bcbd 4160 0dbe 541b b7bd 8ac3 00be
000000e0: 7388 ffbd 338a 7fbd 73f0 45bd cc6a 18be
000000f0: a292 e1bd 13d6 2cbd ebec 1fbd fc81 66bd
00000100: d5d6 9d3c b514 42bd efcf 92bc 44c1 29be
00000110: 07b6 0dbc dbc3 1fbe 1c76 e0bd d490 94bd
00000120: ba8e d0bd ec28 a5bd 9f5a 21be d99e 3b3b
00000130: 7ef3 93bd bf0a bb3c 9e2c 01bd f3b6 3b3c
00000140: 4bcc febd 5290 49bd 5af7 5dbc 8c9d 633d
00000150: 19b3 cabc 89a1 8cbd cfc3 01be 1fc5 8d3d
00000160: 1293 0abe c23e 0fbe bbfc bbbd 31d7 8dbd
00000170: 9fdb 173c b629 babd 6dba c33a 8180 ea3b
00000180: c736 24be cca5 f5bd 572b 8cbd 5199 30bd
00000190: 14c2 3dbd 9cb0 a3bd b479 a1bd 1747 88bd
000001a0: 611f d8bd 1d1f 9d3c 8a0c f0bd 0238 0dbb
000001b0: dc24 fbbd 6444 b6bc 4fe4 63bd be05 eabc
000001c0: e12b 86bb 89bb 2ebe 3af2 6dbd 5510 b0bd
000001d0: 2cf2 f1bd e2c8 1cbc 592a 91bd 58dd 0bbd
000001e0: 01e7 ddbc 9649 213d bd86 2f3c 7428 b7bd
000001f0: 4b8e 1fbd 6a97 dfbd fc25 00be 199f 1ebd
00000200: be0d 8c3d bb73 a4bc 4940 a3bd 9043 7bbd
00000210: c982 27bd 4272 f5bd 4583 7f3c 587b cbbc
00000220: c34e 0ebe 8031 21bd b35b 663c e5ad efbd
00000230: 7c91 fbbd 0b5e d93c 073e cdbd 4887 c7bc
00000240: 2967 0dbe 1c69 43bd b108 49be d3a9 dbbd
00000250: 125e cfbd 485a bdbd b694 14be 6853 35bd
00000260: c129 0dbe 6640 e2bc b8d2 7cbd 40b3 48bc
00000270: 84a1 6cbd 73d3 38bd 9a24 16be 76b0 3ebc
00000280: 3d71 f3bd 4945 29be 518c 53bd 8401 313c
00000290: 26b4 7cbe bd28 d93b 71d2 1abe 076d d0bd
000002a0: 182b 57bd 714a 13be 0108 24be 1851 0ebe
000002b0: c00f 363b cd6c eebd 7263 81be d9c7 87bc
000002c0: 23a9 17bd 549e 3bbe 730e 8dbc 771c 7dbe
000002d0: 6ac0 dbbd f4d5 afbd 9743 12be 9165 19be
000002e0: 5eba 85bd f4d9 49be d816 a83d 4d8a fcbd
000002f0: d546 183c ec4e 2bbd d3d3 66bd b021 7bbd
00000300: 526a a93c 7132 b3bd 1726 c1bd a23a 0fbe
00000310: 8674 17bc f915 16be 2314 b4bd 61f1 c6bd
00000320: c7e6 4abb 44bc 29be ffaa e3bd 8181 243d
00000330: 6a33 11be 00c9 5637 0726 e3bd 3ac7 babd
00000340: 4a0d 55bb 4eeb 45be 32da 5ebd 5d74 9bbd
00000350: 173e 5cbc 73c0 25bc 521a 2dbe b38a c5b9
00000360: f047 1a3c 1e2c 99bd 931d d7bc cd4c d3bc
00000370: 9877 2ebc 3edc 2ebe cfe2 c4bd 427f c9bc
00000380: 0e91 eabd a44b 88bd 41a1 4bbd 6995 fbbd
00000390: 49bb d63c 328d e8bc c800 3ebd 0b7a 37be
000003a0: b0ba 0cbe b113 95bd 2390 09bd 1242 5dbd
000003b0: 2bc2 02be 7198 70bd f221 edbd 30e6 ac3d
000003c0: c0f7 33bd ba14 fdbd 8e34 a1bd 5313 e5bd
000003d0: 66f4 3dbd 241e a6bd ae2b 40bd 8420 febd
000003e0: fa9b cfbd 9f47 b23b 8d45 02be 5c39 29be
000003f0: 5004 ecbc e23a 0d3c 589f ccbd dd4c 2fbd

lstm1.bias_hh_l0 f4 [512]
0.03265018 -0.03570791 -0.13902572 -0.13216811 -0.09467833 -0.0012508823 -0.009533093 -0.025028147
-0.08665137 -0.09797055 -0.10106472 -0.07269327 -0.027529247 -0.0491684 -0.088032514 -0.14600052
-0.059607554 -0.030705618 -0.18686868 -0.14700341 -0.06635636 0.016410012 0.04443923 -0.11658907
-0.1430931 -0.16493414 -0.0006009211 -0.0002686 -0.06454825 0.011995331 -0.08438906 -0.019418165
-0.039767034 -0.10980511 0.061752927 -0.06410184 -0.19021341 -0.03631295 -0.053770058 -0.18808709
-0.105941765 -0.07263996 -0.07603248 -0.11082288 -0.036400214 0.013743769 -0.09446659 -0.101123974
0.047853887 -0.15235196 0.038934916 -0.12273268 -0.06526209 -0.1539083 -0.11758427 -0.098940924
-0.07248412 -0.10380417 -0.041371524 -0.1023234 -0.12037183 -0.1369611 0.008062929 0.03274046
-0.09423691 0.008215465 0.028126817 -0.12054863 -0.043245167 -0.062480196 -0.14445493 -0.04472249
-0.115527526 -0.106998324 -0.115386695 -0.09253763 -0.124750435 -0.012341152 -0.037016664 -0.0037509655
-0.008174995 -0.10343475 -0.010725016 -0.0733751 -0.031594623 -0.089790665 -0.011889445 -0.018269846
-0.09706089 -0.14949779 -0.06419285 -0.0034805504 -0.10820309 -0.07605566 -0.0728224 -0.06989547
-0.14574102 -0.13766764 -0.016807893 -0.13915043 0.030571815 -0.0565738 -0.13169257 -0.09856171
-0.14535935 -0.12351599 -0.020271422 -0.0941982 -0.09520604 0.0317018 -0.05744412 0.059233718
-0.08515272 -0.1405605 -0.16273534 -0.11075445 -0.13312519 0.029512607 -0.040878076 -0.0714297
-0.08795636 -0.05053369 -0.050725218 0.04595185 -0.14086787 -0.10929884 0.014794263 0.056846764
0.009762327 -0.09152916 -0.1844843 -0.10598444 -0.04247898 -0.11871903 -0.13426252 -0.020562358
-0.18950412 -0.0047102435 -0.07330219 -0.09630318 -0.04663416 -0.0397572 -0.20715559 -0.031171266
-0.1508222 -0.002764747 -0.16704811 -0.073141225 -0.11094093 -0.032965314 0.008605625 -0.05878171
-0.040051732 0.011850295 -0.18760037 -0.11148064 -0.12014667 -0.128609 -0.05328028 0.03196794
-0.08609246 -0.09535889 0.033908356 -0.12537163 -0.21858925 0.018114926 -0.035465345 -0.09047759
-0.20896071 -0.015231779 -0.11805779 -0.068677574 -0.025545975 -0.16127495 -0.10027116 -0.005551899
0.033556376 -0.10731689 -0.028438112 -0.1509263 -0.067145176 -0.08987626 -0.112999275 -0.03701059
-0.16702028 -0.04993288 0.09841965 -0.16438885 -0.13371572 -0.028288238 -0.1669535 -0.016300358
0.00898593 -0.09325715 -0.12955205 -0.049784943 0.047292907 -0.14377415 -0.1190977 -0.1471768
-0.085257635 -0.14424312 -0.16901383 0.11394044 -0.19266799 -0.0056497813 -0.014599511 -0.060836233
-0.13254453 -0.14579126 -0.17920992 -0.14386907 -0.041729197 -0.02321833 -0.16852985 -0.033547692
-0.06692334 -0.010109893 -0.10020823 -0.09678742 -0.08504867 -0.033514902 -0.1254908 -0.059947748
-0.15435196 -0.028335687 -0.07242793 -0.09351409 -0.00848367 -0.12575081 -0.013838795 -0.123024024
-0.17838472 0.014898073 -0.103223294 -0.09673267 -0.09088604 -0.11843591 -0.031641725 -0.053985763
-0.0021614705 -0.07278508 -0.17739783 0.047725722 -0.043880515 -0.05922973 -0.11113151 -0.16975527
-0.104062885 -0.12644053 0.024792992 -0.1572656 -0.06369924 -0.03626063 0.013683492 0.015371332
00000000: 32bc 053d 7542 12bd c25c 0ebe 1457 07be
00000010: b6e6 c1bd a5f4 a3ba b130 1cbc d407 cdbc
00000020: 4676 b1bd c9a4 c8bd 05fb cebd 36e0 94bd
00000030: 0485 e1bc ce64 49bd 644a b4bd 2981 15be
00000040: 0d27 74bd 598a fbbc 815a 3fbe 1088 16be
00000050: d8e5 87bd 4a6e 863c e905 363d 40c6 eebd
00000060: ff86 12be 7fe4 28be 2287 1dba e2d2 8cb9
00000070: df31 84bd 1188 443c 2cd4 acbd d812 9fbc
00000080: c2e2 22bd 80e1 e0bd a3f0 7c3d d347 83bd
00000090: 4ec7 42be e3bc 14bd fe3d 5cbd e799 40be
000000a0: fff7 d8bd 42c4 94bd ebb6 9bbd 1bf7 e2bd
000000b0: 6418 15bd 8c2d 613c b377 c1bd 161a cfbd
000000c0: 7002 443d 2702 1cbe 387a 1f3d 455b fbbd
000000d0: 21a8 85bd 239a 1dbe 06d0 f0bd 8aa1 cabd
000000e0: 8e72 94bd 4897 d4bd 3075 29bd ee8e d1bd
000000f0: 8285 f6bd 883f 0cbe 601a 043c dc1a 063d
00000100: 48ff c0bd 289a 063c 366a e63c 33e2 f6bd
00000110: d821 31bd 3ceb 7fbd feeb 13be ee2e 37bd
00000120: b299 ecbd f021 dbbd dc4f ecbd 5e84 bdbd
00000130: 287d ffbd 8b32 4abc c99e 17bd c2d2 75bb
00000140: 6af0 05bc 99d5 d3bd fab7 2fbc af45 96bd
00000150: 5d69 01bd 2be4 b7bd f2cb 42bc a5aa 95bc
00000160: dcc7 c6bd f315 19be 8a77 83bd f219 64bb
00000170: 9599 ddbd 12c3 9bbd e923 95bd 5b25 8fbd
00000180: 223d 15be bff8 0cbe b5b0 89bc 737d 0ebe
00000190: be71 fa3c eeb9 67bd 6bda 06be b9da c9bd
000001a0: 15d9 14be f4f5 fcbd 4110 a6bc fcea c0bd
000001b0: 62fb c2bd bfd9 013d 874a 6bbd 0e9f 723d
000001c0: 8d64 aebd 17ef 0fbe 18a4 26be 3bd3 e2bd
000001d0: f851 08be 6cc4 f13c c56f 27bd bc49 92bd
000001e0: 7722 b4bd 6afc 4ebd 3fc5 4fbd 0238 3c3d
000001f0: ab3f 10be 12d8 dfbd a363 723c 27d8 683d
00000200: 2bf2 1f3c a473 bbbd 74e9 3cbe 5f0e d9bd
00000210: 70fe 2dbd f622 f3bd 1d7c 09be 6472 a8bc
00000220: 5e0d 42be 6358 9abb 751f 96bd 9a3a c5bd
00000230: 7603 3fbd 72d8 22bd 9820 54be e25a ffbc
00000240: 2371 1abe c230 35bb a90e 2bbe 11cb 95bd
00000250: 0035 e3bd a306 07bd 9bfe 0c3c 17c5 70bd
00000260: 490d 24bd bd27 423c 501a 40be f64f e4bd
00000270: 750f f6bd 14b2 03be 6c3c 5abd d1f0 023d
00000280: 3e51 b0bd 864b c3bd 7de3 0a3d 6c61 00be
00000290: dcd5 5fbe c165 943c 1c44 11bd 514c b9bd
000002a0: ccf9 55be b68e 79bc 48c8 f1bd d4a6 8cbd
000002b0: cb45 d1bc 4325 25be f75a cdbd b4ec b5bb
000002c0: 6972 093d f5c8 dbbd 0bf7 e8bc 6d8c 1abe
000002d0: 6983 89bd 0b11 b8bd 2a6c e7bd 6b98 17bd
000002e0: 5d07 2bbe 6b86 4cbd 3e90 c93d 8d55 28be
000002f0: c6ec 08be bcbc e7bc dcf5 2abe 5488 85bc
00000300: b939 133c 9bfd bebd 4ba9 04be 4ceb 4bbd
00000310: 35b6 413d 8839 13be 7fe9 f3bd 84b5 16be
00000320: 8e9b aebd 78b4 13be f611 2dbe 9b59 e93d
00000330: c24a 45be cd21 b9bb ca32 6fbc 6a2f 79bd
00000340: c1b9 07be 4e4a 15be ce82 37be 6a52 13be
00000350: 3cec 2abd 5e34 bebc 1793 2cbe 4e69 09bd
00000360: 1b0f 89bd f7a3 25bc f939 cdbd 7c38 c6bd
00000370: ff2d aebd ec46 09bd a980 00be c58b 75bd
00000380: 710e 1ebe 3e20 e8bc 1855 94bd 5184 bfbd
00000390: 17ff 0abc d2c4 00be 1dbc 62bc 05f4 fbbd
000003a0: 7caa 36be 0c17 743c bc66 d3bd c71b c6bd
000003b0: 7622 babd 878e f2bd c19a 01bd 2d20 5dbd
000003c0: 75a7 0dbb 5810 95bd c7a7 35be 0c7c 433d
000003d0: 0ebc 33bd e09a 72bd eb98 e3bd 53d4 2dbe
000003e0: ec1e d5bd a079 01be ac1a cb3c 3c0a 21be
000003f0: bf74 82bd 0786 14bd ba30 603c 0ad8 7b3c

lstm2.weight_ih_l0 f4 [128, 128]
0.04570707 0.0557977 -0.028838634 -0.116675586 0.06329744 -0.1349045 -0.122992985 -0.01766549
-0.044362795 0.034656897 -0.03694594 -0.031049507 0.16821666 -0.12383905 -0.16136487 0.16761212
-0.021855384 -0.16502288 -0.19529139 0.14946628 0.08775569 0.19176847 -0.12488034 0.15751511
-0.045875583 -0.06976008 0.22241656 -0.07489925 0.029187968 -0.09155536 -0.04214734 0.13779265
-0.17384073 0.18105069 -0.15733048 0.02134208 -0.16182378 0.16008319 -0.028047707 0.123025164
0.072951004 -0.095997244 -0.023232235 0.006424947 0.0074053775 0.1459548 -0.14269905 0.042854406
0.04497988 0.084030464 -0.10524391 0.021951618 -0.104529165 -0.117011674 0.0017377433 0.012180814
0.047169063 0.014722802 0.15510947 -0.026792597 0.121836446 -0.028519634 0.09213923 0.031095257
0.1654017 0.14803009 -0.1186311 -0.004260846 0.008412499 0.09803359 -0.21721548 0.011500818
-0.1592952 -0.16790256 0.17962229 -0.10944779 0.072833695 0.027619643 -0.15423653 -0.085165784
-0.09570865 -0.17446125 -0.015462627 -0.025426762 -0.17482017 0.108349144 0.04939017 -0.031602688
0.15421878 -0.036810316 -0.12086895 -0.11001322 -0.03570375 -0.064369604 -0.08372655 0.2594013
-0.09023115 0.0077983523 0.13588089 0.19054177 -0.12586863 0.04713952 -0.12866345 -0.15551229
0.013405205 -0.06348012 -0.060233343 0.0650863 0.08871438 -0.16189662 -0.14249896 0.11861977
-0.009002874 0.1342765 0.115822405 -0.1611902 0.020930791 -0.05836532 -0.18691398 -0.12812352
-0.22297901 0.026910625 -0.10726587 0.112394094 -0.036518026 -0.09617636 -0.08501304 0.2508169
0.09723534 -0.028079826 -0.006110789 -0.116298094 0.009901807 -0.08144139 0.03477935 -0.11709352
0.030148385 -0.041626185 -0.08212339 0.03161371 -0.07428447 -0.14387697 0.03476515 0.07628625
0.021362921 -0.018130993 -0.13063604 0.06068943 -0.056953296 0.042625804 -0.13826555 -0.09208651
-0.12362866 -0.16845864 0.021045486 -0.18130888 -0.19584905 -0.025375875 0.039649203 0.11988219
-0.017225755 -0.13946058 -0.101544015 -0.005555221 -0.0150376605 -0.009317808 -0.23561294 0.0066005876
0.005555303 -0.034646757 -0.15309487 0.0039101318 -0.03507874 0.09615289 -0.059099328 -0.2433493
0.094024345 0.07365554 0.08457401 -0.061436933 -0.17511836 0.11021659 -0.14205526 -0.052504357
-0.13523051 -0.13424954 -0.13727954 -0.06777434 -0.01592731 -0.036179557 0.16166474 0.14175574
0.054273218 0.050136138 0.08853852 -0.022963235 0.1764337 0.0646204 -0.037280064 -0.14719348
0.0561316 -0.15261526 0.0084042335 -0.10541303 -0.16284002 -0.20359972 0.082841694 0.12975381
0.005122996 -0.16830105 -0.12322713 -0.11512773 0.050061364 0.13652126 -0.15960188 0.006369117
0.061416425 0.05279961 -0.0030752248 0.07111165 -0.09308959 0.14561315 -0.16242364 0.18980637
0.039421245 0.17386828 -0.15805958 0.08205291 0.06877754 -0.18288782 -0.05698289 -0.06682783
0.08875584 -0.10255726 -0.060622342 0.10034119 -0.19219688 -0.012097848 -0.10466906 -0.035265904
-0.09979873 0.051846 -0.0023062886 0.05028348 0.06961329 -0.005885575 0.11983662 -0.10726816
-0.10606352 -0.11763299 0.03247624 -0.14855467 0.13462977 0.08567128 -0.13791995 0.11516215
00000000: 5637 3b3d 218c 643d 003f ecbc 9cf3 eebd
00000010: 17a2 813d 6824 0abe bfe3 fbbd 38b7 90bc
00000020: c3b5 35bd 64f4 0d3d a054 17bd 895b febc
00000030: fd40 2c3e 549f fdbd d53c 25be 83a2 2b3e
00000040: 100a b3bc c2fb 28be 77fa 47be b00d 193e
00000050: 41b9 b33d f45e 443e 44c1 ffbd a44b 213e
00000060: 09e8 3bbd 5fde 8ebd 2bc1 633e c764 99bd
00000070: 9b1b ef3c 6081 bbbd b0a2 2cbd 8419 0d3e
00000080: 4e03 32be 5a65 393e 3e1b 21be 96d5 ae3c
00000090: 22b5 25be d9ec 233e 4ec4 e5bc 9ef4 fb3d
000000a0: 5667 953d 349a c4bd 8751 bebc 5d88 d23b
000000b0: cfa8 f23b 2d75 153e b31f 12be 1a88 2f3d
000000c0: d33c 383d 2a18 ac3d 1e8a d7bd e1d3 b33c
000000d0: 6313 d6bd d1a3 efbd fdc4 e33a 0992 473c
000000e0: 5934 413d e837 713c 04d5 1e3e 267c dbbc
000000f0: 6385 f93d 02a2 e9bc 7eb3 bc3d 7bbb fe3c
00000100: 105f 293e 3395 173e ddf4 f2bd 919e 8bbb
00000110: 94d4 093c d6c5 c83d bc6d 5ebe ed6d 3c3c
00000120: 481e 23be a6ee 2bbe e8ee 373e 2a26 e0bd
00000130: d529 953d 9742 e23c 2ef0 1dbe 666b aebd
00000140: e602 c4bd f8a5 32be f556 7dbc c94b d0bc
00000150: 0f04 33be 28e6 dd3d 594d 4a3d d271 01bd
00000160: 87eb 1d3e 6ac6 16bd 248a f7bd 9c4e e1bd
00000170: 183e 12bd 36d4 83bd d378 abbd 3fd0 843e
00000180: 1ccb b8bd 5289 ff3b 5c24 0b3e 621d 433e
00000190: b5e3 00be 5f15 413d 5ac0 03be 9d3e 1fbe
000001a0: 81a1 5b3c dd01 82bd 3db7 76bd f74b 853d
000001b0: e3af b53d 3ac8 25be 3feb 11be ecee f23d
000001c0: ca80 13bc c77f 093e 4c34 ed3d 0b0f 25be
000001d0: 0d77 ab3c 7910 6fbd 6166 3fbe d032 03be
000001e0: 9c54 64be ac73 dc3c 35ae dbbd e02e e63d
000001f0: ed93 15bd 1df8 c4bd 511b aebd 136b 803e
00000200: 5223 c73d aa07 e6bc 033d c8bb b22d eebd
00000210: 303b 223c beca a6bd cb74 0e3d bace efbd
00000220: bff9 f63c 3880 2abd 4f30 a8bd 617d 013d
00000230: 7522 98bd 7c54 13be e765 0e3d f73b 9c3d
00000240: 4b01 af3c 7387 94bc 74c5 05be 7b95 783d
00000250: dc47 69bd 6598 2e3d 7c95 0dbe da97 bcbd
00000260: 0631 fdbd 6c80 2cbe 9567 ac3c 09a9 39be
00000270: a78c 48be 11e1 cfbc 3467 223d cb84 f53d
00000280: 071d 8dbc c1ce 0ebe 4ff6 cfbd 9208 b6bb
00000290: 8560 76bc b8a9 18bc 8544 71be be49 d83b
000002a0: 4209 b63b c2e9 0dbd e7c4 1cbe 9020 803b
000002b0: baae 0fbd ceeb c43d 2312 72bd 8f30 79be
000002c0: d68f c03d b7d8 963d 2335 ad3d 4ba5 7bbd
000002d0: 3a52 33be 3cb9 e13d ef76 11be cf0e 57bd
000002e0: de79 0abe b678 09be 0293 0cbe 46cd 8abd
000002f0: fd79 82bc 0431 14bd 718b 253e 6b28 113e
00000300: 984d 5e3d 8d5b 4d3d af53 b53d 651d bcbc
00000310: 09ab 343e b357 843d fbb2 18bd e3b9 16be
00000320: 40ea 653d 2d47 1cbe e9b1 093c c9e2 d7bd
00000330: 89bf 26be 727c 50be e8a8 a93d 2fde 043e
00000340: cede a73b 1c57 2cbe 815e fcbd 16c8 ebbd
00000350: 250d 4d3d 3bcc 0b3e ad6e 23be 07b4 d03b
00000360: ca8f 7b3d 6744 583d b689 49bb fca2 913d
00000370: c1a5 bebd 9d1b 153e 6252 26be 9a5c 423e
00000380: 2c78 213d 870a 323e 5fda 21be 5b0b a83d
00000390: 3ddb 8c3d f246 3bbe e466 69bd 08dd 88bd
000003a0: 9fc5 b53d 8a09 d2bd 224f 78bd af7f cd3d
000003b0: 42cf 44be 0d36 46bc bb5c d6bd fb72 10bd
000003c0: 4763 ccbd 795c 543d 1a25 17bb 0df6 4d3d
000003d0: 6a91 8e3d c8db c0bb e76c f53d 69af dbbd
000003e0: d537 d9bd 91e9 f0bd ce05 053d b71e 18be
000003f0: 63dc 093e 6d74 af3d e33a 0dbe 22da eb3d
