model/models/8h/trained_model.pt (torch, 666885 bytes, 17 tensors)

conv1.weight f4 [48, 5, 5]
0	0xbd002137	-0.031281676
1	0x3d9005f3	0.07032385
2	0x3c51bb14	0.012800951
3	0xbdb6eda6	-0.089320466
4	0x3c49f83b	0.012327249
5	0xbd4b9977	-0.049706902
6	0x3dd180ea	0.102296665
7	0xbe0ce79d	-0.13760228
8	0x3e05c273	0.13062458
9	0xbcc70d99	-0.024298476
10	0x3bd2b966	0.0064307926
11	0xbe0c2b76	-0.13688454
12	0x3da22ff1	0.079193
13	0x3deaec70	0.11470878
14	0x3c4a9670	0.012364969
15	0xbe3e26d6	-0.18569502
16	0xbe11c328	-0.14234602
17	0xbe01a989	-0.12662329
18	0xbca18c90	-0.019720346
19	0x3bce7ca8	0.0063014813
20	0xbe538593	-0.20656423
21	0x3c920e3e	0.017829057
22	0x3dd0c512	0.10193838
23	0x3d8484b3	0.06470623
24	0xbdac32ab	-0.08408102
25	0xbc4dde91	-0.012565271
26	0x3e497287	0.19672595
27	0xbe1d15e5	-0.15340383
28	0xbda2e062	-0.07952954
29	0xbe1e49f2	-0.15457895
30	0xbdb489bd	-0.08815334
31	0xbe25e5b2	-0.16200903
32	0xbe3d3a38	-0.1847924
33	0xbdf61a58	-0.120167434
34	0xbdd89200	-0.10574722
35	0x3e6453a6	0.22297534
36	0x3d00dffe	0.031463616
37	0x3dee6740	0.11640787
38	0xbe10d0db	-0.14142172
39	0x3e3d6c02	0.18498233
40	0xbdc828c1	-0.09773398
41	0x3e14ed7f	0.14543723
42	0xbe376839	-0.17910852
43	0x3ddce5b8	0.10786003
44	0x3ce96abb	0.028493276
45	0xbe34e4bf	-0.17665385
46	0xbde93240	-0.113865376
47	0x3e0b269e	0.1358895
48	0x3df96ffc	0.121795624
49	0xbe500d65	-0.2031761
50	0x3e09779e	0.13424537
51	0xbe325735	-0.1741608
52	0x3d0dc6ee	0.034613542
53	0x3d99c2a5	0.075078286
54	0xbc914127	-0.017731262
55	0x3dd6a952	0.10481514
56	0x3b8454c2	0.004038424
57	0xbd8e42b4	-0.06946316
58	0x3dcd2353	0.10016503
59	0x3e85bd25	0.26120868
60	0x3cc522ed	0.024064505
61	0xbcb6581c	-0.02225881
62	0xbda35970	-0.07976043
63	0x3d9b2f33	0.07577362
64	0x3e63ed03	0.22258382
65	0x3d91407e	0.07092379
66	0x3e202f79	0.1564311
67	0x3dc66d4b	0.09688815
68	0x3d983291	0.0743152
69	0x3d98ce23	0.074611925
70	0xbdea3699	-0.11436195
71	0x3dbe18e7	0.092820935
72	0x3de1ee9c	0.11031839
73	0x3e1fdaa1	0.15610744
74	0xbc937860	-0.018001735
75	0x3df1ef9b	0.11813279
76	0xbda827eb	-0.08210739
77	0xbe480182	-0.19531825
78	0xbe487c65	-0.19578703
79	0x3c7b7c69	0.015349486
80	0x3e317353	0.17329149
81	0x3dec1877	0.11528104
82	0xbe425088	-0.18976033
83	0xbd07c734	-0.03314896
84	0xbe0cac2b	-0.13737552
85	0x3e20178b	0.15633981
86	0xbe42ddc7	-0.19029914
87	0xbe0c93e7	-0.13728295
88	0x3dd4be18	0.1038782
89	0xbd0ff78c	-0.03514819
90	0x3e298423	0.16554312
91	0xbdd1527f	-0.10220813
92	0xbbabbafe	-0.005240797
93	0x3dbf788e	0.09349166
94	0xbe5c1699	-0.21492995
95	0xbe6084da	-0.21925679
96	0x3e01017e	0.12598225
97	0x3cbcf3d9	0.023065494
98	0x3e51f85e	0.20504901
99	0xbda4e623	-0.080517076
100	0x3df5710d	0.11984453
101	0xbe44250c	-0.19154757
102	0xbd199128	-0.037491947
103	0xbd498a04	-0.049203888
104	0xbe5487f7	-0.20754991
105	0xbe4cd36c	-0.20002526
106	0x3cb2a726	0.021808218
107	0xbc8018f6	-0.015636902
108	0x3d528c47	0.05140331
109	0x3e0a3f75	0.1350077
110	0x3d97fe4d	0.07421551
111	0x3d86b20e	0.0657693
112	0xbb9dd46d	-0.004816583
113	0xbe341e4c	-0.17589682
114	0xbe3e7060	-0.18597555
115	0x3bc6ec2f	0.0060706357
116	0xbe1f7401	-0.15571596
117	0xbb94fa1f	-0.0045464183
118	0xbd4b0931	-0.049569312
119	0x3dbc1765	0.0918415
120	0xbe2c97e4	-0.16854817
121	0xbe447f33	-0.19189148
122	0xbe0be17a	-0.13660231
123	0x3bb25afc	0.005442975
124	0xbd8b689d	-0.06807063
125	0x3d15ed0e	0.036603026
126	0x3e28c877	0.16482721
127	0xbe55654f	-0.20839427
128	0xbdb76c88	-0.089562476
129	0xbdf1ed54	-0.11812845
130	0xbd2b77b2	-0.041862197
131	0x3e066280	0.13123512
132	0xbddedd74	-0.108820826
133	0x3df0bf2e	0.11755215
134	0x3e004011	0.1252444
135	0x3d9024b1	0.07038248
136	0x3d1fe289	0.0390344
137	0xbd965a66	-0.07341461
138	0xbc82e08d	-0.015976215
139	0x3d607e4c	0.054807946
140	0x3cdd3143	0.027001029
141	0xbcc42b8d	-0.023946548
142	0x3cddd450	0.027078778
143	0xbe008693	-0.12551336
144	0xbe711459	-0.23542918
145	0xbcb2b77a	-0.021816004
146	0xbe54d4f5	-0.20784362
147	0x3c7308e6	0.0148336645
148	0xbdb36819	-0.087600894
149	0xbe85a764	-0.2610427
150	0x3cea331a	0.02858882
151	0x3e208f13	0.15679578
152	0x3c93dc3d	0.018049354
153	0xbe2b6b21	-0.16740085
154	0x3dcab7a0	0.09898305
155	0xbe2a9a93	-0.16660528
156	0x3cd8e6f4	0.026477315
157	0xbdc04242	-0.09387638
158	0x3e580a3c	0.21097654
159	0x3dd53aab	0.10411581
160	0xbde4671e	-0.111524805
161	0x3d812d70	0.06307495
162	0x3c7f0ea4	0.015567455
163	0x3e0c92a9	0.13727821
164	0x3e84b452	0.25918823
165	0x3d9aaec1	0.07552863
166	0x3d18b8dd	0.037285674
167	0xbd408f55	-0.047011692
168	0x3e5b27d5	0.21401913
169	0x3dfd693f	0.1237359
170	0xbe753711	-0.23946787
171	0x3dcbca9a	0.099507526
172	0xbd4cc6e5	-0.049994368
173	0x3dbbdb32	0.091726676
174	0x3e477a84	0.1948033
175	0x3c9c52a0	0.019082367
176	0xbd998267	-0.074955754
177	0x3e53c7e1	0.20681717
178	0x3c3722c0	0.011177719
179	0x3e1a6737	0.15078436
180	0xbdc17730	-0.09446561
181	0x3e4eb416	0.20185885
182	0x3e673bc3	0.22581391
183	0xbdb361af	-0.08758866
184	0x3e51f032	0.20501783
185	0x3e21ef50	0.15813947
186	0x3dc92d90	0.098231435
187	0x3dcd0ab4	0.10011807
188	0x3e73d10d	0.23810215
189	0xbcd6b587	-0.026209606
190	0xbdf01699	-0.1172306
191	0xbde134bd	-0.10996387
192	0xbe02ad8d	-0.12761517
193	0xbcef2559	-0.029192613
194	0xbd23f299	-0.04002628
195	0x3dcf163c	0.10111663
196	0xbe3d0368	-0.1845833
197	0xbe2d9ad9	-0.16953601
198	0x3de0f2ac	0.10983786
199	0xbd67dd53	-0.056607556
200	0x3e17e193	0.14832143
201	0xbc66a1a9	-0.014076629
202	0xbd1f5108	-0.038895637
203	0xbd104cfc	-0.035229668
204	0xbddd5c6e	-0.10808645
205	0xbdec797c	-0.11546609
206	0xbd28400f	-0.041076716
207	0xbc1c6228	-0.009544887
208	0xbdee4738	-0.11634678
209	0xbe0757f0	-0.13217139
210	0x3e1c2ce5	0.15251501
211	0xbe4bedd6	-0.19914946
212	0xbd22ba0b	-0.039728206
213	0xbde0adef	-0.10970675
214	0x3dc8c22c	0.0980266
215	0x3e136f49	0.1439792
216	0xbe20b7b5	-0.15695079
217	0x3d1023dc	0.03519045
218	0x3daef46f	0.08542716
219	0xbd008e24	-0.031385556
220	0x3cf9033f	0.030397056
221	0x3d0ec16c	0.03485243
222	0xbda5d0cf	-0.08096468
223	0x3dbeeb91	0.093222745
224	0x3c2a1f15	0.010383387
225	0xbdcae26a	-0.09906466
226	0x3d6e35f4	0.058156922
227	0xbde12ea3	-0.109952234
228	0x3d20f154	0.03929265
229	0xbe19fe18	-0.15038335
230	0x3db352f6	0.08756058
231	0xbe1e9335	-0.15485843
232	0x3db48f1e	0.0881636
233	0xbde0ba53	-0.109730385
234	0x3e2aafdb	0.16668646
235	0xbdf52aa3	-0.11971023
236	0xbe059e0d	-0.13048573
237	0xbe0bb5e5	-0.13643606
238	0x3dda870a	0.10670288
239	0x3e20ed2d	0.15715475
240	0x3cd43f80	0.025909185
241	0x3e26505b	0.1624159
242	0xbdb1499a	-0.086566165
243	0x3cd49b40	0.025952935
244	0xbe0ca652	-0.13735321
245	0x3c9d08a8	0.019169167
246	0xbe4c5e73	-0.19957905
247	0x3be996a0	0.0071285516
248	0xbe425a8a	-0.1897985
249	0xbdd98b40	-0.10622263
250	0xba9afcf4	-0.0011824653
251	0xbd97c3df	-0.07410406
252	0x3d8f031e	0.069830164
253	0xbe471ff8	-0.19445789
254	0xbd4b97d7	-0.049705353
255	0x3d17fe74	0.0371079

conv1.bias f4 [48]
0	0xbe3b8af4	-0.18314725
1	0x3ea14188	0.3149531
2	0xbe3e0adb	-0.18558829
3	0xbe3a3a86	-0.18186387
4	0xbb2cba7f	-0.0026356278
5	0xbd774482	-0.06036807
6	0xbdb28843	-0.08717396
7	0xbe75a8b0	-0.2399013
8	0x3ea89893	0.32928905
9	0xbe480e43	-0.1953669
10	0xbccc0d01	-0.024908544
11	0xbd997d26	-0.07494573
12	0xbe700ea1	-0.2344308
13	0xbe98b3a4	-0.29824555
14	0x3e20d6e8	0.1570698
15	0x3c10d22c	0.008839171
16	0xbe4f20c1	-0.20227338
17	0xbcf7a756	-0.03023116
18	0xbe5f45c6	-0.2180396
19	0xbe880015	-0.26562563
20	0x3d79db99	0.06100044
21	0xbe315e74	-0.17321187
22	0x3dcebe4d	0.10094891
23	0xbd060b88	-0.03272584
24	0xbd889219	-0.06668491
25	0x3e9ab265	0.3021423
26	0xbe3e3246	-0.18573865
27	0xbe670f5c	-0.22564453
28	0xbd68b478	-0.056812733
29	0x3baa500a	0.0051975297
30	0xbe9b356b	-0.30314192
31	0xbe81f833	-0.25384673
32	0xbe45b007	-0.1930543
33	0x3e350fcd	0.17681809
34	0xbe8296d1	-0.2550569
35	0xbdd6aed1	-0.10482562
36	0xbb24c9f9	-0.00251448
37	0x3cb87712	0.022517715
38	0x3eab471f	0.334527
39	0xbd4c1328	-0.049822956
40	0xbe19b337	-0.15009771
41	0x3e26e8f8	0.16299808
42	0xbe544970	-0.20731139
43	0xbe2b5f42	-0.16735557
44	0xbea0cd09	-0.3140643
45	0xbcaf37e2	-0.021388952
46	0xbc67f726	-0.014158046
47	0xbd2e74a8	-0.04259172

conv2.weight f4 [96, 48, 5]
0	0xbbd67670	-0.0065448806
1	0xbd7b7966	-0.06139507
2	0x3d0f4778	0.034980267
3	0x3d1797d2	0.03701002
4	0x3c522278	0.012825601
5	0xbd865c8d	-0.065606214
6	0xbdc056c8	-0.09391552
7	0xbc5d4fa2	-0.0135077555
8	0xbcd02252	-0.02540699
9	0x3c832271	0.016007634
10	0xbc50f334	-0.012753297
11	0x3ba1ac39	0.0049338606
12	0xbc6bdc8e	-0.014395846
13	0xbd6ebe9f	-0.05828726
14	0xbd455cb5	-0.048184115
15	0x3cd3b250	0.025841862
16	0x3c23d568	0.0099996105
17	0x3c926130	0.017868608
18	0xbc9ec4b4	-0.019380905
19	0x3d314918	0.0432826
20	0xbc11098f	-0.008852377
21	0xbd3c8ba9	-0.046031628
22	0xbd796922	-0.060891278
23	0x3d10e0e0	0.035370708
24	0xbc7e3552	-0.015515642
25	0xbd8c9c12	-0.068657055
26	0xbdb79ab8	-0.08965057
27	0xbd0b0a69	-0.033945475
28	0xbd21700e	-0.039413504
29	0x3c220853	0.00988968
30	0xbd925756	-0.07145564
31	0xbdd2c217	-0.10290926
32	0xbdbf132f	-0.09329831
33	0xbd3bddf8	-0.045865983
34	0xbd4df991	-0.050286833
35	0x3cf14de9	0.029456096
36	0xbdbcad45	-0.09212736
37	0xbca06d07	-0.019583238
38	0xbcd78c2c	-0.026311956
39	0xbd29b20c	-0.041429564
40	0xbcb9dca8	-0.022688225
41	0xbd8d98a4	-0.069138795
42	0xbd12455e	-0.035710685
43	0xbd091fb6	-0.033477508
44	0xbd57b6c6	-0.05266454
45	0x3d71601a	0.05892954
46	0x3c17eb88	0.009272464
47	0xbce68d86	-0.028143656
48	0x3d1a3e20	0.037656903
49	0xbd001767	-0.03127232
50	0x3b549e3b	0.0032442946
51	0xbcc81636	-0.024424654
52	0x3c774f6c	0.015094619
53	0x3c12ce3a	0.008960301
54	0xbda62c83	-0.08113959
55	0xbd330c74	-0.043713048
56	0xbb5d65a0	-0.0033782497
57	0xbc8be4a4	-0.017076798
58	0xbc8402f2	-0.016114686
59	0xbd1a1510	-0.037617743
60	0xbdaee40d	-0.08539591
61	0xbb8b1905	-0.004244926
62	0xbc3ca465	-0.011513804
63	0xbb407f2e	-0.002937268
64	0x3d64120a	0.055681266
65	0xbd782ae3	-0.060587775
66	0x3d01dc11	0.031704012
67	0xbd211054	-0.039322212
68	0xbd60c595	-0.05487593
69	0xbcaba77c	-0.020953886
70	0xbd828a0c	-0.063739866
71	0xbd054e6c	-0.032545492
72	0xbdaa4261	-0.08313442
73	0xbd4d4e53	-0.050123524
74	0xbb0167af	-0.0019745638
75	0xbdd126b4	-0.1021246
76	0xbc140250	-0.0090337545
77	0xbb3546ed	-0.0027660683
78	0xbda4a6b8	-0.080396116
79	0xbbb1ccf9	-0.005426046
80	0xbd1d3c69	-0.03838769
81	0xbdab4a6d	-0.08363805
82	0xbca7714c	-0.020439766
83	0x3ae5214c	0.0017481237
84	0xbd5fec56	-0.054668747
85	0xbd88586c	-0.0665749
86	0xbcc3e7c9	-0.023914235
87	0x3c90719d	0.0176323
88	0xbc16d221	-0.009205372
89	0xbd99240b	-0.07477578
90	0x3c9459a8	0.018109158
91	0xbc985d7e	-0.018599268
92	0xbd2fb7be	-0.04289984
93	0xbcddaf6f	-0.027061192
94	0xbc27ed0c	-0.0102493875
95	0x3c88c67c	0.016696207
96	0xbcc2c828	-0.023777083
97	0xbd4eb30c	-0.05046372
98	0x3d422acc	0.047404096
99	0xbcbd9936	-0.023144346
100	0xbcbe0e25	-0.023200104
101	0xbd787287	-0.060656097
102	0xbc0ba061	-0.008522124
103	0xbd99dba3	-0.075125955
104	0xbd94de44	-0.07268956
105	0xbd4c5d02	-0.049893387
106	0x3cf9a22c	0.030472837
107	0x3d84095f	0.064471
108	0xbc937ef4	-0.018004872
109	0xbccfb8c9	-0.025356667
110	0x3b1a95c3	0.00235878
111	0x3c73fe21	0.014892132
112	0xbcd70b93	-0.026250636
113	0x3a85e6a8	0.0010215836
114	0xbd11d342	-0.03560186
115	0xbd0376ad	-0.0320956
116	0xbc50f246	-0.012753075
117	0x3c9d1422	0.01917464
118	0xbd63c346	-0.05560615
119	0xbd8c19db	-0.06840869
120	0x3ce6b851	0.02816406
121	0x3c159138	0.009128861
122	0x3d600227	0.054689553
123	0xbd2b2078	-0.04177901
124	0xbc63f2f9	-0.01391291
125	0xbc944667	-0.018099977
126	0xbdada4d7	-0.08478706
127	0xbd2523b0	-0.040317237
128	0x3cb17046	0.021659981
129	0x3c8d587e	0.01725411
130	0xbd8a0961	-0.0674007
131	0xbd8566f4	-0.065137774
132	0xbd91ba4b	-0.07115611
133	0xbd2288ea	-0.039681353
134	0x3c4a8d81	0.012362839
135	0xbd0a518c	-0.033769175
136	0xbc1b68a4	-0.0094853975
137	0xbd658ec8	-0.05604437
138	0x3cea95b4	0.028635837
139	0xbbfb0465	-0.007660436
140	0xbc41ff5b	-0.011840667
141	0x3c958a23	0.018254345
142	0xbc2dd007	-0.01060868
143	0xbd372ce7	-0.044720557
144	0xbd8d9de2	-0.069148794
145	0x3cf0da4c	0.029400967
146	0xbd012dfa	-0.031537987
147	0xbda82ac0	-0.08211279
148	0xbd960423	-0.07325008
149	0x3c9773ff	0.018487928
150	0xbd751d14	-0.059842184
151	0xbd087c4b	-0.03332166
152	0xbd8e097c	-0.06935403
153	0xbcf2d7f2	-0.029643986
154	0xbbdf2889	-0.006810252
155	0xbcd55709	-0.026042478
156	0x3c8720be	0.016495105
157	0xbcf71177	-0.030159695
158	0xbb85f2cb	-0.004087781
159	0xbd377de8	-0.044797808
160	0xbc715e30	-0.014731929
161	0x3cf12f10	0.029441386
162	0xbbd21988	-0.006411735
163	0x3d5c85aa	0.05383841
164	0xbb38aaf0	-0.0028178059
165	0x3c218064	0.009857271
166	0x3d0e4a79	0.03473899
167	0x3c202269	0.009773829
168	0x3d21dde4	0.039518252
169	0xbcac0c55	-0.021001974
170	0x3ca8f1a9	0.020623045
171	0x3c8e075a	0.01733749
172	0x3bd81875	0.0065947124
173	0xbc96675f	-0.018359838
174	0xbda6e7e8	-0.08149701
175	0xbda6e59f	-0.081492655
176	0xbcf0f7d5	-0.02941505
177	0xbdb7afee	-0.08969103
178	0xbd8c6ee6	-0.0685709
179	0xbcb83ca4	-0.022489853
180	0x3c7ca27c	0.015419599
181	0x3bac3747	0.005255613
182	0xbd9c1689	-0.07621486
183	0x3ceec6ad	0.02914747
184	0xbbf56aa8	-0.007489521
185	0x3d05479e	0.032539003
186	0x3c86e378	0.016465887
187	0x3cfbb606	0.030726444
188	0x3d2e02d0	0.04248315
189	0xbcd35534	-0.025797464
190	0xbcce9c7f	-0.025221108
191	0xbce7eda5	-0.02831156
192	0xbcb4ddf7	-0.022078497
193	0xbc2a830f	-0.010407223
194	0xbd11066f	-0.035406526
195	0x3d048fbf	0.03236365
196	0xbcfb0f6d	-0.030647004
197	0xbd35651b	-0.044285875
198	0xbda8117e	-0.08206461
199	0xbd1c6c3e	-0.038189165
200	0x3cc7c848	0.024387494
201	0x3d0e815e	0.034791343
202	0x3c6ac3f8	0.014328949
203	0x3d029798	0.031882852
204	0x3d61f75e	0.05516755
205	0xbda5b1eb	-0.08090576
206	0xbd23e7be	-0.04001593
207	0x3c097e7c	0.008391973
208	0xbd5ef11b	-0.054429155
209	0xbcb932a1	-0.02260715
210	0x3ca3c03c	0.019989125
211	0xbc956f76	-0.018241625
212	0xbb3feee0	-0.0029286668
213	0x3d3a3e66	0.045469664
214	0xbccc8676	-0.02496646
215	0x3d1beef6	0.038069688
216	0xbd1fdc3e	-0.0390284
217	0x3d57ea4c	0.052713677
218	0xbd04954f	-0.032368954
219	0xbcd6a574	-0.026201941
220	0x3d8652cd	0.06558762
221	0x3c82f240	0.015984654
222	0x3d0b180b	0.033958476
223	0xbd49bf42	-0.049254663
224	0xbd774ea3	-0.06037773
225	0x3d56fefb	0.052489262
226	0x3d440653	0.047857594
227	0xbc937947	-0.018002165
228	0xbc71083c	-0.014711436
229	0x3cc0c264	0.023530193
230	0xbc8667a6	-0.016406845
231	0x3b652615	0.0034965326
232	0xbd19138f	-0.03737217
233	0x3ce75d70	0.028242797
234	0xbccfd63a	-0.025370706
235	0x3c9c5488	0.019083276
236	0xbd6c0484	-0.057621494
237	0x3d7ca32e	0.061679058
238	0x3cc29808	0.023754135
239	0x3d6ec2f6	0.058291398
240	0xbda57417	-0.08078783
241	0xbd2f2f9a	-0.042770006
242	0x3d07901d	0.03309642
243	0xbd0dfce4	-0.034665003
244	0xbd46a409	-0.04849628
245	0xbd7d5710	-0.061850607
246	0xbdf1546b	-0.117836796
247	0xbe83ece9	-0.25766686
248	0xbdee8e4c	-0.11648235
249	0xbd6e9bc8	-0.058254033
250	0xbd0d06d4	-0.03443034
251	0xbd0d810d	-0.0345469
252	0x3c99be37	0.01876746
253	0xbd0aaf49	-0.03385857
254	0x3a3143c8	0.00067621144
255	0xbccf5c9e	-0.025312718

conv2.bias f4 [96]
0	0xbc860601	-0.016360285
1	0xbdfb0692	-0.122571126
2	0xbd96fb3b	-0.07372137
3	0x3d831474	0.064003855
4	0xbe1866d6	-0.14882979
5	0xbd96abed	-0.07357011
6	0xbdf79016	-0.12088029
7	0xbe0ada67	-0.13559876
8	0xbb82a687	-0.0039871368
9	0xbdfae1e6	-0.12250118
10	0xbd43ab9e	-0.04777109
11	0xbcb7ecfa	-0.022451866
12	0xbc4f2cca	-0.012644956
13	0xbc485689	-0.012227663
14	0xbdcba697	-0.09943884
15	0xbd9077a9	-0.07054073
16	0xbdae1fdd	-0.08502171
17	0xbd6abfbb	-0.057311755
18	0xbdb044a9	-0.08606846
19	0xbd43f9f6	-0.047845803
20	0xbd062ec7	-0.032759454
21	0xbdae1cf0	-0.08501613
22	0xbd9763bd	-0.073920704
23	0xbd29da69	-0.041468058
24	0xbdac0304	-0.08399013
25	0xbd126ea3	-0.035750043
26	0xbd8300c5	-0.06396631
27	0x3c13c222	0.009018453
28	0xbd43ea06	-0.047830604
29	0xbcb41948	-0.021984711
30	0xbdf8e6f9	-0.121534295
31	0xbd9f6adf	-0.07784056
32	0xbdae40f0	-0.085084796
33	0xbe15ca1c	-0.1462788
34	0xbe1ba011	-0.15197779
35	0xbe09bc70	-0.1345079
36	0xbd9d8945	-0.07692198
37	0xbc933073	-0.017967438
38	0xbdaca20c	-0.084293455
39	0xbe16f3f1	-0.14741494
40	0xbcb0eef0	-0.02159831
41	0xbdcae2c9	-0.09906537
42	0xbdb721ce	-0.089419946
43	0xbda0c926	-0.07850866
44	0xbda56d6d	-0.08077512
45	0x3c985a22	0.018597666
46	0xbdf0180b	-0.11723336
47	0xbd356614	-0.044286802
48	0xbd8b8fb7	-0.06814521
49	0x3b949716	0.0045346124
50	0xbcfe4e8d	-0.031043315
51	0xbdc4d996	-0.09611814
52	0xbd767ded	-0.060178686
53	0xbdfbfe4b	-0.12304362
54	0xbe0a0db7	-0.13481794
55	0xbd1086ba	-0.035284735
56	0xbdc8d5c9	-0.09806401
57	0xbb225149	-0.0024767688
58	0xbe164735	-0.14675601
59	0xbd8ab95d	-0.067736365
60	0xbd9ebe5c	-0.07751152
61	0xbd15464f	-0.036444005
62	0x3d2bfaf7	0.041987386
63	0xbc800125	-0.015625546
64	0x3d773c19	0.060360048
65	0xbe0f86fb	-0.14016335
66	0xbc4be41c	-0.012444522
67	0xbe11f0c4	-0.14252001
68	0xbd4a17e9	-0.04933921
69	0xbe09e904	-0.13467795
70	0xbd5f8600	-0.05457115
71	0x3c824583	0.015902286
72	0xbd6186af	-0.055060085
73	0xbd88df12	-0.06683172
74	0xbdad8f25	-0.08474568
75	0xbc88d756	-0.016704243
76	0xbd3c5361	-0.045977954
77	0xbd505bd6	-0.05086883
78	0xbca4ec0d	-0.020132089
79	0xbd395fff	-0.045257565
80	0x3bda308c	0.0066586193
81	0xbbc8c58d	-0.0061270655
82	0x3b965181	0.0045873527
83	0xbda8a0ca	-0.08233793
84	0xbdc54472	-0.096321955
85	0xbc75a271	-0.014992342
86	0xbd8977cb	-0.06712302
87	0xbbd4f5e0	-0.006499037
88	0xbdf946b9	-0.121716924
89	0xbdd84f62	-0.10562016
90	0xbd6b2185	-0.057405014
91	0xbd5e3716	-0.054251753
92	0x3d348eed	0.044081617
93	0xbd8f63ac	-0.07001433
94	0xbda250cd	-0.07925568
95	0xbcaad914	-0.020855464

lstm1.weight_ih_l0 f4 [512, 96]
0	0xbd22d239	-0.039751265
1	0xbdace855	-0.08442751
2	0x3bc03d43	0.005866678
3	0x3cbff417	0.02343182
4	0x3a59e92d	0.0008312639
5	0xbc8bdd3b	-0.017073264
6	0x3c28d4db	0.010304655
7	0xbcd4dbd2	-0.025983725
8	0x3da2bd8a	0.07946308
9	0x3d5f2a30	0.054483593
10	0xbc788a90	-0.015169755
11	0xbcc4a5ed	-0.0240049
12	0xbd50200e	-0.05081182
13	0x3e074fc6	0.13214025
14	0x3dca1761	0.098677404
15	0x3de7cb63	0.1131809
16	0x3d22411b	0.03961287
17	0x3da0928e	0.07840453
18	0x3bab9b63	0.0052370294
19	0x3da5a51e	0.08088134
20	0x3df1dab6	0.11809294
21	0x3dbcc797	0.09217756
22	0x3d5fdb1b	0.054652315
23	0x3b3f9918	0.0029235538
24	0x3df99f49	0.12188584
25	0x3dd646f6	0.104627535
26	0xbd0ced76	-0.034406148
27	0x3ddf6982	0.10908796
28	0xbd154e5a	-0.036451675
29	0xbaa88507	-0.0012857028
30	0x3d6c2891	0.057655875
31	0xbdc91bca	-0.098197535
32	0x3bd467a1	0.00648208
33	0x3d523755	0.0513223
34	0x3d0f4fc2	0.034988172
35	0xbcf1842a	-0.029481966
36	0x3d906893	0.07051196
37	0x3de897ab	0.11357053
38	0xbd17827b	-0.03698967
39	0x3ceebfe3	0.029144233
40	0x3d1a2812	0.03763587
41	0x3dd047d2	0.10169949
42	0x3ca2c26d	0.0198681
43	0x3b4e2c77	0.0031459609
44	0x3d18ef72	0.037337728
45	0x3d6f7c7b	0.058468323
46	0xbd088bfa	-0.033336617
47	0x3d10cf9b	0.035354238
48	0x3d42c274	0.047548726
49	0xbb88adcd	-0.0041711093
50	0x3d802383	0.06256773
51	0x3d575649	0.052572522
52	0x3d8a956a	0.0676678
53	0x3de28b0c	0.11061677
54	0x3d9c1da4	0.07622841
55	0x3c188feb	0.0093116565
56	0xbcd02ef9	-0.025413023
57	0x3d67a6da	0.056555606
58	0xbd03e7ab	-0.032203358
59	0x3c70cc90	0.014697209
60	0x3c3bcb6b	0.011462073
61	0x3dc662de	0.09686826
62	0xbc8f02ed	-0.01745745
63	0x3cdc76ba	0.026912082
64	0x3d490e74	0.04908605
65	0xbbe636e7	-0.007025588
66	0x3df68635	0.12037317
67	0x3dc23a94	0.09483829
68	0xbccbd8af	-0.024883596
69	0x3db0e8cc	0.086381525
70	0xbd8dc93c	-0.06923148
71	0x3d2734e1	0.040821914
72	0x3db773f8	0.08957666
73	0x3dc1a822	0.09455897
74	0x3d66359a	0.056203462
75	0x3d7cbdda	0.061704494
76	0x3d83ecbf	0.0644164
77	0xbcb5cffd	-0.022193903
78	0x3d15bbce	0.036556058
79	0x3de8bb44	0.11363843
80	0x3cdb1289	0.026742237
81	0x3e054b34	0.13016969
82	0xba5e0add	-0.00084702467
83	0xbcd07a39	-0.025448905
84	0x3daffe0a	0.08593376
85	0x3db3915c	0.087679595
86	0x3d6e99c9	0.05825213
87	0xbc798230	-0.015228793
88	0x3d0b67d0	0.03403455
89	0xbd3cc2c3	-0.046084177
90	0x3d11a028	0.035553128
91	0xbb1df381	-0.0024101438
92	0xbd9c9ffb	-0.07647701
93	0x3c0e589e	0.00868812
94	0xbcdfdc2e	-0.02732667
95	0x3b9d210f	0.0047952007
96	0x3dc80527	0.09766608
97	0x3dd84558	0.10560101
98	0x3de06e82	0.10958578
99	0xbc91c094	-0.017792024
100	0x3e0be094	0.13659889
101	0x3dc82c04	0.0977402
102	0x3d86d434	0.06583443
103	0x3d87cd85	0.066309966
104	0xbcc77b5c	-0.024350815
105	0xbd800003	-0.06250002
106	0x3d5f0c50	0.0544551
107	0x3e0a9972	0.13535097
108	0x3daa2300	0.08307457
109	0x3d87a3f1	0.06623066
110	0x3dafe6de	0.08588956
111	0x3dbdfe7f	0.09277057
112	0xbd4f7999	-0.050653074
113	0x3babc015	0.005241404
114	0x3d97013b	0.073732816
115	0x3e02723a	0.12738886
116	0xbd0684be	-0.032841437
117	0x3dad2daa	0.08455975
118	0xbc4c2abf	-0.012461363
119	0x3da67d9b	0.08129426
120	0x3c627abf	0.01382321
121	0x3d9cd106	0.076570556
122	0xbd0e4d59	-0.034741733
123	0xbbac2628	-0.005253572
124	0x3d047e51	0.032347027
125	0x3d515de0	0.051114917
126	0x3dbe2467	0.09284287
127	0x3d9a73f7	0.0754165
128	0xbd3a298f	-0.04544979
129	0x3cfbc659	0.030734228
130	0xbbb85506	-0.00562537
131	0x3d688422	0.056766637
132	0x3c826fcd	0.015922451
133	0x3d7d0397	0.061771
134	0x3c4820c5	0.012214844
135	0x3d889b1e	0.06670211
136	0x3ce9665a	0.028491188
137	0x3b15e350	0.0022871085
138	0x3d420c27	0.04737487
139	0x3dbe562a	0.09293778
140	0xbc6ce259	-0.014458262
141	0xbd48d09c	-0.04902707
142	0xbc862cbf	-0.016378758
143	0xbbe25da9	-0.006908138
144	0xbc2dd137	-0.010608963
145	0x3d5b2636	0.053503238
146	0x3d2728da	0.040810443
147	0x3d178ca4	0.03699936
148	0xbb922c14	-0.004460821
149	0xbd59336d	-0.05302756
150	0x3d13ba87	0.03606656
151	0x3d0fa9e9	0.03507415
152	0x3e066cd1	0.13127448
153	0x3d6359df	0.05550563
154	0x3db77f9b	0.08959886
155	0xbd5460c3	-0.05185009
156	0xbcf9d0ef	-0.030495135
157	0x3dee7669	0.11643679
158	0x3dbeacc2	0.09310295
159	0x3c94286b	0.018085679
160	0x3d97c83f	0.07411241
161	0xbcc73a64	-0.024319835
162	0xba25b1cd	-0.0006320745
163	0x3d866378	0.06561941
164	0x3d1f0dec	0.038831636
165	0x3e23a5e1	0.15981247
166	0xbc697234	-0.01424842
167	0x3cb2ec24	0.021841116
168	0x3dbcc0a7	0.09216433
169	0x3ce9948f	0.028513221
170	0x3e0cbfd6	0.13745055
171	0x3db32b2b	0.08748468
172	0x3d5a6775	0.05332132
173	0x3dbf897b	0.09352394
174	0x3d907a17	0.07054537
175	0xbd404448	-0.046940118
176	0x3a40b5d3	0.00073513127
177	0xbcd9e9b2	-0.026600692
178	0x3d74ca2c	0.05976312
179	0xbd5259b2	-0.05135507
180	0xbd4714bc	-0.04860376
181	0x3d5e0b68	0.054210097
182	0x3da9acd1	0.08284915
183	0x3b940e4f	0.0045183073
184	0xbd892019	-0.06695575
185	0xbcfbe4fb	-0.030748835
186	0xbcd60043	-0.026123172
187	0x3cdafeb1	0.026732774
188	0x3dac6f4e	0.08419667
189	0x3da9365a	0.0826232
190	0xbcdad16f	-0.026711194
191	0xbd31b080	-0.043381214
192	0xbd256818	-0.040382475
193	0x3d387758	0.04503569
194	0xbd632c88	-0.05546239
195	0x3d45c220	0.048280835
196	0x3d36a6f7	0.044592824
197	0xbb5e29ea	-0.0033899494
198	0x3d9bf70c	0.0761548
199	0x3dd18fcf	0.102325074
200	0x3db67007	0.08908086
201	0x3d8718e0	0.065965414
202	0x3d4e0ba6	0.050304078
203	0x3c79cef3	0.015247094
204	0x3daf2439	0.08551831
205	0xbd38cef9	-0.04511926
206	0xbd110e10	-0.0354138
207	0x3d2d1b3f	0.042262312
208	0x3d14571b	0.036215883
209	0xbc29806f	-0.010345562
210	0xbdd2ca8c	-0.10292539
211	0x3ca0b1ea	0.019616086
212	0x3cb57ee2	0.022155229
213	0x3d3ec550	0.04657489
214	0x3d2e967c	0.04262398
215	0xbb6cb05a	-0.0036115856
216	0x3d9098da	0.07060404
217	0x3d4128e1	0.047158126
218	0xbce846c2	-0.028354052
219	0x3ce1a049	0.02754225
220	0xbcd64e5c	-0.026160412
221	0xbd1e5917	-0.03865918
222	0x3d9c78b3	0.07640209
223	0xbd20c886	-0.039253734
224	0xbc4d482d	-0.012529415
225	0x3da32ae2	0.079671636
226	0xbc5c55ba	-0.013448173
227	0x3d929699	0.071576305
228	0x3cad46e9	0.021151977
229	0x3dab5632	0.0836605
230	0x3daeb44b	0.08530482
231	0x3e12b76b	0.14327781
232	0xbc1727d5	-0.009225805
233	0xbbe9fddf	-0.0071408595
234	0x3d397a5a	0.0452827
235	0x3db88efd	0.09011648
236	0x3de84959	0.11342115
237	0xbdfba5eb	-0.12287506
238	0x3d856588	0.06513506
239	0x3d2715a8	0.040792137
240	0x3e02b81c	0.12765545
241	0x3da0b6b2	0.07847346
242	0x3dc1ddb2	0.09466113
243	0x3db08729	0.0861953
244	0xbcfca5d2	-0.030840788
245	0x3d0a8273	0.033815812
246	0x3d85b708	0.06529051
247	0x3c9f0c42	0.019415025
248	0x3d8f2733	0.069898985
249	0x3b253780	0.0025210083
250	0x3e412629	0.18862213
251	0x3c5346f2	0.012895333
252	0x3dd9d12a	0.10635598
253	0x3df3f318	0.11911601
254	0x3dd5da33	0.10442009
255	0x3da85545	0.08219389

lstm1.weight_hh_l0 f4 [512, 128]
0	0x3ddf2dd4	0.10897413
1	0x3d2aa4b7	0.04166099
2	0x3dba6451	0.09101165
3	0x3d9f0372	0.07764329
4	0xbd8ca928	-0.068682015
5	0x3db1c267	0.086796574
6	0xbcdc0881	-0.026859524
7	0xbdc7caf3	-0.09755506
8	0xbe305092	-0.17218235
9	0xbd053f4f	-0.03253108
10	0x3d793587	0.060842063
11	0x3e272249	0.16321672
12	0x3cc53a97	0.02407579
13	0xbd384a3c	-0.04499267
14	0x3c9855df	0.018595634
15	0x3b93a0d6	0.004505257
16	0xb99aa5ec	-0.0002949679
17	0xbd3cee2e	-0.046125583
18	0x3d969fc1	0.073546894
19	0x3d81d469	0.06339342
20	0xbd9987ac	-0.074965805
21	0x3d89527c	0.06705186
22	0x3dca750a	0.09885605
23	0xbc339535	-0.010960867
24	0x3dad5b51	0.08464683
25	0xbcfd8689	-0.03094794
26	0x3d00c4b5	0.031437594
27	0x3cf301a3	0.029663866
28	0x3dea4297	0.11438482
29	0xbe1949f9	-0.14969625
30	0xbdf0514d	-0.11734257
31	0x3bda094c	0.0066539403
32	0xbd5363a2	-0.05160869
33	0xbda75385	-0.08170227
34	0x3d8498b6	0.0647444
35	0xbdd1900a	-0.102325514
36	0x3d305a0b	0.04305462
37	0x3e863efd	0.2621993
38	0xbd047991	-0.032342497
39	0xbe0089be	-0.12552544
40	0x3c5ee618	0.013604663
41	0xbdd84c9a	-0.105614856
42	0x3da45f9b	0.08026048
43	0xbceb212e	-0.028702345
44	0x3d85a6ea	0.06525977
45	0x3db5fe3a	0.088863805
46	0xbdc479a2	-0.09593512
47	0x3e73209c	0.23742908
48	0xbd7517c9	-0.059837136
49	0xbd43873c	-0.04773639
50	0x3cc264aa	0.023729641
51	0x3e0a7d29	0.13524307
52	0xbc92402a	-0.017852861
53	0xbd8da781	-0.069167145
54	0xbc12020a	-0.008911619
55	0xbe3c2014	-0.18371612
56	0xbd3c4725	-0.045966286
57	0x3a6faada	0.00091425853
58	0x3d6c5813	0.05770118
59	0xbcace9e9	-0.02110763
60	0x3cb97a1e	0.022641238
61	0xbce5469f	-0.027987776
62	0xbdd4bc44	-0.10387471
63	0x3cc22df6	0.023703557
64	0x3d83b548	0.06431061
65	0xbd1ef544	-0.038808122
66	0xbcb0943e	-0.021555062
67	0x3cb16e99	0.021659182
68	0x3d0f444d	0.034977246
69	0x3da06313	0.07831397
70	0x3e53ae58	0.20671976
71	0x3dee7d3a	0.11644979
72	0x3d96059a	0.07325287
73	0xbd1263d4	-0.035739735
74	0xbd6889b1	-0.056771938
75	0x3dd59b08	0.104299605
76	0xbd662623	-0.056188714
77	0xbdd124e6	-0.10212116
78	0x3d82fab8	0.06395477
79	0xbbc77acb	-0.006087636
80	0xbcd582ec	-0.026063405
81	0x3db6fdd5	0.08935133
82	0xbb91c5db	-0.004448635
83	0x3db05998	0.08610839
84	0xbcefa6f9	-0.029254423
85	0x3d858ce8	0.06521016
86	0xbe1c5d5a	-0.15269986
87	0x3da7d247	0.08194404
88	0x3d70513c	0.05867122
89	0xbbddfb01	-0.0067743068
90	0xbcc51bf8	-0.024061188
91	0x3ddcd66a	0.10783084
92	0xbdbec99c	-0.09315798
93	0xbc4d9289	-0.012547144
94	0x3b2dc0da	0.0026512654
95	0xbc8a982e	-0.016918268
96	0xbcc001bc	-0.023438327
97	0xbd1dac59	-0.03849444
98	0x3daa1859	0.08305425
99	0x3c39fe11	0.011352078
100	0xbccf0e92	-0.025275502
101	0xbd2bd122	-0.04194749
102	0xbce0fdb1	-0.02746472
103	0xbde627ea	-0.11238082
104	0xbc910aa8	-0.017705277
105	0x3d9c736b	0.07639202
106	0xbc6e8d77	-0.014560095
107	0xbcc9bcc0	-0.024626136
108	0xbd537310	-0.051623404
109	0xbdaa42e2	-0.08313538
110	0xbd770c38	-0.060314387
111	0x3d0a83c2	0.03381706
112	0xbe0e7df0	-0.13915229
113	0x3cf8d1da	0.030373503
114	0x3d9ee5e2	0.077586904
115	0x3d1c1c87	0.038113143
116	0x3c97e5e9	0.018542247
117	0xbdb899e2	-0.09013726
118	0x3d0609e6	0.032724284
119	0xbc4f84a7	-0.012665904
120	0xbe223f81	-0.15844537
121	0x3cbc893b	0.023014655
122	0xbd3b152c	-0.045674488
123	0xbd8acdb8	-0.06777519
124	0xbc8db9e5	-0.017300555
125	0x3d654138	0.0559704
126	0x3d863225	0.06552533
127	0xbbad905f	-0.0052967514
128	0x3da17f96	0.07885663
129	0xbcef6ada	-0.029225755
130	0xbdb3b955	-0.08775584
131	0x3d3a8640	0.045538187
132	0xbcf17295	-0.029473582
133	0x3d1f9249	0.038957868
134	0x3cf7697c	0.030201666
135	0x3d39f7b0	0.04540223
136	0xbdb0e6d0	-0.08637774
137	0x3d0b3cb3	0.033993434
138	0x3d1adbbe	0.03780722
139	0x3cafffbb	0.021484246
140	0xbd4934ca	-0.04912261
141	0xbdc130ad	-0.09433112
142	0xbdadfb31	-0.084951766
143	0xbd44b6f1	-0.04802603
144	0x3d31e7b9	0.04343388
145	0x3da3050b	0.07959946
146	0xbb8e0333	-0.0043338775
147	0x3d161418	0.036640257
148	0x3d0bb562	0.034108527
149	0x3ca0bf11	0.019622358
150	0xbc506873	-0.012720215
151	0x3d85da8a	0.06535824
152	0x3d9b2032	0.075745
153	0xbd903b52	-0.070425645
154	0xbb93ad2c	-0.0045067277
155	0xbda039fe	-0.07823561
156	0x3c83a9ac	0.016072117
157	0xbd16949a	-0.03676281
158	0xbd3f447b	-0.046696167
159	0x3d818c23	0.06325557
160	0x3dde935f	0.108679526
161	0xbc754121	-0.014969141
162	0xbd1ffc17	-0.03905877
163	0xbd2aeeab	-0.041731518
164	0x3da01315	0.078161396
165	0x3cc211b3	0.02369008
166	0x3cd48bcc	0.025945567
167	0xbd885170	-0.06656158
168	0x3bb37a36	0.005477215
169	0xbce548da	-0.02798884
170	0xbc3d8de3	-0.011569473
171	0x3c975135	0.01847134
172	0x3d80e143	0.06292965
173	0xba24060e	-0.0006257006
174	0xbda35ca1	-0.07976652
175	0xbcba8bb6	-0.022771697
176	0xbc40cf58	-0.011768185
177	0xbe27dd60	-0.16393042
178	0xbcdf43e0	-0.027254045
179	0x3da37049	0.07980401
180	0x3d044a3f	0.03229737
181	0x3c4be3ab	0.012444417
182	0x3db31dd1	0.087459214
183	0xbc7661a3	-0.015037927
184	0xbcd40c5f	-0.025884805
185	0x3d51c1de	0.051210277
186	0xbd26dd95	-0.04073866
187	0xbd48cc98	-0.04902324
188	0x3dbb674e	0.09150563
189	0xbc747631	-0.014920757
190	0xbdbee86f	-0.09321677
191	0x3cb59a32	0.022168253
192	0x3d81fee7	0.06347447
193	0xbd6e5532	-0.058186717
194	0xbd9a5a94	-0.07536808
195	0xbd87189e	-0.06596492
196	0xbccbb444	-0.02486623
197	0x3bc3ba20	0.0059731156
198	0x3d065329	0.03279415
199	0x3bb21403	0.0054345145
200	0x3e00623c	0.12537473
201	0x3d85e15d	0.06537125
202	0xbcfd17e1	-0.030895175
203	0x3b2536ee	0.0025209743
204	0x3d56c94f	0.052438077
205	0x3d6302da	0.05542264
206	0x3d78b32c	0.060717747
207	0xbd10316d	-0.035203386
208	0x3c583cbc	0.013198074
209	0x3d0dfe2f	0.034666236
210	0x3db5ed55	0.08883158
211	0x3d6a4671	0.057196084
212	0x3ddb0ce6	0.106958196
213	0x3d8bde20	0.06829476
214	0x3cbdc910	0.023167163
215	0xbd67eb37	-0.056620803
216	0x3cf09e19	0.029372262
217	0x3cb58014	0.022155799
218	0x3d35892a	0.044320263
219	0x3ddb07a9	0.106948204
220	0xbd96da2e	-0.07365833
221	0xbd97eeff	-0.07418632
222	0x3d465857	0.04842409
223	0xbcc48073	-0.02398703
224	0xbcc11efc	-0.023574345
225	0xbd4a7b31	-0.04943389
226	0x3ddd8321	0.108160265
227	0xbc23eaf9	-0.010004752
228	0xbcefb75e	-0.029262241
229	0xbccad269	-0.024758535
230	0x3cd07337	0.025445564
231	0x3dbc3b74	0.09191027
232	0xbde9d11d	-0.11416838
233	0xbc6a068e	-0.014283789
234	0x3dd79a88	0.10527521
235	0x3d937504	0.07200053
236	0x3d9d8811	0.07691968
237	0x3d2ec3a6	0.042667054
238	0x3d85b2de	0.06528257
239	0x3d78e1d5	0.060762245
240	0xbdb1dfdb	-0.08685275
241	0xbb6fd5ee	-0.0036596018
242	0xbd1d3322	-0.038378842
243	0x3d061515	0.03273495
244	0xbc0d3c97	-0.008620403
245	0xbd337e1e	-0.043821447
246	0xbd08fb35	-0.033442695
247	0x3ae4f87d	0.0017469075
248	0xbd9370af	-0.07199227
249	0xbcf7bebc	-0.030242316
250	0xbc4cb5ba	-0.012494499
251	0x3c895397	0.016763492
252	0xbd26ac74	-0.040691808
253	0xbda8f7c9	-0.08250386
254	0x3d8d706a	0.06906207
255	0xbd89a34b	-0.06720599

lstm1.bias_ih_l0 f4 [512]
0	0x3c398d9a	0.011325264
1	0x3dcea264	0.10089567
2	0xbda8c530	-0.082407355
3	0xbcccb6f0	-0.024989575
4	0x3caa8830	0.020816892
5	0x3cc76245	0.02433885
6	0xbd87d50a	-0.06632431
7	0xbe10368e	-0.14083311
8	0xbe120331	-0.1425903
9	0xbe02eead	-0.1278636
10	0x3dc9491e	0.09828399
11	0xbd180518	-0.037114233
12	0xbdeaad49	-0.11458833
13	0x3c40b3d1	0.011761622
14	0x3e02eaa4	0.12784821
15	0xbdcb0f53	-0.09915032
16	0xbccde244	-0.025132306
17	0xbd6e57b2	-0.0581891
18	0x3c79953e	0.015233336
19	0x3bc317a0	0.005953744
20	0x3d584ae0	0.05280578
21	0xbcfdb21b	-0.030968716
22	0xbddfdde2	-0.10930993
23	0xbb87468e	-0.004128284
24	0x3b046e6a	0.0020207413
25	0xbd37a400	-0.044834137
26	0x3c2e9bba	0.010657245
27	0xbd86468f	-0.06556427
28	0xbd14bbd5	-0.036311943
29	0x3e06de1c	0.13170666
30	0xbd42d85b	-0.047569614
31	0x3c608066	0.013702488
32	0xbd5923d4	-0.053012684
33	0x3df5b93f	0.119982235
34	0x3c315dbb	0.01082557
35	0xbda500a9	-0.080567665
36	0xbd7ac136	-0.061219417
37	0xbddd171d	-0.10795424
38	0xbc3662b6	-0.011131933
39	0x3ddaa45e	0.10675882
40	0xbd42244c	-0.047397897
41	0xbc303555	-0.010754903
42	0xbdaa58a5	-0.08317689
43	0xbd53579c	-0.051597223
44	0xbcd453a5	-0.025918791
45	0xbc989e0e	-0.018630054
46	0xbd46dcda	-0.048550464
47	0xbc178e4c	-0.009250235
48	0xbda20003	-0.079101585
49	0xbdb5c77f	-0.088759415
50	0x3d90a330	0.070623755
51	0xbd5dc459	-0.05414233
52	0xbc5d8f00	-0.013522863
53	0xbd7b9d62	-0.06142939
54	0xbd49a138	-0.049226016
55	0x3dc243e6	0.09485607
56	0xbdc6f98e	-0.097155675
57	0xbdbdb14a	-0.09262331
58	0xbded1f9e	-0.11578296
59	0xbd5ddcfd	-0.05416583
60	0x3be0c569	0.0068594706
61	0x3d552e10	0.05204588
62	0x3de31bb6	0.1108927
63	0xbce7d2b3	-0.028298711
64	0x3c7a0ea2	0.015262278
65	0x3d5ceb51	0.053935353
66	0x3d71ab71	0.05900139
67	0xbd80680c	-0.06269845
68	0x3a2c8e83	0.0006582515
69	0xbce82cf0	-0.02834174
70	0x3c7c4e56	0.015399536
71	0xbe23be9d	-0.15990682
72	0xbd5d7f83	-0.054076683
73	0xbd155e10	-0.036466658
74	0xbd83ed81	-0.06441785
75	0x3d0b42bf	0.0339992
76	0xbcca0f8a	-0.024665613
77	0xbcedf552	-0.029047642
78	0xbd8de70e	-0.06928836
79	0x3d9fe43c	0.07807204
80	0xbd31e2ef	-0.04342931
81	0x3e33d091	0.1756003
82	0xbd426c5a	-0.047466613
83	0x3ca8964c	0.02057948
84	0xbc84418a	-0.016144533
85	0x3e1379c2	0.14401916
86	0xbca56ffa	-0.020194996
87	0x3d1eed8a	0.038800754
88	0xbb3fa42d	-0.0029242144
89	0xbd2178c8	-0.039421827
90	0xbcc1d774	-0.023662306
91	0x3dfd6136	0.12372057
92	0xbe0c0bf6	-0.13676438
93	0xbd1f121c	-0.03883563
94	0xbd55988e	-0.05214744
95	0xbda5fd14	-0.081049114
96	0xbdcd91fc	-0.1003761
97	0xbbde0f5d	-0.006776734
98	0x3cb995a5	0.022654364
99	0xbcdebd81	-0.027189972
100	0x3de32960	0.11091876
101	0xbd1020e5	-0.03518762
102	0xbce2d058	-0.027687237
103	0xbcc91774	-0.024547316
104	0x3e132659	0.14370097
105	0xbdbb7a74	-0.091542155
106	0x3d90689e	0.07051204
107	0x3d84c4c9	0.06482846
108	0x3da0f3ea	0.07859023
109	0x3d867244	0.06564763
110	0xbca4c038	-0.020111188
111	0xbd807ece	-0.06274186
112	0xbe19c47b	-0.15016358
113	0xbda93772	-0.082625285
114	0xbe337616	-0.17525515
115	0x3cb9ee4d	0.022696638
116	0xbd314f87	-0.043288734
117	0xbda28cab	-0.079369865
118	0xbda943ea	-0.08264907
119	0x3c9fdba7	0.019513918
120	0x3e0fcc0d	0.14042683
121	0xbd4bf18f	-0.049790915
122	0x3db0d7cf	0.08634912
123	0xbbd500e5	-0.006500351
124	0xbad7df8e	-0.0016469823
125	0x3c772211	0.015083806
126	0xbd9706c0	-0.07374334
127	0x3b37cd23	0.0028045855
128	0xbd3dcdf9	-0.04633901
129	0x3c50be13	0.01274063
130	0xbd7e83e2	-0.062137492
131	0xbd26f645	-0.040762205
132	0xbd9b7692	-0.07590975
133	0xbd506163	-0.050874125
134	0xbdd103a3	-0.10205772
135	0xbe0772b1	-0.13227345
136	0xbe3c490c	-0.1838724
137	0xbe061d88	-0.13097203
138	0x3d34a821	0.044105653
139	0xbceadec0	-0.028670669
140	0xbdfca180	-0.12335491
141	0xbd901849	-0.07035882
142	0x3d1da3c1	0.038486246
143	0xbd1de7af	-0.03855103
144	0xbe0a42eb	-0.1350209
145	0xbdbd5446	-0.092445895
146	0xbc6d2e4f	-0.014476373
147	0xbdc725ed	-0.09724031
148	0xbceaf129	-0.028679447
149	0xbd0acf5b	-0.033889156
150	0xbd370cc9	-0.044689927
151	0xbdfd2620	-0.123607874
152	0xbe27b3ef	-0.16377233
153	0xbdfd59ab	-0.123706184
154	0x3ceca0d1	0.028885277
155	0xbdaf74e9	-0.08567221
156	0xbda28822	-0.079361215
157	0x3e63f2dc	0.22260612
158	0xbe1abc04	-0.15110785
159	0xbceff4b2	-0.029291485
160	0x3d17bdbb	0.037046175
161	0x3d86094c	0.06544742
162	0xbddc2c7b	-0.107506715
163	0xbc943bbd	-0.018094892
164	0xba487a2e	-0.0007647601
165	0xbd5692bf	-0.05238604
166	0x3c8c880c	0.017154716
167	0xbd6d5029	-0.057937775
168	0xbd2231bb	-0.039598208
169	0x3c5ca1bb	0.013466294
170	0xbd111207	-0.035417583
171	0xbc020b2b	-0.007937233
172	0xbcda962e	-0.02668294
173	0xbd732cb9	-0.059368823
174	0xbdd2ac49	-0.10286767
175	0xbd3b26c6	-0.045691274
176	0xbdc0e6a3	-0.094189905
177	0xbd93020c	-0.07178125
178	0x3c571922	0.013128551
179	0x3cb9175d	0.022594148
180	0xbe0d6877	-0.13809381
181	0xbdb64240	-0.08899355
182	0xbc221048	-0.009891577
183	0xbdfd9351	-0.12381614
184	0xbda06507	-0.078317694
185	0xbdf50823	-0.119644426
186	0x3ac1820f	0.0014763492
187	0xbe36fa4b	-0.17868917
188	0x3cb0e219	0.021592187
189	0xbe0c300e	-0.13690206
190	0x3cc4ee26	0.02403934
191	0xbabee8c5	-0.001456522
192	0xbdf20b1a	-0.11818524
193	0xbe12479d	-0.14285131
194	0xbe1ccf46	-0.15313444
195	0xbd3e3ab6	-0.04644271
196	0xbd1db612	-0.038503714
197	0xbc9f45c5	-0.019442448
198	0xbdbe1646	-0.09281592
199	0xbe2c45a2	-0.16823438
200	0x3d83ccce	0.06435548
201	0xbdf55b0e	-0.11980258
202	0x3d0687be	0.032844298
203	0xbd5f26ad	-0.054480243
204	0xbdfba182	-0.122866645
205	0xbd04f8f4	-0.032463983
206	0x3b22d6c0	0.002484724
207	0x3d89ca95	0.067280926
208	0x3c51bf5c	0.012801971
209	0x3e22ae7c	0.15886873
210	0xbdc491df	-0.09598135
211	0xbbcce53d	-0.0062529133
212	0x3be8afe8	0.007101048
213	0xbc469252	-0.012119846
214	0xbca5e4ff	-0.020250795
215	0xbce261a2	-0.027634446
216	0xbd498416	-0.049198233
217	0xbde5bcdd	-0.112176634
218	0xbd88ff91	-0.066893704
219	0xbcbd9004	-0.023139961
220	0xbd9fdb1c	-0.07805464
221	0xbdc7cbda	-0.097556785
222	0xbd83e5e6	-0.06440334
223	0xbce9e0c2	-0.028549556
224	0x3c8581e3	0.016297286
225	0xbdfa7aa9	-0.12230427
226	0x3d313a57	0.043268528
227	0xbdc796ae	-0.09745537
228	0x3ca00ad4	0.019536413
229	0x3c25d2d7	0.010121069
230	0xbe0d5fe9	-0.13806118
231	0x3cadc1b8	0.021210536
232	0x3beba6ca	0.0071915137
233	0xbd1ec1c7	-0.03875902
234	0xbdde0951	-0.10841621
235	0x3cb06e46	0.021536957
236	0xbbb98512	-0.005661615
237	0x3dad009b	0.08447381
238	0xbbc6aaad	-0.0060628266
239	0x3d56909e	0.05238401
240	0xbca9e664	-0.020739742
241	0xbd801697	-0.06254309
242	0xbda15a06	-0.07878499
243	0xbd58227d	-0.052767266
244	0xbd0c5dff	-0.03426933
245	0x3c052cf7	0.008128396
246	0xbda74c80	-0.08168888
247	0xbd9c44ad	-0.07630286
248	0x3d959c26	0.073051736
249	0xbcbc309c	-0.022972398
250	0x3db25093	0.087067746
251	0xbcbcd81b	-0.023052266
252	0xbcfd1efd	-0.030898565
253	0xbdf8829b	-0.12134286
254	0x3b7103d8	0.0036775973
255	0xbbab2587	-0.0052229795

lstm1.bias_hh_l0 f4 [512]
0	0xbda1de68	-0.07903749
1	0x3d9e3da2	0.07726599
2	0xbcf78f9e	-0.03021985
3	0xbc8e3ca0	-0.017362893
4	0xbd35b5b6	-0.044362746
5	0x3d21b8a8	0.039482743
6	0xbaf21c3d	-0.001847155
7	0xbcfa3f3d	-0.030547732
8	0xbdf05e6f	-0.11736762
9	0xbdebc001	-0.11511231
10	0x3c335275	0.010944952
11	0xbd806436	-0.06269114
12	0x3cf7f65d	0.030268842
13	0xbd89ed8f	-0.06734764
14	0x3d86f7c6	0.06590228
15	0xbdc1bf73	-0.09460344
16	0xbd34612a	-0.044037975
17	0x3d9d6f08	0.07687193
18	0x3cb89e43	0.022536403
19	0xbda930e2	-0.08261277
20	0x3dcbbf60	0.09948611
21	0xbdfee3de	-0.12445806
22	0xbe29570d	-0.16537113
23	0x3d21553d	0.03938793
24	0x3d0c17b1	0.03420228
25	0xbd328094	-0.043579653
26	0x3dbcd3a3	0.09220054
27	0xbdfa6517	-0.122263126
28	0xbd9221b3	-0.07135334
29	0x3d980e57	0.0742461
30	0xbdbfb3f8	-0.09360498
31	0x3c1f0a12	0.009706991
32	0xbc524aee	-0.012835247
33	0x3d85954c	0.06522617
34	0xbc90952d	-0.017649258
35	0xbd4b1e22	-0.049589284
36	0xbd997a26	-0.07494001
37	0x3d3b557a	0.045735814
38	0xbd85c25f	-0.06531214
39	0x3d249b8a	0.040187396
40	0x3d4d59f2	0.050134607
41	0xbd99f0f9	-0.07516665
42	0xbe14d59d	-0.14534612
43	0xbd3fa860	-0.046791434
44	0x3bb0a31a	0.005390537
45	0xbdbcb77c	-0.09214684
46	0xbca8af80	-0.020591497
47	0x3c42e2ab	0.011894862
48	0xbd558cb3	-0.052136134
49	0x3d34b31d	0.04411613
50	0xbc1939b0	-0.009352133
51	0x3c84e0a5	0.0162204
52	0xbe1263b8	-0.14295852
53	0xbc1bf4f8	-0.009518854
54	0xbc5f2b34	-0.01362114
55	0xbd8301c2	-0.0639682
56	0xbd14be8d	-0.036314536
57	0xbcbf1423	-0.023325032
58	0xbd623f7c	-0.055236325
59	0x3cfcf553	0.030878698
60	0x3d36afaf	0.04460114
61	0x3d468bc6	0.048473142
62	0x3bcbea03	0.0062229647
63	0xbdea82b0	-0.11450708
64	0xbc7763b6	-0.0150994565
65	0x3d80a9c6	0.06282382
66	0x3cdc8359	0.0269181
67	0xbcb8c292	-0.022553716
68	0xbd746229	-0.059663925
69	0x3dcf03dd	0.10108159
70	0xbced6064	-0.028976627
71	0xbdedcab7	-0.116109304
72	0xbca1e4ec	-0.019762479
73	0x3c2809d4	0.010256249
74	0xbd38e6ca	-0.045141973
75	0xbde73fc6	-0.11291461
76	0x3b73aea4	0.0037182951
77	0xbdb27735	-0.08714143
78	0xbc73fe21	-0.014892132
79	0x3e03b1e6	0.12860832
80	0xbb9fff69	-0.004882742
81	0x3da1cf1d	0.07900832
82	0xbd772d4c	-0.060345933
83	0xbd3406b3	-0.0439517
84	0x3da2ea17	0.07954805
85	0x3d6c721b	0.057726007
86	0xbd293844	-0.041313425
87	0xbd43dae4	-0.047816172
88	0x3da9bca7	0.08287936
89	0xbdbf8219	-0.09350986
90	0xbdea5d16	-0.11443536
91	0x3df8630a	0.12128265
92	0xbd782568	-0.06058255
93	0xbca4592f	-0.020062057
94	0x3cadd779	0.02122091
95	0xbd0a98df	-0.033837195
96	0xbddb4edc	-0.107084006
97	0x3dedec6e	0.11617361
98	0x3d2e6aad	0.042582203
99	0xbdbe7121	-0.092989214
100	0x3dd0a88e	0.10188399
101	0xbc696047	-0.014244146
102	0xbce4ee72	-0.02794573
103	0x3da8ea07	0.08247762
104	0x3dac4b08	0.084127486
105	0xbd88ec33	-0.066856764
106	0xbce0cce5	-0.027441451
107	0x3c0096c0	0.007848442
108	0x3ddb6164	0.10711935
109	0x3d52c926	0.05146136
110	0x3d879eea	0.06622107
111	0x3da3309d	0.079682566
112	0xbd405513	-0.046956133
113	0xbdfab6d2	-0.122419015
114	0xbd47d3c8	-0.048785955
115	0xbdbaec31	-0.09127081
116	0xbc51a962	-0.012796732
117	0xbdbee799	-0.093215175
118	0xbcce4e21	-0.02518374
119	0xbd75866b	-0.059942644
120	0x3dfe498f	0.12416374
121	0x3d9597e0	0.073043585
122	0x3e15e2ab	0.14637248
123	0xbbc6c0bc	-0.006065456
124	0xbda93032	-0.08261146
125	0x3c3e2d77	0.011607519
126	0xbd032210	-0.032014906
127	0x3d4d937c	0.05018948
128	0xbdb128f6	-0.08650391
129	0xbd4edc16	-0.05050286
130	0xbd226fdd	-0.039657462
131	0x3d4271e7	0.047471907
132	0xbc8b52ad	-0.017007196
133	0xbd854ea1	-0.06509138
134	0xbe20643f	-0.15663241
135	0xbc791729	-0.015203276
136	0xbe12c368	-0.14332354
137	0xbd3fd686	-0.046835445
138	0x3cd01e3c	0.025405042
139	0x3b873e80	0.0041273236
140	0xbe2663b8	-0.16248977
141	0xbe232916	-0.15933642
142	0xbdd730b1	-0.10507334
143	0xbdae5926	-0.085130975
144	0xbc11bd6e	-0.008895261
145	0xbd82998e	-0.063769445
146	0x3d3fe9c6	0.046853803
147	0xbbc4098c	-0.0059825834
148	0xbe0b6b92	-0.13615254
149	0x3d0de61d	0.03464328
150	0xbe15e362	-0.14637521
151	0xbdb03b6a	-0.08605082
152	0xbda95b65	-0.08269385
153	0x3c349b46	0.011023348
154	0x3d79c8ab	0.060982388
155	0xbdac7e78	-0.084225595
156	0xbd93c3e7	-0.072151
157	0x3ea403e3	0.32034215
158	0xbd3c8294	-0.046022967
159	0xbc96c8ea	-0.01840635
160	0x3caf9aae	0.021436062
161	0xbc6d309a	-0.01447692
162	0xbd1dee2c	-0.038557217
163	0xbbd0e49e	-0.0063749095
164	0x3ca2b7f5	0.019863108
165	0xbcc62425	-0.024187157
166	0x3c48aa71	0.012247668
167	0x3c068988	0.008211501
168	0xbdbd2cb2	-0.092370406
169	0xbe0290e9	-0.12750591
170	0xbe4068c6	-0.18789968
171	0xbd3cb903	-0.04607488
172	0xbc7a8ca0	-0.015292317
173	0xbd264d71	-0.040601198
174	0x37ff083d	3.0402205e-05
175	0xbda831d3	-0.08212628
176	0xbccf1468	-0.025278285
177	0x3d27d594	0.04097517
178	0xbc39e0c4	-0.011345092
179	0x3d937dba	0.07201715
180	0xbe4feae4	-0.20304447
181	0x3b877801	0.0041341786
182	0x3cc27898	0.023739144
183	0xbd172f98	-0.036910623
184	0x3c819e0b	0.015822431
185	0xbe0028bb	-0.12515537
186	0xbd942c15	-0.072349705
187	0xbde8dc43	-0.113701366
188	0x3d68b7a7	0.05681577
189	0xbdec3e20	-0.11535287
190	0x3d03cbd5	0.03217681
191	0x3ce58bad	0.028020704
192	0xbd322069	-0.04348794
193	0xbdd0694a	-0.10176332
194	0xbd817209	-0.063205786
195	0xbcce8be9	-0.025213199
196	0xbe349f13	-0.17638807
197	0xbddd6529	-0.108103104
198	0xbe319259	-0.17340983
199	0xbe1f9cb0	-0.15587115
200	0x3d9688ef	0.07350337
201	0xbd5fd174	-0.05464311
202	0x3d1de620	0.038549542
203	0xbd78d329	-0.060748253
204	0xbe22e245	-0.15906627
205	0xbdd6c1be	-0.10486172
206	0x3cb3c4a2	0.021944348
207	0x3cb62785	0.022235641
208	0xbb53047e	-0.0032198722
209	0x3e205af8	0.15659702
210	0xbe0939ba	-0.13400927
211	0xbe101234	-0.14069444
212	0x3e0db03c	0.1383676
213	0x3cfe550c	0.031046413
214	0xbd635f55	-0.055510838
215	0xbdbdefa5	-0.09274224
216	0xbd508bc6	-0.05091455
217	0xbe015f1b	-0.12633936
218	0xbd35f5a5	-0.044423718
219	0x3ce57eab	0.028014502
220	0xbda285e2	-0.07935692
221	0xbd01e4b8	-0.031712264
222	0xbd445c2a	-0.047939457
223	0xbdff7fbc	-0.12475535
224	0x3c6acd97	0.014331243
225	0xbd5b9ed9	-0.053618286
226	0x3bfb993b	0.0076781786
227	0xbd6319f8	-0.055444688
228	0xbd71fc17	-0.059078302
229	0xbdeacee4	-0.114652425
230	0xbdb64bae	-0.089011535
231	0xbd3542d2	-0.044253178
232	0x3d901f05	0.070371665
233	0xbd985ebd	-0.07439945
234	0xb932326c	-0.00016994186
235	0x3b81398f	0.003943629
236	0xbcd15bfa	-0.025556553
237	0x3cb3015a	0.02185123
238	0xbd5c5a85	-0.053797264
239	0xbda6721b	-0.08127233
240	0x3c4909eb	0.012270431
241	0x3d0a7b52	0.033809014
242	0xbe018a60	-0.12650442
243	0xbd841335	-0.06448976
244	0xbce21f2b	-0.027602753
245	0x3d09cca0	0.03364241
246	0xbc437243	-0.011929098
247	0xbc610566	-0.013734197
248	0xbd2e8ab6	-0.042612754
249	0xbdd39d27	-0.10332709
250	0x3d05fb27	0.03271022
251	0xbd0037e1	-0.03130329
252	0x3d6bda0d	0.057580996
253	0x3c00dcaf	0.007865115
254	0xbc4dba51	-0.012556628
255	0xbde4504e	-0.111481294
