model/models/2h/trained_model.pt (torch, 666885 bytes, 17 tensors)

conv1.weight f4 [48, 5, 5]
0	0xbcecbb25	-0.028897831
1	0x3e22be03	0.15892796
2	0xbd5e3718	-0.05425176
3	0xbd86b104	-0.06576732
4	0xbe0cfed6	-0.13769087
5	0xbda0d634	-0.07853356
6	0x3cec4b41	0.028844478
7	0x3d1cd065	0.038284678
8	0xbe6a7c44	-0.22898966
9	0x3e29d795	0.16586144
10	0xbe1e7455	-0.15474065
11	0xbdd7ed96	-0.10543363
12	0xbe468c83	-0.19389538
13	0x3d2adcab	0.04171435
14	0x3dc4c76b	0.096083485
15	0x3e19bb09	0.15012754
16	0xbe07a56d	-0.13246699
17	0xbe62cabb	-0.22147648
18	0x3d84c7c3	0.06483414
19	0xbe5bea25	-0.21476038
20	0x3e015c8a	0.12632957
21	0xbe432c98	-0.1905998
22	0xbca8435b	-0.02053993
23	0xbe42d6cf	-0.19027255
24	0xba6852e8	-0.00088624517
25	0xbd1c8309	-0.038210902
26	0xbe4bc558	-0.198995
27	0x3deaedde	0.11471151
28	0xbe2173bc	-0.15766805
29	0xbbeb005a	-0.007171673
30	0xbbfea019	-0.00777055
31	0xbe5d8731	-0.21633603
32	0xbe413932	-0.18869475
33	0xbe0a810a	-0.13525787
34	0x3ca2a39d	0.019853408
35	0xbdf115cd	-0.11771736
36	0xbe60a031	-0.21936108
37	0x3d92bad2	0.071645394
38	0x3cb7e701	0.022449018
39	0xbe7e0112	-0.24805096
40	0x3dacaa3f	0.08430909
41	0xbe7d7c0f	-0.24754356
42	0x3ddbc07b	0.10730072
43	0xbe705ae8	-0.23472178
44	0xbe168a1e	-0.14701125
45	0xbda537c8	-0.0806728
46	0x3d84a104	0.06476024
47	0x3dd3ccb5	0.10341779
48	0xbb25920b	-0.002526405
49	0x3e062d19	0.13103141
50	0xbe0cf72d	-0.13766165
51	0xbe1520bb	-0.14563267
52	0xbdd3d7fc	-0.1034393
53	0xbe4be7f6	-0.19912705
54	0xbe1baabd	-0.1520185
55	0xbdaffc1a	-0.085930064
56	0x3d972939	0.073809095
57	0xbe263e18	-0.16234624
58	0xbdf7975f	-0.120894186
59	0x3da368fc	0.079790086
60	0xbe3b2c0c	-0.18278521
61	0x3c168ae3	0.009188387
62	0xbd112b9b	-0.035441976
63	0xbe214292	-0.15748051
64	0x3e356bb8	0.17716873
65	0x3ceaeded	0.028677905
66	0x3dddd4c9	0.10831601
67	0x3cb4c43c	0.022066228
68	0xbe463c64	-0.19358975
69	0xbe43bf48	-0.19115937
70	0x3d68e143	0.05685545
71	0x3e1ac236	0.15113148
72	0xbdb25a89	-0.087086745
73	0x3df23de0	0.11828208
74	0xbe03be33	-0.12865524
75	0xbdfaf226	-0.122532174
76	0xbdb31473	-0.08744135
77	0x3d53f26b	0.05174486
78	0x3d4f68db	0.050637107
79	0x3dda0bb3	0.10646763
80	0xba6cf836	-0.0009039672
81	0xbe3a9a92	-0.18223026
82	0xbd762ef6	-0.06010338
83	0x3d3d592b	0.046227615
84	0xbe05b915	-0.13058884
85	0x3e56833d	0.20948501
86	0xbdb4b6fc	-0.08823964
87	0xbe20cce2	-0.15703157
88	0x3e2a9134	0.16656953
89	0x3d6cba92	0.057795115
90	0xbe2d2cc9	-0.16911615
91	0xbccbd48e	-0.024881627
92	0xbc005b75	-0.007834305
93	0xbe47df61	-0.19518806
94	0xbd8a8f19	-0.06765575
95	0x3de67451	0.11252654
96	0xbd2294a4	-0.039692536
97	0x3e4aaf57	0.1979345
98	0xbb190601	-0.0023349526
99	0xbe443705	-0.19161613
100	0xbd446fb2	-0.047958083
101	0xbd0c2f66	-0.03422489
102	0x3e03c239	0.12867059
103	0x3bfeeeb7	0.007779922
104	0x3d81cba9	0.06337673
105	0xbde2891f	-0.1106131
106	0xbd4feb9c	-0.050761804
107	0xbdf1588d	-0.11784468
108	0x3e138e6d	0.144098
109	0xbe176b73	-0.14787082
110	0xbe0097f5	-0.12557967
111	0xbd3cac32	-0.046062656
112	0x3cb2dc5f	0.021833597
113	0xbcf2c24d	-0.029633665
114	0xbd296526	-0.04135623
115	0x3dcb3d01	0.09923745
116	0xbc05d757	-0.008169017
117	0xbce45040	-0.027870297
118	0xbe3d144a	-0.18464771
119	0x3d7c5410	0.061603606
120	0xbe04c85f	-0.1296706
121	0xbe3f7c92	-0.18699864
122	0xbd96d955	-0.073656715
123	0xbe134888	-0.14383137
124	0x3df536b8	0.119733274
125	0xbb8c64c0	-0.0042844713
126	0x3d0760fe	0.033051483
127	0x3d6b1833	0.057396125
128	0xbe2ac7a0	-0.16677713
129	0x3ded5452	0.115883484
130	0xbe3fe7bb	-0.18740742
131	0xbe2327ee	-0.159332
132	0x3af795fc	0.0018889303
133	0x3cbba264	0.022904582
134	0x3d0dfc22	0.03466428
135	0xbd078e14	-0.03309448
136	0x3e3a0859	0.18167247
137	0x3e1084a5	0.141131
138	0xbe027f00	-0.12743759
139	0x3e06e40e	0.13172933
140	0xbe2652a2	-0.1624246
141	0xbd6cfeb8	-0.057860106
142	0x3dd7404a	0.10510309
143	0x3d45a246	0.04825046
144	0xbe3b704a	-0.18304554
145	0xbe313ee0	-0.17309141
146	0xbe202eaa	-0.15642801
147	0xbe19fe97	-0.15038525
148	0xbe0b0717	-0.13576923
149	0xbd8bce5f	-0.068264715
150	0xbe1b2bb2	-0.15153387
151	0x3d268e32	0.04066295
152	0xbdb24f9a	-0.08706589
153	0x3d37a3c7	0.044833925
154	0x3e02d9e4	0.12778431
155	0xbe5a107c	-0.21295351
156	0xbdde6ff9	-0.10861201
157	0xbe1887ce	-0.14895555
158	0x3e0883a5	0.13331468
159	0x3e06d726	0.1316801
160	0x3d4d6f47	0.05015495
161	0x3d78b59a	0.060720064
162	0x3d9eceae	0.07754265
163	0x3de7c293	0.11316409
164	0xbd9e44b8	-0.07727951
165	0x3da3bb4b	0.07994708
166	0xbe498b1c	-0.19681972
167	0x3cfe268c	0.03102424
168	0xbe1aee83	-0.15130048
169	0xbe444472	-0.19166735
170	0x3def3491	0.11679948
171	0xbe4b597c	-0.19858354
172	0xbde89893	-0.11357226
173	0x3defdfde	0.11712621
174	0xbd1a524f	-0.03767615
175	0xbe2d11e1	-0.16901352
176	0xbe341043	-0.17584328
177	0x3cad35a1	0.021143736
178	0x3e66e475	0.22548087
179	0x3e0892d7	0.13337265
180	0x3d346c34	0.044048503
181	0xbe2cc2dd	-0.1687121
182	0x3e093d1b	0.13402216
183	0x3d7e1ad2	0.062037297
184	0xbe1226a0	-0.14272547
185	0xbd7d830d	-0.061892558
186	0xbdf60398	-0.12012404
187	0xbd96cf5a	-0.07363768
188	0x3e33c505	0.17555626
189	0x3e3f9dab	0.1871249
190	0x3e4157d6	0.18881163
191	0xbe0c8151	-0.13721205
192	0x3e103b6d	0.14085169
193	0x3e5a9d46	0.21349058
194	0x3e13dbee	0.14439365
195	0x3e5876e6	0.21139106
196	0x3cfd07ec	0.030887567
197	0x3db1f6f3	0.0868968
198	0x3e6096c0	0.21932507
199	0xbd0bd72b	-0.034140747
200	0x3df44056	0.119263336
201	0x3e1d58b1	0.15365864
202	0xbdbc82f7	-0.09204667
203	0x3c022900	0.0079443455
204	0xbd05eed8	-0.032698482
205	0xbdcb0f67	-0.09915047
206	0xbc6ef9e0	-0.014585942
207	0xbe250963	-0.16116862
208	0xbc793e20	-0.015212566
209	0x3d840d1a	0.064478114
210	0xbe3cd72f	-0.18441461
211	0xbdad6a5a	-0.084675506
212	0x3de1222a	0.109928444
213	0xbe366b80	-0.17814445
214	0x3dffac06	0.12483983
215	0xbcfe41d8	-0.031037256
216	0xbe110b5e	-0.14164492
217	0xbd16bc58	-0.036800712
218	0xbd199aa8	-0.037501007
219	0x3d83353a	0.064066365
220	0x3e3c2051	0.18371703
221	0xbe038fa5	-0.12847765
222	0xbd12ab60	-0.035807967
223	0x3e2bcdaf	0.16777681
224	0xbe050bf8	-0.12992847
225	0xbe48ca62	-0.19608453
226	0xbd7f64db	-0.062352043
227	0xbd05527b	-0.032549363
228	0x3b41c4fa	0.002956687
229	0xbde3c33b	-0.11121222
230	0xbe27daad	-0.16392012
231	0x3e266d58	0.16252649
232	0x3e4317bd	0.19052024
233	0x3e2690d3	0.16266184
234	0xbe3e4109	-0.18579496
235	0x3d9ef759	0.077620216
236	0x3e387c3b	0.1801614
237	0x3e106f47	0.14104949
238	0x3d5440fe	0.051819794
239	0x3e21ba94	0.1579383
240	0x3db04482	0.08606817
241	0x3e3e208e	0.18567106
242	0x3de68625	0.11256055
243	0xbd8834d0	-0.06650698
244	0x3e0d41bd	0.13794608
245	0xbd8eea32	-0.06978263
246	0x3e0ee61f	0.13954972
247	0xbd403e11	-0.04693419
248	0x3d2f58be	0.04280924
249	0xbe1db7ae	-0.154021
250	0x3d60645c	0.05478321
251	0xbe25dbeb	-0.16197173
252	0x3d1459d3	0.036218476
253	0x3d87c4ff	0.06629371
254	0xbd5e2662	-0.054235823
255	0xbdc2d2f7	-0.095128946

conv1.bias f4 [48]
0	0x3d09dca2	0.033657677
1	0x3ddb5932	0.10710372
2	0xbd52399e	-0.05132448
3	0x3e816c0a	0.2527774
4	0x3e498892	0.19681004
5	0xbd83b029	-0.06430084
6	0xbdb17836	-0.086655065
7	0xbe88930a	-0.26674682
8	0xbe4a78ea	-0.19772688
9	0xbe8e8a60	-0.27839947
10	0xbcadb047	-0.02120222
11	0xbe1baec0	-0.1520338
12	0x3dfa1e46	0.122128054
13	0xbd93f0c0	-0.07223654
14	0x3dd74633	0.10511436
15	0xbd9a1c87	-0.075249724
16	0x3e815f96	0.2526824
17	0xbe2cc482	-0.16871837
18	0xbe01271d	-0.12612577
19	0x3d7b91e0	0.061418414
20	0xbdbae6b3	-0.09126034
21	0x3dbdfbb7	0.092765264
22	0xbdce3620	-0.10068917
23	0x3d818136	0.06323473
24	0xbe3d3024	-0.18475395
25	0xbe473dd8	-0.19457185
26	0x3c33817f	0.010956167
27	0xbd1abe65	-0.03777923
28	0xbe272cda	-0.16325703
29	0x3df2fddf	0.11864828
30	0xbe3d675f	-0.18496464
31	0x3da92a0b	0.08259972
32	0xbe817ebc	-0.25292003
33	0xbe2a84a8	-0.16652167
34	0xbd305206	-0.043046974
35	0xbdbf0667	-0.09327393
36	0x3dc98438	0.09839672
37	0xbe21b53b	-0.1579179
38	0xbd82efb1	-0.06393374
39	0xbde144db	-0.10999461
40	0xbcf3387c	-0.02969002
41	0x3d6ce009	0.057830844
42	0x3e16d021	0.14727832
43	0x3d734e67	0.059400942
44	0x3e57291e	0.21011779
45	0xbdf1eedb	-0.11813136
46	0xbe66c1dc	-0.22534889
47	0xbe2db784	-0.16964537

conv2.weight f4 [96, 48, 5]
0	0xbd245a9c	-0.040125474
1	0x3c99cf3e	0.018775579
2	0xbd9e0676	-0.07716076
3	0x3ce3679b	0.027759364
4	0xbd1aa8e2	-0.037758715
5	0xbd40c02d	-0.047058273
6	0xbdb9c681	-0.09071065
7	0xbda4e225	-0.08050946
8	0xbdd54042	-0.10412647
9	0xbae768fa	-0.0017655187
10	0x3ae7aeb9	0.0017675973
11	0x3d0182fe	0.031619065
12	0xbd2bf210	-0.041978896
13	0x3d9818db	0.07426616
14	0xbd4ce4e2	-0.050022967
15	0xbd9fbfd7	-0.078002624
16	0xbcb48c55	-0.022039572
17	0xbc91a575	-0.017779091
18	0xbdd77fd2	-0.10522427
19	0xbd85774e	-0.06516896
20	0x3d3611e4	0.044450656
21	0xbd63e755	-0.055640537
22	0xbd0df972	-0.034661718
23	0xbd3de55a	-0.046361305
24	0xbd57aeb1	-0.052656833
25	0x3cbbad2b	0.022909721
26	0x3d4f99ab	0.05068366
27	0xbb32e23d	-0.0027295493
28	0x3cf17a43	0.029477244
29	0xbd557050	-0.052109063
30	0xbd3ad64d	-0.04561453
31	0xbd46c366	-0.04852619
32	0xbc02439d	-0.007950691
33	0xbd9b6b23	-0.07588794
34	0x3c35dfde	0.011100737
35	0xbd0a5741	-0.033774618
36	0x3c682813	0.014169711
37	0x3bacdfe6	0.005275714
38	0xbd05bf92	-0.0326534
39	0xbd3383ea	-0.043826975
40	0x3cc806c8	0.024417296
41	0x3a8f5a00	0.0010936856
42	0x3ab0c180	0.0013485402
43	0x3a6e9280	0.00091008097
44	0xbc43f2d8	-0.011959754
45	0xbd6dede6	-0.058088206
46	0xbda9132a	-0.082556084
47	0x3be8d9e6	0.0071060536
48	0xbd010c78	-0.03150603
49	0xbd3bbd6b	-0.04583494
50	0x3cc31c40	0.023817182
51	0xbc53c21d	-0.012924698
52	0xbb67a300	-0.0035344958
53	0xbb1d22c0	-0.0023977011
54	0x3c9f3c6c	0.019437991
55	0x3d37df0c	0.04489045
56	0x3cb18b3c	0.021672837
57	0xbb32de50	-0.0027293153
58	0x3d62f08e	0.055405192
59	0x3d773ad4	0.060358837
60	0xbd98e96a	-0.07466395
61	0xbcff8d52	-0.031195316
62	0xbd3bd8f4	-0.0458612
63	0xbd88f637	-0.06687587
64	0xbc9c0d25	-0.019049237
65	0x3cd8d094	0.026466645
66	0x3d64c12c	0.055848286
67	0x3d32b5ce	0.043630414
68	0xbd71f8bb	-0.0590751
69	0xbd774c5a	-0.06037555
70	0xbd82e1e9	-0.06390745
71	0xbda8269d	-0.0821049
72	0x3c5f498b	0.013628374
73	0xbd7fa81b	-0.062416177
74	0x3b95d843	0.0045728995
75	0xbd90e214	-0.07074371
76	0xbd8c1bdd	-0.06841252
77	0x3c26d853	0.010183412
78	0xbd7d8ccb	-0.06190185
79	0xbd3fdba5	-0.04684033
80	0xbd0c5d1d	-0.034268487
81	0xbdd3bb11	-0.103384145
82	0x3bee0d6a	0.0072647827
83	0xbc0aa1b1	-0.008461402
84	0xbd5a4836	-0.053291522
85	0xbd514e71	-0.0511002
86	0xbd08b334	-0.033374026
87	0x3c155c84	0.009116296
88	0xbb8667c5	-0.0041017258
89	0xbd5e6ab1	-0.054300968
90	0xbd7f8628	-0.0623838
91	0x3cb90db7	0.022589548
92	0xbd2356b0	-0.039877594
93	0xbd301efe	-0.042998306
94	0xbcffe4d9	-0.031237053
95	0xbcc4b710	-0.024013072
96	0xbd4ed4b3	-0.050495815
97	0xbd5851cf	-0.052812394
98	0xbd2ab674	-0.041677907
99	0x3c9c80f5	0.01910446
100	0x3bfed966	0.0077773808
101	0x3c9dcf14	0.019263782
102	0xbda91eb3	-0.082578085
103	0xbc9ae057	-0.018905802
104	0xbd862480	-0.065499306
105	0x3c40c88c	0.011766564
106	0x3bad1b18	0.005282771
107	0x3c2366e6	0.009973263
108	0x3c01b097	0.007915637
109	0xbc1cad23	-0.009562763
110	0x3ac1fded	0.0014800407
111	0xbd3255ee	-0.04353898
112	0x3c8ed8c3	0.017437344
113	0x3a757d24	0.00093646557
114	0xbdbcf32a	-0.09226067
115	0x3c7760a6	0.015098726
116	0xbc377e1c	-0.0111995
117	0xbda253f2	-0.079261675
118	0xbdce8f1c	-0.1008589
119	0xbcc83486	-0.024439108
120	0xbd14f6d5	-0.03636821
121	0x3d1ebd9e	0.03875505
122	0x3d2a2800	0.041542053
123	0x3d280bf0	0.04102701
124	0x3d4c1df6	0.04983326
125	0x3b8c8a00	0.004288912
126	0x3cb60dc0	0.022223353
127	0xbcb4d166	-0.022072505
128	0x3d1d9e7c	0.03848122
129	0xbd7fc411	-0.062442843
130	0x3cb364cd	0.021898651
131	0xbda70d87	-0.08156877
132	0x3c99f062	0.018791381
133	0xbd9de753	-0.07710137
134	0xbdcf3f33	-0.10119476
135	0xbd6c367f	-0.05766916
136	0x3d50554e	0.050862603
137	0x3ad70b04	0.0016406481
138	0xbc693c1e	-0.014235524
139	0x3d5c4cc1	0.053784136
140	0x3983d45b	0.00025144484
141	0x3a386d93	0.0007035371
142	0xbd5513c0	-0.05202079
143	0xbb0cbd3b	-0.0021475095
144	0xbcce4bd8	-0.02518265
145	0x3d1403cb	0.03613643
146	0xbd64abfa	-0.055828072
147	0xbd954a75	-0.07289592
148	0xbd28bea2	-0.041197427
149	0x3c751bc4	0.014960233
150	0xbd0354ab	-0.032063168
151	0x3cfb8614	0.030703582
152	0xbd3a5874	-0.04549451
153	0xbd24dbf9	-0.040248845
154	0xbd7f95b8	-0.062398642
155	0xbd409bfa	-0.04702375
156	0x3a836637	0.0010024969
157	0xbd830b89	-0.063986845
158	0xbd93d7f6	-0.07218926
159	0xbc2486b6	-0.010041883
160	0x3cfefebc	0.031127326
161	0x3cc2c954	0.023777641
162	0xbd636d3e	-0.055524103
163	0xbdcdeac8	-0.100545466
164	0xbd83b64e	-0.06431256
165	0x3d73e0c0	0.05954051
166	0xbc810fc6	-0.015754592
167	0xbca28824	-0.019840308
168	0x3c874840	0.016513944
169	0xbd749278	-0.059709996
170	0xbd221919	-0.039574716
171	0xbcfc1eac	-0.030776344
172	0xbdb8c92a	-0.09022744
173	0x3c78e095	0.015190263
174	0x3c49de72	0.0123211015
175	0xbdc662a6	-0.096867844
176	0xbc6c91d0	-0.014439061
177	0xbd8820f0	-0.06646907
178	0xbd314dc0	-0.04328704
179	0xbdc5d345	-0.09659437
180	0xbd5c26c4	-0.053747907
181	0xbdcb6c67	-0.099327855
182	0xbd8fe36c	-0.07025799
183	0xbc2adb2c	-0.010428231
184	0xbd51c77b	-0.05121563
185	0xbcbad67e	-0.022807356
186	0xbd835ac4	-0.064137965
187	0x3cd8d5d4	0.026469149
188	0xbc211dfc	-0.009833809
189	0x3c811f38	0.015761957
190	0xba3444f9	-0.0006876733
191	0xbd1027ce	-0.03519421
192	0xbbbdf7c5	-0.0057973587
193	0x3d599f9d	0.053130735
194	0x3c0c6dca	0.008571098
195	0x3bbf9d82	0.005847634
196	0x3c33e4c4	0.010979835
197	0xbd849b4b	-0.06474932
198	0xbdcae721	-0.099073656
199	0x3ce7f065	0.028312871
200	0xbdac0f5e	-0.084013686
201	0xbdb910ee	-0.09036432
202	0x3ca76ebf	0.02043855
203	0xbcbb1a22	-0.02283961
204	0xbd6db9af	-0.05803841
205	0xbd840b92	-0.06447519
206	0xbd5c05b5	-0.05371638
207	0xbc85938c	-0.016305707
208	0xbdabc475	-0.083870806
209	0xbd174d93	-0.036939215
210	0xbc8034f4	-0.01565025
211	0xbcf18979	-0.029484497
212	0xbd0749db	-0.03302942
213	0xbdbf6200	-0.09344864
214	0xbd3f2085	-0.046661872
215	0x3c879ada	0.016553331
216	0xbd38ce50	-0.04511863
217	0xbd3b629b	-0.045748334
218	0xbc901e6b	-0.01759263
219	0xbdc3f68a	-0.09568508
220	0x3c00aebc	0.00785416
221	0xbd185846	-0.03719356
222	0x3c50fbba	0.012755329
223	0xbbc54b19	-0.006020915
224	0xbd5c9ec0	-0.053862333
225	0xbcd29247	-0.025704516
226	0x3c2d4aaa	0.010576883
227	0xba863f8f	-0.0010242331
228	0xbc01e8ff	-0.007929086
229	0xbda8fb47	-0.08251052
230	0xbdbf4f46	-0.09341292
231	0x3b658de9	0.0035027212
232	0xbdc765ec	-0.09736237
233	0xbdc4eec9	-0.09615857
234	0xbd45ceb9	-0.04829285
235	0x3d0515db	0.032491546
236	0xbd55c194	-0.052186564
237	0x3d0615a2	0.032735474
238	0xbcd44c48	-0.02591528
239	0x3d4dfc48	0.050289422
240	0x3dab253f	0.083567135
241	0x3c485894	0.01222815
242	0x3dc0dc91	0.0941707
243	0x3c8c478d	0.017123962
244	0x3d9d029a	0.07666512
245	0xbd12017f	-0.035645958
246	0xbd089c41	-0.03335214
247	0x3d3fe264	0.046846762
248	0x3ce90342	0.028443936
249	0x3d3c57cd	0.04598217
250	0x3d1e78ca	0.038689412
251	0xbd07b67d	-0.03313302
252	0xbd8e82db	-0.069585524
253	0xb9c008f8	-0.00036627776
254	0xbbadbc2e	-0.005301974
255	0xbd8a8779	-0.067641206

conv2.bias f4 [96]
0	0x3b82c48f	0.0039907168
1	0xbc0d347b	-0.008618469
2	0x3c167e56	0.009185394
3	0xbcead3b2	-0.028665397
4	0xbd6a9587	-0.057271507
5	0x3c2ffa19	0.01074078
6	0xbd85caa5	-0.06532792
7	0xbd5663b2	-0.05234117
8	0xbd850e39	-0.064968534
9	0xba02a333	-0.0004983425
10	0xbd4fba04	-0.050714508
11	0xbd78bc34	-0.06072636
12	0xbdb4cbe6	-0.08827953
13	0xbda6cbf8	-0.08144373
14	0x3a499524	0.0007689765
15	0xbdbc8414	-0.092048794
16	0xbdc6f070	-0.097138286
17	0xbd35fce4	-0.04443063
18	0xbc554730	-0.013017461
19	0xbd545948	-0.051842958
20	0xbd2fa7e7	-0.042884734
21	0x3b13f517	0.0022576505
22	0x3c236334	0.009972382
23	0xbd8e9b5d	-0.06963227
24	0xbd97c30b	-0.07410248
25	0xbc987752	-0.018611584
26	0xbd7b80bb	-0.061402064
27	0xba879b75	-0.0010346012
28	0x3c45076f	0.012025698
29	0xbb2afe19	-0.0026091395
30	0xbc9b709e	-0.018974598
31	0xbda7e25d	-0.08197472
32	0xbdb68d9c	-0.089137286
33	0x3ca9a141	0.020706775
34	0xbd46bc0e	-0.048519187
35	0xbb79c637	-0.003811253
36	0xbc9fd195	-0.019509116
37	0xbd82bd33	-0.06383743
38	0x3bc10fb5	0.005891765
39	0xbd96ba35	-0.07359735
40	0xbd66d6cd	-0.056357194
41	0xbdb092e5	-0.08621768
42	0xbcee3cf8	-0.029081807
43	0xbd3f3da3	-0.04668964
44	0xbd0beb0e	-0.034159712
45	0x3bbe9c38	0.0058169626
46	0xbdc3121a	-0.09524937
47	0x3af26108	0.0018492052
48	0xbcb0d31a	-0.021585036
49	0xbd965d85	-0.07342056
50	0xbc4f35a1	-0.0126470635
51	0xbd106c79	-0.035259698
52	0xbda52935	-0.080645
53	0xbcc5c460	-0.02414149
54	0xbd2fc2a1	-0.042910222
55	0xbc8cf2d1	-0.017205628
56	0xbd516918	-0.051125616
57	0xbd8a03fa	-0.0673904
58	0xbc896c5d	-0.016775304
59	0xbd2cf541	-0.04222608
60	0xbd53c9dc	-0.05170618
61	0xbda817a9	-0.08207638
62	0xbd3e4447	-0.046451833
63	0x3c5e1aa8	0.01355616
64	0xbdb1f7e7	-0.08689862
65	0xbd90f623	-0.07078197
66	0xbcd7aea5	-0.026328394
67	0xbca51c81	-0.020155193
68	0x3dcb1e26	0.0991786
69	0xbcef07f0	-0.02917859
70	0xbd97a726	-0.07404928
71	0xbc454e3e	-0.01204258
72	0xbd38668a	-0.045019664
73	0xbb0330be	-0.0020018066
74	0xbd7566b6	-0.059912406
75	0x3c3e7cdd	0.011626449
76	0xbc8776e3	-0.016536182
77	0xbd9977b6	-0.07493536
78	0xbcab7bcf	-0.02093306
79	0xbd2e017f	-0.042481896
80	0xbd9be547	-0.076120906
81	0xbdbd25f1	-0.092357524
82	0xbd5c362f	-0.05376261
83	0xbdc38716	-0.0954725
84	0xbca7eb08	-0.020497814
85	0xbcc66942	-0.024220113
86	0xbc043241	-0.008068622
87	0xbda4ea05	-0.08052448
88	0xbd57f945	-0.052727956
89	0xbdbe760a	-0.09299858
90	0xbd876282	-0.06610586
91	0xbdbae90d	-0.09126482
92	0x3cb16ec7	0.021659268
93	0xbdac5cba	-0.08416124
94	0xbdcdd08d	-0.100495435
95	0x3cb4baa5	0.022061655

lstm1.weight_ih_l0 f4 [512, 96]
0	0xbd425d82	-0.047452457
1	0xbc9a2208	-0.018815055
2	0x3d43ba56	0.047785126
3	0xbd0f944d	-0.03505354
4	0x3dcc43ec	0.099738926
5	0xbcfbcaba	-0.030736316
6	0x3bace1e9	0.005275954
7	0x3dc35a09	0.09538657
8	0x3c9e4550	0.01932016
9	0x3dbedbba	0.09319253
10	0x3ca0092f	0.01953563
11	0x3d83540a	0.064125136
12	0xbdcb889a	-0.09938164
13	0x3c4c91e0	0.012485951
14	0xbde3b9f4	-0.11119452
15	0x3d890e89	0.066922255
16	0xbba374e4	-0.0049882997
17	0xbcde8db4	-0.027167179
18	0x3d8d148c	0.06888685
19	0x3d122e8c	0.03568892
20	0x3d521cba	0.051296927
21	0x3d9b2e78	0.075772226
22	0x3d4b672d	0.049658943
23	0xbccc35f9	-0.02492808
24	0x3d679f9d	0.056548703
25	0xbcfadd1f	-0.030623017
26	0x3dbd4339	0.09241337
27	0xbcdcf798	-0.02697353
28	0x3de52601	0.11188889
29	0xbd1f96a3	-0.038962018
30	0xbd40c21a	-0.04706011
31	0x3cf95118	0.030434176
32	0x3e137bb4	0.14402658
33	0x3d7cd53f	0.061726805
34	0x3d8b238b	0.06793889
35	0x3d58de63	0.05294646
36	0xbd4ff6f6	-0.05077263
37	0xbbc57903	-0.0060263886
38	0xbdbc400b	-0.09191903
39	0x3d1f0c52	0.03883011
40	0x3d2642f1	0.040591184
41	0x3d8c5e2d	0.068539
42	0xbde0dbfd	-0.109794594
43	0xbd544ced	-0.051831175
44	0xbc299908	-0.010351427
45	0xbcf5454e	-0.029940274
46	0xbc4ebb37	-0.012617878
47	0x3daacfbc	0.083404034
48	0x3e12ed0b	0.14348237
49	0xbd5a2087	-0.053253677
50	0x3bc4ee5d	0.0060098604
51	0xbd8124a2	-0.06305815
52	0x3c1b7810	0.009489074
53	0x3d84f85d	0.06492684
54	0xbd192c63	-0.037395846
55	0xbd677475	-0.056507546
56	0xbd99ae3d	-0.075039364
57	0x3d83da56	0.06438129
58	0x3d641ed3	0.05569346
59	0x3d9a1611	0.0752374
60	0x3dba3bb9	0.090934224
61	0x3dd84ea6	0.10561876
62	0x3d1480a9	0.036255512
63	0x3da0a885	0.078446425
64	0xbd57a3a5	-0.052646298
65	0xbd4a50dc	-0.04939352
66	0xbd0b4f4b	-0.034011167
67	0x3dc2e5d2	0.09516491
68	0x3e783b37	0.24241339
69	0xbd46a01f	-0.048492547
70	0xbd10fea4	-0.035399094
71	0x3d8a740f	0.06760418
72	0xbbb2d2f7	-0.005457278
73	0x3d905364	0.070471555
74	0xbd0b4319	-0.033999536
75	0xbd2538f4	-0.040337518
76	0x3ca0ea55	0.019642988
77	0xbdb000cb	-0.08593901
78	0x3e01af4f	0.12664531
79	0xbe1b79c4	-0.15183169
80	0x3e06eec0	0.13177013
81	0x3dbf57d3	0.09342923
82	0xbc9f6a67	-0.019459916
83	0x3cbb2217	0.022843404
84	0x3d4d5e8c	0.050138995
85	0xbc98aebc	-0.018638007
86	0xbc11e180	-0.008903861
87	0x3db03dd3	0.08605542
88	0xbdecd4bf	-0.115640156
89	0xbd52cef6	-0.051466905
90	0x3b0273fc	0.0019905558
91	0x3d1d0e91	0.03834397
92	0x3c8192fe	0.015817162
93	0xbd2d0e96	-0.04225024
94	0x3de81279	0.113316484
95	0xbcd0dfef	-0.025497405
96	0x3ce8c8cc	0.02841606
97	0xbda46872	-0.08027734
98	0x3d5d2b72	0.05399651
99	0xbd94e3a2	-0.0726998
100	0x3d44c13a	0.048035838
101	0x3d156246	0.036470674
102	0x3d3db35b	0.046313625
103	0x3d6a5892	0.057213373
104	0xbc6723dd	-0.014107672
105	0x3d63be32	0.055601306
106	0xbdac362d	-0.08408771
107	0xbd5202d3	-0.051272225
108	0xbcbdfc28	-0.023191527
109	0xbdcc069c	-0.09962198
110	0xbd7fd379	-0.062457535
111	0xbd5c247d	-0.053745735
112	0xbc591174	-0.01324879
113	0x3ca9a059	0.020706343
114	0xbdcd6d77	-0.100306444
115	0xbdbce4fa	-0.09223361
116	0xbca73b85	-0.020414123
117	0xbd893d67	-0.06701165
118	0xbcc7f052	-0.024406586
119	0xbd061bbc	-0.032741293
120	0x3b323238	0.0027190577
121	0xbd6d8928	-0.05799213
122	0xbcec57b9	-0.028850423
123	0xbbb41b64	-0.0054964293
124	0xbb31f47a	-0.0027153776
125	0xbd5ba3c6	-0.053622983
126	0xbd9facba	-0.07796617
127	0xbd771067	-0.060318377
128	0xbe448047	-0.19189559
129	0x3dfbfc9f	0.12304043
130	0x3cbccef6	0.023047905
131	0x3c744c94	0.014910836
132	0xbd06db8d	-0.032924224
133	0x3c9dfbbe	0.01928508
134	0xbcaa4a11	-0.02078727
135	0x3d04f30a	0.032458343
136	0x3d1e6b96	0.03867682
137	0x3ca7bc19	0.020475434
138	0xbd8959f9	-0.06706614
139	0xbddcf7aa	-0.10789426
140	0xbd897894	-0.067124516
141	0xbd7692b6	-0.06019851
142	0xbbb6f0de	-0.005582913
143	0x3d431ca7	0.047634747
144	0xbdc407c5	-0.095717944
145	0x3e2f8912	0.17142132
146	0xbe3c12c0	-0.18366528
147	0xbdbddd2f	-0.09270703
148	0x3db2e99d	0.087359644
149	0xbd62c32d	-0.055361915
150	0xbd37aef2	-0.044844575
151	0xbb9d9474	-0.0048089568
152	0xbd2d900c	-0.042373702
153	0x3d5b0126	0.053467892
154	0x3cbf8df2	0.023383114
155	0x3d8697e9	0.06571943
156	0xbd100db4	-0.03516932
157	0x3d31ae9b	0.043379407
158	0x3dc4d01b	0.096100055
159	0xbcd7ef90	-0.02635935
160	0xbcf9a7bd	-0.030475492
161	0x3dcb7848	0.09935051
162	0x3d1732c5	0.036913652
163	0x3d710efb	0.058852177
164	0x3e54c531	0.20778348
165	0xbca1bb41	-0.01974261
166	0xbd574587	-0.05255654
167	0xbc46d1ef	-0.012135013
168	0x3ccaf12d	0.024773205
169	0x3d497656	0.04918512
170	0xbd3207a1	-0.043464307
171	0xbbc139f6	-0.005896802
172	0x3ced0887	0.02893473
173	0x3c9124c9	0.017717736
174	0xbdc2380b	-0.094833456
175	0xbe08e42d	-0.13368292
176	0xbd3765c3	-0.044774782
177	0xbd383ca6	-0.044979714
178	0x3d3ead81	0.046552185
179	0x3d389d45	0.04507186
180	0xbd407835	-0.04698964
181	0x3d5825b1	0.05277032
182	0xbd8e84b9	-0.069589086
183	0xbdb5b395	-0.08872143
184	0x3cd41126	0.025887083
185	0xbcfaece5	-0.030630538
186	0xbd007564	-0.031361952
187	0xbd8994ab	-0.06717809
188	0xbdc6eb4a	-0.097128466
189	0xbe0d9a36	-0.13828358
190	0xbd9ff9b4	-0.07811299
191	0x3d14c25f	0.03631818
192	0xbd155540	-0.036458254
193	0xb98965f0	-0.00026206626
194	0xbd3f8fe2	-0.046768077
195	0x3c61bb57	0.013777575
196	0xbddc20e8	-0.10748464
197	0xbb919cf5	-0.0044437596
198	0xbd1dabfa	-0.038494088
199	0x3d89c963	0.067278646
200	0xbc260f82	-0.010135533
201	0xbc546dd2	-0.012965636
202	0xbcf1fb8d	-0.029538894
203	0xbe0d2ca5	-0.13786562
204	0xbb4fb496	-0.003169333
205	0x3d185e57	0.037199344
206	0xbd4872da	-0.048937656
207	0x3d67942a	0.056537785
208	0xbceeb921	-0.02914101
209	0xbcca5517	-0.024698777
210	0xbdde88a9	-0.108659096
211	0xbd6ed2b2	-0.058306403
212	0x3b3a45e3	0.0028423003
213	0xbd09bca9	-0.033627186
214	0x3ca222b6	0.019791942
215	0x3daeb934	0.085314184
216	0xbc8ad254	-0.016945995
217	0xbb8e91e1	-0.004350886
218	0xbceb3ca6	-0.028715443
219	0xbdffc154	-0.12488046
220	0x3c102c8e	0.008799685
221	0xbddff06e	-0.1093453
222	0xbdc35024	-0.0953677
223	0xbddf83d8	-0.10913819
224	0xbd492403	-0.04910661
225	0x3e017f4e	0.12646219
226	0xbd8a5871	-0.0675515
227	0x3da3c000	0.079956055
228	0xbda1bf7b	-0.0789785
229	0x3d024034	0.03179951
230	0x3bcb24df	0.0061994637
231	0x3daf9da6	0.08574991
232	0xbdb71efa	-0.08941455
233	0xbd73032e	-0.059329204
234	0x3b529d03	0.0032137043
235	0xbda1eb23	-0.07906177
236	0xbd8cbc72	-0.068718806
237	0xbd9474f9	-0.07248873
238	0x3d07bbdc	0.03313814
239	0x3d104bcd	0.03522854
240	0x3d884e0c	0.06655511
241	0x3da99b9a	0.08281632
242	0xbe21a1ed	-0.15784426
243	0xbdacc6e3	-0.08436372
244	0xbd4d03b8	-0.050052375
245	0xbd82bae9	-0.063833065
246	0xbca1bb00	-0.019742489
247	0xbde4e41c	-0.11176321
248	0xbe2fd729	-0.17171921
249	0x3c1158f1	0.008871303
250	0xbdb1dd15	-0.08684746
251	0xbb9c6d44	-0.0047737677
252	0xbd31d687	-0.04341748
253	0xbd8b6404	-0.06806186
254	0xbbfb878f	-0.007676072
255	0xbd401a71	-0.046900216

lstm1.weight_hh_l0 f4 [512, 128]
0	0xbd0ab7db	-0.033866744
1	0x3b18d806	0.002332212
2	0xbc06f54b	-0.008237193
3	0x3da062f8	0.07831377
4	0xbdc092cc	-0.09402999
5	0x3dc73ea2	0.09728743
6	0xbd5c98c0	-0.05385661
7	0xbdf3e40b	-0.1190873
8	0xbdcce3ce	-0.10004388
9	0x3ce73ca0	0.02822715
10	0xbcc793ee	-0.02436253
11	0xbd0dafc0	-0.034591436
12	0x3d83ad79	0.06429572
13	0x3d8d53a0	0.06900716
14	0xbd849a1d	-0.06474707
15	0x3e12f8fe	0.14352795
16	0xbd922d1e	-0.07137512
17	0x3d0cd53b	0.03438304
18	0xbd4bc6c6	-0.049750112
19	0x3b224633	0.002476108
20	0xbd65e48a	-0.056126155
21	0xbdd12399	-0.10211868
22	0x3e353b79	0.17698468
23	0xbd94e1b7	-0.07269614
24	0xbd044c01	-0.032299045
25	0xbcb4a417	-0.0220509
26	0xbd747830	-0.059684932
27	0x3de3610a	0.11102493
28	0xbcdb344a	-0.026758332
29	0xbd194686	-0.037420772
30	0x3a25ecfa	0.0006329563
31	0x3ccb8235	0.024842361
32	0xbd7a3ed9	-0.061095092
33	0xbcb86ef8	-0.022513852
34	0xbc110a55	-0.008852561
35	0xbe1818de	-0.14853236
36	0xbd6a3d6f	-0.057187494
37	0xbc0dd6ba	-0.008657152
38	0xbaae2808	-0.0013287077
39	0x3b9b4409	0.004738335
40	0x3d266e04	0.040632263
41	0x3da201a5	0.0791047
42	0xbd9cb423	-0.07651546
43	0x3cc63f92	0.024200235
44	0xbdb4c8ce	-0.08827363
45	0xbd8bc5ce	-0.068248376
46	0xbcaffa07	-0.021481527
47	0x3d0bfa8b	0.034174483
48	0x3df42b5e	0.11922334
49	0x3d9bda66	0.076100156
50	0xbdac8510	-0.08423817
51	0x3c435d71	0.011924134
52	0xbd467b98	-0.048457712
53	0x3d25718a	0.040391482
54	0xbdac38b9	-0.084092565
55	0x3d82e6a7	0.0639165
56	0xbdbbebdd	-0.09175847
57	0xbd1e7f2e	-0.038695507
58	0xbdf57346	-0.11984877
59	0x3d52224a	0.05130223
60	0xbd510253	-0.051027607
61	0xbd30d66b	-0.043173235
62	0x3d75ecdc	0.06004034
63	0xba9ee2ef	-0.0012122075
64	0xbb0e63af	-0.0021726897
65	0x3d7c5f20	0.061614156
66	0x3be05eaa	0.0068472223
67	0x3d770a72	0.060312696
68	0x3d24e2f3	0.0402555
69	0x3de54bdf	0.11196112
70	0x3b339798	0.002740359
71	0xbbe08f95	-0.006853054
72	0x3ddb0d14	0.10695854
73	0x3df98733	0.1218399
74	0x3d8df5f3	0.06931677
75	0xbc045424	-0.008076701
76	0x3ca07e4a	0.01959147
77	0xbd2a2c86	-0.041546367
78	0x3d5c2c3f	0.053753134
79	0xbcfcf270	-0.030877322
80	0xbcc8acf0	-0.024496526
81	0xbc67529d	-0.014118818
82	0xbd4589f2	-0.048227258
83	0xbd52e2ea	-0.051485933
84	0x3dad2244	0.08453801
85	0x3d8400f4	0.06445494
86	0x3c7bb268	0.01536236
87	0x3dcdf28a	0.10056026
88	0xbc749aef	-0.014929517
89	0x3d7f26e5	0.062292952
90	0xbb1a843b	-0.002357735
91	0xbd628168	-0.055299193
92	0xbab8a1ac	-0.0014086268
93	0x3b9246e0	0.0044640154
94	0x3d399cf9	0.045315716
95	0x3d14d323	0.03633417
96	0xbd165f4b	-0.036711972
97	0x3c2eaaa1	0.010660798
98	0x3c875071	0.01651785
99	0x3de4477c	0.11146447
100	0x3d20de06	0.039274238
101	0x3d4eed21	0.050519112
102	0xbda0eff7	-0.0785827
103	0xbe034932	-0.1282089
104	0xbd495575	-0.049153764
105	0xbe0c4801	-0.13699342
106	0x3d6de814	0.058082655
107	0x3cab9649	0.020945685
108	0x3d4fd7ac	0.05074279
109	0x3d80fcad	0.06298194
110	0x3d6336ea	0.055472292
111	0xbdbe1f75	-0.09283344
112	0xbd9fd629	-0.0780452
113	0xbd23cd31	-0.039990608
114	0xbd18286d	-0.037147928
115	0xbc5b7066	-0.013393497
116	0xbd3cb154	-0.04606755
117	0x3e11fc22	0.14256337
118	0x3cd91bc5	0.0265025
119	0x3e1d240f	0.15345787
120	0x3c70d808	0.014699943
121	0xbc633719	-0.013868117
122	0x3c5b730a	0.013394127
123	0x3dde0774	0.10841265
124	0x3d835bc3	0.064139865
125	0x3cc0e8bb	0.023548475
126	0xbcfd98f8	-0.03095673
127	0x3d9e92df	0.07742857
128	0xbdadd16a	-0.08487208
129	0x3c9483cb	0.01812925
130	0x3d6c822a	0.05774132
131	0xbceb4718	-0.028720424
132	0xbe00c797	-0.12576137
133	0x3b972399	0.004612398
134	0xbb850729	-0.0040596914
135	0xbd2a1794	-0.041526392
136	0xbe1b1400	-0.15144348
137	0x3e10fdbc	0.14159292
138	0xbc36017d	-0.011108753
139	0xbd442ca7	-0.047894146
140	0xbcbca9e3	-0.023030227
141	0x3df99692	0.12186922
142	0xbce7c0aa	-0.028290112
143	0x3da791f0	0.08182132
144	0x3d5efc0f	0.0544396
145	0xbd1b58bd	-0.037926424
146	0xbd3a246a	-0.045444883
147	0xbcdca751	-0.026935251
148	0x3d362e1d	0.04447757
149	0xbdbc4f4d	-0.09194813
150	0x3d85997a	0.06523414
151	0x3d3a14f3	0.045430135
152	0xbdb6ba7b	-0.08922287
153	0xbd285199	-0.041093443
154	0xbd138ff4	-0.036025956
155	0x3dc11480	0.09427738
156	0x3dcd96ce	0.10038529
157	0xbde0c99a	-0.109759524
158	0xbd8c2bea	-0.068443134
159	0xbd084964	-0.033273116
160	0xbc98fec9	-0.018676179
161	0xbb47ec54	-0.0030505853
162	0x3cd82d1e	0.026388701
163	0x3d95e341	0.07318736
164	0x3c615b92	0.013754742
165	0x3dac7ad3	0.08421864
166	0xbd97bf10	-0.07409489
167	0x3cc443dc	0.02395814
168	0xba589a1e	-0.00082627113
169	0x3c865de4	0.016402192
170	0x3d991b98	0.07475966
171	0xbd7b4e83	-0.06135417
172	0xbbcb8a1d	-0.0062115327
173	0xbd20a570	-0.039220273
174	0xbd87ae9a	-0.066250995
175	0x3cd47b6f	0.025937764
176	0x3d5a5753	0.053305935
177	0x3c9e822e	0.019349184
178	0x3e1f9b08	0.15586483
179	0x3db5bfde	0.088744864
180	0x3d39df70	0.045379102
181	0x3dba328e	0.09091674
182	0x3da386b2	0.079846755
183	0xbdde7275	-0.10861675
184	0x3cf64b0c	0.030065082
185	0xbd1ccc84	-0.03828098
186	0xbd5e1a75	-0.05422445
187	0x3d56c3d4	0.05243285
188	0xbd632e47	-0.055464055
189	0xbd0d4a56	-0.03449472
190	0x3d380d2b	0.044934433
191	0x3dae5cdd	0.08513806
192	0xbc8d0198	-0.017212674
193	0x3d7c8a3a	0.06165526
194	0x39cd111c	0.00039113394
195	0x3d807f4e	0.062742814
196	0xbd5c22d0	-0.053744137
197	0x3c7a0012	0.015258806
198	0x3c674bd4	0.0141172
199	0x3e2393b2	0.1597431
200	0x3dc8bba6	0.09801416
201	0xbc1a6e1f	-0.009425669
202	0x3d42203b	0.04739402
203	0xbd40e7f3	-0.047096204
204	0x3d0f75e7	0.03502455
205	0x3d29a84e	0.041420273
206	0x3e14b8dd	0.14523645
207	0x3d425fdf	0.04745471
208	0xbd6edfec	-0.058319017
209	0x3d915073	0.070954226
210	0xbca0ddfb	-0.019637099
211	0xbd3c5a30	-0.045984447
212	0x3d69215e	0.056916587
213	0x3e6f7cab	0.23387401
214	0x3d308846	0.04309871
215	0x3e4b1950	0.19833875
216	0xbd79e85a	-0.061012603
217	0xbcd49a20	-0.025952399
218	0x3dae99b4	0.0852541
219	0xbdd9427f	-0.10608386
220	0xbd0664b3	-0.032810878
221	0xbc9016af	-0.017588941
222	0x3dba4d72	0.09096803
223	0xbdbb8672	-0.09156503
224	0x3b5e130a	0.003388586
225	0xbe39a88d	-0.18130703
226	0xbcc69feb	-0.024246177
227	0xbd804c30	-0.062645316
228	0xbd406303	-0.046969425
229	0x3d7fb2e0	0.062426448
230	0x3d036aaa	0.032084145
231	0x3d15f5c0	0.03661132
232	0xbe182d73	-0.14861088
233	0x3da415d8	0.08011979
234	0x3cc48af3	0.023992037
235	0x3dde539a	0.108557895
236	0x3dd84dbf	0.10561704
237	0x3d72b114	0.059250906
238	0x3c4a15a8	0.012334265
239	0x3d4d575c	0.05013214
240	0x3dd54d75	0.104151644
241	0xbcf00ac2	-0.029302005
242	0xbca19789	-0.019725578
243	0xbc5d1c96	-0.013495585
244	0xbe322978	-0.17398632
245	0xbcac7455	-0.021051565
246	0xbb5f11b7	-0.0034037658
247	0x3da12ab9	0.07869477
248	0xbd41abb1	-0.04728288
249	0x3db0883d	0.086197354
250	0x3abbfa74	0.0014341609
251	0x3e156866	0.14590606
252	0x3dad38aa	0.084580734
253	0x3df1c779	0.118056245
254	0xbe20e704	-0.15713125
255	0x3d29b0ac	0.041428253

lstm1.bias_ih_l0 f4 [512]
0	0x3c1f7658	0.009732805
1	0xbd6662b3	-0.05624647
2	0xbc8dbaf0	-0.017301053
3	0xbd76a164	-0.060212508
4	0xbdd39cc9	-0.10332639
5	0xbc1549cb	-0.009111832
6	0xbda14825	-0.078750886
7	0xbd137bf3	-0.03600688
8	0x3b521dc4	0.0032061199
9	0x3da1dedc	0.07903835
10	0xbe0129a2	-0.12613538
11	0x3d0647b1	0.032783214
12	0xbe302e96	-0.17205271
13	0xbcba74a9	-0.022760706
14	0xbe0a7d22	-0.13524297
15	0xbcefa7ab	-0.029254755
16	0xbdc7603e	-0.097351536
17	0xbcb0d192	-0.021584306
18	0xbe23c7d4	-0.15994197
19	0x3c6109c1	0.013735236
20	0xbdb28953	-0.08717599
21	0xba534716	-0.0008059604
22	0xbe1f7d5e	-0.15575168
23	0xbd30e2f1	-0.04318518
24	0xbc07307f	-0.008251308
25	0xbd135705	-0.03597166
26	0xbe1b3c96	-0.1515983
27	0xbd9df4c6	-0.077127025
28	0xbca03639	-0.019557105
29	0xbe0856c0	-0.13314342
30	0xbd9804c1	-0.07422782
31	0x3c19a295	0.0093771415
32	0xbd259fde	-0.040435664
33	0xbc901ca1	-0.017591776
34	0xbce236eb	-0.027614078
35	0xbd225b7e	-0.039638035
36	0xbdb08963	-0.086199544
37	0x3d664802	0.056221016
38	0xbd0dc7ad	-0.034614254
39	0xbd7970d5	-0.06089862
40	0xbdc572e9	-0.09641058
41	0xbc9b95a3	-0.01899225
42	0xbdbf7676	-0.093487665
43	0x3d4c958e	0.049947314
44	0x3d0582ed	0.032595564
45	0xbd519b91	-0.05117375
46	0x3b9a4c5f	0.004708811
47	0xbd9c3d98	-0.076289356
48	0x3ca2f61a	0.019892741
49	0xbd923fbe	-0.07141064
50	0xbdf5eb0a	-0.12007721
51	0x3ce2c8ec	0.027683698
52	0xbe2f6cb1	-0.17131306
53	0xbb1eed8b	-0.0024250473
54	0x3c924c76	0.017858725
55	0xbd619b5f	-0.055079814
56	0xbd98e74d	-0.07465992
57	0x3c57d8a3	0.013174209
58	0xbb508ab7	-0.0031820962
59	0xbd09e822	-0.033668645
60	0xbdc15e08	-0.09441763
61	0x3d6b0a7a	0.057383038
62	0x3d148011	0.036254946
63	0xbdf0ca76	-0.11757366
64	0xbde1f724	-0.110334665
65	0xbd82a540	-0.06379175
66	0xbdc6bc39	-0.097038694
67	0x3d4c4e1a	0.04987917
68	0xbde5c57a	-0.11219306
69	0xbd930af9	-0.07179827
70	0x3d927138	0.07150501
71	0xbdabd3b7	-0.08389991
72	0xbd34ffbd	-0.044189204
73	0x3d9b8b7a	0.075949624
74	0xbdb06361	-0.08612705
75	0x3db6ed2e	0.08931957
76	0xbe045d77	-0.12926279
77	0xbd45fe7f	-0.04833841
78	0xbdfb8bf5	-0.12282554
79	0xbd922426	-0.07135801
80	0xbd8e5c95	-0.06951252
81	0xbd83165d	-0.0640075
82	0x3d2dac93	0.042400908
83	0xbd48239e	-0.048862092
84	0x3d2fd89f	0.042931195
85	0xbdec1bbb	-0.11528727
86	0xbca0fe84	-0.019652613
87	0xbdddec11	-0.10836042
88	0xbe0b803c	-0.13623136
89	0xbde3ef68	-0.111296475
90	0xbda9211c	-0.08258268
91	0x3c4a8dc6	0.012362903
92	0x3c20d70e	0.009816898
93	0xbdeaf75f	-0.114729635
94	0xbd3eb8d8	-0.046563
95	0x3cd77396	0.026300233
96	0xbd72749d	-0.059193242
97	0xbdd41ad7	-0.10356682
98	0xbd09b583	-0.03362037
99	0xbdc3357a	-0.09531684
100	0x3db5da5e	0.08879541
101	0x3cf987ba	0.030460227
102	0xbcaef71e	-0.021358069
103	0xbe0c5499	-0.13704146
104	0x3d37f6dc	0.044913158
105	0xbd2ab31f	-0.04167473
106	0xbe8af7eb	-0.2714227
107	0x3b9e1f30	0.004825495
108	0xbdf21a26	-0.11821394
109	0xbdec52a6	-0.115392014
110	0x3d27a016	0.040924154
111	0x3ca696b5	0.020335535
112	0x3cfdc124	0.030975886
113	0xbd8bffa8	-0.06835872
114	0xbd946d01	-0.07247353
115	0xbdbb811a	-0.091554835
116	0xbe1e3c15	-0.15452607
117	0xbe3ff5f1	-0.18746163
118	0xbd53724a	-0.051622666
119	0x3ca29230	0.019845098
120	0xbd9e63a9	-0.077338524
121	0xbde9c89b	-0.114152156
122	0xbd23b69d	-0.039969075
123	0x3c8dd441	0.017313125
124	0xbd2b8549	-0.041875158
125	0xbe09408b	-0.13403527
126	0x3dbcda8c	0.09221372
127	0xbc18b404	-0.009320263
128	0xbd45e038	-0.048309535
129	0xbe8337f9	-0.2562864
130	0xbd15dd86	-0.036588214
131	0xbdb8ec2b	-0.090294205
132	0xbe0562fc	-0.13026041
133	0xbdbc72a6	-0.09201555
134	0xbdbd8d50	-0.09255469
135	0xbd2d7984	-0.042352214
136	0xbe1bc1e8	-0.15210688
137	0xbcf4b687	-0.029872192
138	0x3caeace2	0.021322671
139	0xbdd14f0f	-0.10220157
140	0xbde64ba9	-0.112449
141	0xbd7c9069	-0.061661158
142	0xbe0f79c6	-0.14011297
143	0x3c0d797c	0.008634921
144	0xbdc97fc8	-0.098388255
145	0xbd9c2ad2	-0.07625355
146	0xbe0dbbc6	-0.13841161
147	0xbddb1923	-0.10698154
148	0xbe47c6d7	-0.19509445
149	0xbe08fa9a	-0.13376847
150	0xbd9be9a9	-0.076129265
151	0xbe26452e	-0.16237327
152	0xbe36917b	-0.17828934
153	0xbddc1d8f	-0.10747825
154	0xbd9cf334	-0.07663575
155	0xbcd8ce2e	-0.026465502
156	0xbdba445a	-0.09095068
157	0xbd3645ae	-0.044500045
158	0xbd016908	-0.031594306
159	0xbdc7b785	-0.097518004
160	0xbe2c287f	-0.16812323
161	0xbdd364b9	-0.10321946
162	0xbbacb0ff	-0.005270123
163	0xbdd11793	-0.102095746
164	0xbd314c68	-0.043285757
165	0xbd7cf443	-0.061756384
166	0xbe72543a	-0.23664942
167	0xbdc60bd7	-0.09670227
168	0xbde7a086	-0.11309914
169	0xbe11f30e	-0.14252874
170	0xbce3982d	-0.027782524
171	0xbdb70a62	-0.08937527
172	0xbcd03e56	-0.02542035
173	0xbdd3ba40	-0.10338259
174	0xbbc6696d	-0.006055048
175	0xbdad96cd	-0.084760286
176	0xbd7e97b5	-0.062156398
177	0xbdf215be	-0.11820553
178	0xbba22be4	-0.00494908
179	0xbde0d891	-0.10978807
180	0xbd27d85a	-0.040977813
181	0xbe0f7ed1	-0.1401322
182	0xbd3b676f	-0.04575294
183	0xbd800f6c	-0.062529415
184	0xbde5ff93	-0.112303875
185	0xbab0b8fc	-0.0013482864
186	0xba6bae6c	-0.00089905295
187	0xbe00c42b	-0.12574832
188	0x3bac8bb0	0.0052656755
189	0xbe0d9ee1	-0.13830139
190	0xbe2f9638	-0.17147148
191	0xbe07ef56	-0.13274893
192	0xbdf5184d	-0.11967526
193	0xbdba3181	-0.09091473
194	0xbd918e2d	-0.07107196
195	0xbd86d172	-0.06582917
196	0xbda30271	-0.0795945
197	0xbe03b4c5	-0.12861927
198	0x3c6946c1	0.01423806
199	0xbd94b3d7	-0.07260864
200	0xbd32e55a	-0.043675758
201	0x3d727e57	0.05920252
202	0xbe44bcc7	-0.19212638
203	0xbdce1bf8	-0.10063928
204	0xbded5eeb	-0.1159037
205	0xbd4d9ed6	-0.050200306
206	0xbe18db96	-0.14927515
207	0xbe237990	-0.15964341
208	0xbe1c111a	-0.15240899
209	0xbd0e2af1	-0.03470892
210	0xbe2c9c2a	-0.16856447
211	0xbe4d580d	-0.2005312
212	0xbe812380	-0.25222397
213	0xbd468454	-0.04846604
214	0xbd0dbe95	-0.03460558
215	0xbe16841a	-0.1469883
216	0xbc648ecc	-0.013950061
217	0xbe48d532	-0.19612578
218	0xbdfd00fc	-0.123537034
219	0xbdd89267	-0.10574799
220	0xbcfb38a7	-0.030666662
221	0xbd3dbb57	-0.04632124
222	0xbd25aacb	-0.040446084
223	0xbd410e43	-0.04713274
224	0xbcbd1091	-0.023079189
225	0xbddcd604	-0.10783008
226	0xbdcbf4f7	-0.09958833
227	0xbdc2792e	-0.094957694
228	0xbdc9119c	-0.09817812
229	0xbd5396d4	-0.051657513
230	0xbe08a36c	-0.1334359
231	0xbdb56f22	-0.088590875
232	0xbdd40047	-0.103516154
233	0xbb01c7cf	-0.0019802933
234	0xbe0631d3	-0.13104944
235	0xbe202a70	-0.15641189
236	0xbdf9a0e2	-0.12188889
237	0x3d1f7b55	0.038935978
238	0xbcae6dd9	-0.021292614
239	0xbe0c625d	-0.13709398
240	0xbc1fb87f	-0.009748577
241	0xbd537c07	-0.051631954
242	0xbe1f4ede	-0.15557429
243	0xbd89b026	-0.06723051
244	0xbd879c5a	-0.066216186
245	0xbd452097	-0.048126783
246	0xbceb3507	-0.028711809
247	0x3cffdbf4	0.031232812
248	0xbd30d9de	-0.043176524
249	0xbe1d6d88	-0.15373814
250	0xbc9890a0	-0.01862365
251	0xbdd80bab	-0.105491005
252	0xbd7430cb	-0.059616845
253	0xbe28ef08	-0.16497433
254	0xbc663b77	-0.014052263
255	0xbe37b1da	-0.17938939

lstm1.bias_hh_l0 f4 [512]
0	0xbdbd36df	-0.092389815
1	0xbdaefd88	-0.08544451
2	0xbd8ebaa6	-0.06969194
3	0xbe03a082	-0.12854198
4	0xbdf50b93	-0.11965098
5	0xbe2f28fe	-0.17105481
6	0xbae5586c	-0.0017497665
7	0xbcd04270	-0.025422305
8	0xbdaaa436	-0.08332102
9	0x3d8457b4	0.064620405
10	0xbdc34195	-0.09533993
11	0xbd6cf217	-0.057848062
12	0xbc8bb4cc	-0.017053984
13	0xbcac6481	-0.021044018
14	0xbe0f75d2	-0.14009789
15	0x3d0c0ca3	0.03419174
16	0xbd13735b	-0.035998683
17	0xbcce8014	-0.025207557
18	0xbdb83c25	-0.08995847
19	0x3ce7fa67	0.028317643
20	0x3c16d8fc	0.009207007
21	0xbd00460e	-0.03131681
22	0xbd86759d	-0.06565402
23	0xbe1e3b3c	-0.15452284
24	0xbdd11c7d	-0.10210512
25	0xbdc2d1b9	-0.09512658
26	0xbdc56a41	-0.09639407
27	0xbd8f89ca	-0.07008703
28	0xbd8aaecb	-0.0677162
29	0x3c088705	0.008332972
30	0x3bc4f9ca	0.0060112225
31	0xbc854e42	-0.016272668
32	0xbdcecb37	-0.10097354
33	0xbd9ffcf9	-0.078119226
34	0x390add4e	0.00013243148
35	0x3d1879f1	0.037225667
36	0xbe18b7ee	-0.14913914
37	0xbd924a86	-0.071431205
38	0x3d0b4021	0.033996705
39	0xbd09f638	-0.033682078
40	0xbdc358f1	-0.095384486
41	0xbd878485	-0.06617073
42	0x3d028dd2	0.03187353
43	0x3d6a949e	0.05727064
44	0xba6ffa04	-0.00091543817
45	0x3c82f683	0.015986687
46	0xbb0c2350	-0.0021383353
47	0x3d6a0735	0.05713578
48	0xbc4bc37e	-0.012436746
49	0xbda10a5a	-0.078633025
50	0xbdff8862	-0.12477185
51	0xbdaebbe8	-0.08531934
52	0xbdc52ea6	-0.09628038
53	0xbc938137	-0.01800595
54	0xbcd186f8	-0.025577053
55	0xbc440ff7	-0.011966697
56	0xbe070fc7	-0.13189612
57	0x3d2a0dbb	0.041517
58	0xbb942649	-0.0045211655
59	0xbd4c92e0	-0.04994476
60	0xbe01b1fb	-0.1266555
61	0x3c034fb2	0.008014606
62	0x3d7c494c	0.06159334
63	0xbe0eb9d9	-0.13938083
64	0xbdcc62fa	-0.09979816
65	0xbdb747ae	-0.08949219
66	0xbd008b52	-0.031382866
67	0x3b37ed88	0.0028065164
68	0xbd66ff14	-0.056395605
69	0xbd82c861	-0.063858755
70	0x3d828799	0.063735195
71	0x3b61ff77	0.0034484544
72	0xbe1c31de	-0.15253398
73	0xbdaaa407	-0.08332067
74	0xbdcab3bd	-0.098975636
75	0x3d43668e	0.047705226
76	0xbd3c2591	-0.045934264
77	0xbd0997e7	-0.03359213
78	0xbcf516de	-0.02991813
79	0xbdc8af0e	-0.09799014
80	0xbdc190df	-0.0945146
81	0xbdbdf0d1	-0.09274448
82	0x3d01643f	0.031589743
83	0xbcee49a4	-0.029087849
84	0xbcd89419	-0.026437806
85	0xbe308345	-0.17237575
86	0xbddfc089	-0.10925395
87	0xbe163c0c	-0.14671344
88	0xbd9f7163	-0.07785299
89	0xbe7f5f4a	-0.24938694
90	0xbdcfa458	-0.10138768
91	0xbdd7226e	-0.10504614
92	0xbda2fa6e	-0.07957922
93	0xbded10fd	-0.11575506
94	0x3c09b7d3	0.0084056435
95	0xbe05434e	-0.13013956
96	0xbdfa4c88	-0.122216284
97	0x3d4dae18	0.050214857
98	0x3d8132d8	0.06308526
99	0xbe3a70b1	-0.18207051
100	0xbc507952	-0.0127242375
101	0xbdd57596	-0.10422818
102	0xbdc035fc	-0.09385297
103	0xbe119a00	-0.14218903
104	0x3c466dd6	0.012111148
105	0x3caa59d4	0.020794787
106	0xbe237e0e	-0.15966055
107	0xbbc5ef7c	-0.0060405117
108	0xbd380660	-0.044927955
109	0xbe00c486	-0.12574968
110	0xbdff3293	-0.12460818
111	0xbd85b650	-0.06528914
112	0xbdd65496	-0.10465352
113	0xbc7124a1	-0.014718206
114	0x3ca56d05	0.020193586
115	0xbdb60a44	-0.08888677
116	0xbe201d72	-0.15636232
117	0xbe25b15f	-0.16180943
118	0xbda88512	-0.08228506
119	0xbc0d85a9	-0.008637824
120	0xbd8e537c	-0.06949517
121	0xbd9c84c2	-0.07642509
122	0xbdbe8bd2	-0.09304012
123	0xbc9354b8	-0.017984733
124	0xbd5332f9	-0.051562283
125	0xbe131780	-0.14364433
126	0x3d69bdc8	0.057065755
127	0xbc827ec4	-0.015929587
128	0xbd00b3eb	-0.031421583
129	0xbe5c329f	-0.21503685
130	0xbd40329d	-0.04692327
131	0xbddb1c54	-0.106987625
132	0xbe04b075	-0.12957938
133	0xbd594de6	-0.053052805
134	0xbd481cd6	-0.048855625
135	0xbdb2dae0	-0.08733153
136	0xbdc97f9c	-0.09838793
137	0x3d911757	0.0708453
138	0x3c48d120	0.012256891
139	0xbe17e1b1	-0.14832188
140	0xbe0fc320	-0.14039278
141	0xbd937a23	-0.0720103
142	0x3cff9088	0.031196848
143	0xbd7674a5	-0.060169835
144	0xbd5d1033	-0.053970527
145	0xbd912e6a	-0.07088931
146	0xbd8e5ef7	-0.06951707
147	0x39e8455c	0.00044302165
148	0xbe0e57d1	-0.13900687
149	0xbce68324	-0.028138705
150	0xbe0b3f9c	-0.13598484
151	0xbd1c288b	-0.038124602
152	0xbe270352	-0.1630986
153	0x3d0c1377	0.03419825
154	0xbe15e930	-0.14639735
155	0xbd10e85c	-0.035377845
156	0xbe19f507	-0.15034877
157	0x3c481360	0.012211651
158	0xbd281725	-0.041037697
159	0xbdb8dd14	-0.09026542
160	0xbdc517e4	-0.096236974
161	0xbd2b1820	-0.041771054
162	0xbddffb84	-0.10936645
163	0xbd043c71	-0.032284204
164	0xbe06218f	-0.13098739
165	0xbe22011d	-0.15820737
166	0xbe63fd5c	-0.22264618
167	0xbd89b8e6	-0.0672472
168	0xbe397c48	-0.18113816
169	0xbd513c33	-0.0510828
170	0xbdc3d800	-0.09562683
171	0xbd78b0dd	-0.060715545
172	0xbd8337a4	-0.06407097
173	0xbe368cdc	-0.17827171
174	0xbdf2a711	-0.11848272
175	0xbe351a61	-0.17685844
176	0xbd97c903	-0.07411387
177	0xbddee825	-0.10884122
178	0xbc091d16	-0.008368751
179	0xbcfcb1fd	-0.03084659
180	0xbe2087fd	-0.15676875
181	0xbd987a41	-0.07445193
182	0xbde87f35	-0.11352388
183	0xbcb6b5d9	-0.022303509
184	0xbcccaeeb	-0.024985751
185	0x3d0acd1b	0.03388701
186	0xbd974be7	-0.07387524
187	0xbe1e9916	-0.15488085
188	0xbe02a155	-0.12756856
189	0xbd9d7cf5	-0.07689849
190	0xbe4ed093	-0.20196752
191	0xbde64cce	-0.11245118
192	0xbdda4e60	-0.1065948
193	0xbcda39aa	-0.026638824
194	0xbe0ab769	-0.13546528
195	0xbd5f8de6	-0.054578684
196	0xbdf9a355	-0.12189356
197	0xbdd65445	-0.10465292
198	0xbd0efd35	-0.034909446
199	0xbcd61a4f	-0.026135592
200	0xbd91ab9a	-0.071128085
201	0x3d2849d1	0.04108602
202	0xbe2e189a	-0.17001572
203	0xbd0b36f5	-0.033987958
204	0xbdae08d7	-0.0849778
205	0x3d49cde3	0.049268615
206	0xbe295e49	-0.16539873
207	0xbdb69fa2	-0.08917166
208	0xbd145ef1	-0.036223356
209	0xbdedff9e	-0.11621021
210	0xbde2d2fb	-0.110753976
211	0xbdf4c736	-0.11952059
212	0xbe165094	-0.14679176
213	0xbdf979e2	-0.121814504
214	0xbd848dc6	-0.06472354
215	0xbdb5e7cc	-0.08882102
216	0xbdd667d5	-0.10469023
217	0xbe347b60	-0.17625189
218	0xbe65eccb	-0.2245361
219	0xbe171221	-0.1475301
220	0xbdce4ef8	-0.10073656
221	0xbcf447fc	-0.029819481
222	0xbc3598b5	-0.0110837715
223	0xbe4f2b57	-0.20231377
224	0xbd8732a2	-0.06601454
225	0xbe1ec14f	-0.15503429
226	0xbe0833fe	-0.13301083
227	0xbda95cb3	-0.08269634
228	0x3cb3177e	0.021861788
229	0xbd0bbbee	-0.03411477
230	0xbddbfcf4	-0.10741606
231	0xbd95eef9	-0.07320971
232	0xbd11d48a	-0.035603084
233	0xbc0b7775	-0.0085123675
234	0xbe85cc7d	-0.26132575
235	0xbde0da04	-0.10979083
236	0xbe1d0fe7	-0.15338098
237	0xbe07fe4c	-0.132806
238	0xbdbbb0a0	-0.09164548
239	0xbdbe8550	-0.09302771
240	0xbe3526bc	-0.17690557
241	0xbcecb8dc	-0.028896742
242	0xbe2072c7	-0.15668784
243	0xbe119b09	-0.14219297
244	0xbe18855f	-0.14894627
245	0xbd8425cc	-0.06452522
246	0xbd07835d	-0.033084262
247	0x3b261c31	0.0025346393
248	0xbe0a6446	-0.13514814
249	0xbe076e0c	-0.13225573
250	0xbcf2963a	-0.02961265
251	0xbdce9041	-0.10086108
252	0xbda91c85	-0.08257393
253	0xbd4e4e5b	-0.050367694
254	0xbd197233	-0.037462424
255	0xbd2be79f	-0.041968938
