model/models/1m/trained_model.pt (torch, 666885 bytes, 17 tensors)

conv1.weight f4 [48, 5, 5]
-0.11225729 -0.17772458 0.06892709 -0.026104925 0.021195855 0.0883704 0.14149427 0.039375845
-0.09891719 -0.07778547 -0.19418533 0.16070609 -0.053497016 -0.047352802 0.021615358 -0.14909148
-0.03229314 0.12776089 0.026612593 0.039539963 0.17984505 -0.110578224 0.048191037 0.10563199
0.18354268 0.13644624 0.08095503 -0.15905124 0.15955792 0.15870774 -0.07804633 0.15162629
0.1562655 -0.03239651 0.21483053 0.11133466 -0.008391185 -0.10326017 0.08720651 0.14918502
0.045329154 0.17879073 0.173038 -0.045645963 0.010175288 -0.0004570249 -0.06875302 -0.07595714
0.06885723 -0.07860609 -0.093257815 -0.1069448 0.0012742016 -0.13436922 0.026239725 -0.016680036
-0.05740988 0.2612184 -0.14029528 0.071546674 0.17202733 0.21215501 -0.017200368 0.15680781
0.09642043 0.12584797 0.055407405 0.20658202 -0.046862833 0.047848683 -0.015301376 0.14954215
-0.007074806 -0.109306164 -0.10078985 -0.080715984 -0.06429323 -0.15465212 -0.22000045 -0.088924274
-0.15789548 0.070506886 -0.01347306 -0.032846395 0.15048575 -0.20096397 -0.13844955 0.140016
-0.19866759 0.088744044 -0.08396268 -0.12272635 0.09896569 -0.015970223 -0.11894561 0.07095629
0.15189955 -0.12859967 -0.011478442 -0.07664263 0.042241007 -0.12885086 0.17582713 0.0032664023
0.15302108 -0.030338958 -0.08777141 0.18241465 0.21468192 0.21530595 -0.026087845 0.17778683
0.0997276 -0.017764248 -0.09185775 -0.03813354 0.11507844 0.03191323 -0.116247185 -0.08305623
-0.16284586 0.08991061 -0.013347335 -0.0028982186 0.05475137 0.1496425 -0.055748805 0.13716601
-0.10722963 0.07747704 0.19739147 -0.043690942 -0.11091785 0.1047011 0.016251296 0.10155827
-0.1029935 0.01366806 0.08814506 0.16930184 0.18760307 0.19195159 0.114057526 -0.03211932
-0.03287109 -0.08489477 -0.18419829 -0.15693992 -0.07507316 -0.21035941 -0.14139888 -0.11316557
-0.14348713 -0.123071484 -0.17111841 0.13666579 0.08577473 0.03917678 0.10603495 -0.051906932
0.09753878 -0.009003747 0.120151155 -0.18696131 0.030868981 -0.0629958 -0.048329946 -0.18328482
0.16942385 0.18017665 -0.18915604 0.05466059 -0.29946145 -0.2674231 0.044293143 -0.13328312
0.05161792 0.034672562 -0.099781625 -0.041817814 0.08339676 -0.11458138 -0.25144187 -0.110519625
-0.13319533 -0.0017062917 -0.0669478 -0.24041705 0.036256026 -0.09109234 0.08175471 0.034491826
-0.16798407 -0.22343895 -0.14113751 -0.2511653 0.12571901 -0.11772462 -0.2205844 0.01411078
0.12050229 -0.10549544 -0.0028471367 0.08472089 0.028048383 -0.020665642 -0.14061457 0.0232829
-0.17023015 0.12028627 -0.023276104 0.14010732 -0.16747388 0.05053878 0.12515156 -0.041836616
0.07762978 0.1281205 0.15697204 -0.038098652 -0.006070762 0.058157474 -0.29864055 -0.15879306
-0.09659126 0.10780747 -0.03760676 -0.08905375 -0.088803105 -0.122478604 -0.123721026 -0.054054618
-0.021619514 -0.017454863 -0.08438969 0.00087197125 0.17965095 -0.05116272 0.038006395 -0.161158
-0.12723202 -0.08051791 -0.07310507 -0.073735 -0.055770785 -0.18661673 -0.10486374 0.09684919
-0.07455437 -0.1707387 0.099767216 -0.2458626 -0.016196877 -0.059344366 -0.19833945 0.00032999364
00000000: 26e7 e5bd 6ffd 35be a529 8d3d ffd9 d5bc
00000010: eea2 ad3c 8afb b43d e0e3 103e 9148 213d
00000020: 1995 cabd fd4d 9fbd 85d8 46be 2390 243e
00000030: b01f 5bbd 03f5 41bd b112 b13c 70ab 18be
00000040: d045 04bd c0d3 023e a702 da3c a8f4 213d
00000050: 4d29 383e d676 e2bd f763 453d 9655 d83d
00000060: 9df2 3b3e 90b8 0b3e c0cb a53d 54de 22be
00000070: 2763 233e 4884 223e c1d6 9fbd ec43 1b3e
00000080: 1004 203e 34b2 04bd 89fc 5b3e 6d03 e43d
00000090: 2e7b 09bc 117a d3bd 5499 b23d f5c3 183e
000000a0: 10ab 393d eb14 373e e030 313e 43f7 3abd
000000b0: 40b6 263c d89c efb9 62ce 8cbd 6b8f 9bbd
000000c0: 0505 8d3d 3bfc a0bd f4fd bebd e005 dbbd
000000d0: 1c03 a73a 1698 09be b1f4 d63c 92a4 88bc
000000e0: 9f26 6bbd 6bbe 853e 91a9 0fbe 1087 923d
000000f0: ef27 303e 2a3f 593e c9e7 8cbc 3a92 203e
00000100: 1378 c53d 4ade 003e e0f2 623d 3d8a 533e
00000110: 3ef3 3fbd fbfc 433d 9fb2 7abc 9421 193e
00000120: c6d3 e7bb e9db dfbd e96a cebd 6c4e a5bd
00000130: 2bac 83bd 205d 1ebe cc47 61be ee1d b6bd
00000140: 5aaf 21be ea65 903d 1cbe 5cbc f189 06bd
00000150: f018 1a3e 80c9 4dbe b8c5 0dbe 5b60 0f3e
00000160: 846f 4bbe 70bf b53d a0f4 abbd f457 fbbd
00000170: 86ae ca3d fcd3 82bc c299 f3bd 8851 913d
00000180: 8e8b 1b3e a2af 03be 1310 3cbc d0f6 9cbd
00000190: e804 2d3d 7bf1 03be 070c 343e 2311 563b
000001a0: 8fb1 1c3e 6889 f8bc 7fc1 b3bd e8ca 3a3e
000001b0: 94d5 5b3e 2a79 5c3e 2db6 d5bc c00d 363e
000001c0: fc3d cc3d 5486 91bc eb1f bcbd ea31 1cbd
000001d0: 3fae eb3d 72b7 023d 0113 eebd 6219 aabd
000001e0: 11c1 26be 0e23 b83d c8ae 5abc 0af0 3dbb
000001f0: f942 603d e23b 193e dc58 64bd 3f75 0c3e
00000200: 359b dbbd 48ac 9e3d fd20 4a3e 46f5 32bd
00000210: e628 e3bd 886d d63d 7021 853c c8fd cf3d
00000220: 42ee d2bd 00f0 5f3c 6685 b43d 765d 2d3e
00000230: 051b 403e f58e 443e fe96 e93d 8c8f 03bd
00000240: d6a3 06bd 4fdd adbd 7a9e 3cbe dcb4 20be
00000250: f5bf 99bd 7568 57be deca 10be 5ac3 e7bd
00000260: 4aee 12be e70c fcbd aa39 2fbe 1ef2 0b3e
00000270: a9aa af3d d577 203d da28 d93d 5d9c 54bd
00000280: 69c2 c73d 7484 13bc cf11 f63d c972 3fbe
00000290: f2e0 fc3c f103 81bd 9ff5 45bd 04af 3bbe
000002a0: 727d 2d3e 3a80 383e 1fb2 41be c8e3 5f3d
000002b0: 0353 99be aeeb 88be ba6c 353d 5f7b 08be
000002c0: 506d 533d d104 0e3d 4f5a ccbd 2849 2bbd
000002d0: eccb aa3d a4a9 eabd fdbc 80be 1d58 e2bd
000002e0: 5b64 08be a6a5 dfba ee1b 89bd e32f 76be
000002f0: 3381 143d 9f8e babd 036f a73d 4d47 0d3d
00000300: 0404 2cbe 2ecd 64be 5a86 10be bd98 80be
00000310: 7cbc 003e 9b19 f1bd e1e0 61be e730 673c
00000320: e8c9 f63d fe0d d8bd 0797 3abb 2582 ad3d
00000330: b9c5 e53c fe4a a9bc 44fd 0fbe c8bb be3c
00000340: d050 2ebe a658 f63d 87ad bebc 4b78 0f3e
00000350: 467e 2bbe c001 4f3d bb27 003e df5c 2bbd
00000360: 5dfc 9e3d 0532 033e 47bd 203e 550d 1cbd
00000370: 3eed c6bb 8836 6e3d 6ae7 98be a69a 22be
00000380: a3d1 c5bd 2aca dc3d 8c09 1abd d061 b6bd
00000390: 67de b5bd 10d6 fabd 7361 fdbd 6068 5dbd
000003a0: 681b b1bc 80fd 8ebc 80d4 acbd 0095 643a
000003b0: 6bf6 373e 0090 51bd 98ac 1b3d 9a06 25be
000003c0: 1c49 02be 93e6 a4bd 1cb8 95bd 6002 97bd
000003d0: e86f 64bd 7518 3fbe cdc2 d6bd de58 c63d
000003e0: f6af 98bd 20d6 2ebe c152 cc3d 68c3 7bbe
000003f0: 50af 84bc 1413 73bd 7f19 4bbe ff02 ad39

conv1.bias f4 [48]
-0.18182738 -0.35969386 -0.29450879 0.03408277 -0.30693814 -0.12516466 0.065937564 0.08773254
-0.043507133 -0.18222587 -0.04629633 -0.11172595 -0.0714911 -0.37846878 0.23000205 -0.20171274
-0.24507585 -0.080357656 -0.24108848 0.038889106 -0.138003 -0.28198606 -0.105064414 -0.26917636
0.29528677 -0.36689913 -0.25269997 -0.10485114 -0.25792322 -0.08547292 0.24644466 -0.0041437643
-0.25209984 0.21340099 -0.12378712 -0.14065498 -0.12153001 0.36027196 -0.08744676 0.28208718
0.0772832 0.09323851 -0.39564642 -0.019432044 0.20309573 -0.13281922 -0.22896399 0.0312178
00000000: f530 3abe cb29 b8be dbc9 96be 609a 0b3d
00000010: ff26 9dbe 2a2b 00be 460a 873d 1ead b33d
00000020: 8934 32bd 6b99 3abe 38a1 3dbd 93d0 e4bd
00000030: ed69 92bd a9c6 c1be a885 6b3e c98d 4ebe
00000040: 2af5 7abe 8e92 a4bd e6df 76be 2f4a 1f3d
00000050: a950 0dbe 7a60 90be 032c d7bd 7cd1 89be
00000060: d42f 973e 34da bbbe e461 81be 32bc d6bd
00000070: 830e 84be 6d0c afbd fd5b 7c3e 6ac8 87bb
00000080: 3b13 81be ca85 5a3e 1a84 fdbd dc07 10be
00000090: bae4 f8bd 9175 b83e 4917 b3bd bb6d 903e
000000a0: a846 9e3d d5f3 be3d 2b92 cabe f32f 9fbc
000000b0: 54f8 4f3e c301 08be 8975 6abe 79bc ff3c

conv2.weight f4 [96, 48, 5]
-0.020959618 0.00081338984 0.074985564 -0.04917102 0.023011588 -0.04917481 0.004285577 -0.09827782
-0.02977653 -0.08824295 0.08236803 0.0742167 -0.03821205 -0.05997438 -0.037292518 0.036658388
0.00875317 0.035769198 0.037470646 0.009018475 -0.034691375 0.020769225 0.077042595 -0.10451891
-0.0055230134 -0.05605975 -0.04495981 0.02960159 -0.009265144 -0.104339436 -0.042978644 -0.0889152
-0.08563279 0.03155989 -0.07674581 0.070898384 -0.024127565 -0.092120305 -0.077311896 0.030476077
0.030691108 0.006935139 0.02684095 -0.06221235 -0.09795424 0.008668609 -0.056339256 0.016818203
-0.035810955 -0.039657503 -0.012058228 0.060996763 0.046090502 0.06689503 0.021354128 0.04166764
-0.03987705 0.002191931 -0.039140157 -0.05074361 0.025586974 -0.089864716 0.009959957 -0.040967688
0.010129083 0.023126928 -0.10200837 -0.06310506 0.028338633 0.03254283 -0.06988462 -0.11825217
-0.11552913 0.0043067816 -0.0041950233 -0.018124612 0.022551564 0.031877622 -0.058881257 0.03613363
-0.0067449384 0.023040054 -0.06555698 -0.033374734 -0.01101015 -0.06677866 -0.04051424 -0.094791785
-0.04858353 -0.079686396 -0.06787369 -0.031173728 -0.0323723 -0.096760094 -0.022551622 -0.050478067
-0.055108547 -0.023164611 0.0112819765 -0.00732685 -0.04442555 -0.023752661 -0.07176531 -0.0035037813
0.011830672 -0.03622076 -0.016630648 -0.075732976 -0.033674102 0.044073008 -0.02073998 0.051596574
0.052320763 -0.04162642 0.04313636 -0.0009980345 0.0092679905 0.05849833 0.00035037115 0.0009208959
-0.025247678 -0.07813263 -0.017839953 -0.04367525 0.005654381 -0.09096036 -0.029692404 0.021564055
-0.09894768 -0.05726024 -0.055629015 -0.08482625 -0.02762962 -0.0730788 -0.0070033465 -0.041526332
0.04252135 -0.03281323 0.0052486584 0.0054685473 -0.0008700405 -0.009802241 -0.052690875 0.09415218
0.07012905 0.02459345 -0.043040954 -0.02231197 0.018925533 -0.02182291 0.0065892637 -0.096365
-0.10350991 -0.0040124888 -0.071144015 -0.0561879 -0.027321108 -0.07171335 -0.028281184 -0.001795612
-0.046234857 0.011035521 -0.009131937 0.07836333 -0.005745816 -0.1590706 0.011690174 -0.0729097
-0.041474603 0.04308252 0.033857152 -0.014307506 0.03535781 -0.02100524 -0.03973399 -0.06583252
-0.042146105 0.0046076532 0.018322064 0.039769012 -0.031396363 -0.034123473 0.02063451 0.06400349
-0.040589713 -0.15379068 0.014709165 -0.115917556 -0.09987572 0.021656023 -0.08421571 -0.015361433
-0.07587034 -0.08286252 -0.006295236 0.032991152 -0.057136018 0.04219491 0.026885116 -0.0032093087
-0.00090262905 -0.046157923 -0.05330853 0.014119557 0.02832308 0.021275755 -0.0734785 0.012313104
0.0125070745 0.028085602 0.00037258776 0.07151417 0.030441746 0.016527941 -0.02323917 -0.035543744
0.02316623 -0.025812052 -0.06205861 -0.02548805 0.07410932 -0.09962923 0.009894175 -0.047636572
0.07183731 -0.06809281 0.070993945 -0.061268635 0.05907277 -0.069919646 -0.10100517 -0.007419043
-0.1093255 -0.0032438755 -0.11131324 0.07194653 0.0031815115 -0.012710087 -0.020079156 0.051358536
0.063545756 0.041970786 0.017091276 0.08813582 0.060192987 -0.061135724 -0.030278618 0.060113333
0.020311711 0.044829335 0.12419832 0.05225961 0.08913656 0.25641155 0.0093788905 -0.027206117
00000000: 81b3 abbc ab39 553a 0892 993d 8d67 49bd
00000010: cc82 bc3c 876b 49bd 076e 8c3b e245 c9bd
00000020: e9ed f3bc b8b8 b4bd 92b0 a83d edfe 973d
00000030: 3d84 1cbd b2a7 75bd 0ac0 18bd 1b27 163d
00000040: 7569 0f3c b982 123d d27a 193d 3ac2 133c
00000050: 8b18 0ebd 3924 aa3c 82c8 9d3d 030e d6bd
00000060: 65fa b4bb e99e 65bd c727 38bd 097f f23c
00000070: d5cc 17bc eaaf d5bd 600a 30bd 2c19 b6bd
00000080: 3f60 afbd f144 013d e82c 9dbd 2c33 913d
00000090: 2ca7 c5bc 92a9 bcbd b355 9ebd f7a8 f93c
000000a0: eb6b fb3c 2a40 e33b 8de1 db3c 61d2 7ebd
000000b0: 3c9c c8bd c806 0e3c fec3 66bd 54c6 893c
000000c0: 82ae 12bd e86f 22bd e08f 45bc bed7 793d
000000d0: 65c9 3c3d 4300 893d daee ae3c b0ab 2a3d
000000e0: 1e56 23bd 80a6 0f3b 6e51 20bd 88d8 4fbd
000000f0: c69b d13c fe0a b8bd 162f 233c bccd 27bd
00000100: 74f4 253c af74 bd3c c4e9 d0bd 3a3d 81bd
00000110: 6c26 e83c a14b 053d ab1f 8fbd 322e f2bd
00000120: 899a ecbd e71f 8d3b 6876 89bb 117a 94bc
00000130: 0fbe b83c 1c92 023d 792d 71bd db00 143d
00000140: a504 ddbb 7fbe bc3c bd42 86bd f2b3 08bd
00000150: eb63 34bc 40c3 88bd 42f2 25bd 3222 c2bd
00000160: 86ff 46bd 9f32 a3bd 5c01 8bbd 0c60 ffbc
00000170: d198 04bd 282a c6bd 2ebe b8bc 17c2 4ebd
00000180: 80b9 61bd b6c3 bdbc 0ad8 383c 1316 f0bb
00000190: 91f7 35bd f194 c2bc b1f9 92bd b29f 65bb
000001a0: 6fd5 413c 385c 14bd ff3c 88bc e419 9bbd
000001b0: dbed 09bd e685 343d e4e6 a9bc ee56 533d
000001c0: 4c4e 563d 7780 2abd c0af 303d 7bd0 82ba
000001d0: c5d8 173c f29b 6f3d 05b2 b739 4768 713a
000001e0: 38d4 cebc 0004 a0bd 1825 92bc d2e4 32bd
000001f0: 6348 b93b 6d49 babd 7c3d f3bc 1aa7 b03c
00000200: 15a5 cabd b789 6abd 40db 63bd 63b9 adbd
00000210: 8357 e2bc 57aa 95bd 547c e5bb 8417 2abd
00000220: de2a 2e3d 2a67 06bd f0fc ab3b 8031 b33b
00000230: 6e13 64ba 9499 20bc 63d2 57bd dcd2 c03d
00000240: d29f 8f3d 3478 c93c b64b 30bd 98c7 b6bc
00000250: b809 9b3c f6c5 b2bc c0ea d73b 035b c5bd
00000260: 01fd d3bd 327b 83bb f4b3 91bd 4925 66bd
00000270: 84d0 dfbc 73de 92bd f1ad e7bc be5a ebba
00000280: c360 3dbd 54ce 343c 1f9e 15bc f47c a03d
00000290: 6647 bcbb 67e3 22be 2588 3f3c ae51 95bd
000002a0: 46e1 29bd 4c77 303d ccad 0a3d 086a 6abc
000002b0: 5ad3 103d 2e13 acbc 1cc0 22bd 33d3 86bd
000002c0: 65a1 2cbd ccfb 963b 2718 963c d5e4 223d
000002d0: 7999 00bd 0ec5 0bbd b409 a93c 4314 833d
000002e0: 6641 26bd 4e7b 1dbe b6fe 703c 2f66 edbd
000002f0: a48b ccbd f967 b13c 4979 acbd 85ae 7bbc
00000300: e961 9bbd d3b3 a9bd 4448 cebb bb21 073d
00000310: 7507 6abd 92d4 2c3d 2d3e dc3c 4453 52bb
00000320: 699e 6cba 1710 3dbd 0c5a 5abd b755 673c
00000330: ce05 e83c 7e4a ae3c e57b 96bd e7bc 493c
00000340: 79ea 4c3c c713 e63c e257 c339 0576 923d
00000350: f860 f93c 9b65 873c 1260 bebc 5196 11bd
00000360: 1bc7 bd3c cc73 d3bc 2b31 7ebd 51cc d0bc
00000370: a1c6 973d 690a ccbd 2e1b 223c 911e 43bd
00000380: 711f 933d 3e74 8bbd 4665 913d d2f4 7abd
00000390: 4af6 713d 0832 8fbd ccdb cebd 721b f3bb
000003a0: 0ce6 dfbd 3397 54bb 32f8 e3bd b458 933d
000003b0: e880 503b f83d 50bc 0b7d a4bc 545d 523d
000003c0: 4724 823d 8fe9 2b3d 0103 8c3c 8e80 b43d
000003d0: ec8c 763d 7469 7abd dd0a f8bc 6639 763d
000003e0: bf64 a63c f79e 373d b05b fe3d 2c0e 563d
000003f0: 3b8d b63d 6048 833e eba9 193c 5ddf debc

conv2.bias f4 [96]
0.010074795 -0.061671257 0.0429541 -0.020857044 -0.0697793 -0.019440105 -0.0009869302 -0.07645955
-0.014016949 -0.17519502 -0.037463233 -0.078735776 -0.09586428 0.05949202 -0.011088243 0.011620135
-0.03671578 -0.009579812 -0.012424657 -0.06324695 -0.03912231 -0.043196693 -0.090629436 -0.06340889
-0.07875058 -0.020511681 -0.051465407 -0.06813837 -0.15932263 -0.058526635 -0.07963634 -0.001267565
-0.020643618 -0.042109825 -0.045422036 0.008153141 -0.028307725 -0.030431548 -0.06664429 -0.07802433
-0.07431386 -0.015457073 -0.03749834 -0.09421247 -0.100602575 -0.078952216 -0.091503814 -0.08588795
-0.008687209 -0.020569619 -0.03019262 -0.09860585 -0.0924184 -0.032780495 -0.00839637 -0.062324032
-0.0226361 -0.09450308 -0.038810484 -0.07868923 -0.037517343 0.014907804 -0.023979107 -0.053334434
0.028154682 -0.090633035 -0.06872294 0.014697973 0.014171095 -0.040995844 0.045573615 0.003080613
-0.1658836 -0.051154032 -0.025957197 -0.047043122 -0.07448379 -0.11172894 -0.06225559 -0.0067961835
-0.085684896 -0.08168524 -0.048811357 -0.0214682 -0.027528416 0.006769272 -0.029678473 -0.10463621
-0.0019115409 -0.03206712 -0.06712526 -0.049040627 0.010328842 -0.103918985 -0.11127218 -0.051230907
00000000: c110 253c 009b 7cbd a3f0 2f3d 64dc aabc
00000010: 73e8 8ebd db40 9fbc e25b 81ba d396 9cbd
00000020: 58a7 65bc 5366 33be 0c73 19bd 3940 a1bd
00000030: 7e54 c4bd e8ad 733d 76ab 35bc 6162 3e3c
00000040: 4963 16bd a5f4 1cbc ca90 4bbc 9e87 81bd
00000050: b73e 20bd 04ef 30bd ed9b b9bd 85dc 81bd
00000060: fc47 a1bd 1d08 a8bc 64cd 52bd 218c 8bbd
00000070: 7925 23be a0b9 6fbd 6118 a3bd 6c24 a6ba
00000080: ce1c a9bc 5a7b 2cbd 750c 3abd c094 053c
00000090: 9ae5 e7bc 954b f9bc cd7c 88bd 38cb 9fbd
000000a0: dd31 98bd aa3f 7dbc dc97 19bd 78f2 c0bd
000000b0: b908 cebd b3b1 a1bd 5a66 bbbd 06e6 afbd
000000c0: cc54 0ebc 9e81 a8bc 8356 f7bc ddf1 c9bd
000000d0: dc45 bdbd d744 06bd ee90 09bc 7c47 7fbd
000000e0: 586f b9bc d58a c1bd bef7 1ebd d227 a1bd
000000f0: c9ab 19bd dd3f 743c d56f c4bc 3575 5abd
00000100: a6a4 e63c d09d b9bd 9dbe 8cbd c4cf 703c
00000110: e12d 683c 42eb 27bd 66ab 3a3d 1ce4 493b
00000120: 64dd 29be e486 51bd 30a4 d4bc 4ab0 40bd
00000130: f58a 98bd 24d2 e4bd b8ff 7ebd 85b2 debb
00000140: 907b afbd 974a a7bd 6bee 47bd 14de afbc
00000150: 4683 e1bc c5d0 dd3b 4520 f3bc 824b d6bd
00000160: ab8c faba d058 03bd f878 89bd d3de 48bd
00000170: 4e3a 293c 7ad3 d4bd abe2 e3bd 80d7 51bd

lstm1.weight_ih_l0 f4 [512, 96]
0.030117974 0.12522034 -0.043783247 0.09552043 0.112792455 0.08776589 -0.008726197 0.0898062
-0.04567611 0.10970933 0.12672725 -0.05788368 0.06104639 0.12944405 0.11827993 -0.051509164
0.007203689 0.021777304 0.011275616 0.077055424 0.010700055 0.040981077 0.11327538 -0.033888467
-0.03018565 -0.043635916 0.11625365 -0.0160881 0.12044435 -0.09839827 0.051632047 0.059789166
0.085780814 0.08964211 0.0027392833 -0.0046735858 0.05961709 0.077718414 0.11992181 0.09443955
0.059408456 0.010378353 0.008165442 -0.014322416 -0.048572183 -0.06031022 -0.05582914 -0.08266344
-0.0072915307 0.04965097 -0.018672626 0.03557371 0.11245764 0.069057964 0.06285469 -0.059189226
0.069001146 0.0058297943 0.07615603 -0.06408199 -0.047841873 0.053686254 -0.050711546 -0.039783593
-0.01113864 0.07063352 0.059398796 0.119902305 0.1104709 -0.02742421 -0.008545536 0.06101129
-0.019416498 -0.043760933 0.02319744 0.07304512 0.017439902 0.037435077 0.009546556 0.047826327
0.06349663 0.103900544 0.015726333 0.036560588 -0.0017487144 0.097431585 -0.03107048 0.11963276
-0.020573724 0.06837196 0.07239477 0.10428829 0.10155121 -0.041126642 -0.051287357 0.005679063
-0.0018404033 -0.10578727 -0.078997105 0.056429256 -0.120702274 -0.10098847 -0.03221847 -0.016278233
0.076126345 -0.1250946 -0.0018321844 -0.09713448 -0.1366591 0.12511228 -0.036407318 -0.03503243
0.021519806 -0.017971622 -0.023310035 0.044351675 -0.029925657 0.024551451 -0.050883975 -0.011754813
-0.0073877047 -0.05885169 -0.100196384 0.077247694 -0.00026676184 0.05820044 -0.0013984478 -0.048098702
-0.028092254 0.028039845 -0.048242822 0.040326484 -0.027865943 0.023201553 -0.053224567 0.09063425
-0.10221525 -0.08373758 -0.0017231579 -0.083069526 0.03150577 0.023518726 0.004152239 0.0362762
-0.10711032 -0.005593241 0.011475001 -0.01890801 0.02200141 0.026114771 0.041664273 0.0070616477
-0.021415891 -0.08050166 -0.057633955 -0.058214363 0.00053042267 -0.029648863 0.014386771 -0.088746846
0.047734585 -0.1067467 0.0988277 0.009801787 -0.01864833 -0.10658539 -0.09057527 -0.13016896
0.021232946 -0.020796366 -0.05690833 0.013116396 0.06258735 -0.02170129 -0.08890623 0.08181484
-0.041271884 -0.14069697 -0.013494413 0.014011271 0.033772804 0.023255212 -0.023882942 -0.14183751
0.022277825 0.02490454 -0.016171137 -0.032198783 -0.030827858 -0.11571259 0.052156005 -0.12801361
-0.006566066 0.0043724463 0.035890836 -0.09524895 0.08268307 0.13085411 0.09945426 -0.0057922336
-0.06787205 -0.006145545 0.060585756 0.074740365 0.055600956 -0.2743282 -0.076522395 -0.02416972
-0.04537752 0.15136628 -0.073932804 0.06550578 -0.05971466 -0.047404233 0.08489179 0.06356
-0.040159423 -0.022031387 -0.030451613 -0.07200746 -0.08319576 -0.07973614 0.005035729 0.091597736
-0.0044083395 -0.046624854 -0.023604045 -0.10867521 0.077957705 -0.05178869 0.016093891 -0.040359765
-0.010512806 0.03178942 -0.0037839743 -0.076897286 0.04792415 0.02401822 0.061994083 0.027667305
-0.013388937 -0.029791899 0.04023268 0.0070634866 -0.008429164 -0.013664556 -0.04764841 -0.07150748
0.048029117 0.120986246 -0.011213908 0.17958562 0.0399255 -0.02805383 0.13811661 0.04192139
00000000: f8b9 f63c c339 003e 1056 33bd 37a0 c33d
00000010: bbff e63d 9abe b33d 53f8 0ebc 50ec b73d
00000020: df16 3bbd 49af e03d cac4 013e 7017 6dbd
00000030: c80b 7a3d fb8c 043e bf3c f23d 46fb 52bd
00000040: ec0c ec3b 5166 b23c 5cbd 383c 3ccf 9d3d
00000050: 494f 2f3c c6db 273d ecfc e73d a2ce 0abd
00000060: e547 f7bc 93bb 32bd 6516 ee3d 31cb 83bc
00000070: 87ab f63d 0885 c9bd 207c 533d 7ce5 743d
00000080: daad af3d 4896 b73d 8c85 333b e124 99bb
00000090: 0d31 743d d52a 9f3d 9199 f53d 8669 c13d
000000a0: 4856 733d f809 2a3c 59c8 053c 91a8 6abc
000000b0: a0f3 46bd d907 77bd 19ad 64bd 734b a9bd
000000c0: cbed eebb d15e 4b3d 56f7 98bc bdb5 113d
000000d0: 3150 e63d 436e 8d3d f6b9 803d 6770 72bd
000000e0: 7950 8d3d dc07 bf3b b1f7 9b3d 6b3d 83bd
000000f0: d7f5 43bd 1ee6 5b3d e9b6 4fbd 1ff4 22bd
00000100: d87e 36bc 4fa8 903d 274c 733d 578f f53d
00000110: 913e e23d bda8 e0bc 9302 0cbc f9e6 793d
00000120: 590f 9fbc aa3e 33bd 8f08 be3c ae98 953d
00000130: 20de 8e3c 8655 193d 2869 1c3c 8ae5 433d
00000140: 850a 823d cfc9 d43d 83d4 803c 8ec0 153d
00000150: 1e35 e5ba 368a c73d 8587 febc 0502 f53d
00000160: 3a8a a8bc 9906 8c3d b643 943d 1995 d53d
00000170: 15fa cf3d 6974 28bd b112 52bd 6f17 ba3b
00000180: b039 f1ba ffa6 d8bd 3cc9 a1bd 5d22 673d
00000190: c132 f7bd 0bd3 cebd 84f7 03bd ee59 85bc
000001a0: 21e8 9b3d cc18 00be e825 f0ba 71ee c6bd
000001b0: 5df0 0bbe 6f1d 003e d71f 15bd 2a7e 0fbd
000001c0: 4e4a b03c 3939 93bc b0f4 bebc 1aaa 353d
000001d0: a726 f5bc 2020 c93c b76b 50bd 4297 40bc
000001e0: 8f14 f2bb 780e 71bd c333 cdbd 0a34 9e3d
000001f0: 2bdc 8bb9 9663 6e3d 1f4c b7ba 2503 45bd
00000200: ba21 e6bc d1b3 e53c 449a 45bd 622d 253d
00000210: 1e47 e4bc 2f11 be3c 0102 5abd 739e b93d
00000220: 3b56 d1bd 9c7e abbd 96db e1ba 5b20 aabd
00000230: 320c 013d 58aa c03c 810f 883b 5a96 143d
00000240: a85c dbbd 8247 b7bb a501 3c3c f9e4 9abc
00000250: 4d3c b43c a5ee d53c 28a8 2a3d 6565 e73b
00000260: 6170 afbc 0ede a4bd 9511 6cbd 2f72 6ebd
00000270: 100c 0b3a 2ce2 f2bc 7eb6 6b3c e8c0 b5bd
00000280: 5785 433d 049e dabd 2d66 ca3d ad97 203c
00000290: 62c4 98bc 7149 dabd 877f b9bd 034b 05be
000002a0: b7f0 ad3c 245d aabc b618 69bd 27e6 563c
000002b0: cc2d 803d e7c6 b1bc 7814 b6bd 8a8e a73d
000002c0: b50c 29bd de12 10be ac17 5dbc 888f 653c
000002d0: 5a55 0a3d b781 be3c 29a6 c3bc da3d 11be
000002e0: fc7f b63c 9b04 cc3c 5579 84bc dfe2 03bd
000002f0: b48a fcbc b9fa ecbd 89a1 553d 0016 03be
00000300: 2728 d7bb bd46 8f3b 4502 133d e211 c3bd
00000310: be55 a93d 9ffe 053e adae cb3d c7cc bdbb
00000320: 8000 8bbd 9160 c9bb c528 783d 7a11 993d
00000330: d4bd 633d bf74 8cbe c6b7 9cbd 94ff c5bc
00000340: c7dd 39bd c3ff 1a3e 156a 97bd e527 863d
00000350: 5c97 74bd f12a 42bd bfdb ad3d bf2b 823d
00000360: 357e 24bd 2b7b b4bc a975 f9bc a678 93bd
00000370: 8a62 aabd b44c a3bd c202 a53b 9897 bb3d
00000380: d573 90bb b4f9 3ebd 455d c1bc 1c91 debd
00000390: 4aa8 9f3d 6120 54bd 56d7 833c 4850 25bd
000003a0: e73d 2cbc 9f35 023d 8efc 77bb 537c 9dbd
000003b0: 1d4c 443d dcc1 c43c 82ed 7d3d 8ba6 e23c
000003c0: 465d 5bbc 240e f4bc 06cb 243d d274 e73b
000003d0: 7a1a 0abc 4de1 5fbc fb2a 43bd 8472 92bd
000003e0: 2eba 443d a3c7 f73d 8aba 37bc 4be5 373e
000003f0: ec88 233d 25d1 e5bc 716e 0d3e c3b5 2b3d

lstm1.weight_hh_l0 f4 [512, 128]
-0.011097 -0.15644808 -0.056944985 0.0018605549 -0.019517282 -0.08954739 -0.027661376 0.029800048
-0.06209209 0.007456069 0.040884003 -0.10401759 -0.014439463 0.06544228 -0.029262979 0.049417
0.09788666 0.06765494 0.048846617 0.014894638 0.0054475684 0.011852513 -0.030808534 -0.022538986
0.09902837 0.10604801 -0.058285926 -0.13578571 -0.05096854 0.011528176 0.016001642 0.09952753
-0.11145714 0.013367418 -0.037263136 -0.11313773 0.043436646 -0.0064290175 -0.008009079 -0.14251003
0.060643855 0.07699439 0.037247494 0.021659428 0.0006705816 -0.027348662 0.034552548 0.0030870067
0.05815224 -0.07820092 0.01669441 -0.037788395 0.0022685765 0.04043392 0.044178244 -0.059753813
0.050016128 0.01308258 0.034016617 0.107130855 -0.07414212 -0.09481506 0.08616034 0.006224411
0.041345544 0.053211115 0.09900181 -0.039166782 -0.11558697 0.032060638 0.07481199 -0.09181593
-0.1547349 0.056419164 -0.10006385 0.07755069 -0.06559276 0.0029598884 0.053051837 0.035811763
-0.17806914 0.06246775 0.015899315 0.081818074 -0.08896423 0.054008286 0.12544398 0.081013456
-0.11906484 -0.06720807 -0.11997698 -0.03170176 0.10212224 -0.07647925 -0.068352595 0.029732669
-0.06844461 -0.13240783 -0.0983524 0.00031705853 0.06756978 0.075037144 -0.04484909 0.021375632
0.029677432 0.07178815 -0.07930865 -0.16202243 -0.012174772 -0.01963657 0.10027712 0.017989075
-0.0940329 -0.04099557 0.0097203795 0.16368186 0.20165278 0.12117555 0.07637779 0.04563339
0.093236305 0.0295447 0.08221262 -0.0631396 0.10785535 -0.0707864 0.115069635 0.029472828
0.029978521 0.021657556 -0.13058724 0.0072949072 -0.012230729 0.09807106 0.055811632 0.12163755
-0.010206326 -0.016143015 -0.10646978 0.01522952 -0.11569609 -0.10110713 0.036219485 -0.0031628523
-0.059878204 -0.04312942 0.093044594 0.031780247 0.046310794 -0.041338496 0.012189463 -0.10185012
0.027966049 -0.007864649 0.002953969 0.011005206 0.045850266 0.07020956 0.02238978 -0.095862955
-0.11283029 -0.09411175 -0.0985473 0.050185952 0.12357246 0.038908605 -0.029081564 -0.16992703
-0.1205879 0.0014992378 -0.023396017 -0.045899834 0.04750816 0.061901957 -0.031710442 -0.08418689
-0.10320952 -0.05053002 0.032552272 -0.12373242 0.14657894 -0.10757428 -0.04263427 -0.061484654
-0.1181668 -0.06204155 -0.049922384 -0.08166397 0.108236015 0.032697547 0.03630824 -0.04437163
0.014765492 -0.033554874 -0.11586927 -0.0778095 -0.066447064 0.06521727 -0.034088444 0.009749712
0.08054109 -0.03186845 -0.01819743 -0.069007434 -0.050638903 -0.069371216 -0.04701524 -0.044797186
0.044800013 0.036027625 -0.0806088 0.0066910866 -0.057677172 -0.02320295 0.048366614 -0.09871583
-0.04471091 0.019021614 -0.03201353 0.042327765 -0.11847098 0.11978988 -0.16266924 -0.009003324
-0.025358226 0.0025540018 0.05230682 0.029787043 -0.09215607 -0.17409134 0.076119706 0.106877685
0.029926475 -0.020621631 0.030531991 0.12269525 0.13458005 -0.07161724 0.038532466 -0.068256326
0.12411877 0.10205067 -0.0038361817 0.020367842 -0.036064353 0.12436328 0.07648554 0.10466812
0.020184394 0.099524386 -0.029200865 -0.028359396 -0.12072141 -0.11007101 0.010925384 0.0968513
00000000: 31d0 35bc ed33 20be 253f 69bd dddd f33a
00000010: b5e2 9fbc 9f64 b7bd 1c9a e2bc 3b1f f43c
00000020: 4654 7ebd 0a52 f43b fc75 273d 2d07 d5bd
00000030: 7f93 6cbc 9a06 863d eab8 efbc 7b69 4a3d
00000040: cd78 c83d ac8e 8a3d 6413 483d a408 743c
00000050: 8481 b23b 0b31 423c 2e62 fcbc aea3 b8bc
00000060: 63cf ca3d b32f d93d 39bd 6ebd 690b 0bbe
00000070: 63c4 50bd ade0 3c3c e015 833c 17d5 cb3d
00000080: a443 e4bd 0403 5b3c 3ba1 18bd c1b4 e7bd
00000090: a0ea 313d 82aa d2bb 8338 03bc 26ee 11be
000000a0: b165 783d 3caf 9d3d d490 183d 1d6f b13c
000000b0: f8c9 2f3a 4d0a e0bc f986 0d3d 614f 4a3b
000000c0: 0b31 6e3d ce27 a0bd b7c2 883c 01c8 1abd
000000d0: 66ac 143b 0a9e 253d 3ff4 343d 6ac0 74bd
000000e0: b6dd 4c3d 5158 563c 0255 0b3d 6c67 db3d
000000f0: d3d7 97bd 662e c2bd d574 b03d 25f6 cb3b
00000100: f259 293d e6f3 593d 76c1 ca3d 596d 20bd
00000110: dcb8 ecbd 0452 033d 0737 993d fe09 bcbd
00000120: d372 1ebe c817 673d 47ee ccbd e5d2 9e3d
00000130: 7f55 86bd b0fa 413b e24c 593d 5baf 123d
00000140: c257 36be 2fde 7f3d 483f 823c 3c90 a73d
00000150: e132 b6bd cb37 5d3d 6374 003e 62ea a53d
00000160: 44d8 f3bd 62a4 89bd 7eb6 f5bd b4d9 01bd
00000170: 7725 d13d 27a1 9cbd 72fc 8bbd ed91 f33c
00000180: b02c 8cbd eb95 07be fc6c c9bd e03a a639
00000190: 0662 8a3d 13ad 993d aeb3 37bd f31b af3c
000001a0: 161e f33c aa05 933d 936c a2bd 35e9 25be
000001b0: b278 47bc dfdc a0bc 175e cd3d d35d 933c
000001c0: 5294 c0bd f9ea 27bd 3a42 1f3c 389c 273e
000001d0: 117e 4e3e e32a f83d f56b 9c3d 14ea 3a3d
000001e0: adf2 be3d ba07 f23c 175f a83d 564f 81bd
000001f0: 44e3 dc3d 76f8 90bd a1a9 eb3d 0071 f13c
00000200: 8495 f53c 306b b13c a9b8 05be 1e0a ef3b
00000210: 6563 48bc 7bd9 c83d bd9a 643d 1c1d f93d
00000220: 6f38 27bc 5b3e 84bc d40c dabd 3d85 793c
00000230: 12f2 ecbd 4111 cfbd e25a 143d db47 4fbb
00000240: d942 75bd 7aa8 30bd 2a8e be3d 012c 023d
00000250: 63b0 3d3d 8e52 29bd 50b6 473c cc96 d0bd
00000260: 0e19 e53c bbda 00bc 6097 413b 2e4f 343c
00000270: 7dcd 3b3d 08ca 8f3d c66a b73c cc53 c4bd
00000280: 9113 e7bd a9bd c0bd 2bd3 c9bd c98f 4d3d
00000290: 8f13 fd3d a15e 1f3d 763c eebc 5a01 2ebe
000002a0: caf6 f6bd 1382 c43a 01a9 bfbc 7701 3cbd
000002b0: eb97 423d e88c 7d3d cfe2 01bd 2d6a acbd
000002c0: 835f d3bd 91f8 4ebd 8855 053d 6c67 fdbd
000002d0: ca18 163e e74f dcbd 46a1 2ebd 55d7 7bbd
000002e0: 6f01 f2bd 481f 7ebd 6a7b 4cbd 713f a7bd
000002f0: d8aa dd3d dded 053d f3b7 143d 07bf 35bd
00000300: f6ea 713c d670 09bd de4c edbd 965a 9fbd
00000310: 6615 88bd a290 853d 53a0 0bbd 42bd 1f3c
00000320: baf2 a43d 7e88 02bd c712 95bc c553 8dbd
00000330: bd6a 4fbd 7f12 8ebd 0d93 40bd 417d 37bd
00000340: 3880 373d b491 133d 3a16 a5bd e740 db3b
00000350: e63e 6cbd 1d14 bebc 121c 463d 862b cabd
00000360: ca22 37bd 37d3 9b3c 9f20 03bd e15f 2d3d
00000370: eaa0 f2bd 6654 f53d c492 26be ae82 13bc
00000380: 0ebc cfbc 0a61 273b ad3f 563d f503 f43c
00000390: 52bc bcbd 0045 32be a6e4 9b3d b0e2 da3d
000003a0: 5e28 f53c b2ee a8bc 3a1e fa3c a647 fb3d
000003b0: 5acf 093e 0fac 92bd 38d4 1d3d f9c9 8bbd
000003c0: fb31 fe3d f1ff d03d 7368 7bbb 76da a63c
000003d0: 37b8 13bd 2db2 fe3d 73a4 9c3d 3d5c d63d
000003e0: be59 a53c 71d3 cb3d a736 efbc f751 e8bc
000003f0: c93c f7bd e96c e1bd 6200 333c f959 c63d

lstm1.bias_ih_l0 f4 [512]
0.03880523 0.036359206 0.00488982 -0.03517387 0.16323034 -0.013524622 0.015773756 -0.032741122
-0.05046078 0.018820297 0.030795177 0.011490585 0.09609502 0.04232608 -0.012172734 -0.06572414
0.054628752 0.030329669 0.024774695 -0.11118685 -0.0030755238 -0.027453052 0.024240121 -0.00521577
-0.03401646 -0.039506648 0.10406756 -0.010895807 0.006342549 0.069076 0.111025654 0.05486224
-0.02086934 0.11415245 0.09988068 -0.04247186 0.027416646 -0.048718337 0.008601836 -0.06621434
-0.09921526 -0.036988415 0.15557225 -0.012934031 -0.002080103 -0.0050323308 0.117776826 -0.018218955
-0.042957895 0.0068037896 0.01967683 -0.045470174 0.0129202 0.05755283 -0.033423606 -0.02758921
0.100754514 -0.015375674 0.044377815 -0.085264705 0.024539456 0.1933363 0.09409204 0.05287724
0.0294866 0.028863339 0.123021066 0.052925628 -0.004356082 0.087504365 -0.07868301 0.054485083
0.06746839 0.101640284 -0.029125702 0.04660339 0.11287654 -0.04108695 -0.090131424 -0.11046925
-0.017995328 -0.019253409 0.07582075 0.0024702814 -0.043548826 -0.025555404 -0.0077778446 -0.04663945
-0.0053658704 -0.0075989645 -0.015879774 0.0011857668 -0.03410431 0.07716536 -0.04100755 -0.014296106
0.11897031 0.04009419 0.112895064 0.01104629 0.09536861 -0.07027206 0.07153456 0.029064719
0.107701905 0.04559752 0.006165144 0.013738656 0.013041694 -0.0574079 -0.009422694 0.10586809
-0.041378185 0.013775372 -0.043074694 0.05251949 0.006711534 0.10837393 0.028836992 0.02563562
0.028664483 0.019026732 -0.0026564954 0.102763966 -0.008192765 0.0019087908 -0.011944724 -0.05759619
-0.04057653 -0.07145763 0.021473246 0.023815816 0.16070588 0.12054885 0.012648877 0.003862823
0.052511495 -0.003720069 -0.0152177075 -0.1272197 0.13700126 -0.032403678 0.09770242 0.07037964
0.056999423 0.11575432 0.1189435 -0.07128262 -0.033215243 -0.06567941 -0.03930382 -0.094574876
0.07553497 0.17332207 -0.03669313 -0.043578338 0.1220629 0.05151835 0.037329987 -0.040472716
-0.038444765 -0.011671321 -0.043481857 -0.13837999 0.047193255 -0.039447602 0.07056527 -0.12346316
-0.04368374 -0.0056951893 0.008275776 0.08533406 0.09914939 0.05569485 -0.04973887 0.104105696
-0.051696762 -0.014891592 -0.08624446 0.0042085443 0.043609917 -0.0030172782 0.009359617 0.12826744
0.06350106 -0.08212706 -0.05230395 -0.07110715 0.08955501 -0.049442068 -0.20915312 -0.22977479
0.04228878 -0.092293106 0.042498108 -0.0372804 -0.024609014 -0.04939092 -0.106348075 -0.06092093
0.08488155 -0.049645863 0.0123367 0.039485563 -0.013223046 0.04570939 -0.06422068 -0.009600457
-0.078348644 0.07511556 -0.07263219 -0.09203415 -0.093769364 0.037799325 0.020815764 -0.0020424211
-0.050309747 0.069960944 0.10516159 0.17847076 0.032287337 -0.025444577 -0.06516281 0.04131
0.031881142 0.11346041 0.061681 -0.051742427 0.016502311 -0.11582739 0.1300821 0.027227495
0.095659085 0.08323518 0.042909693 0.06757337 -0.03369319 0.017988045 -0.13137634 0.0015381869
0.0023423177 0.0129918875 0.000517343 0.026478767 0.0429489 -0.03758752 -0.11841732 0.025039751
0.07313402 0.006105489 -0.052034702 0.094349846 0.05477694 0.15637958 0.058594752 -0.025162866
00000000: 3cf2 1e3d 64ed 143d c83a a03b 7a12 10bd
00000010: db25 273e 6096 5dbc f737 813c 8e1b 06bd
00000020: f6af 4ebd 062d 9a3c 2b46 fc3c 0243 3c3c
00000030: 77cd c43d 1d5e 2d3d 2670 47bc 619a 86bd
00000040: 66c2 5f3d ed75 f83c 4df4 ca3c eeb5 e3bd
00000050: ba8e 49bb 39e5 e0bc 3893 c63c 0de9 aabb
00000060: d854 0bbd b9d1 21bd 5f21 d53d 5484 32bc
00000070: 28d5 cf3b b877 8d3d 6b61 e33d 3ab7 603d
00000080: 2ef6 aabc c2c8 e93d 3e8e cc3d f9f6 2dbd
00000090: e098 e03c e18c 47bd b7ee 0c3c 629b 87bd
000000a0: 5f31 cbbd 2a81 17bd 554e 1f3e 42e9 53bc
000000b0: 5652 08bb 40e6 a4bb fa34 f13d eb3f 95bc
000000c0: 9ef4 2fbd 53f2 de3b 4e31 a13c ef3e 3abd
000000d0: 3faf 533c 84bc 6b3d 31e7 08bd c402 e2bc
000000e0: 6258 ce3d 40ea 7bbc 83c5 353d 439f aebd
000000f0: f806 c93c f3f9 453e 54b3 c03d ce95 583d
00000100: e28d f13c cf72 ec3c 78f2 fb3d 8bc8 583d
00000110: 77bd 8ebb 7d35 b33d 8f24 a1bd c02b 5f3d
00000120: de2c 8a3d c828 d03d 0699 eebc 32e3 3e3d
00000130: d12b e73d ca4a 28bd d396 b8bd b43d e2bd
00000140: f06a 93bc 53b9 9dbc e947 9b3d 72e4 213b
00000150: 4160 32bd 9159 d1bc 4add febb 0209 3fbd
00000160: 2fd4 afbb bc00 f9bb 4d16 82bc bb6b 9b3a
00000170: f6b0 0bbd df08 9e3d 88f7 27bd 373a 6abc
00000180: b5a6 f33d ce39 243d 8735 e73d 80fb 343c
00000190: 9e50 c33d ccea 8fbd b680 923d 2219 ee3c
000001a0: d192 dc3d 77c4 3a3d fa04 ca3b 1a18 613c
000001b0: d4ac 553c 8c24 6bbd a561 1abc 5fd1 d83d
000001c0: 2c7c 29bd 19b2 613c 176f 30bd ad1e 573d
000001d0: 6eec db3b 27f3 dd3d 8e3b ec3c cb01 d23c
000001e0: c7d1 ea3c f3dd 9b3c 9918 2ebb ea75 d23d
000001f0: f23a 06bc 6430 fa3a ceb3 43bc fce9 6bbd
00000200: 9333 26bd 6158 92bd a9e8 af3c 6319 c33c
00000210: 1590 243e 51e2 f63d 3c3d 4f3c 6a27 7d3b
00000220: 4b16 573d 67cc 73bb b153 79bc e245 02be
00000230: 0f4a 0c3e b8b9 04bd 3518 c83d 3323 903d
00000240: 3a78 693d 9a10 ed3d a698 f33d 9ffc 91bd
00000250: b50c 08bd ed82 86bd 0bfd 20bd 79b0 c1bd
00000260: 14b2 9a3d 577b 313e 894b 16bd 337f 32bd
00000270: 1dfc f93d e804 533d 54e7 183d b8c6 25bd
00000280: 4278 1dbd 1139 3fbc 081a 32bd 7cb3 0dbe
00000290: b74d 413d cf93 21bd 8684 903d 41da fcbd
000002a0: b9ed 32bd b69e babb 1f97 073c a0c3 ae3d
000002b0: d60e cb3d 4820 643d fcba 4bbd 5e35 d53d
000002c0: fcbf 53bd ddfb 73bc efa0 b0bd d4e7 893b
000002d0: 50a0 323d 87bd 45bb 1459 193c 8a58 033e
000002e0: d80c 823d 3b32 a8bd ab3c 56bd a0a0 91bd
000002f0: 9e68 b73d c483 4abd 3c2c 56be 154a 6bbe
00000300: 0037 2d3d 2b04 bdbd 7f12 2e3d 55b3 18bd
00000310: d898 c9bc 224e 4abd 05cd d9bd 3a88 79bd
00000320: 61d6 ad3d 7659 4bbd df1f 4a3c 9dbb 213d
00000330: 7aa5 58bc c539 3b3d 2286 83bd 3c4b 1dbc
00000340: 4175 a0bd 30d6 993d 30c0 94bd 677c bcbd
00000350: 270a c0bd 77d3 1a3d d285 aa3c 24da 05bb
00000360: 9811 4ebd af47 8f3d f65e d73d 0ac1 363e
00000370: ba3f 043d 2571 d0bc 1474 85bd ad34 293d
00000380: cd95 023d ee5d e83d 37a5 7c3d deef 53bd
00000390: db2f 873c e936 edbd 3e34 053e 320c df3c
000003a0: e9e8 c33d 3577 aa3d 13c2 2f3d e863 8a3d
000003b0: df01 0abd aa5b 933c 8587 06be fd9c c93a
000003c0: 9281 193b eddb 543c 4d9e 073a 00ea d83c
000003d0: 30eb 2f3d 5ff5 19bd c884 f2bd 2a20 cd3c
000003e0: 4ac7 953d 8e10 c83b 5722 55bd 7e3a c13d
000003f0: c95d 603d f821 203e 0d01 703d 5b22 cebc

lstm1.bias_hh_l0 f4 [512]
-0.028242504 -0.01588869 -0.078413375 0.037880674 0.1508346 0.03592852 0.076604694 -0.12362424
-0.0009230671 0.07743879 0.0393011 -0.06639104 0.0045771734 -0.0043667178 0.07277164 0.0684107
0.05157692 -0.045328353 0.063705795 -0.13479894 -0.03298173 -0.011303215 -0.042170964 -0.09697837
0.08278391 -0.051251423 0.08201373 -0.08968582 0.12114955 -0.002015983 0.1000505 0.044656526
-0.081731245 0.065933496 -0.037554633 0.04544004 0.05330568 -0.042840328 0.03511432 -0.017196484
-0.1032658 -0.023457084 0.10366277 0.006044508 0.06500873 -0.040028695 0.001960001 0.04566274
-0.033822637 0.08194041 -0.0025668754 0.0845221 -0.052640457 0.14313409 -0.045969717 0.09103579
0.113818996 -0.08347568 0.013298668 -0.047509797 0.030163398 0.07102746 0.09818875 0.1628983
0.09994342 -0.09135083 0.043780293 0.042604398 -0.092887156 -0.0036050314 -0.025209956 0.009666561
0.053449865 -0.044441506 0.06632259 0.06636544 -0.017230174 0.017626321 0.07658274 -0.056659196
-0.10718459 0.124695055 -0.010987565 -0.06224071 0.04612116 0.054766804 -0.07435693 0.04250679
0.06854088 -0.022456717 0.020033961 0.057056222 0.09309411 0.11624079 -0.10443093 -0.026996711
0.005913121 -0.002144144 0.057619303 0.003543303 0.03157368 0.06107493 0.027104745 -0.046323556
-0.030249696 -0.04320358 -0.020338556 -0.021949943 -0.017460339 -0.021248057 -0.106403306 0.013758965
0.07832676 0.093362845 -0.034049723 0.073384285 -0.019626811 0.07249976 -0.044831984 0.103647426
-0.01206409 0.002636233 0.009091521 -0.019311951 0.020764586 0.077025004 0.022680888 0.09389724
-0.03620859 -0.103537545 0.033451945 0.09003537 0.13399367 0.1236342 0.0965869 -0.0028481504
-0.033071425 -0.096617475 0.041189346 -0.044590175 0.015063707 0.050513975 -0.032559413 -0.013124056
0.04140776 -0.016002713 0.18313697 -0.12940438 -0.018337585 -0.09530623 -0.11074331 -0.007390068
0.073303804 0.1396538 -0.031296983 -0.122686096 0.09835906 0.004708685 -0.021089712 -0.039921187
-0.034531184 0.11472602 -0.03881585 -0.025030864 0.0033785263 -0.01723366 3.2518343e-05 0.029534627
-0.08055147 0.052255757 -0.028989255 0.04467065 -0.016436849 0.015355344 -0.02639315 0.0665144
-0.0707247 0.01655284 -0.12045649 -0.023499303 0.041713014 -0.0028333787 0.017231852 -0.024639249
0.064783625 -0.08880894 -0.046175104 -0.12060822 0.08195167 -0.008036236 -0.05979475 -0.20092155
-0.014355999 -0.072454445 0.05444243 -0.08455506 0.0695506 -0.09272237 -0.13644013 0.051631108
0.07853798 0.015586383 0.086622946 0.01592632 -0.050200537 -0.042329017 -0.12218141 0.011009442
0.03944754 0.11389759 -0.015018119 0.015118811 -0.04569658 -0.064374134 -0.022664448 -0.055810034
-0.14182268 -0.0026480844 -0.05892021 0.16708401 0.023986047 -0.022992017 -0.10983794 0.048919324
0.13620256 0.11495629 -0.0042071873 -0.07040139 0.10009681 -0.11278979 0.15453789 -0.033713866
0.15011467 0.10566848 0.08144492 -0.061241124 -0.014665097 0.012610867 -0.0848509 -0.062004115
0.071783416 0.07752875 -0.06677043 0.0071312482 0.013404275 -0.0482432 -0.048606593 0.062118802
-0.080005825 -0.037388023 0.07831963 0.09086059 -0.015081133 0.12461341 0.0644157 0.022306794
00000000: d35c e7bc ff28 82bc 3197 a0bd c428 1b3d
00000010: 6374 1a3e c929 133d ece2 9c3d b52e fdbd
00000020: fcf9 71ba 3a98 9e3d 31fa 203d 07f8 87bd
00000030: 1dfc 953b af16 8fbb 4c09 953d e91a 8c3d
00000040: 5242 533d 39aa 39bd 2f78 823d bc08 0abe
00000050: da17 07bd 1f31 39bc 76bb 2cbd 989c c6bd
00000060: 9c8a a93d 03ed 51bd d1f6 a73d 33ad b7bd
00000070: 411d f83d 951e 04bb 47e7 cc3d c3e9 363d
00000080: b662 a7bd 2408 873d e3d2 19bd 561f 3a3d
00000090: 0f57 5a3d 5779 2fbd 09d4 0f3d a4df 8cbc
000000a0: 057d d3bd 1229 c0bc 254d d43d 0211 c63b
000000b0: 4c23 853d 21f5 23bd 5c73 003b da08 3b3d
000000c0: 9b89 0abd 60d0 a73d 0639 28bb ec19 ad3d
000000d0: 859d 57bd be91 123e be4a 3cbd f970 ba3d
000000e0: ef19 e93d 4cf5 aabd a8e2 593c a299 42bd
000000f0: 3b19 f73c d876 913d 2f17 c93d d0ce 263e
00000100: 23af cc3d 2516 bbbd f752 333d f381 2e3d
00000110: 9f3b bebd 6442 6cbb 1c85 cebc 7f60 1e3c
00000120: 3fee 5a3d 4c08 36bd 23d4 873d 9bea 873d
00000130: 4b26 8dbc 1365 903c 69d7 9c3d 7913 68bd
00000140: 9883 dbbd 1f60 ff3d 3005 34bc 1df0 7ebd
00000150: 8be9 3c3d 2853 603d 7248 98bd 9a1b 2e3d
00000160: 295f 8c3d 26f7 b7bc 431e a43c c9b3 693d
00000170: 20a8 be3d a70f ee3d e2df d5bd 3528 ddbc
00000180: dbc2 c13b c484 0cbb 3802 6c3d c336 683b
00000190: 6753 013d b529 7a3d c50a de3c c5bd 3dbd
000001a0: 36ce f7bc 3df6 30bd 0b9d a6bc 5ed0 b3bc
000001b0: fc08 8fbc 6810 aebc fae9 d9bd 486d 613c
000001c0: c869 a03d 0535 bf3d b977 0bbd 804a 963d
000001d0: 68c8 a0bc c17a 943d bea1 37bd 1a45 d43d
000001e0: 76a8 45bc a7c4 2c3b 9af4 143c 1934 9ebc
000001f0: 7e1a aa3c 49bf 9d3d 45cd b93c 324d c03d
00000200: 754f 14bd 7e0b d4bd e804 093d 7764 b83d
00000210: a335 093e ed33 fd3d 5acf c53d 09a8 3abb
00000220: e775 07bd 62df c5bd 29b6 283d 30a4 36bd
00000230: c4cd 763c bee7 4e3d 055d 05bd 4806 57bc
00000240: 2f9b 293d 1f18 83bc 4288 3b3e 9582 04be
00000250: b438 96bc ea2f c3bd 63cd e2bd 6228 f2bb
00000260: 4e20 963d 6801 0f3e 4431 00bd d942 fbbd
00000270: 7a70 c93d 504b 9a3b 55c4 acbc 6684 23bd
00000280: 9270 0dbd 7af5 ea3d 5efd 1ebd 870d cdbc
00000290: 446a 5d3b 9b2d 8dbc 4e64 0838 9af2 f13c
000002a0: 2bf8 a4bd 220a 563d e07a edbc 92f8 363d
000002b0: 92a6 86bc fb94 7b3c 7336 d8bc b438 883d
000002c0: 1dd8 90bd d299 873c e4b1 f6bd 9c81 c0bc
000002d0: 44db 2a3d 35b0 39bb d029 8d3c 40d8 c9bc
000002e0: 47ad 843d 76e1 b5bd 1b22 3dbd 7101 f7bd
000002f0: 47d6 a73d 6baa 03bc 57eb 74bd 61be 4dbe
00000300: 6d35 6bbc ff62 94bd 07ff 5e3d 342b adbd
00000310: 8c70 8e3d 3ae5 bdbd f6b6 0bbe 247b 533d
00000320: 85d8 a03d 075e 7f3c 5f67 b13d ea77 823c
00000330: 149f 4dbd 3161 2dbd 3f3a fabd f260 343c
00000340: be93 213d 2443 e93d 8e0e 76bc e4b4 773c
00000350: 562c 3bbd 96d6 83bd cbaa b9bc 1099 64bd
00000360: f739 11be 7c8b 2dbb 5156 71bd 1218 2b3e
00000370: 637e c43c c159 bcbc b7f2 e0bd a15f 483d
00000380: af78 0b3e 346e eb3d 72dc 89bb 9b2e 90bd
00000390: 8eff cc3d 55fe e6bd 2e3f 1e3e 8d17 0abd
000003a0: a9b7 193e b768 d83d 98cc a63d f9d7 7abd
000003b0: e045 70bc cf9d 4e3c 4fc6 adbd 07f8 7dbd
000003c0: 2f03 933d 65c7 9e3d efbe 88bd 3fad e93b
000003d0: 9b9d 5b3c a99a 45bd b517 47bd 4970 7e3d
000003e0: 18da a3bd 2f24 19bd 0b66 a03d 1e15 ba3d
000003f0: db16 77bc 5135 ff3d 61ec 833d bdbc b63c

lstm2.weight_ih_l0 f4 [128, 128]
-0.12526013 0.22982109 -0.038793687 -0.110198505 0.0939589 -0.034677196 -0.14249946 0.08488302
0.15873648 -0.014716182 -0.06624098 0.005059499 -0.20081347 -0.13352913 0.12197532 -0.060307838
-0.077519834 -0.009034608 -0.2691753 0.061350312 -0.022376316 0.19734634 0.02987375 0.0826551
0.01798704 0.24643949 -0.017006112 0.3166883 -0.015393704 0.30758065 0.005717707 0.097199984
0.20927693 0.10616479 0.053585522 -0.2011258 -0.15219885 0.12681384 -0.055457596 0.19117498
0.114330955 0.1811775 0.01715588 0.14814289 -0.038001448 0.14781632 0.16827868 0.14532435
0.10451787 0.216587 -0.24818261 0.16509143 0.21131986 0.09058286 0.12594844 -0.1328957
-0.019274298 0.06634877 -0.17376558 -0.21399967 -0.18126014 -0.03027267 -0.03706069 0.24627429
0.15120187 -0.09253538 0.0677986 0.13222644 0.12154972 -0.14680229 -0.16824341 -0.1373799
-0.058782686 -0.10039597 -0.14796323 -0.11641642 0.121097684 0.17018464 0.069021165 0.18180226
0.019167908 -0.036277104 0.04276364 0.17070784 -0.19231488 0.0256514 -0.15490343 0.16042064
0.25226286 -0.1115866 0.08274479 -0.060321894 0.15272976 -0.13733764 -0.11331311 0.14991845
0.01202404 -0.15248667 -0.14719395 -0.109053485 -0.086784974 0.014018499 -0.27866554 -0.07236861
0.0493188 0.15171483 0.1293183 0.11255367 0.12808952 0.203268 0.02636902 0.2927584
-0.025984626 -0.17164919 0.009969018 -0.093614966 -0.24307144 -0.23541223 -0.14213943 0.13350491
0.020972112 0.03380688 0.01685591 0.15660924 0.111221455 -0.015724622 -0.059746455 0.24175334
-0.008792328 0.21076074 -0.11274972 0.0504666 -0.045623653 0.016860858 -0.02279665 0.11861297
-0.04334477 0.13091129 -0.07439622 0.29158723 -0.2522945 -0.036422677 0.0656608 0.078338005
0.15588678 0.115434125 -0.2009254 -0.11190291 0.04679576 -0.2054094 0.03876846 -0.11156085
0.017984599 -0.07565681 0.0013898343 0.011376076 -0.029350007 -0.17340575 -0.1039821 -0.029182138
0.10261667 -0.20317282 -0.13802925 0.12537532 0.1841793 0.08585888 -0.13306536 0.23090458
-0.023552913 -0.15896589 -0.085608855 0.16249189 0.14296362 0.05410115 0.03822939 -0.11556844
0.0054224194 -0.17621362 -0.027074492 -0.0237793 -0.2243036 -0.08758191 0.18114176 -0.0994013
-0.18460308 -0.1574194 -0.07551507 -0.03710484 0.1368158 -0.09624662 -0.106128804 0.048434936
0.053063367 -0.05566743 0.04298461 -0.094854675 -0.0008526576 0.15641354 -0.009876826 -0.11187509
0.12774521 -0.18001942 0.12716267 0.07094756 0.12509795 0.037746772 0.09436417 -0.018455526
0.023462629 -0.0056419494 -0.0015226847 0.013194543 0.11332386 0.03992112 0.011641658 0.08867777
-0.004149619 0.115431204 0.062268477 0.08249636 -0.20691681 0.21356727 -0.13945289 -0.05538274
-0.12950142 -0.17149189 0.20223157 -0.11120895 0.12924111 0.14072974 -0.08252196 0.11626692
-0.0016171605 0.12307168 0.103411615 0.12860206 -0.05743778 0.099668294 -0.001252699 0.10906695
-0.07024282 -0.12295894 -0.064414985 0.17386936 0.25556275 -0.08063246 0.18147571 0.15572733
-0.18503107 0.017657354 -0.1829625 0.1739909 -0.06787421 0.023708243 -0.08938495 -0.015962856
00000000: 3144 00be 3856 6b3e 21e6 1ebd c1af e1bd
00000010: 866d c03d ad09 0ebd 61eb 11be 26d7 ad3d
00000020: d18b 223e 241c 71bc 5aa9 87bd 27ca a53b
00000030: 0ca2 4dbe dcbb 08be 32ce f93d 5a05 77bd
00000040: b8c2 9ebd e405 14bc 58d1 89be 774a 7b3d
00000050: 894e b7bc 2915 4a3e cbb9 f43c 1447 a93d
00000060: 8f59 933c a25a 7c3e 6750 8bbc f824 a23e
00000070: e035 7cbc 367b 9d3e 9a5b bb3b c910 c73d
00000080: b14c 563e ed6c d93d 7e7c 5b3d ecf3 4dbe
00000090: 04da 1bbe 7ddb 013e 8127 63bd 60c3 433e
000000a0: 5926 ea3d 9886 393e 7d8a 8c3c c5b2 173e
000000b0: 68a7 1bbd 295d 173e 3f51 2c3e e8cf 143e
000000c0: 770d d63d fcc8 5d3e 9523 7ebe ba0d 293e
000000d0: 3c64 583e 8283 b93d a1f8 003e cf15 08be
000000e0: 22e5 9dbc dde1 873d 9bef 31be bb22 5bbe
000000f0: 429c 39be 64fe f7bc f3cc 17bd 542f 7c3e
00000100: aad4 1a3e 3083 bdbd fed9 8a3d 5e66 073e
00000110: 0fef f83d 5753 16be 0048 2cbe 51ad 0cbe
00000120: 1dc6 70bd 679c cdbd ac83 17be bb6b eebd
00000130: 1002 f83d e244 2e3e f85a 8d3d 5f2a 3a3e
00000140: 0406 9d3c 4d97 14bd ed28 2f3d 09ce 2e3e
00000150: 31ee 44be e322 d23c 019f 1ebe 4f45 243e
00000160: 9928 813e 8487 e4bd 1a76 a93d 1714 77bd
00000170: 3165 1c3e 3da2 0cbe b410 e8bd 3984 193e
00000180: 7b00 453c 7725 1cbe 03ba 16be 6f57 dfbd
00000190: 52bc b1bd d9ad 653c 40ad 8ebe fe35 94bd
000001a0: 8302 4a3d 225b 1b3e 046c 043e 8a82 e63d
000001b0: e629 033e 7d25 503e d803 d83c 6ee4 953e
000001c0: b6dd d4bc cec4 2fbe 1855 233c 34b9 bfbd
000001d0: b8e7 78be e70f 71be 008d 11be 83b5 083e
000001e0: b5cd ab3c 1579 0a3d 6815 8a3c 2c5e 203e
000001f0: 13c8 e33d ecd0 80bc b3b8 74bd 308e 773e
00000200: b20d 10bc aad1 573e 53e9 e6bd 11b6 4e3d
00000210: dedf 3abd c81f 8a3c 0ac0 babc 5beb f23d
00000220: 498a 31bd 9c0d 063e 0c5d 98bd ec4a 953e
00000230: bf2c 81be f22f 15bd 2b79 863d ad6f a03d
00000240: c9a0 1f3e ba68 ec3d 63bf 4dbe 5a2d e5bd
00000250: e9ac 3f3d d756 52be adcb 1e3d 047a e4bd
00000260: 7054 933c f5f1 9abd 1a2b b63a b962 3a3c
00000270: 6d6f f0bc 4791 31be 91f4 d4bd 610f efbc
00000280: b028 d23d 890c 50be 8a57 0dbe 6362 003e
00000290: 8099 3c3e c8d6 af3d 4942 08be 4072 6c3e
000002a0: 0af2 c0bc f4c7 22be b253 afbd 4664 263e
000002b0: 0e65 123e 2b99 5d3d 6c96 1c3d 25af ecbd
000002c0: 8dae b13b 5871 34be 53cb ddbc cecc c2bc
000002d0: d8af 65be 255e b3bd 3a7d 393e e992 cbbd
000002e0: 9708 3dbe 8d32 21be a5a7 9abd 3ffb 17bd
000002f0: 7119 0c3e f31c c5bd 0f5a d9bd b663 463d
00000300: f958 593d 8803 64bd a110 303d 2b43 c2bd
00000310: e284 5fba df2a 203e 69d2 21bc c41e e5bd
00000320: a4cf 023e 0357 38be ee36 023e f44c 913d
00000330: ad19 003e 5c9c 1a3d 0142 c13d 0b30 97bc
00000340: b334 c03c 1ae0 b8bb d294 c7ba ed2d 583c
00000350: 5716 e83d 5484 233d a7bc 3e3c b19c b53d
00000360: 87f9 87bb 3267 ec3d 3b0d 7f3d daf3 a83d
00000370: 00e2 53be 61b1 5a3e bdcc 0ebe 03d9 62bd
00000380: 059c 04be 929b 2fbe cb15 4f3e 85c1 e3bd
00000390: c857 043e 751b 103e 4601 a9bd 5a1d ee3d
000003a0: e7f6 d3ba 010d fc3d 78c9 d33d 42b0 033e
000003b0: e143 6bbd e41e cc3d 9a31 a4ba 7e5e df3d
000003c0: 78db 8fbd e6d1 fbbd 01ec 83bd cf0a 323e
000003d0: 1fd9 823e a222 a5bd c5d4 393e fc76 1f3e
000003e0: c978 3dbe 28a6 903c 865a 3bbe ac2a 323e
000003f0: a201 8bbd ca37 c23c 750f b7bd 89c4 82bc
