model/models/5m/trained_model.pt (torch, 666885 bytes, 17 tensors)

conv1.weight f4 [48, 5, 5]
-0.084077634 0.15838465 -0.09092348 -0.0115157245 0.034649704 -0.11702303 -0.11287886 -0.092810705
-0.23345317 -0.09542961 0.054210737 0.0852984 -0.22976032 -0.25921357 -0.07122233 -0.082525544
-0.032982446 -0.29069266 0.03307038 -0.14753293 0.04517167 -0.13162684 0.26898226 0.21053725
-0.039864 0.13396823 0.009890705 0.09654643 0.14942124 -0.05303973 0.037863035 -0.11925829
-0.02688295 0.17739312 -0.024107428 -0.18486987 0.07119466 -0.083593935 0.16193162 0.069975466
-0.043537498 -0.07087513 0.04576623 0.23913454 0.20130482 0.043101083 0.045170374 -0.009211549
-0.055308525 -0.24779844 -0.01128304 -0.16077563 0.15373658 -0.13444412 -0.16266349 -0.16773908
-0.03251472 -0.19112892 0.038830444 0.12649862 0.06531088 -0.04544303 -0.037126467 0.0074100494
0.1916434 0.05699028 -0.030406982 -0.07896385 -0.15974942 -0.020432994 0.050107196 -0.08082636
0.09457342 -0.04996474 -0.070634216 -0.015734991 0.16798624 0.096901126 0.047962695 -0.11093658
-0.05241435 -0.17785947 -0.12805188 0.07994282 0.11542314 0.07677192 0.08530499 0.21170652
-0.092251614 -0.023953855 0.013745607 0.05629166 0.29237935 -0.16524933 0.3208386 -0.080016546
-0.23398991 0.15582348 -0.05443742 0.17620754 0.08896257 0.07884414 0.15497364 -0.14850657
-0.18808214 0.1188609 0.16889445 0.084085174 0.15897065 0.13729799 -0.13874094 0.11061224
-0.032675993 -0.12028867 -0.053713232 -0.058412053 0.110560566 0.08140279 0.057716504 0.054665107
-0.22397372 0.19274016 -0.19659331 -0.20288233 0.14986596 -0.053238016 -0.14275768 0.13347954
0.08266504 -0.057861134 -0.061161205 0.07219271 -0.008077937 -0.18055998 0.18939804 -0.06064675
-0.16539349 -0.06709972 -0.1432954 -0.010701463 0.06072684 0.11502392 -0.034854967 0.11163624
-0.09388733 0.0833018 -0.20419583 0.13609296 0.041629463 -0.007435724 -0.14029785 0.0036242455
-0.08345816 0.07408936 0.038622707 -0.008202508 0.041987345 -0.1602881 0.18742298 -0.0776305
0.03477493 -0.17534521 -0.12363496 0.1469401 0.08535142 -0.16956253 -0.056976154 -0.08163364
-0.17384453 -0.1164301 -0.1847697 0.11796568 0.07837592 -0.11457069 0.038447052 0.034136705
0.16248061 -0.04233834 0.11591244 -0.08441743 -0.19644645 0.05475942 -0.12481712 -0.00731426
0.11104494 -0.17568515 0.1366122 -0.07733341 0.025674706 -0.10417157 -0.037295125 -0.10878839
-0.16843703 -0.04820773 0.035809018 -0.012965373 0.025021538 -0.0112737 -0.2265524 -0.012738745
-0.23340331 0.037530694 0.11846757 -0.11387766 -0.114647456 -0.22081217 0.069283694 -0.15675475
-0.18899299 -0.05698618 -0.09813364 0.043119352 -0.0930249 -0.0666222 0.002025713 -0.079695255
0.08449827 0.06581852 0.14596255 -0.07320206 -0.0118685365 0.08132847 -0.14886342 -0.049475763
0.12719396 -0.12457256 0.16374923 0.0680725 -0.1325081 -0.16481002 -0.08753323 -0.17139623
-0.15188956 -0.104057245 0.03160577 -0.0078112385 0.100936525 -0.023372795 0.0672252 -0.00045344984
-0.19270779 0.123126574 -0.23784532 -0.24335198 0.03226769 0.12474986 -0.18304388 0.08232318
-0.27915215 -0.03466146 -0.13908811 0.08880606 -0.033922326 0.14436796 0.039179195 -0.1471959
00000000: e530 acbd 962f 223e 1736 babd 73ac 3cbc
00000010: d9ec 0d3d c5a9 efbd 082d e7bd 8a13 bebd
00000020: 590e 6fbe 9970 c3bd 140c 5e3d edb0 ae3d
00000030: 4a46 6bbe a4b7 84be 03dd 91bd 2703 a9bd
00000040: 9a18 07bd abd5 94be cf74 073d df12 17be
00000050: ee05 393d 30c9 06be 0bb8 893e 1497 573e
00000060: 6f48 23bd f82e 093e a00c 223c 22ba c53d
00000070: e201 193e 3040 59bd 4516 1b3d b13d f4bd
00000080: a239 dcbc 8ba6 353e f17c c5bc 874e 3dbe
00000090: 82ce 913d 4c33 abbd 67d1 253e 4c4f 8f3d
000000a0: 6054 32bd fb26 91bd 5f75 3b3d afdf 743e
000000b0: da22 4e3e c38a 303d 9204 393d 09ec 16bc
000000c0: 318b 62bd e0be 7dbe 80dc 38bc 5ea2 24be
000000d0: 1f6d 1d3e b8ab 09be 4291 26be cbc3 2bbe
000000e0: 282e 05bd 4db7 43be ac0c 1f3d db88 013e
000000f0: b6c1 853d 7822 3abd ec11 18bd 00d0 f23b
00000100: 2b3e 443e a46e 693d 1018 f9bc cdb7 a1bd
00000110: 5a95 23be 1863 a7bc 343d 4d3d 4a88 a5bd
00000120: b6af c13d d4a7 4cbd aca8 90bd abe6 80bc
00000130: 9604 2c3e 1974 c63d 8874 443d b832 e3bd
00000140: 6eb0 56bd cb20 36be 0820 03be 10b9 a33d
00000150: f862 ec3d 993a 9d3d 62b4 ae3d 98c9 583e
00000160: 6aee bcbd e03a c4bc 4135 613c 1592 663d
00000170: bfb2 953e 1f37 29be f544 a43e b7df a3bd
00000180: 0d9b 6fbe 3190 1f3e c6f9 5ebd c06f 343e
00000190: 0232 b63d 0979 a13d 69b1 1e3e 1b12 18be
000001a0: 9b98 40be 586d f33d abf2 2c3e d934 ac3d
000001b0: 34c9 223e d897 0c3e 1b12 0ebe ac88 e23d
000001c0: 43d7 05bd e859 f6bd 6802 5cbd 7a41 6fbd
000001d0: 946d e23d 82b6 a63d 2468 6c3d 85e8 5f3d
000001e0: 5e59 65be ad5d 453e c24f 49be 63c0 4fbe
000001f0: 7676 193e 1b10 5abd 122f 12be dcae 083e
00000200: 4a4c a93d ccff 6cbd 2c84 7abd c6d9 933d
00000210: 5359 04bc b7e4 38be 8ff1 413e ba68 78bd
00000220: e95c 29be 946b 89bd 08bc 12be 3055 2fbc
00000230: b5bc 783d a991 eb3d 15c4 0ebd 8aa1 e43d
00000240: 0048 c0bd 229a aa3d b618 51be f45b 0b3e
00000250: a883 2a3d 60a7 f3bb 3daa 0fbe c084 6d3b
00000260: 1dec aabd 2abc 973d d832 1e3d d063 06bc
00000270: ecfa 2b3d 9022 24be cfeb 3f3e bdfc 9ebd
00000280: 2870 0e3d b28d 33be 5334 fdbd 7777 163e
00000290: bacc ae3d cda1 2dbe d45f 69bd 8a2f a7bd
000002a0: 4d04 32be e772 eebd 4534 3dbe fe97 f13d
000002b0: 8e83 a03d 0aa4 eabd a87a 1d3d eed2 0b3d
000002c0: 5161 263e f86a 2dbd 8063 ed3d 0ce3 acbd
000002d0: 4229 49be 6a4b 603d 1ea0 ffbd 76ac efbb
000002e0: 886b e33d cfe6 33be 12e4 0b3e fb60 9ebd
000002f0: c353 d23c e757 d5bd c6c2 18bd 73cc debd
00000300: c27a 2cbe 7875 45bd 7aac 123d b76c 54bc
00000310: f8f9 cc3c 53b5 38bc 5afd 67be 2bb6 50bc
00000320: 4701 6fbe c9b9 193d 209f f23d b138 e9bd
00000330: 49cc eabd 961c 62be 9ce4 8d3d 5184 20be
00000340: 6187 41be 576a 69bd 4afa c8bd eb9d 303d
00000350: d783 bebd 3871 88bd d3c1 043b 4437 a3bd
00000360: 6e0d ad3d dccb 863d 3577 153e f6ea 95bd
00000370: 4074 42bc 8a8f a63d a76f 18be 19a7 4abd
00000380: 223f 023e e61f ffbd e1ad 273e 9869 8b3d
00000390: 34b0 07be f5c3 28be 9f44 b3bd 7e82 2fbe
000003a0: f088 1bbe f71b d5bd 0d75 013d 6bf5 ffbb
000003b0: cfb7 ce3d 4e78 bfbc 5ead 893d 02bd edb9
000003c0: 3155 45be c929 fc3d b98d 73be 4331 79be
000003d0: 202b 043d db7c ff3d db6f 3bbe 0e99 a83d
000003e0: 08ed 8ebe 2df9 0dbd 1d6d 0ebe f4df b53d
000003f0: 23f2 0abd 32d5 133e 5d7a 203d 86ba 16be

conv1.bias f4 [48]
0.1904771 -0.2886759 -0.13005634 -0.29172677 -0.40263024 -0.22958177 -0.1513604 -0.16334826
0.015295343 0.13629891 -0.026334345 -0.20090657 0.23234722 -0.2393962 -0.09765635 0.07387288
-0.15956421 0.23391065 -0.057286393 -0.079835325 -0.19385317 -0.16103245 -0.08022679 0.27259046
0.045507666 -0.15614192 0.2129552 -0.3267144 0.15560779 -0.230518 0.26837763 -0.10582927
0.082573995 0.1099903 -0.40033087 0.29745236 0.107815124 -0.3263311 -0.19522169 -0.20820424
0.27380705 0.25236973 -0.26607162 -0.33387628 -0.20824006 0.1257415 -0.29470736 0.026358558
00000000: 6e0c 433e 54cd 93be 7d2d 05be 365d 95be
00000010: 8d25 cebe 7c17 6bbe 38fe 1abe c444 27be
00000020: 5199 7a3c f191 0b3e 20bb d7bc 74ba 4dbe
00000030: 6eec 6d3e 4724 75be 0d00 c8bd aa4a 973d
00000040: cd64 23be 4686 6f3e 23a5 6abd b480 a3bd
00000050: 7281 46be b1e5 24be f14d a4bd fa90 8b3e
00000060: 3f66 3a3d abe3 1fbe ee10 5a3e 1c47 a7be
00000070: a657 1f3e e90c 6cbe cb68 893e 04bd d8bd
00000080: 8e1c a93d 9842 e13d 2bf8 ccbe ad4b 983e
00000090: 2dce dc3d df14 a7be 32e8 47be 7e33 55be
000000a0: 7030 8c3e 9b36 813e 8a3a 88be d5f1 aabe
000000b0: e23c 55be 61c2 003e e2e3 96be e7ed d73c

conv2.weight f4 [96, 48, 5]
-0.014283404 -0.01652782 -0.07397316 -0.04321102 -0.033640943 0.0066011753 0.18052699 0.07994016
0.069254115 0.036569268 -0.058074687 0.042711593 0.031029128 0.005928576 -0.025097925 -0.043249216
-0.0033670482 0.003844192 0.0772159 0.022608032 0.009154766 0.021343252 0.1509491 0.0612839
0.15088165 0.040649876 0.016156688 -0.053266834 0.027359523 -0.021298071 -0.046487983 0.047005594
-0.03978186 -0.040815458 0.0077430457 0.08100033 -0.006139028 0.0019544659 0.037759922 -0.024227558
-0.002621805 -0.121788956 -0.055439863 -0.07665903 0.008251905 -0.033504877 0.06952442 -0.037072983
0.013534266 0.039391212 0.0030568927 -0.06198923 0.0041707866 0.0059226924 -0.062016115 0.04519291
0.036817543 0.031424887 -0.06764501 0.07994144 0.0685883 -0.1861633 -0.0017956174 -0.13123137
-0.03763441 -0.0048977705 -0.020171212 0.17590058 0.06886911 0.033192426 0.005586557 0.050707877
0.042640693 0.03512112 0.031361513 -0.11044072 0.13082565 0.08697143 -0.087171346 0.017184032
-0.03466953 0.02764991 0.01656866 0.004666619 0.05549498 0.023362296 -0.094703674 -0.15181369
-0.17648827 -0.1857317 0.0002707628 0.00031408563 -0.001673756 0.001780866 -0.027928602 -0.047722727
-0.07565218 -0.023309745 -0.013427392 -0.04527838 0.049758375 0.023364402 0.019352704 0.02361194
-0.049950577 -0.014822416 -0.031981375 0.07595848 -0.026506554 0.09012841 -0.03277452 0.089356445
0.019116538 0.058956403 0.008716717 0.10736279 -0.07047951 -0.11440327 -0.2404119 -0.0335096
-0.06437666 -0.007950841 -0.032099545 0.035263192 -0.027345886 0.04852957 0.056134026 -0.062073972
-0.017534807 -0.056349386 -0.053587608 0.031089049 -0.18006542 -0.16451189 -0.18492584 -0.023265282
0.037780132 0.1401721 -0.005543972 0.09619126 0.48052737 -0.059905317 0.03884547 -0.041913103
-0.044581555 0.021007719 -0.08183693 0.04945412 0.030733544 0.09785346 0.2503753 0.17760788
0.1329404 0.09452047 -0.03211966 -0.034261495 -0.06625822 -0.0073842113 0.027144508 -0.009559487
-0.048431337 -0.049072426 0.05383871 -0.00697128 -0.012498153 -0.04171092 -0.02683764 0.076377876
0.018160721 0.048541456 -0.04064973 0.0011471126 0.6769885 0.0542 0.064342484 -0.012516065
-0.027685931 -0.11835537 -0.13912594 -0.075547375 -0.00074827706 -0.01816376 -0.06703602 -0.0105004925
0.011826646 0.03510044 0.049034934 0.23045653 0.03437738 0.18408063 0.07174931 0.0066544805
0.060898058 -0.07275303 0.07329414 0.05491698 -0.009435453 0.077714615 0.013956238 0.046485938
0.09357238 -0.13863224 0.10068567 -0.19281688 0.11983252 -0.11945967 -0.06895345 -0.06573794
-0.210876 -0.21867947 -0.032639287 0.07347444 -0.019316258 0.1423879 0.02891826 -0.07965203
0.07830416 0.0561725 0.18645807 0.05367406 0.039181214 -0.045004386 0.119947255 0.024876159
0.055060327 0.24312799 0.08759681 -0.0451577 -0.27767682 0.19211675 -0.06517353 0.16807826
-0.10352699 0.18379769 0.09324413 -0.034955397 -0.038295466 -0.012067257 0.025988607 -0.046206255
-0.08030152 -0.05866302 -0.000980504 -0.021012966 -0.0041763843 -0.0780293 -0.0232058 -0.04857612
-0.09491678 -0.0053482195 0.029403843 -0.04396107 0.055898182 0.051850915 0.033858724 -0.038284093
00000000: f004 6abc 5a65 87bc 3d7f 97bd 0afe 30bd
00000010: 16cb 09bd ac4e d83b 11dc 383e abb7 a33d
00000020: 1ad5 8d3d a8c9 153d b9df 6dbd 5af2 2e3d
00000030: cc30 fe3c 8044 c23b 2a9a cdbc 1726 31bd
00000040: b2a9 5cbb d7ee 7b3b 5f23 9e3d 7b34 b93c
00000050: dffd 153c 0bd8 ae3c 6792 1a3e d404 7b3d
00000060: b880 1a3e 7c80 263d 085b 843c 532e 5abd
00000070: 1421 e03c 4b79 aebc 2f6a 3ebd f088 403d
00000080: 4ef2 22bd 1c2e 27bd 60b9 fd3b 80e3 a53d
00000090: e629 c9bb 7f16 003b 26aa 1a3d df78 c6bc
000000a0: 97d2 2bbb 7d6c f9bd e914 63bd 69ff 9cbd
000000b0: 0033 073c 693c 09bd d262 8e3d d7d9 17bd
000000c0: d3be 5d3c ae58 213d 2656 483b 6be8 7dbd
000000d0: 18ab 883b 2513 c23b 9c04 7ebd 331c 393d
000000e0: fecd 163d 62b7 003d 7889 8abd 56b8 a33d
000000f0: 0678 8c3d 98a1 3ebe ec5a ebba 8461 06be
00000100: 8a26 1abd 7a7d a0bb 193e a5bc 481f 343e
00000110: 3f0b 8d3d c8f4 073d 700f b73b 10b3 4f3d
00000120: 02a8 2e3d 2adb 0f3d ee74 003d bf2e e2bd
00000130: 29f7 053e 141e b23d e486 b2bd 87c5 8c3c
00000140: a301 0ebd 1082 e23c 00bb 873c 70ea 983b
00000150: b44e 633d 4962 bf3c 00f4 c1bd 0c75 1bbe
00000160: 57b9 34be 7330 3ebe 2bf5 8d39 dcab a439
00000170: ef61 dbba f26b e93a 86ca e4bc e878 43bd
00000180: 88ef 9abd 14f4 bebc 90fe 5bbc d375 39bd
00000190: 70cf 4b3d b466 bf3c 9089 9e3c d46d c13c
000001a0: fa98 4cbd b8d9 72bc e7fe 02bd 1f90 9b3d
000001b0: 4624 d9bc 3e95 b83d 933e 06bd 8300 b73d
000001c0: 499a 9c3c 457c 713d 90d0 0e3c 06e1 db3d
000001d0: 9057 90bd 434c eabd 8a2e 76be 5d41 09bd
000001e0: e9d7 83bd 3f44 02bc d07a 03bd 2370 103d
000001f0: 7b04 e0bc f1c6 463d cbec 653d 4741 7ebd
00000200: 28a5 8fbc 9dce 66bd ae7e 5bbd 76ae fe3c
00000210: 1263 38be ce75 28be 335d 3dbe d596 bebc
00000220: 57bf 1a3d 4689 0f3e 35aa b5bb ecff c43d
00000230: af07 f63e 475f 75bd 6d1c 1f3d 13ad 2bbd
00000240: 269b 36bd 6118 ac3c 1f9a a7bd 6790 4a3d
00000250: eac4 fb3c 6567 c83d 3131 803e d7de 353e
00000260: 8721 083e f393 c13d e88f 03bd c855 0cbd
00000270: 64b2 87bd 41f7 f1bb 295e de3c 659f 1cbc
00000280: f05f 46bd 2b00 49bd fb85 5c3d 566f e4bb
00000290: 0ec5 4cbc 12d9 2abd 9cda dbbc 016c 9c3d
000002a0: cbc5 943c 68d3 463d 5580 26bd b65a 963a
000002b0: 1e4f 2d3f d200 5e3d fec5 833d 2e10 4dbc
000002c0: 9bcd e2bc 4d64 f2bd 0877 0ebe 95b8 9abd
000002d0: 0628 44ba 2acc 94bc 2e4a 89bd 420a 2cbc
000002e0: 8cc4 413c 7bc5 0f3d dbd8 483d ccfc 6b3e
000002f0: 4ccf 0c3d a27f 3c3e 4df1 923d d40d da3b
00000300: 3e70 793d 8aff 94bd 3d1b 963d a1f0 603d
00000310: 2997 1abc d728 9f3d b4a8 643c 0a68 3e3d
00000320: e0a2 bf3d 9cf5 0dbe 4a34 ce3d ca71 45be
00000330: c16a f53d 45a7 f4bd 7737 8dbd 9da1 86bd
00000340: e1ef 57be 83ed 5fbe c6b0 05bd c479 963d
00000350: 213d 9ebc 22ce 113e fde5 ec3c 9a20 a3bd
00000360: ee5d a03d 2315 663d ddee 3e3e 55d9 5b3d
00000370: 7b7c 203d 8556 38bd e8a6 f53d 16c9 cb3c
00000380: f086 613d 8bf6 783e f565 b33d 48f7 38bd
00000390: a82b 8ebe 41ba 443e b379 85bd b51c 2c3e
000003a0: f505 d4bd 7635 3c3e c7f6 be3d 642d 0fbd
000003b0: b5db 1cbd bfb5 45bc 0fe6 d43c c542 3dbd
000003c0: 2075 a4bd a348 70bd 4184 80ba 6223 acbc
000003d0: 0dda 88bb d3cd 9fbd 171a bebc c1f7 46bd
000003e0: bb63 c2bd 1e40 afbb 54e0 f03c 8610 34bd
000003f0: 7ef5 643d a061 543d 72af 0a3d c8cf 1cbd

conv2.bias f4 [96]
-0.019828556 -0.028561855 -0.027744241 -0.075368 0.0027091603 -0.044590276 -0.09290264 -0.04928151
-0.001691204 -0.088551104 -0.11407843 -0.07596244 -0.19029713 0.023299271 -0.0060238605 -0.081931226
-0.035809238 0.053556655 -0.17439158 -0.1439453 -0.07876414 -0.058620498 0.047731124 0.0018994611
-0.06751033 -0.1284261 -0.016026393 -0.009647995 -0.08221523 -0.12759745 -0.15592879 -0.04927064
-0.061239306 -0.027194152 0.021495765 -0.058783554 -0.094281524 -0.010241728 -0.0025031508 -0.087778635
-0.11638895 -0.011856385 -0.019736527 -0.033106666 0.034769822 -0.06758721 -0.10440782 -0.02992976
-0.07836675 -0.08806427 -0.06061187 -0.10951643 -0.11762109 -0.03244175 -0.030615833 -0.017865526
-0.014969402 -0.07374252 0.037175402 -0.090649724 -0.1501608 -0.022548862 0.012578557 -0.08795559
-0.104726255 -0.08273929 -0.11879239 -0.04157136 -0.06334197 0.0061168913 0.027219292 0.009560727
0.010199179 0.04090978 -0.094700314 0.029005114 -0.0091392845 -0.059898727 -0.034622774 -0.11356428
-0.21784887 -1.1822325e-05 0.002917489 -0.15663804 -0.03778632 -0.10174345 -0.06576824 -0.15825889
0.01853221 -0.09633019 -0.010554286 -0.06881746 -0.08583594 -0.043023124 -0.010534465 -0.021759607
00000000: 7f6f a2bc 8dfa e9bc e447 e3bc 8a5a 9abd
00000010: 2b8c 313b 4ba4 36bd bd43 bebd 69db 49bd
00000020: 64ab ddba 485a b5bd f4a1 e9bd 3292 9bbd
00000030: 40dd 42be 1dde be3c ce63 c5bb 8fcb a7bd
00000040: b5ac 12bd 395e 5b3d b593 32be 6666 13be
00000050: 184f a1bd 0c1c 70bd b681 433d 57f7 f83a
00000060: db42 8abd 2282 03be c849 83bc a012 1ebc
00000070: 7560 a8bd e8a8 02be ccab 1fbe 03d0 49bd
00000080: 11d6 7abd 45c6 debc e317 b03c 06c7 70bd
00000090: ac16 c1bd eccc 27bc e70b 24bb 49c5 b3bd
000000a0: 545d eebd 4841 42bc 7fae a1bc db9a 07bd
000000b0: cd6a 0e3d 2a6b 8abd c4d3 d5bd 422f f5bc
000000c0: bf7e a0bd 0a5b b4bd 2744 78bd 264a e0bd
000000d0: 53e3 f0bd a4e1 04bd 0ece fabc b95a 92bc
000000e0: 3942 75bc 5106 97bd 3c45 183d 90a6 b9bd
000000f0: c1c3 19be 64b8 b8bc 4b16 4e3c 0f22 b4bd
00000100: b87a d6bd 3873 a9bd 6d49 f3bd bb46 2abd
00000110: 6fb9 81bd 3470 c83b fefa de3c 98a4 1c3c
00000120: 751a 273c 0391 273d 3df2 c1bd 229c ed3c
00000130: f0bc 15bc 5e58 75bd 9cd0 0dbd 6494 e8bd
00000140: c613 5fbe 8058 46b7 5833 3f3b b965 20be
00000150: d4c5 1abd df5e d0bd 80b1 86bd 9e0e 22be
00000160: dcd0 973c c348 c5bd e2eb 2cbc 2bf0 8cbd
00000170: c1ca afbd 0439 30bd c098 2cbc 3441 b2bc

lstm1.weight_ih_l0 f4 [512, 96]
-0.11385363 -0.1013137 -0.12075656 0.018141832 -0.07923661 -0.10224856 -0.05878893 -0.038870104
0.08194762 -0.111322686 -0.072896205 -0.017375564 -0.18375087 -0.10416658 -0.05185196 0.0060779527
-0.023847101 -0.19910124 -0.077923246 -0.15045136 -0.2823416 0.0034404274 -0.050044384 -0.018423561
-0.063528776 0.0140929585 -0.024248127 0.046519 -0.035371345 -0.054932434 -0.17363623 -0.051839165
-0.018344445 -0.0573256 0.0039452524 -0.101278394 -0.07879479 -0.041710284 0.043184407 -0.06730784
-0.08704773 -0.12125502 -0.3413288 0.06314927 0.021551806 -0.087091684 -0.0689553 0.021881172
0.028024908 -0.05925697 -0.03445076 -0.082507946 0.065367244 0.004445273 -0.027960459 0.020755125
0.08697368 -0.07624045 -0.07891243 -0.008967495 0.014337029 0.036584556 0.075069614 0.09344185
-0.03875157 -0.109969914 -0.06815541 -0.06386714 0.003314963 -0.10423153 -0.02550047 0.026181389
0.0046498673 -0.19206966 -0.06770658 -0.09200023 -0.0808398 -0.024502689 -0.09486451 -0.08770378
-0.09903557 -0.2528073 -0.0845378 -0.06519454 -0.04713071 -0.098870605 0.0154792555 -0.1477126
-0.047567543 -0.043770645 0.03939992 -0.11041013 0.095032856 -0.0647436 -0.010484582 0.03399657
-0.043430246 0.10849729 -0.14850517 -0.0038958872 0.00096419896 -0.082943805 -0.02088319 -0.05747059
-0.068943225 -0.029646415 0.07320408 -0.09378537 0.075721845 -0.13666792 -0.12645105 -0.015282445
-0.005252549 0.03436925 -0.011701745 0.14377813 0.12639521 0.002554719 0.09721823 0.09557816
-0.12092009 0.0838454 0.02983053 -0.20223302 -0.15008311 0.13933708 0.0151600195 0.053126663
-0.11016639 0.0010630465 -0.03509654 -0.006066612 0.08128227 -0.16829382 0.12393363 -0.0027715338
-0.042518068 -0.07981294 0.116100095 0.064778894 -0.089843854 -0.008415933 0.04456838 0.024000844
-0.14550331 -0.013373887 0.0070761656 -0.10973263 -0.05893349 -0.04346869 0.11037023 -0.11941816
-0.017937157 -0.034018945 -0.1570866 0.12414589 -0.09850807 0.0028608066 0.06658317 0.050657433
-0.017421974 -0.04809995 -0.0072325356 0.11233374 -0.032189537 0.21656804 0.13678198 -0.12638704
0.0628659 -0.10596812 0.10660585 -0.057947677 -0.21185507 -0.07146552 0.05890989 -0.01455483
0.1441243 0.14729956 -0.11016085 -0.14691228 0.05508391 0.026079107 0.049414776 0.12937078
-0.13436936 0.06946545 0.048574053 -0.06608346 0.25979546 0.09757794 0.043825887 -0.07737066
-0.21319029 -0.041019138 -0.054309275 -0.1639595 -0.0070326305 -0.09079162 -0.031827625 0.060673237
0.008876224 0.006695387 -0.034873117 -0.17510535 0.09557418 -0.10687307 -0.027248502 -0.10887076
0.0610286 -0.0588342 -0.13799901 -0.039829504 0.050128542 0.07919734 0.04610528 0.03856962
-0.06958882 -0.1537766 -0.021634784 -0.23182505 -0.057232834 0.01930473 0.20436639 0.050293397
-0.17200632 -0.071189255 -0.17549536 -0.059350803 -0.16297922 -0.074836776 0.035778224 -0.010615629
-0.23357174 -0.24057838 0.099002495 0.06053357 -0.0994221 -0.04009737 -0.05137076 0.0009236911
-0.04455437 0.076068 -0.017276408 -0.20159099 -0.117353044 -0.099906094 0.19111829 -0.19740808
0.06501148 -0.050193418 -0.09031885 -0.08550557 -0.17471099 0.11186896 0.03826245 0.0063452115
00000000: 182c e9bd 8f7d cfbd 374f f7bd 2e9e 943c
00000010: ce46 a2bd b167 d1bd a9cc 70bd 4236 1fbd
00000020: 27d4 a73d 26fd e3bd 9b4a 95bd 3357 8ebc
00000030: 3029 3cbe 4a55 d5bd b962 54bd 9029 c73b
00000040: ff5a c3bc 32e1 4bbe 3996 9fbd ec0f 1abe
00000050: 148f 90be cb78 613b 57fb 4cbd 02ed 96bc
00000060: 601b 82bd 27e6 663c 02a4 c6bc b58a 3e3d
00000070: 8be1 10bd d500 61bd b2cd 31be 4e55 54bd
00000080: 1747 96bc 40ce 6abd 2d47 813b 0c6b cfbd
00000090: 2a5f a1bd 67d8 2abd 22e2 303d b1d8 89bd
000000a0: 1546 b2bd 8d54 f8bd a6c2 aebe 6854 813d
000000b0: 6a8d b03c 205d b2bd 7038 8dbd 2540 b33c
000000c0: 7e94 e53c 70b7 72bd 3d1c 0dbd edf9 a8bd
000000d0: 43df 853d a7a9 913b 550d e5bc a706 aa3c
000000e0: 421f b23d f423 9cbd d79c a1bd 66ec 12bc
000000f0: dce5 6a3c b0d9 153d 19be 993d 715e bf3d
00000100: f7b9 1ebd e837 e1bd 1095 8bbd c6cc 82bd
00000110: da3f 593b 5777 d5bd 5de6 d0bc 5a7a d63c
00000120: ea5d 983b e9ad 44be bfa9 8abd 9e6a bcbd
00000130: 568f a5bd ddb9 c8bc 5348 c2bd 0a9e b3bd
00000140: 29d3 cabd f56f 81be 2722 adbd b784 85bd
00000150: 220c 41bd ac7c cabd b49c 7d3c f941 17be
00000160: 2fd6 42bd d948 33bd cf61 213d b51e e2bd
00000170: 96a0 c23d 4b98 84bd 86c7 2bbc fd3f 0b3d
00000180: eae3 31bd d433 de3d bd11 18be 2452 7fbb
00000190: 4cc2 7c3a 71de a9bd 3913 abbc 4866 6bbd
000001a0: 1b32 8dbd 0add f2bc 05ec 953d 8b12 c0bd
000001b0: 0e14 9b3d adf2 0bbe 627c 01be 3863 7abc
000001c0: 931d acbb c5c6 0c3d adb8 3fbc 933a 133e
000001d0: bf6d 013e 136d 273b 5a1a c73d 7bbe c33d
000001e0: f4a4 f7bd 23b7 ab3d 285f f43c 2c16 4fbe
000001f0: 63af 19be 61ae 0e3e bb61 783c 589b 593d
00000200: eb9e e1bd ec55 8b3a 64c1 0fbd 6eca c6bb
00000210: 5277 a63d 3755 2cbe ead0 fd3d 9fa2 35bb
00000220: 6d27 2ebd f774 a3bd e3c5 ed3d ccaa 843d
00000230: 0e00 b8bd fbe2 09bc 558d 363d 6b9d c43c
00000240: d2fe 14be 261e 5bbc 2edf e73b 80bb e0bd
00000250: 3e64 71bd 3a0c 32bd ca09 e23d 8291 f4bd
00000260: f2f0 92bc 7357 0bbd 4fdb 20be 3340 fe3d
00000270: 99be c9bd 5f7c 3b3b c25c 883d 2b7e 4f3d
00000280: 87b8 8ebc 7404 45bd e8fe ecbb 3b0f e63d
00000290: 2dd9 03bd 03c4 5d3e 9310 0c3e 9b6b 01be
000002a0: d6bf 803d d005 d9bd 2b54 da3d 8b5a 6dbd
000002b0: 89f0 58be 845c 92bd 7f4b 713d 6277 6ebc
000002c0: 5295 133e b2d5 163e 039c e1bd 2c70 16be
000002d0: aa9f 613d daa3 d53c 2667 4a3d c679 043e
000002e0: 1f98 09be e743 8e3d 96f5 463d c456 87bd
000002f0: e903 853e f1d6 c73d c682 333d 8274 9ebd
00000300: 8e4e 5abe af03 28bd 6773 5ebd 00e5 27be
00000310: fb71 e6bb f5f0 b9bd af5d 02bd 8084 783d
00000320: 956d 113c fa64 db3b 1dd7 0ebd d14e 33be
00000330: 65bc c33d 45e0 dabd 4038 dfbc a2f7 debd
00000340: 20f9 793d 21fc 70bd 9d4f 0dbe 4324 23bd
00000350: 9653 4d3d 3732 a23d e4d8 3c3d 2efb 1d3d
00000360: 9584 8ebd 9d77 1dbe 6e3b b1bc 8c63 6dbe
00000370: fa6c 6abd f424 9e3c 6c45 513e 7300 4e3d
00000380: 6d22 30be accb 91bd 0eb5 33be d419 73bd
00000390: 06e4 26be 0644 99bd 308c 123d 2ded 2dbc
000003a0: 6e2d 6fbe 2e5a 76be d2c1 ca3d 0cf2 773d
000003b0: d09d cbbd 243d 24bd 256a 52bd dc23 723a
000003c0: a57e 36bd 8ac9 9b3d 4187 8dbc de6d 4ebe
000003d0: cb56 f0bd 919b ccbd 83b4 433e 5825 4abe
000003e0: bd24 853d 9d97 4dbd 17f9 b8bd 8b1d afbd
000003f0: 70e7 32be 8e1b e53d 16b9 1c3d 7eeb cf3b

lstm1.weight_hh_l0 f4 [512, 128]
-0.055360038 -0.11134138 0.13299002 0.08865281 -0.07322871 0.09268783 -0.014223093 0.0018473032
-0.051524993 -0.01618659 0.022992352 0.027218688 -0.030306693 -0.034489725 0.15372185 0.033777047
-0.07347798 -0.038923807 0.025430249 0.13088456 -0.09335217 0.05846836 -0.0130722225 -0.0826772
0.054607578 -0.47115266 0.039245613 0.041138116 -0.07519691 0.04364054 0.020132322 -0.048609685
-0.02590255 0.039792642 -0.01856607 0.12844995 0.092198 0.2338181 -0.15571432 0.0007551665
-0.10693859 -0.034191377 -0.041489545 -0.083529934 -0.04481052 -0.03668578 0.10257799 -0.10371038
-0.057801675 -0.0046432414 0.12851201 -0.07132065 0.030790992 0.02371379 -0.0807406 -0.0014262977
-0.121678606 0.118849784 0.06455974 -0.07203318 0.045643 -0.2177363 0.04922682 0.09718102
0.054489043 -0.026599688 0.051409114 -0.0645957 0.067990996 -0.015024599 0.010129106 0.038985204
0.07077823 -0.04187023 0.03217921 0.09883458 0.037471637 0.21659702 0.05810496 -0.08668992
0.038638204 -0.04633663 0.038688052 -0.09533415 0.053787485 0.035488084 0.096504636 -0.091783576
-0.121263646 -0.036074486 0.024124242 -0.1335154 -0.008317022 -0.03926348 0.025558112 -0.045304466
0.06861257 -0.09561255 0.06670509 -0.031432625 0.04006202 0.14652164 0.031237576 -0.06741676
-0.15366256 0.0056235017 0.01467306 -0.055204093 0.1789717 -0.102592036 0.09284419 0.26112583
0.04520185 -0.029175956 0.035309043 -0.009624691 -0.115138635 0.06690875 -0.019158313 0.040595043
-0.03447765 0.03927569 0.17837511 0.031846326 0.13507554 -0.023878897 0.06825946 -0.05340577
0.09358489 -0.054601863 0.006404997 0.07721431 0.1375469 -0.060424652 0.039521933 0.16088234
0.025816593 -0.072461754 0.0075208647 -0.01848727 -0.118401796 0.07936531 0.035834365 -0.04351676
0.07703842 0.06933979 0.063610286 0.020528084 0.00035023034 -0.08478857 0.08155559 0.014780191
-0.035717428 -0.039049614 0.08246164 -0.0967375 -0.06479065 -0.098126166 -0.045416076 0.03393463
-0.06964885 0.024938444 0.06515422 -0.0044209403 -0.04895884 0.0012407677 0.068741634 -0.010903406
0.03393039 0.079069555 0.09130497 -0.062853925 0.095274396 0.01617222 0.031585447 -0.11188057
0.043531395 0.02613937 0.08504607 0.034132488 -0.058307428 0.030850831 0.041414496 0.11367974
0.033806138 -0.06579341 -0.009609088 0.08495122 0.01391368 0.04630738 -0.0253945 -0.057651293
0.025610086 0.013505498 0.013871218 -0.011076724 0.08538015 -0.057396714 0.02055753 -0.017244244
-0.039799824 -0.11379064 0.061059494 0.09097386 -0.0059678904 0.12473578 -0.00235321 -0.030148393
-0.086866215 -0.049922857 -0.015145206 -0.020369861 0.0017721495 0.06437914 -0.030808495 0.027636752
-0.10225585 0.097452395 0.0036988433 -0.04863979 -0.007139088 -0.039195437 -0.011597431 0.031323776
-0.030064091 0.047201652 -0.1011547 0.081658386 -0.029594224 0.11267835 -0.098227076 0.0938614
0.024779951 0.031586044 -0.067131005 0.009547686 0.09384465 -0.25379238 0.08916842 -0.062391993
0.013183772 -0.081928216 0.06684286 0.015303156 0.030883417 -0.013595118 0.088154465 0.09628429
0.058295496 0.007392862 -0.0018638554 -0.019163804 0.07034945 -0.10003789 -0.089202955 0.1698472
00000000: 35c1 62bd f306 e4bd 892e 083e 9b8f b53d
00000010: eff8 95bd 1ed3 bd3d fa07 69bc 3621 f23a
00000020: df0b 53bd bd99 84bc 755a bc3c baf9 de3c
00000030: be45 f8bc 1945 0dbd 4369 1d3e cd59 0a3d
00000040: a07b 96bd 926e 1fbd 1953 d03c 9a06 063e
00000050: 6c2f bfbd 857c 6f3d e02c 56bc aa52 a9bd
00000060: 32ac 5f3d ec3a f1be 02c0 203d 7180 283d
00000070: d600 9abd 6cc0 323d 8aec a43c f31a 47bd
00000080: 9631 d4bc 9cfd 223d df17 98bc 6288 033e
00000090: 4ed2 bc3d 036e 6f3e 9373 1fbe 5ef6 453a
000000a0: 9f02 dbbd 420c 0cbd f1f0 29bd be11 abbd
000000b0: 3c8b 37bd d443 16bd 6914 d23d 1c66 d4bd
000000c0: 73c1 6cbd 5526 98bb a798 033e 9010 92bd
000000d0: 643d fc3c 6c43 c23c 545b a5bd 9cf2 baba
000000e0: a232 f9bd 8467 f33d e637 843d 2286 93bd
000000f0: 28f4 3a3d 44f6 5ebe 10a2 493d d806 c73d
00000100: e72f 5f3d 97e7 d9bc 5d92 523d c04a 84bd
00000110: dd3e 8b3d bc29 76bc 8df4 253c f3ae 1f3d
00000120: 2df4 903d 1e80 2bbd 59ce 033d c969 ca3d
00000130: dc7b 193d 9ccb 5d3e 77ff 6d3d 7c8a b1bd
00000140: 1843 1e3d 7acb 3dbd 5d77 1e3d 8d3e c3bd
00000150: 4450 5c3d f45b 113d 39a4 c53d 07f9 bbbd
00000160: 1359 f8bd d7c2 13bd 34a0 c53c 43b8 08be
00000170: 1e44 08bc bed2 20bd 3f5f d13c 2d91 39bd
00000180: bf84 8c3d 83d0 c3bd ae9c 883d 7fbf 00bd
00000190: 1318 243d c509 163e f2e5 ff3c cc11 8abd
000001a0: b859 1dbe 5a45 b83b 4667 703c b01d 62bd
000001b0: 5b44 373e c61b d2bd 1825 be3d 49b2 853e
000001c0: 9325 393d 6a02 efbc 37a0 103d e1b0 1dbc
000001d0: cecd ebbd 7407 893d e5f1 9cbc fd46 263d
000001e0: 7038 0dbd 8cdf 203d f7a7 363e 4b71 023d
000001f0: 3e51 0a3e ad9d c3bc 9ecb 8b3d 02c0 5abd
00000200: 6fa9 bf3d 34a6 5fbd 02e1 d13b 8922 9e3d
00000210: 18d9 0c3e d77f 77bd c0e1 213d 57be 243e
00000220: 527d d33c d466 94bd 9671 f63b 9e72 97bc
00000230: a47c f2bd 488a a23d 0ec7 123d a13e 32bd
00000240: 52c6 9d3d 0502 8e3d 1c46 823d 832a a83c
00000250: 1f9f b739 a1a5 adbd 9e06 a73d 9d28 723c
00000260: 704c 12bd 7df2 1fbd a6e1 a83d 4f1e c6bd
00000270: f6b0 84bd 5ff6 c8bd 3506 3abd 0aff 0a3d
00000280: 0ea4 8ebd b54b cc3c 936f 853d 89dd 90bb
00000290: 1189 48bd 41a1 a23a 6ac8 8c3d 33a4 32bc
000002a0: 98fa 0a3d 38ef a13d 1afe ba3d 8fb9 80bd
000002b0: 391f c33d 9b7b 843c be5f 013d a421 e5bd
000002c0: fa4d 323d 3b22 d63c a22c ae3d 82ce 0b3d
000002d0: c5d3 6ebd e2ba fc3c 3fa2 293d ecd0 e83d
000002e0: 4e78 0a3d b2be 86bd 706f 1dbc e8fa ad3d
000002f0: 34f6 633c cfac 3d3d 2008 d0bc c323 6cbd
00000300: 3ecc d13c 2a46 5d3c 1b44 633c 267b 35bc
00000310: cadb ae3d d118 6bbd 4468 a83c cd43 8dbc
00000320: 2405 23bd 110b e9bd 8519 7a3d 8150 ba3d
00000330: 4b8e c3bb 7975 ff3d 5038 1abb c3f9 f6bc
00000340: eae6 b1bd e97b 4cbd 9923 78bc b2de a6bc
00000350: 7847 e83a 36d9 833d 1962 fcbc 7866 e23c
00000360: 846b d1bd 1f95 c73d 4b68 723b 843a 47bd
00000370: 03ef e9bb 658b 20bd 2703 3ebc 5c4d 003d
00000380: f848 f6bc 8556 413d 322a cfbd 833c a73d
00000390: 966f f2bc e8c3 e63d 472b c9bd 683a c03d
000003a0: 53ff ca3c 5e60 013d fb7b 89bd e66d 1c3c
000003b0: a031 c03d 13f1 81be ef9d b63d bf8e 7fbd
000003c0: bf00 583c fbc9 a7bd e9e4 883d 17ba 7a3c
000003d0: 38ff fc3c 0fbe 5ebc 548a b43d b330 c53d
000003e0: 42c7 6e3d d23f f23b 9c4c f4ba 69fd 9cbc
000003f0: 5f13 903d aae0 ccbd 0ab0 b6bd 6dec 2d3e

lstm1.bias_ih_l0 f4 [512]
-0.04971575 -0.044633552 -0.047205646 0.014507683 -0.16715668 0.030513804 -0.16296065 -0.12549229
0.008222652 -0.08535127 -0.0059422497 0.016231798 0.0019345332 0.012435882 -0.20259228 0.0034489068
-0.08994923 -0.16148971 -0.08440957 -0.18234724 -0.016118748 0.07069428 -0.0023904324 -0.052680172
-0.0874042 -0.016198285 -0.06309874 -0.08964138 0.009033688 -0.044686995 -0.039416913 -0.088451624
0.050138388 0.061247755 -0.00887692 -0.11209854 -0.1665242 -0.12370741 0.00026448103 0.093143515
-0.1120751 -0.24010366 -0.043020666 -0.077654034 0.04015604 -0.03227831 -0.029482769 0.07113627
0.02702577 -0.08139458 -0.11375397 0.018575026 -0.16213353 -0.033100624 -0.16895775 -0.14399953
-0.04716246 -0.07285803 -0.098111056 -0.057677023 0.043406107 -0.20602699 -0.1657303 -0.026563518
0.01944405 -0.059325695 -0.083870426 0.21069767 -0.15039894 -0.1433878 -0.07003017 0.015390176
-0.07817462 -0.049253814 -0.10685055 -0.05226549 -0.04941289 0.0023192156 -0.016377818 -0.13539207
-0.14359324 0.024348158 -0.08963716 -0.037839558 -0.0060697882 -0.1896641 -0.10133046 -0.014825322
-0.066658184 -0.08540663 -0.06536831 -0.12094283 -0.011776817 0.061929967 -0.10739682 0.0543712
0.008345277 0.05499435 -0.09889128 0.00033395307 -0.04030506 0.011240199 -0.045043215 0.07632361
-0.12677063 -0.19215696 -0.0015529393 -0.05355949 -0.014365897 -0.039380826 -0.05162624 -0.14411385
-0.054234467 0.01567895 -0.077839576 -0.11593737 -0.08367661 -0.24425937 0.02134568 -0.0058106994
-0.029962905 -0.04585141 -0.1008637 -0.12700461 -0.11685981 -0.08251171 -0.053707205 0.31123123
-0.09963749 -0.1970007 -0.20512074 -0.045309957 -0.12844585 0.0063812844 -0.17668742 0.019601056
-0.16478607 -0.10056605 -0.044146083 -0.0509157 -0.028714264 -0.17450553 -0.105901435 -0.17119075
-0.09017785 -0.13099305 0.051328775 -0.05641316 -0.12350909 0.01574174 -0.15281089 -0.14057957
-0.028435882 -0.25220478 -0.17694883 -0.044383463 -0.25633034 -0.30483586 -0.01267963 -0.018467342
-0.066445686 -0.07823339 -0.051092643 -0.21362019 -0.094992265 -0.2086586 -0.16153963 -0.09660259
-0.1746557 -0.12982742 -0.11879465 -0.107426934 -0.23986962 -0.15520969 -0.16293834 -0.15087126
-0.093270116 0.028513025 -0.0627903 -0.05278016 -0.13134265 -0.12991619 0.006329899 -0.024148917
-0.12897502 -0.18688644 -0.210467 -0.1490257 -0.041443452 -0.15426253 -0.08694547 -0.083263695
-0.095125474 -0.12534066 -0.020502588 0.36953598 -0.17053206 -0.0900536 -0.107666746 -0.26191965
-0.20446518 -0.018089522 -0.10823413 -0.14593974 -0.07943078 -0.16893986 -0.2762335 -0.15511873
-0.11539016 -0.15580066 -0.17401665 -0.1383246 -0.04299348 -0.19192055 -0.12586981 -0.17441876
-0.17639273 -0.0040326463 0.00035163615 -0.13507767 -0.10289001 0.020459807 -0.13967885 -0.114274055
-0.07380627 -0.020809742 -0.10646067 -0.102354266 0.051492807 -0.20905748 -0.15996186 -0.053811286
-0.20279299 -0.11718225 -0.07804087 -0.032788023 -0.14336933 -0.18218812 -0.23418498 0.016764019
-0.22654793 0.021009186 -0.15683413 -0.18654798 -0.14922395 -0.10110082 -0.026146486 -0.15144628
-0.015123483 -0.23873301 -0.16421926 -0.064641766 -0.13088009 -0.13637103 -0.08328838 0.35491157
00000000: bea2 4bbd acd1 36bd b55a 41bd a2b1 6d3c
00000010: 1f2b 2bbe 16f8 f93c 28df 26be 0d81 00be
00000020: 4db8 063c a6cc aebd 34b7 c2bb 8cf8 843c
00000030: 2a90 fd3a dfbf 4b3c 5a74 4fbe 0e07 623b
00000040: 4d37 b8bd 8f5d 25be edde acbd 3cb9 3abe
00000050: 770b 84bc 2ac8 903d cda8 1cbb 2ac7 57bd
00000060: f900 b3bd 44b2 84bc ea39 81bd e695 b7bd
00000070: 0902 143c b609 37bd a173 21bd 2026 b5bd
00000080: e95d 4d3d edde 7a3d 8070 11bc eb93 e5bd
00000090: 5285 2abe 505a fdbd 0baa 8a39 07c2 be3d
000000a0: a187 e5bd bcdd 75be 7036 30bd 1409 9fbd
000000b0: a97a 243d 4336 04bd d985 f1bc e5af 913d
000000c0: 2665 dd3c 34b2 a6bd d7f7 e8bd a72a 983c
000000d0: 5506 26be 8594 07bd 4303 2dbe 9d74 13be
000000e0: 6c2d 41bd 9736 95bd 73ee c8bd be3e 6cbd
000000f0: 9aca 313d bdf8 52be 34b5 29be bc9b d9bc
00000100: 2149 9f3c 80ff 72bd 42c4 abbd 21c1 573e
00000110: 2e02 1abe 40d4 12be fa6b 8fbd 1427 7c3c
00000120: 041a a0bd 5ebe 49bd 76d4 dabd 5714 56bd
00000130: 2c65 4abd fbfd 173b c62a 86bc 38a4 0abe
00000140: 1b0a 13be ca75 c73c b093 b7bd a7fd 1abd
00000150: 13e5 c6bb 4e37 42be 5886 cfbd e8e5 72bc
00000160: 1684 88bd ace9 aebd d2df 85bd e0b0 f7bd
00000170: 8df3 40bc 47aa 7d3d ddf2 dbbd 56b4 5e3d
00000180: a1ba 083c c141 613d 8387 cabd 6c16 af39
00000190: eb16 25bd d028 383c 3c7f 38bd 8e4f 9c3d
000001a0: 29d0 01be cbc4 44be ff8b cbba 3261 5bbd
000001b0: f05e 6bbc ca4d 21bd 0976 53bd 9592 13be
000001c0: f624 5ebd 2471 803c 5b6a 9fbd 9270 edbd
000001d0: a45e abbd 211f 7abe 23dd ae3c ae67 bebb
000001e0: c474 f5bc b0ce 3bbd a191 cebd 7f0d 02be
000001f0: 3254 efbd e6fb a8bd 16fc 5bbd b359 9f3e
00000200: be0e ccbd 8dba 49be 2c0b 52be ef96 39bd
00000210: 4f87 03be 181a d13b 8ced 34be 6592 a03c
00000220: aebd 28be 93f5 cdbd 86d2 34bd fb8c 50bd
00000230: 2d3a ebbc 94b1 32be dae2 d8bd a14c 2fbe
00000240: 2aaf b8bd 0b23 06be 1f3e 523d 7c11 67bd
00000250: 55f2 fcbd d2f4 803c 757a 1cbe 17f4 0fbe
00000260: 5ef2 e8bc fc20 81be 1332 35be 6fcb 35bd
00000270: bb3d 83be 7213 9cbe 39be 4fbc d348 97bc
00000280: ad14 88bd d438 a0bd 8546 51bd 40bf 5abe
00000290: 4e8b c2bd 9aaa 55be a56a 25be 94d7 c5bd
000002a0: f2d8 32be 7bf1 04be 9c4a f3bd a702 dcbd
000002b0: 62a0 75be 4aef 1ebe 4fd9 26be ff7d 1abe
000002c0: 6704 bfbd 2694 e93c 3398 80bd 0230 58bd
000002d0: b07e 06be c008 05be 0b6b cf3b f3d3 c5bc
000002e0: 0712 04be 295f 3fbe a984 57be 319a 18be
000002f0: 9cc0 29bd fff6 1dbe 7710 b2bd 2886 aabd
00000300: 25d1 c2bd 4d59 00be 0bf5 a7bc d233 bd3e
00000310: f59f 2ebe 066e b8bd 6280 dcbd 551a 86be
00000320: 525f 51be 7a30 94bc dba9 ddbd 3a71 15be
00000330: 9bac a2bd 92fe 2cbe 7a6e 8dbe 72d7 1ebe
00000340: ad51 ecbd 358a 1fbe 6c31 32be f7a4 0dbe
00000350: ee19 30bd d286 44be 04e4 00be d59a 32be
00000360: 4ca0 34be 4a24 84bb ce5b b839 cd51 0abe
00000370: ffb7 d2bd 539b a73c f907 0fbe 8408 eabd
00000380: be27 97bd 3179 aabc 0d08 dabd 1d9f d1bd
00000390: 1fea 523d 2a13 56be 0bcd 23be 3969 5cbd
000003a0: f7a8 4fbe 3ffd efbd e4d3 9fbd bc4c 06bd
000003b0: 69cf 12be 868f 3abe 30ce 6fbe b254 893c
000003c0: 2efc 67be 751b ac3c 2099 20be 6f06 3fbe
000003d0: 2ace 18be f20d cfbd 2831 d6bc bc14 1bbe
000003e0: 7cc8 77bc 6d76 74be 1829 28be e762 84bd
000003f0: 6e05 06be d9a4 0bbe 1993 aabd f8b6 b53e

lstm1.bias_hh_l0 f4 [512]
-0.08930276 -0.10695038 -0.031773493 0.029005148 -0.083312206 -0.028597614 -0.11204921 -0.101430565
0.003566802 0.005500259 0.0027925773 -0.029258888 -0.007934363 -0.02057458 -0.24925902 -0.11982795
-0.110516645 -0.25188062 -0.10463139 -0.17195158 -0.020135494 0.03178056 -0.152373 -0.0062543284
-0.12430518 -0.11721254 -0.08741917 -0.03907943 -0.071081266 0.03732293 -0.011533218 -0.07017258
-0.11125477 -0.08450293 -0.08044193 -0.10192119 -0.09600589 -0.09403858 -0.06645507 -0.008430065
-0.18963699 -0.21147703 -0.090493746 -0.08496992 -0.085268065 -0.13075581 -0.102608435 0.006828382
0.00793253 -0.009240442 -0.08503825 -0.05179215 -0.175797 0.030136922 -0.23958872 -0.023484925
-0.0025726487 -0.10162315 -0.056589447 -0.01740912 -0.05959446 -0.05098452 -0.106491745 -0.09816342
-0.13332185 -0.018399134 0.025491014 0.17714392 -0.14532092 -0.05184375 0.014861663 0.048174363
-0.13403524 0.0022936005 -0.041222792 -0.101991996 0.014505887 -0.02349835 -0.1424516 -0.060064737
-0.10379311 -0.12827976 0.029325806 -0.048443746 -0.015455389 -0.1237117 -0.084398225 -0.0686683
-0.047588702 -0.04642685 0.006842845 -0.12320722 -0.05483017 -0.0065512196 -0.005625327 0.022757782
-0.095995866 0.0129317455 -0.029969733 -0.049303405 -0.005338548 -0.1082139 -0.044097364 0.05694379
-0.15542175 -0.1562082 -0.06119953 -0.083948985 -0.11987058 -0.11223194 -0.136494 0.010331674
-0.038937274 -0.04156853 0.023805125 -0.099583596 -0.19166015 -0.20224161 0.041411947 -0.08672819
-0.03430311 -0.08274339 0.0005726892 -0.0171195 -0.13801892 -0.1094213 -0.095505595 0.32587436
-0.045109686 -0.07701099 -0.22509718 -0.14746971 -0.24730147 -0.013611977 -0.14617409 -0.09965132
-0.08865523 -0.06351048 -0.031182801 -0.072657764 0.0036308593 -0.16435874 -0.09825185 -0.22136348
-0.031580042 -0.14490236 -0.09977033 -0.07155663 -0.030305106 -0.028340986 -0.08686138 -0.14879523
-0.07586803 -0.23443262 -0.25602293 -0.022462849 -0.19695885 -0.31207687 -0.12563854 -0.15950637
-0.1146931 0.042863738 -0.008849398 -0.129331 -0.1553626 -0.11332201 -0.11934739 -0.17036027
-0.13357194 -0.109214045 -0.10664813 -0.07377532 -0.17376304 -0.12199146 -0.14585803 -0.056477927
0.047518052 0.074008115 -0.1066477 -0.15364589 -0.18417916 -0.08864201 -0.04791225 -0.07125697
-0.14585827 -0.07030804 -0.10263196 -0.18037005 -0.015573772 -0.09078432 -0.031168563 -0.1766348
-0.07641571 -0.06999373 -0.062300064 0.26883674 -0.06938692 -0.016167076 -0.19919288 -0.15606591
-0.110388055 -0.061887924 -0.03146939 -0.19677894 -0.14943919 -0.18308 -0.3131012 -0.22135758
-0.060100883 -0.121493466 -0.051920053 -0.06901865 -0.13346364 -0.095778525 -0.1058532 -0.1653973
-0.2434489 -0.11148233 -0.04721557 -0.20107691 -0.105417944 -0.07015495 -0.09668097 -0.06599468
-0.012161961 -0.041180212 -0.115523316 -0.09003981 -0.002019461 -0.17690632 -0.04353797 -0.06341501
-0.17797421 -0.029421385 -0.11654697 -0.08867618 -0.2121857 -0.31417227 -0.26323447 -0.014821193
-0.10133469 0.058659103 -0.101730235 -0.1569921 -0.2358529 -0.2029387 -0.03263239 -0.12540735
-0.1083524 -0.21687548 -0.1877925 -0.055485327 -0.15112247 -0.25759777 -0.124419965 0.21218544
00000000: 5ee4 b6bd cd08 dbbd ec24 02bd 349c ed3c
00000010: 979f aabd 8b45 eabc 0e7a e5bd d4ba cfbd
00000020: 02c1 693b 843b b43b ac03 373b 56b0 efbc
00000030: 21ff 01bc 068c a8bc c23d 7fbe 5b68 f5bd
00000040: 8d56 e2bd 7ff6 80be fb48 d6bd 1314 30be
00000050: 31f3 a4bc 552c 023d ab07 1cbe 1cf1 ccbb
00000060: b793 febd 210d f0bd d208 b3bd c111 20bd
00000070: 0e93 91bd eedf 183d d3f5 3cbc a4b6 8fbd
00000080: 8ad9 e3bd df0f adbd bdbe a4bd 0fbc d0bd
00000090: bc9e c4bd 4d97 c0bd 9919 88bd 411e 0abc
000000a0: 3330 42be 6f8d 58be c954 b9bd b604 aebd
000000b0: 06a1 aebd dae4 05be 5f24 d2bd 9fc0 df3b
000000c0: 71f7 013c 3965 17bc 8928 aebd 0124 54bd
000000d0: 2104 34be b5e1 f63c bf56 75be 7563 c0bc
000000e0: e299 28bb cc1f d0bd 56ca 67bd 929d 8ebc
000000f0: 5219 74bd 25d5 50bd 5818 dabd e709 c9bd
00000100: 8685 08be c8b9 96bc 88d2 d03c 3765 353e
00000110: 02cf 14be 1d5a 54bd 557e 733c 7b52 453d
00000120: 8940 09be 3b50 163b 3bd9 28bd 2ee1 d0bd
00000130: 1aaa 6d3c 9d7f c0bc d5de 11be 7106 76bd
00000140: 7b91 d4bd c55b 03be ac3c f03c f36c 46bd
00000150: 9a38 7dbc 8f5c fdbd fad8 acbd f7a1 8cbd
00000160: 5fec 42bd 152a 3ebd f239 e03b 1154 fcbd
00000170: 9a95 60bd 9dab d6bb aa54 b8bb 876e ba3c
00000180: 7b99 c4bd acdf 533c 1683 f5bc 5ef2 49bd
00000190: fdee aebb 409f ddbd 709f 34bd e43d 693d
000001a0: e126 1fbe 0bf5 1fbe 5cac 7abd 72ed abbd
000001b0: b57e f5bd dcd9 e5bd 15c5 0bbe 2e46 293c
000001c0: b17c 1fbd c343 2abd f702 c33c 7cf2 cbbd
000001d0: 8f42 44be 6d18 4fbe 939f 293d 8d9e b1bd
000001e0: 6b81 0cbd 5e75 a9bd 8620 163a 323e 8cbc
000001f0: d554 0dbe 4618 e0bd 7098 c3bd 01d9 a63e
00000200: efc4 38bd f0b7 9dbd e07f 66be 4d02 17be
00000210: 993c 7dbe c504 5fbc a9ae 15be fe15 ccbd
00000220: e090 b5bd c811 82bd 1373 ffbc 98cd 94bd
00000230: b6f3 6d3b a84d 28be 4438 c9bd 1cad 62be
00000240: 135a 01bd 4961 14be 6354 ccbd 488c 92bd
00000250: 6a42 f8bc 5b2b e8bc 61e4 b1bd c75d 18be
00000260: b360 9bbd 1b0f 70be 7015 83be 0204 b8bc
00000270: 95af 49be 8ac8 9fbe 64a7 00be a355 23be
00000280: 37e4 eabd e391 2f3d 11fd 10bc 586f 04be
00000290: 6017 1fbe 5f15 e8bd 686c f4bd ec72 2ebe
000002a0: 15c7 08be 9dab dfbd 566a dabd 8417 97bd
000002b0: f0ee 31be a9d6 f9bd cf5b 15be 6655 67bd
000002c0: 4aa2 423d 9191 973d 1c6a dabd 5955 1dbe
000002d0: 7699 3cbe f189 b5bd a33f 44bd 2def 91bd
000002e0: df5b 15be a9fd 8fbd b430 d2bd edb2 38be
000002f0: 2229 7fbc 21ed b9bd 3755 ffbc c1df 34be
00000300: d77f 9cbd df58 8fbd 5a2e 7fbd f8a4 893e
00000310: bb1a 8ebd d170 84bc 38f9 4bbe becf 1fbe
00000320: 2213 e2bd 317e 7dbd 0ce6 00bd 6b80 49be
00000330: 9606 19be 5379 3bbe cd4e a0be 90ab 62be
00000340: 582c 76bd 91d1 f8bd 1faa 54bd a659 8dbd
00000350: b1aa 08be 8827 c4bd 90c9 d8bd e95d 29be
00000360: ab4a 79be d950 e4bd 1d65 41bd 1be7 4dbe
00000370: 5de5 d7bd 66ad 8fbd ac00 c6bd 3828 87bd
00000380: f642 47bc 95ac 28bd 7d97 ecbd cb66 b8bd
00000390: ef58 04bb ee26 35be df54 32bd bbdf 81bd
000003a0: df3e 36be 1e05 f1bc 2eb0 eebd db9b b5bd
000003b0: 3547 59be 30db a0be abc6 86be 97d4 72bc
000003c0: 9088 cfbd 8744 703d f157 d0bd 89c2 20be
000003d0: 6c83 71be 2acf 4fbe 8aa9 05bd c96a 00be
000003e0: dde7 ddbd 9b14 5ebe ad4c 40be 9544 63bd
000003f0: d9bf 1abe dbe3 83be e5cf febd 2447 593e

lstm2.weight_ih_l0 f4 [128, 128]
-0.077570714 -0.0883069 -0.13774672 -0.20140316 -0.079773396 -0.112771645 -0.07926212 0.086188376
-0.016016552 0.03139751 -0.26134747 -0.13938656 -0.05000389 0.27691635 0.24483383 -0.22074524
0.27442816 -0.17764209 -0.1015121 -0.09762459 0.020449465 -0.049755614 -0.03488095 0.102313906
0.13162118 -0.09044676 0.048015535 0.06730614 -0.0049983 0.3243508 -0.17617802 -0.087313965
0.16360702 -0.17375377 -0.19107668 -0.28285575 -0.28523588 0.088840455 0.043873068 0.0043217554
0.039072596 -0.17225908 0.097754136 -0.022059716 -0.31666648 -0.15615638 -0.16952734 0.11290333
-0.0085291155 0.01938893 0.16437365 0.033620242 -0.09205326 0.09031498 -0.10760643 0.22414279
-0.019534992 0.21413803 0.12033563 -0.029623317 -0.02563628 0.004832988 0.024630332 -0.14491262
0.1487301 0.20885679 -0.09418531 -0.023013312 0.01726787 0.109967686 0.04293933 -0.16884737
-0.22460619 -0.2852099 0.0049194996 -0.11546838 0.03505292 -0.10477877 -0.3369348 0.18714765
0.102093175 0.024104971 0.046341848 0.2604798 -0.281817 0.07043522 -0.18451227 -0.026357714
0.07923331 -0.027333405 0.17645332 0.25637648 -0.37886512 0.110031314 -0.020630825 -0.10010084
0.22764811 0.22415675 0.054850187 0.04841634 0.22039479 -0.089453556 0.07221456 0.15727718
0.00019595766 -0.12999971 0.029723171 -0.11318917 0.11846711 -0.24510892 -0.070171006 -0.4059509
0.10330968 -0.0017014754 0.23395257 0.028439606 -0.12276858 0.09500994 0.028316146 0.05245544
-0.19098063 -0.12808391 0.038625948 -0.13716353 -0.32491964 0.16368814 0.03973208 0.30967742
0.20894063 -0.015870644 0.1338525 -0.22768958 0.14623535 -0.1512045 -0.22762327 0.23117226
0.090042755 0.30007216 0.10034514 0.028845597 -0.08947707 0.361569 0.17429477 -0.24390832
-0.0923083 -0.121090114 0.01115176 -0.13428617 0.12847589 -0.014535144 -0.15958191 -0.33895603
-0.14340615 0.0018824423 0.12686616 -0.038867556 0.01994014 0.2916778 -0.18583868 -0.17339377
0.049493212 -0.20805986 -0.04961948 0.29457742 -0.18592389 0.12273126 0.12481163 -0.014110315
-0.11817331 0.06512705 0.052348882 -0.044635266 -0.29113042 0.003926659 -0.0092748115 0.2310312
0.1117645 -0.1573682 0.14528021 -0.08517823 -0.2215224 0.05953865 0.16317123 0.17214276
0.084181204 -0.08210082 0.02101106 0.06552298 -0.073648915 -0.099999174 0.25905725 -0.0958862
-0.06728108 -0.051411107 -0.082671076 -0.31409165 0.1969467 0.011983547 0.14506927 -0.2943601
-0.22124755 -0.23575048 0.16897711 -0.2171668 0.13984734 0.13999961 -0.08997794 0.3279064
-0.1647791 -0.0011826477 -0.09489623 0.10711748 -0.23743583 0.041218996 -0.04412817 0.042650856
-0.003409678 -0.0072933026 0.13890602 0.25993007 -0.21458933 -0.08173285 0.06831887 -0.07072364
0.07273209 0.22671448 -0.097882174 -0.17959104 0.15581015 -0.009843615 0.15044278 0.13470934
-0.16137569 0.13261366 0.11584624 0.107873134 0.27511066 -0.24612764 0.16742365 0.23141883
0.057489827 -0.1166633 0.080126874 0.13368195 -0.103195995 0.032634106 0.04881173 0.3458376
-0.20553674 -0.12342544 0.071827106 0.02710024 0.04301719 0.18155062 0.28422245 0.27053386
00000000: 65dd 9ebd 3fda b4bd 7a0d 0dbe a13c 4ebe
00000010: 3c60 a3bd d2f4 e6bd 2e54 a2bd 8883 b03d
00000020: 2535 83bc ad9a 003d 56cf 85be 5abb 0ebe
00000030: e1d0 4cbd fbc7 8d3e b8b5 7a3e 0a0b 62be
00000040: d981 8c3e cfe7 35be 93e5 cfbd 67ef c7bd
00000050: a385 a73c 8bcc 4bbd 54df 0ebd f489 d13d
00000060: b4c7 063e 273c b9bd f0ab 443d cdd7 893d
00000070: c8c8 a3bb 4f11 a63e 0368 34be aad1 b2bd
00000080: 9988 273e 82ec 31be 9ba9 43be 78d2 90be
00000090: 700a 92be fcf1 b53d 3fb4 333d 839d 8d3b
000000a0: 960a 203d af64 30be 5233 c83d 94b6 b4bc
000000b0: 1c22 a2be 75e7 1fbe 9398 2dbe dc39 e73d
000000c0: b4bd 0bbc 89d5 9e3c 9151 283e 61b5 093d
000000d0: 6b86 bcbd 0ff7 b83d c360 dcbd b085 653e
000000e0: d907 a0bc 0047 5b3e 8772 f63d 99ac f2bc
000000f0: 2d03 d2bc 0b5e 9e3b 8dc5 c93c f963 14be
00000100: b44c 183e 8ede 553e 3ae4 c0bd 6a86 bcbc
00000110: 5975 8d3c bd36 e13d 27e1 2f3d 53e6 2cbe
00000120: 2aff 65be 0807 92be c133 a13b b07a ecbd
00000130: a793 0f3d 4096 d6bd b882 acbe a2a3 3f3e
00000140: 3a16 d13d ca77 c53c f3d0 3d3d 9c5d 853e
00000150: 514a 90be 5740 903d c9f0 3cbe 22ec d7bc
00000160: 1345 a23d 4eea dfbc 2eb0 343e c743 833e
00000170: 9cfa c1be 1958 e13d fa01 a9bc ab01 cdbd
00000180: 961c 693e 5989 653e 97aa 603d 3650 463d
00000190: 2caf 613e 6d33 b7bd 3ae5 933d 450d 213e
000001a0: fc79 4d39 a51e 05be 027e f33c b9cf e7bd
000001b0: e29e f23d d5fd 7abe d1b5 8fbd ccd8 cfbe
000001c0: 0794 d33d 0a04 dfba 4391 6f3e 2dfa e83c
000001d0: 186e fbbd 9294 c23d 43f7 e73c 84db 563d
000001e0: 6d90 43be 6e28 03be 3e36 1e3d 9974 0cbe
000001f0: de5b a6be dd9d 273e 1bbe 223d 0a8e 9e3e
00000200: 88f4 553e 2703 82bc a110 093e 7527 69be
00000210: b8be 153e 5ad5 1abe 1316 69be 6cb8 6c3e
00000220: 5668 b83d 0fa3 993e c181 cd3d 9a4d ec3c
00000230: c13f b7bd 921f b93e 547a 323e 1ac3 79be
00000240: 220c bdbd 18fe f7bd dfb5 363c 5082 09be
00000250: 2f8f 033e d024 6ebc 7169 23be a58b adbe
00000260: 10d9 12be 48bc f63a 34e9 013e 9633 1fbd
00000270: 8159 a33c cb56 953e 7f4c 3ebe 238e 31be
00000280: 65b9 4a3d a50d 55be cc3d 4bbd dad2 963e
00000290: d562 3ebe 875a fb3d 3d9d ff3d f32e 67bc
000002a0: d904 f2bd 5561 853d c86b 563d 78d3 36bd
000002b0: 0c0f 95be 34ab 803b 61f5 17bc 7193 6c3e
000002c0: c9e4 e43d 2125 21be 56c4 143e ed71 aebd
000002d0: c5d6 62be cdde 733d 5c16 273e 3146 303e
000002e0: 3267 ac3d 7a24 a8bd 631f ac3c ea30 863d
000002f0: 3ed5 96bd 5ecc ccbd 27a3 843e fc5f c4bd
00000300: aaca 89bd 7494 52bd 744f a9bd 9fd0 a0be
00000310: 65ac 493e a456 443c 0a8d 143e 5eb6 96be
00000320: b88e 62be 9368 71be 5608 2d3e f960 5ebe
00000330: 2434 0f3e 0f5c 0f3e 5b46 b8bd 59e3 a73e
00000340: dabb 28be 1203 9bba f458 c2bd 6960 db3d
00000350: 6122 73be 40d5 283d bdbf 34bd aab2 2e3d
00000360: e774 5fbb a8fc eebb 613d 0e3e 8e15 853e
00000370: 4ebd 5bbe 8d63 a7bd c4ea 8b3d 8ed7 90bd
00000380: 90f4 943d d727 683e 7376 c8bd b7e6 37be
00000390: b28c 1f3e 1d47 21bc ac0d 1a3e 3ff1 093e
000003a0: ab3f 25be e0cb 073e cb40 ed3d 97ec dc3d
000003b0: 4edb 8c3e e208 7cbe 1b71 2b3e 0ff9 6c3e
000003c0: 747a 6b3d 2bed eebd 8f19 a43d ece3 083e
000003d0: 6c58 d3bd 57ab 053d cfee 473d a011 b13e
000003e0: 3978 52be 7ac6 fcbd 171a 933d 5301 de3c
000003f0: cb32 303d 68e8 393e 9b85 913e 6a83 8a3e
