model/models/1h/trained_model.pt (torch, 666885 bytes, 17 tensors)

conv1.weight f4 [48, 5, 5]
0.10992477 -0.0024453108 -0.0623826 0.04191455 -0.18206209 0.08714543 -0.059460655 -0.1578886
-0.08432182 0.11617815 0.10736292 0.17057995 -0.21027756 0.14235002 -0.17809498 0.04784662
-0.11508903 -0.17425737 -0.06145679 0.14320019 -0.06223183 -0.21636893 -0.007933835 0.14181255
0.06311565 -0.20509711 0.06878045 -0.0073719695 -0.13591988 -0.15923555 -0.23611769 0.053518973
0.02273879 -0.02890326 -0.102343924 0.15848559 -0.039530862 0.046799593 -0.17143543 0.16435608
-0.04337512 0.05649815 0.088405296 0.04503616 -0.01623437 -0.09731992 -0.21658807 -0.24651831
-0.12057271 0.18776548 -0.024473306 -0.051752355 0.18038958 -0.09514012 -0.17898725 0.070080824
0.02873299 -0.10163567 0.020411624 -0.18650785 -0.15061462 0.074317865 0.15156709 -0.04170803
0.1379862 -0.12841097 -0.1987784 -0.1617061 -0.007907126 -0.21122634 0.056201268 0.07915347
-0.045091454 0.14154609 -0.05629504 0.03141798 -0.16725795 -0.13438849 0.17574565 -0.17459111
0.08996076 -0.037598874 -0.09763525 -0.06919468 0.0808573 -0.13242954 -0.0060583474 -0.20888732
0.11096424 -0.102360465 -0.029794907 -0.16967052 -0.21450393 -0.08043803 -0.20295994 -0.03975546
0.12375661 0.110506475 0.13775638 -0.18313529 -0.052559536 0.028672956 0.0984233 0.009553304
0.042949617 -0.14856632 0.2200908 0.021317968 -0.024353532 -0.0039924374 0.1630353 0.088071585
0.18377042 0.12974182 0.13204643 0.050707497 -0.11089273 -0.056986608 0.21379864 0.21228285
-0.15079042 -0.28854135 0.10004439 0.013500261 -0.22709882 -0.21378897 0.17081682 -0.001563819
-0.032208323 0.026108935 0.13356657 -0.10159136 -0.025778044 -0.1318652 -0.091669634 0.13031115
-0.1108008 -0.0025009455 -0.18935819 -0.14764078 0.006437361 -0.14291821 -0.22501792 0.023966432
0.17605104 -0.12708364 -0.19833466 -0.1960958 -0.17959788 -0.15357813 -0.017351285 -0.23311475
-0.13751528 0.000628319 -0.02147994 -0.2188361 -0.12773298 0.035269853 0.03400496 0.058426414
-0.0968419 0.15460083 -0.14503603 -0.044296153 -0.016945694 -0.032817908 0.029587455 0.16148117
-0.024834247 -0.004772149 -0.026049962 0.12872551 0.11675119 -0.046342477 0.06355856 0.09207535
-0.018312603 -0.12812133 -0.027581096 0.06681649 0.049180627 -0.12161892 0.16503417 -0.09185057
0.17344955 -0.15337382 -0.17580867 -0.1991771 0.036127426 -0.16637625 -0.13675642 -0.015819637
0.1537992 -0.020373773 -0.1864855 -0.082393944 0.21706147 -0.083433725 -0.032228652 -0.08842786
-0.13594957 -0.04341013 -0.17619593 0.01696837 -0.08504705 0.11689251 -0.010303463 -0.04965325
-0.15008117 -0.06277239 -0.15689507 -0.006067098 -0.015928948 0.0718095 -0.0802656 0.08549155
-0.19452098 -0.09197989 0.10308525 0.043855503 0.033468027 -0.22095942 -0.21773559 0.1341608
-0.043039966 0.10472947 0.06085685 -0.15868327 0.17277302 0.14237149 -0.16359897 -0.10396826
-0.032237634 -0.07372623 -0.13095385 -0.048959322 0.053267818 -0.18847384 0.16713814 0.15885386
0.16680358 0.15476201 0.15945014 0.06863529 0.05833331 -0.009257048 -0.07144937 -0.018462377
0.068464495 -0.07273123 -0.13113643 0.17294215 -0.10280461 -0.08842248 0.17347968 0.07865963
00000000: 3d20 e13d 8241 20bb e684 7fbd 97ae 2b3d
00000010: 7c6e 3abe 4e79 b23d 048d 73bd 8dad 21be
00000020: ebb0 acbd cfee ed3d 17e1 db3d 83ac 2e3e
00000030: 0053 57be 34c4 113e 885e 36be d1fa 433d
00000040: ccb3 ebbd 8670 32be 1dba 7bbd 12a3 123e
00000050: cee6 7ebd d18f 5dbe eafc 01bc 4f37 113e
00000060: c742 813d fa04 52be c4dc 8c3d 9090 f1bb
00000070: 952e 0bbe a50e 23be d6c8 71be b636 5b3d
00000080: b346 ba3c 88c6 ecbc b199 d1bd 0c4a 223e
00000090: 1deb 21bd eeb0 3f3d c58c 2fbe f64c 283e
000000a0: 1caa 31bd 9b6a 673d d60d b53d d677 383d
000000b0: f1fd 84bc ab4f c7bd 43c9 5dbe 4c6f 7cbe
000000c0: d3ee f6bd 9845 403e 3e7c c8bc 47fa 53bd
000000d0: 0cb8 383e d3d8 c2bd 6f48 37be 8986 8f3d
000000e0: 7361 eb3c 5d26 d0bd 4736 a73c eafb 3ebe
000000f0: b83a 1abe f733 983d 6734 1b3e 0ad6 2abd
00000100: 414c 0d3e 2a7e 03be 918c 4bbe 4996 25be
00000110: e48c 01bc b84b 58be 4d33 663d 371b a23d
00000120: d1b1 38bd 75f1 103e a195 66bd 24b0 003d
00000130: ab45 2bbe 239d 09be abf6 333e 03c8 32be
00000140: 593d b83d 4701 1abd fdf4 c7bd f1b5 8dbd
00000150: 8398 a53d 9c9b 07be 1a85 c6bb 8fe6 55be
00000160: 3841 e33d 5da2 d1bd 7314 f4bc 1cbe 2dbe
00000170: eba6 5bbe b2bc a4bd bbd4 4fbe 9fd6 22bd
00000180: 1b74 fd3d 3851 e23d 0210 0d3e d187 3bbe
00000190: ab48 57bd 8ce3 ea3c 2892 c93d 7685 1c3c
000001a0: f0eb 2f3d c521 18be 7c5f 613e 05a3 ae3c
000001b0: 0f81 c7bc fed2 82bb baf2 263e e05e b43d
000001c0: 502e 3c3e 0adb 043e 2e37 073e aab2 4f3d
000001d0: ba1b e3bd ca6a 69bd 08ee 5a3e ad60 593e
000001e0: ce68 1abe b1bb 93be 13e4 cc3d 3330 5d3c
000001f0: 988c 68be 7feb 5abe 9bea 2e3e 0ff9 ccba
00000200: e0ec 03bd 68e2 d53c adc5 083e 220f d0bd
00000210: 7a2c d3bc ac07 07be 4abd bbbd 4970 053e
00000220: 88eb e2bd e7e6 23bb 1de7 41be 252f 17be
00000230: 7ff0 d23b 2759 12be 196b 66be 4055 c43c
00000240: b946 343e 3722 02be 3e18 4bbe 56cd 48be
00000250: 82e8 37be 9643 1dbe 4824 8ebc a2b5 6ebe
00000260: ced0 0cbe c6b5 243a b3f6 afbc 9216 60be
00000270: 6fcc 02be 1f77 103d c948 0b3d 8950 6f3d
00000280: 0c55 c6bd ae4f 1e3e 5384 14be e26f 35bd
00000290: b2d1 8abc 126c 06bd 6461 f23c 525b 253e
000002a0: 3171 cbbc b05f 9cbb bb66 d5bc 9fd0 033e
000002b0: 3f1b ef3d 9cd1 3dbd fe2a 823d 0092 bc3d
000002c0: 5004 96bc 3d32 03be c0f1 e1bc 15d7 883d
000002d0: a071 493d 5713 f9bd b8fe 283e 271c bcbd
000002e0: c29c 313e 070e 1dbe 3007 34be 15f5 4bbe
000002f0: 5afa 133d 895e 2abe e009 0cbe 2f98 81bc
00000300: 8a7d 1d3e e6e6 a6bc 0ef6 3ebe 28be a8bd
00000310: 5d45 5e3e 4ddf aabd 3102 04bd aa19 b5bd
00000320: 5d36 0bbe d2ce 31bd b56c 34be 4001 8b3c
00000330: 262d aebd 5765 ef3d dbcf 28bc 3561 4bbd
00000340: e1ae 19be d08e 80bd 1aa9 20be 82ce c6bb
00000350: 6d7d 82bc dc10 933d 4a62 a4bd 3216 af3d
00000360: 8230 47be f45f bcbd 5c1e d33d d4a1 333d
00000370: c515 093d 3043 62be 14f6 5ebe 7361 093e
00000380: ad4a 30bd 687c d63d 0845 793d de7d 22be
00000390: 69eb 303e d5c9 113e 7d86 27be 50ed d4bd
000003a0: 9c0b 04bd c7fd 96bd c418 06be 9289 48bd
000003b0: 5b2f 5a3d 49ff 40be 4326 2b3e 96aa 223e
000003c0: 8fce 2a3e ef79 1e3e e646 233e a990 8c3d
000003d0: e9ee 6e3d e0aa 17bc 0c54 92bd 693e 97bc
000003e0: 1d37 8c3d 1cf4 94bd a148 06be bf17 313e
000003f0: 398b d2bd d816 b5bd a8a4 313e 4d18 a13d

conv1.bias f4 [48]
-0.20425217 -0.07821961 0.15485516 -0.15623367 -0.14790088 -0.0005437201 -0.21331643 0.2658963
-0.020112526 -0.050188303 -0.10586341 -0.061855875 -0.3204118 -0.01668918 -0.18865363 0.05278306
0.056382302 0.14470522 -0.22929133 -0.020894557 -0.10833627 0.094060786 0.2716676 -0.012688187
-0.00046502586 -0.13111387 -0.13439639 0.22352862 -0.16968834 0.043533467 -0.1385729 0.035734363
0.11068402 -0.31614777 -0.30163792 -0.25753877 -0.07197711 -0.11364352 -0.1170939 -0.20292373
-0.2443218 -0.33285463 -0.23605824 -0.11124158 -0.3354868 -0.07616782 -0.16387074 0.12517531
00000000: 7b27 51be 9a31 a0bd 5a92 1e3e b8fb 1fbe
00000010: 5473 17be 7088 0eba 9f6f 5abe 8f23 883e
00000020: 06c3 a4bc 4092 4dbd eace d8bd 965c 7dbd
00000030: 040d a4be bfb7 88bc 6b2e 41be 0d33 583d
00000040: 21f1 663d 9b2d 143e 59cb 6abe 102b abbc
00000050: 68df ddbd f1a2 c03d 0418 8b3e 1de2 4fbc
00000060: b7ce f3b9 b742 06be 359f 09be b0e4 643e
00000070: c8c2 2dbe 2650 323d 0ee6 0dbe 325e 123d
00000080: 4eae e23d 1fde a1be 4970 9abe 1fdc 83be
00000090: bc68 93bd efbd e8bd edce efbd 3dcb 4fbe
000000a0: 7e2f 7abe ec6b aabe 40b9 71be a0d2 e3bd
000000b0: edc4 abbe e0fd 9bbd bbcd 27be f52d 003e

conv2.weight f4 [96, 48, 5]
-0.037595123 -0.029025016 -0.044937555 -0.019810569 0.022525376 -0.06924313 -0.041496363 -0.062768266
-0.072287105 -0.036418527 -0.09646184 -0.00015843382 -0.06871768 -0.094262935 -0.04239958 0.057209753
-0.022779405 0.008340798 0.0007686212 -0.072727665 -0.005419634 -0.045973714 -0.035106152 -0.02532256
0.0066397376 0.009983316 -0.039603107 -0.006615799 -0.058679648 0.05295573 -0.03744111 -0.051034987
-0.05010154 0.01640739 -0.08749255 -0.014420538 -0.03359713 0.016332773 -0.058862783 -0.08397362
-0.016822735 -0.0723639 -0.040038325 -0.06898542 -0.07274955 -0.08626928 -0.035287537 0.012799789
-0.039495245 0.018795509 -0.004030375 -0.02558957 -0.04346134 -0.002387657 -0.002777123 0.02987674
-0.035697684 -0.079617225 -0.07812179 -0.02707076 -0.07406501 -0.062389683 -0.012699372 -0.011276687
0.007604485 -0.00047828676 0.016223319 -0.012354088 0.026460469 0.0097914655 -0.05008906 0.036870234
0.063652135 0.027710259 0.054235935 -0.0347217 -0.059348002 0.030668192 -0.046585314 0.028394071
0.009403529 0.014510642 -0.008879447 -0.024387363 -0.08991239 0.010460699 0.01701421 -0.08919365
0.025910007 -0.025279954 -0.053744655 -0.04339004 -0.06573213 -0.054814123 -0.063541345 0.03787522
-0.030917674 -0.06404248 0.0015949905 -0.022057585 -0.02623508 -0.06754165 -0.031955056 0.013429025
-0.051469766 -0.09149238 -0.040701192 0.017501773 -0.09505378 0.019232806 -0.039656654 -0.018683884
-0.010107635 -0.072691746 0.020209653 -0.058633707 -0.06734731 0.016799252 -0.017874215 0.032814145
-0.090865925 -0.027867554 -0.07478608 -0.030277284 -0.008525163 -0.036588416 0.0302945 0.023581633
0.02555092 -0.004629191 0.01741147 0.02874685 0.06270806 -0.04870463 -0.05440422 -0.08028627
-0.04034128 -0.07829263 -0.037337348 -0.068571255 -0.027758818 -0.033000533 0.06432877 0.049106434
-0.046086237 -0.021656618 0.0048412574 0.01634195 -0.07677805 -0.037454944 0.0034735433 0.049117964
-0.048074808 -0.05607108 0.0009388021 -0.025347661 -0.019111993 -0.05275194 -0.059125327 0.03858088
0.003180258 -0.01765193 -0.061553597 -0.048720658 0.033577707 -0.041512407 0.008762578 0.0022537177
-0.07446531 -0.02833803 0.017623447 -0.0455716 -0.031062366 -0.034022555 -0.09050034 -0.06306589
0.023658862 -0.057578962 -0.022462787 0.020556446 -0.07092625 -0.029493436 -0.09285117 -0.03290382
-0.039829228 -0.059304215 -0.09849083 -0.04910505 0.0052029463 0.0008080124 -0.07299291 -0.037406094
-0.09046982 -0.00092026463 0.018262854 -0.030321628 -0.00627667 -0.032091793 0.019900177 -0.06601728
-0.04612696 0.014573857 -0.025511561 -0.050876286 -0.01506644 -0.036797166 -0.044716194 -0.060694452
0.014852026 -0.070615165 0.028251614 -0.080029994 -0.07443238 -0.012742225 -0.041011844 0.030005133
-0.08221461 -0.009266744 -0.010850327 -0.037168466 -0.055599596 -0.009274221 -0.027831865 -0.045617975
-0.06907042 0.008267185 -0.036614116 -0.04601224 -0.08252318 -0.029541958 0.023802623 0.014112204
0.04834096 -0.045204416 -0.047361724 0.018800778 -0.043689534 -0.0036204995 0.01446894 -0.037909996
0.015735462 -0.029286426 0.022491997 0.058086198 -0.0134265935 -0.079892576 0.00024023146 0.020365348
-0.02455684 0.012336783 -0.0060990765 -0.09055564 -0.08031972 0.017518373 0.06759542 -0.019281873
00000000: 58fd 19bd dfc5 edbc 7110 38bd c649 a2bc
00000010: 2387 b83c 58cf 8dbd 17f8 29bd a68c 80bd
00000020: 430b 94bd 982b 15bd c98d c5bd 4121 26b9
00000030: dbbb 8cbd ed0c c1bd 2fab 2dbd c654 6a3d
00000040: e09b babc d8a7 083c 4c7d 493a 3ef2 94bd
00000050: 2f97 b1bb ef4e 3cbd 78cb 0fbd 4271 cfbc
00000060: 2892 d93b 1091 233c de36 22bd 58c9 d8bb
00000070: 125a 70bd 1ce8 583d d95b 19bd 100a 51bd
00000080: 4637 4dbd ca68 863c 4b2f b3bd 1f44 6cbc
00000090: 259d 09bd 4fcc 853c 1a1a 71bd 5cfa abbd
000000a0: d5cf 89bc 8633 94bd 3aff 23bd 3a48 8dbd
000000b0: b7fd 94bd f3ad b0bd aa89 10bd 35b6 513c
000000c0: c4c5 21bd 0af9 993c 3c11 84bb 38a1 d1bc
000000d0: 8504 32bd 3d7a 1cbb 6400 36bb 11c0 f43c
000000e0: bc37 12bd 5b0e a3bd 51fe 9fbd 80c3 ddbc
000000f0: 65af 97bd 538c 7fbd 0711 50bc dac1 38bc
00000100: 0b2f f93b 90c2 fab9 c4e6 843c cd68 4abc
00000110: a0c3 d83c 626c 203c 302a 4dbd 3e05 173d
00000120: 0d5c 823d a000 e33c 8026 5e3d 5738 0ebd
00000130: e416 73bd dc3b fb3c 3ed0 3ebd af9a e83c
00000140: 4211 1a3c 0bbe 6d3c 1a7b 11bc 02c8 c7bc
00000150: fd23 b8bd 5a63 2b3c 6261 8b3c 29ab b6bd
00000160: 3941 d43c e817 cfbc 5b23 5cbd c1b9 31bd
00000170: 919e 86bd c684 60bd f721 82bd 0c23 1b3d
00000180: 1047 fdbc b428 83bd 000f d13a 1cb2 b4bc
00000190: f3ea d6bc 4753 8abd 4ee3 02bd 6a05 5c3c
000001a0: f6d1 52bd 5b60 bbbd 4bb6 26bd e15f 8f3c
000001b0: 8eab c2bd 1e8e 9d3c 046f 22bd f20e 99bc
000001c0: 7e9a 25bc 69df 94bd b78e a53c e629 70bd
000001d0: 63ed 89bd 969e 893c f26c 92bc 2068 063d
000001e0: ea17 babd 7f4a e4bc 7229 99bd 1108 f8bc
000001f0: 20ad 0bbc bcdd 15bd 2c2c f83c 452e c13c
00000200: 2a50 d13c 78b0 97bb 80a2 8e3c 847e eb3c
00000210: 156d 803d 827e 47bd f6d6 5ebd 216d a4bd
00000220: e63c 25bd e357 a0bd 0cef 18bd 166f 8cbd
00000230: 7666 e3bc 912b 07bd cdbe 833d d423 493d
00000240: ecc4 3cbd 3869 b1bc 69a3 9e3b 8edf 853c
00000250: cf3d 9dbd 5b6a 19bd 63a4 633b eb2f 493d
00000260: 17ea 44bd caaa 65bd f119 763a e6a5 cfbc
00000270: c190 9cbc 6b12 58bd 662d 72bd fc06 1e3d
00000280: e06b 503b c89a 90bc a01f 7cbd 508f 47bd
00000290: c788 093d ea08 2abd ea90 0f3c 1cb3 133b
000002a0: 4581 98bd 2825 e8bc 0c5f 903c 49a9 3abd
000002b0: 8176 febc 3c5b 0bbd 3e58 b9bd b028 81bd
000002c0: 3bd0 c13c ebd7 6bbd e103 b8bc fe65 a83c
000002d0: c841 91bd 389c f1bc c128 bebd 28c6 06bd
000002e0: f923 23bd fae8 72bd 8fb5 c9bd 6022 49bd
000002f0: 7a7d aa3b cbd0 533a 4f7d 95bd 2237 19bd
00000300: 3e48 b9bd ea3d 71ba fb9b 953c 1065 f8bc
00000310: 86ac cdbb af72 03bd b205 a33c 1134 87bd
00000320: a0ef 3cbd 30c7 6e3c 9ffd d0bc a763 50bd
00000330: 3bd9 76bc a0b8 16bd 5428 37bd bf9a 78bd
00000340: e955 733c af9e 90bd ee6f e73c c4e6 a3bd
00000350: 0170 98bd c4c4 50bc 09fc 27bd 53cd f53c
00000360: 2260 a8bd 8bd3 17bc 92c5 31bc f63d 18bd
00000370: 67bc 63bd e7f2 17bc a7ff e3bc ead9 3abd
00000380: cb74 8dbd 1673 073c aff8 15bd 5577 3cbd
00000390: ea01 a9bd fa01 f2bc b8fd c23c e036 673c
000003a0: 2c01 463d 4428 39bd 5efe 41bd 1704 9a3c
000003b0: ccf3 32bd e745 6dbb 220f 6d3c 8347 1bbd
000003c0: a8e7 803c 16ea efbc 2341 b83c cbeb 6d3d
000003d0: 37fb 5bbc b89e a3bd a4e6 7b39 3bd5 a63c
000003e0: 6d2b c9bc 3820 4a3c c3da c7bb 3c75 b9bd
000003f0: aa7e a4bd b182 8f3c 786f 8a3d 05f5 9dbc

conv2.bias f4 [96]
-0.031895645 -0.012083265 0.014995564 0.0012836463 -0.038873643 0.030787298 -0.13874939 -0.039833408
-0.016667368 -0.14673384 -0.10137326 -0.06439762 0.060450874 -0.009704036 0.020808442 -0.069910415
-0.011369352 -0.07928985 -0.07598335 -0.15871191 0.018079782 -0.044712413 -0.054125473 0.013058953
-0.10759468 0.00046362603 0.053617306 -0.08913106 -0.07386647 0.04781577 -0.093143955 -0.045714207
-0.025778163 0.010270954 -0.0055644256 -0.07283204 -0.017705034 0.03843333 -0.020932049 -0.07873536
-0.11678352 -0.09654815 -0.057522096 -0.028761853 -0.092737064 0.015966896 -0.062333647 -0.08483902
-0.0703775 -0.0692275 0.020285223 0.041223176 -0.07851059 0.013644653 -0.08266741 -0.061650548
-0.059317444 -0.020962287 -0.045818962 -0.17612316 -0.09127657 -0.034304038 0.019749748 -0.050715245
0.024611598 -0.107930884 0.018237263 0.02463495 -0.009816374 -0.17107047 -0.063557684 0.08478742
-0.03261069 0.04962025 -0.053587303 -0.017113525 0.0010304768 -0.05112717 -0.13180545 -0.15680769
-0.16055094 -0.14504242 -0.025739286 0.023221714 0.09588962 -0.021034129 -0.048244033 -0.07050579
-0.04121039 -0.074319914 -0.012116091 -0.08148085 0.036630888 -0.019730408 -0.045581274 -0.039035518
00000000: 02a5 02bd e3f8 45bc f4af 753c 0640 a83a
00000010: f839 1fbd a535 fc3c 5214 0ebe 5b28 23bd
00000020: 018a 88bc 6541 16be c99c cfbd e6e2 83bd
00000030: 569b 773d adfd 1ebc 7776 aa3c 312d 8fbd
00000040: 8546 3abc b862 a2bd 299d 9bbd 6085 22be
00000050: 0d1c 943c 5d24 37bd acb2 5dbd 38f5 553c
00000060: 995a dcbd d512 f339 d29d 5b3d 588a b6bd
00000070: 4e47 97bd 78da 433d 42c2 bebd d23e 3bbd
00000080: ba2c d3bc 8147 283c c955 b6bb f728 95bd
00000090: 260a 91bc 446c 1d3d b079 abbc 0140 a1bd
000000a0: 332c efbd 09bb c5bd 4a9c 6bbd fa9d ebbc
000000b0: eeec bdbd 02cd 823c 9151 7fbd 15c0 adbd
000000c0: 1422 90bd 26c7 8dbd 322d a63c a2d9 283d
000000d0: 29ca a0bd d38d 5f3c 884d a9bd 4985 7cbd
000000e0: d9f6 72bd 1ab9 abbc aaac 3bbd a159 34be
000000f0: 36ef babd 6482 0cbd 39ca a13c caba 4fbd
00000100: 439e c93c de0a ddbd 5066 953c 3ccf c93c
00000110: dbd4 20bc 192d 2fbe 882a 82bd 07a5 ad3d
00000120: c992 05bd 9a3e 4b3d 5c7e 5bbd aa31 8cbc
00000130: 1011 873a b96a 51bd 02f8 06be 3292 20be
00000140: 7767 24be 0086 14be 32db d2bc 773b be3c
00000150: c761 c43d c44f acbc 899b 45bd 5765 90bd
00000160: 3acc 28bd 0a35 98bd 9282 46bc 6fdf a6bd
00000170: 450a 163d aaa1 a1bc 6eb3 3abd b5e3 1fbd

lstm1.weight_ih_l0 f4 [512, 96]
-0.08607991 -0.062139414 -4.121165e-05 -0.08753921 0.0075840577 0.05139012 0.061370496 -0.0744169
0.0018240744 -0.10257493 -0.081181675 -0.055691995 0.04611892 -0.06684072 -0.10058591 0.008148153
0.06642938 0.007348229 -0.09840709 0.045428675 -0.05820143 0.051155657 0.010571536 0.035105422
-0.0031132714 0.045964427 -0.06878915 -0.040099274 -0.093532965 0.044120997 -0.031788386 0.07527463
0.05024737 0.003344088 0.014518212 -0.08646418 -0.05944486 -0.078219205 0.0069081653 -0.08116089
0.011789002 0.07197519 -0.0039936905 -0.07846333 0.02274604 0.043899577 -0.094212525 -0.10665304
0.08424867 -0.053780623 -0.090356715 -0.017489897 -0.05533233 -0.046468392 -0.13598399 0.06473797
0.033833686 -0.090435095 -0.07552198 0.057423584 0.060774446 0.03343806 0.046668783 0.08791187
0.0026558538 0.008532882 0.0074938126 -0.061000116 -0.019588696 -0.10703132 -0.09981363 0.11568256
-0.051664345 -0.04300994 0.016357403 -0.11467528 -0.04283685 -0.010039352 0.032896973 0.03557705
-0.09722222 0.059288993 -0.063313104 -0.057749543 -0.16556428 -0.019543892 -0.08315609 0.019666107
0.010450065 -0.016708462 -0.03382045 -0.084568195 0.014552274 0.056918908 -0.016045747 -0.081313446
0.08630946 0.1746928 0.046641096 -0.04450161 0.0029372808 0.11824249 -0.06380436 -0.005050431
0.090677574 0.018511517 0.012407861 0.111030504 0.08967091 0.10710914 0.09876489 -0.002933545
0.04669313 0.01749462 -0.0051350514 0.027565062 -0.0047049783 0.01049802 0.021603769 -0.026703162
0.054576054 0.0783376 0.122030064 -0.038341388 0.11770497 -0.047096238 0.0060528703 -0.020942468
0.046170488 0.062819906 0.047365636 0.101154864 0.059500854 0.027969442 0.089129604 0.038311776
0.08403583 0.07322759 0.0025778536 -0.0011165419 0.046207704 -0.008348574 0.013713151 0.02201549
0.039935954 0.04986348 0.040744416 0.07364189 -0.021798205 0.09068602 0.14646311 -0.030320102
0.068845674 -0.033386923 0.023761205 -0.011271544 -0.033551004 -0.074565135 0.110555254 0.06507123
0.17722595 0.07980738 0.10708791 0.14265527 -0.035008483 0.07752719 0.010154289 -0.2650306
0.068425566 -0.033558846 0.015222281 0.12486913 0.12023828 0.08073213 0.10555468 0.04806898
-0.02235956 0.12739569 0.05863802 0.079915695 0.2254178 -0.014836883 0.101790085 -0.010266855
0.076355875 0.08292611 0.10456592 0.084193826 0.0019689484 0.041227642 0.03274881 0.024397563
-0.08978827 0.031111797 -0.053106014 -0.04407733 -0.03886626 -0.057650913 0.03720025 -0.016590722
-0.028541625 0.07991292 0.036547225 -0.013363708 0.062064003 -0.013334005 -0.09828159 -0.04090204
0.050217386 0.070624925 0.04662749 -0.065678395 -0.04683542 0.060016263 -0.019134657 -0.0906767
0.02943636 -0.07121135 0.03086988 -0.09412504 0.078915775 0.07611815 0.08447596 -0.063658915
-0.024305891 0.010777311 -0.025789967 -0.052461352 0.08770353 -0.057548195 0.046212424 -0.069910325
0.029765787 0.061135933 0.06861851 -0.081330486 0.017309513 -0.042735312 0.027899573 -0.013019172
0.029801838 -0.042866733 -0.10181634 0.10362577 -0.0688129 -0.068992324 0.065015264 -0.0072981003
-0.020431785 0.08085778 0.09104822 -0.0045570955 0.037803583 0.0017066378 0.07359315 0.03603796
00000000: aa4a b0bd e685 7ebd acda 2cb8 c247 b3bd
00000010: b083 f83b 727e 523d a15f 7b3d e367 98bd
00000020: c815 ef3a ce12 d2bd 9442 a6bd 4a1d 64bd
00000030: 31e7 3c3d cae3 88bd fcff cdbd d57f 053c
00000040: 200c 883d 6ac9 f03b a889 c9bd 6b13 3a3d
00000050: 9f64 6ebd 9888 513d 3c34 2d3c b4ca 0f3d
00000060: 0708 4cbb 3245 3c3d 53e1 8cbd 233f 24bd
00000070: 368e bfbd 38b8 343d 8a34 02bd 9629 9a3d
00000080: 30d0 4d3d 7d28 5b3b cbdd 6d3c 2214 b1bd
00000090: 747c 73bd 6431 a0bd e45d e23b ae37 a6bd
000000a0: a926 413c ba67 933d 81dd 82bb 62b1 a0bd
000000b0: e755 ba3c 0bd0 333d 7ff2 c0bd e96c dabd
000000c0: 918a ac3d 1249 5cbd f10c b9bd f946 8fbc
000000d0: 27a4 62bd a455 3ebd 633f 0bbe 5795 843d
000000e0: 3195 0a3d 0936 b9bd 45ab 9abd fe34 6b3d
000000f0: a0ee 783d 59f6 083d c427 3f3d 230b b43d
00000100: d50d 2e3b 80cd 0b3c a88e f53b 42db 79bd
00000110: 7978 a0bc 3d33 dbbd 176b ccbd faea ec3d
00000120: fe9d 53bd 312b 30bd f6ff 853c e0da eabd
00000130: b175 2fbd 187c 24bc fabe 063d 3eb9 113d
00000140: 711c c7bd 04d9 723d 4daa 81bd c98a 6cbd
00000150: af89 29be 831a a0bc bd4d aabd d11a a13c
00000160: c036 2b3c 2fe0 88bc 5087 0abd 1732 adbd
00000170: a96c 6e3c cd23 693d 5f72 83bc aa87 a6bd
00000180: 04c3 b03d abe2 323e bc0a 3f3d 5247 36bd
00000190: 657f 403b 1e29 f23d dcab 82bd 167e a5bb
000001a0: 2ab5 b93d 77a5 973c 574a 4b3c f663 e33d
000001b0: 62a5 b73d 095c db3d 3f45 ca3d b840 40bb
000001c0: 4c41 3f3d e150 8f3c ef43 a8bb 20d0 e13c
000001d0: 382c 9abb e3ff 2b3c 63fa b03c 97c0 dabc
000001e0: 248b 5f3d 776f a03d e6ea f93d dc0b 1dbd
000001f0: 4e0f f13d fce7 40bd 2857 c63b 8a8f abbc
00000200: 441d 3d3d b9a7 803d 7802 423d 482a cf3d
00000210: 2bb7 733d 2c20 e53c 9589 b63d cfec 1c3d
00000220: fa1a ac3d 59f8 953d 35f1 283b ee58 92ba
00000230: 4a44 3d3d 75c8 08bc 20ad 603c d459 b43c
00000240: e293 233d a63d 4c3d 9ee3 263d 8fd1 963d
00000250: 2692 b2bc 98b9 b93d 6dfa 153e dd61 f8bc
00000260: f6fe 8c3d bac0 08bd dca6 c23c 48ac 38bc
00000270: c76c 09bd 9bb5 98bd cb6a e23d 1144 853d
00000280: b87a 353e 0d72 a33d e850 db3d 3914 123e
00000290: 0e65 0fbd 93c6 9e3d 2d5e 263c 17b2 87be
000002a0: b422 8c3d 0075 09bd e066 793c 63bb ff3d
000002b0: 7d3f f63d e356 a53d 0d2d d83d fbe3 443d
000002c0: 652b b7bc 0474 023e 6c2e 703d d7aa a33d
000002d0: ecd3 663e 6616 73bc 5277 d03d 5036 28bc
000002e0: 7860 9c3d 2ad5 a93d a826 d63d d06d ac3d
000002f0: 7909 013b 51de 283d 9e23 063d 66dd c73c
00000300: eae2 b7bd 2bde fe3c b185 59bd 6e8a 34bd
00000310: 3a32 1fbd 5d23 6cbd 4a5f 183d 44e9 87bc
00000320: 20d0 e9bc 63a9 a33d 8bb2 153d 74f3 5abc
00000330: d336 7e3d df76 5abc dc47 c9bd e688 27bd
00000340: bfb0 4d3d cda3 903d 78fc 3e3d 6582 86bd
00000350: 7fd6 3fbd 9dd3 753d 49c0 9cbc b5b4 b9bd
00000360: 8524 f13c 42d7 91bd d5e2 fc3c a1c4 c0bd
00000370: 989e a13d d5e3 9b3d bb01 ad3d 9b5f 82bd
00000380: 261d c7bc 5293 303c 7b45 d3bc b7e1 56bd
00000390: e99d b33d a8b7 6bbd 3d49 3d3d 252d 8fbd
000003a0: 61d7 f33c ac69 7a3d dd87 8c3d 9990 a6bd
000003b0: aecc 8d3c 390b 2fbd a58d e43c 5d4e 55bc
000003c0: fc22 f43c 0795 2fbd 1685 d0bd bf39 d43d
000003d0: c7ed 8cbd d94b 8dbd b926 853d e724 efbb
000003e0: 8f60 a7bc c498 a53d 7d77 ba3d b053 95bb
000003f0: eed7 1a3d 43b1 df3a 01b8 963d 8a9c 133d

lstm1.weight_hh_l0 f4 [512, 128]
-0.07399096 0.17626335 0.08451322 0.07316916 0.037524916 -0.081179895 -0.0056425254 0.11521277
0.09243314 -0.050649643 -0.05975756 -0.030978683 -0.115359984 -0.112869374 -0.064282075 0.10443078
0.02752841 0.012650098 -0.07106209 0.047224425 0.040224724 0.2071992 -0.05582119 0.073296286
0.009818742 -0.019973911 0.049550235 0.010377227 -0.08652231 0.013226528 0.032391347 -0.030807
0.037656 -0.12971072 0.05964424 0.13563928 0.1646312 -0.11244176 0.031924352 0.14002308
-0.05987512 0.010313631 -0.007087568 -0.06964162 0.055407986 -0.010377111 -0.09805936 -0.14366747
-0.04493204 0.020501068 0.13192874 -0.05809227 0.012384995 -0.01632204 -0.07023684 -0.109400965
0.09939793 0.01646167 -0.032150827 -0.05889653 -0.0040932773 0.051219456 -0.08040367 -0.03352642
0.054132316 0.052356917 -0.07843241 0.018816037 0.06800369 2.1860349e-05 0.05222613 0.01004569
-0.036905453 -0.082785614 0.055093504 0.016579533 0.13884637 -0.14023669 -0.04061999 -0.030235479
-0.08077477 0.02100464 0.04629845 0.15635487 0.07833294 0.08952223 0.052163962 -0.019894756
0.13470393 0.07183405 0.064838864 -0.018850733 0.026170941 -0.030416738 -0.00746985 -0.007373465
0.015390378 0.039798323 0.060725078 -0.04905623 0.0759072 -0.038202938 -0.07371382 0.01891502
-0.0073517775 0.023345163 0.1379166 0.11643958 0.08449102 -0.052776054 -0.20484397 0.021732856
-0.078334115 0.1070027 0.007399982 0.034289956 -0.039378237 -0.07031415 0.023923997 0.057781216
0.112804726 -0.012569716 0.06268631 0.017748531 -0.039648615 0.0918868 -0.035148967 0.034264233
0.050921608 0.03728207 0.13293928 -0.040797375 -0.106953375 -0.014889146 -0.092440434 0.11083928
0.13989645 0.075743616 0.01918278 -0.06685879 0.028532071 -0.06918849 0.02448498 0.048981
-0.11302518 0.042267945 -0.09648668 0.08194766 -0.057774976 0.013508988 0.03508439 0.014596683
0.09838534 -0.030562788 0.099275246 -0.052581143 -0.03426162 -0.080911495 -0.05704337 0.17543676
0.10904207 -0.006337421 0.03372537 -0.030783297 0.0031458952 -0.07049445 0.011306159 -0.056860376
0.087204546 -0.02428102 0.054206084 0.11334104 0.067712806 0.041978657 0.038397864 0.032413542
0.068802856 0.03842078 0.010579882 -0.046047833 -0.05514954 0.022343565 -0.2521704 0.11260542
-0.009387682 0.032574475 -0.032258175 -0.011493112 -0.017399177 0.010270776 0.090364814 -0.017616741
-0.06573874 0.09011053 0.07417518 -0.009078808 -0.0037336273 -0.034754395 -0.10484122 -0.12033901
-0.0038335735 0.20146191 -0.04820066 0.06570259 -0.04124634 0.0071143676 -0.037492506 0.056956068
-0.035832047 -0.13502093 0.107506625 -0.031515054 0.0678435 0.11419579 -0.028332882 -0.0521021
0.02642776 -0.039909333 -0.03937712 0.0018565791 -0.16301571 -0.03429494 0.031300586 -0.02971424
-0.13976096 -0.06307049 -0.0063652843 -0.014373037 0.079965204 0.015521519 0.049385965 0.089147836
0.003662777 -0.06410798 0.006822638 -0.033219177 -0.038927186 0.12773018 -0.015980853 -0.008594063
0.18741116 -0.10805531 0.04229385 0.03865052 -0.013996653 0.043000273 0.051492468 0.0715973
0.035067823 0.07673797 0.04750117 0.054195996 -0.11207063 -0.013191611 0.09826053 0.04524904
00000000: 9388 97bd 617e 343e 4415 ad3d b6d9 953d
00000010: bab3 193d a541 a6bd efe4 b8bb acf4 eb3d
00000020: 964d bd3d 0076 4fbd 58c4 74bd 02c7 fdbc
00000030: db41 ecbd 0f28 e7bd 52a6 83bd cedf d53d
00000040: 4383 e13c 5b42 4f3c 0089 91bd 666e 413d
00000050: aec2 243d 072c 543e c3a4 64bd 5d1c 963d
00000060: cade 203c 54a0 a3bc 30f5 4a3d 3f05 2a3c
00000070: 9c32 b1bd 14b4 583c caac 043d f65e fcbc
00000080: 2e3d 1a3d e3d2 04be 854d 743d 06e5 0a3e
00000090: 1595 283e de47 e6bd 1cc3 023d 3662 0f3e
000000a0: 9d3f 75bd 81fa 283c d43e e8bb 44a0 8ebd
000000b0: 7cf3 623d c204 2abc 59d3 c8bd 911d 13be
000000c0: a90a 38bd dbf1 a73c 5418 073e 29f2 6dbd
000000d0: 6fea 4a3c cdb5 85bc 55d8 8fbd 9d0d e0bd
000000e0: 2491 cb3d a0da 863c 96b0 03bd 7d3d 71bd
000000f0: e620 86bb 7ecb 513d aeaa a4bd 0053 09bd
00000100: d9b9 5d3d 3574 563d 2ca1 a0bd 1724 9a3c
00000110: 8545 8b3d be60 b737 11eb 553d ae96 243c
00000120: 2c2a 17bd 818b a9bd baa9 613d cdd1 873c
00000130: be2d 0e3e 359a 0fbe 2661 26bd 65b0 f7bc
00000140: 3e6d a5bd ec11 ac3c 72a3 3d3d 7e1b 203e
00000150: 056d a03d 6e57 b73d e1a9 553d 54fa a2bc
00000160: d4ef 093e bb1d 933d 3dca 843d da6c 9abc
00000170: 7164 d63c 862c f9bc a5c5 f4bb 1c9d f1bb
00000180: ed27 7c3c 9103 233d dcba 783d 2fef 48bd
00000190: 3c75 9b3d af7a 1cbd 45f7 96bd acf3 9a3c
000001a0: 2ee7 f0bb 5b3e bf3c 023a 0d3e e077 ee3d
000001b0: a109 ad3d b42b 58bd 9ec2 51be 1a09 b23c
000001c0: a36d a0bd 3b24 db3d 8c7b f23b a073 0c3d
000001d0: 134b 21bd dd00 90bd 42fc c33c ffab 6c3d
000001e0: 2a06 e73d 36f1 4dbc ae61 803d 5e65 913c
000001f0: 9666 22bd 262f bc3d 5df8 0fbd a758 0c3d
00000200: 2d93 503d 15b5 183d 3c21 083e 261b 27bd
00000210: 5f0a dbbd 9bf1 73bc 6951 bdbd b4ff e23d
00000220: 0441 0f3e 781f 9b3d 3525 9d3c 43ed 88bd
00000230: 17bc e93c b2b2 8dbd ba94 c83c 4da0 483d
00000240: bf79 e7bd 2721 2d3d cf9a c5bd 2dd4 a73d
00000250: 74a5 6cbd cd54 5d3c a6b4 0f3d ed26 6f3c
00000260: 417e c93d d05e fabc d250 cb3d 535f 57bd
00000270: ea55 0cbd edb4 a5bd 4fa6 69bd b2a5 333e
00000280: 7351 df3d 24aa cfbb 9d23 0a3d 412d fcbc
00000290: 5d2b 4e3b 655f 90bd 783d 393c 6de6 68bd
000002a0: 4c98 b23d fde8 c6bc 3307 5e3d 591f e83d
000002b0: 03ad 8a3d d0f1 2b3d 1447 1d3d 10c4 043d
000002c0: 83e8 8c3d 1c5f 1d3d 3e57 2d3c a79c 3cbd
000002d0: 7ce4 61bd da09 b73c 7b1c 81be ac9d e63d
000002e0: cbce 19bc d06c 053d 2621 04bd 9b4d 3cbc
000002f0: b888 8ebc c246 283c 3011 b93d fc50 90bc
00000300: 08a2 86bd df8b b83d 28e9 973d 48bf 14bc
00000310: dfaf 74bb a05a 0ebd feb6 d6bd 4d74 f6bd
00000320: b13c 7bbb 084c 4e3e 0e6e 45bd 148f 863d
00000330: ecf1 28bd a41f e93b be91 19bd c44a 693d
00000340: a0c4 12bd ed42 0abe 6f2c dc3d ee15 01bd
00000350: 88f1 8a3d 7bdf e93d 5c1a e8bc 0369 55bd
00000360: 087f d83c f877 23bd e749 21bd 7558 f33a
00000370: 97ed 26be da78 0cbd 0b35 003d 476b f3bc
00000380: 7f1d 0fbe 1a2b 81bd e093 d0bb e37c 6bbc
00000390: ccc4 a33d f84d 7e3c f048 4a3d 2493 b63d
000003a0: 330b 703b 0b4b 83bd 7090 df3b d510 08bd
000003b0: 1d72 1fbd b3cb 023e 47ea 82bc 1dce 0cbc
000003c0: b6e8 3f3e 1a4c ddbd 513c 2d3d 0250 1e3d
000003d0: 3852 65bc 0e21 303d c4e9 523d 9ba1 923d
000003e0: 47a3 0f3d cc28 9d3d 9690 423d 9ffc 5d3d
000003f0: 4985 e5bd a021 58bc d13c c93d 0f57 393d

lstm1.bias_ih_l0 f4 [512]
-0.063150354 0.13445349 0.02381072 -0.07026641 -0.12520157 -0.087295316 0.064086296 -0.023552958
0.021235686 -0.004593273 0.09884534 -0.057267655 -0.03666968 0.0020722668 -0.01785091 0.050465573
0.20030813 -0.03879333 -0.19031104 0.18404122 0.013216071 -0.07907481 0.02965772 0.072536536
0.020572351 -0.09696888 0.07619255 0.042908948 -0.062209543 -0.0014247617 0.039943337 0.049374785
-0.028010601 0.04142554 0.0045588985 0.09273628 0.024824278 0.014502196 0.082218006 -0.088158935
-0.096942976 -0.02752331 -0.13043056 -0.03219831 0.08692245 0.026131503 -0.008711125 -0.10393592
-0.20057061 -0.09902335 0.10122889 -0.10522826 0.13327152 -0.004592002 0.13777842 -0.19558872
0.12415549 0.12735106 -0.07738189 -0.095483534 -0.059268598 -0.15951447 -0.0007537507 -0.03471458
-0.040869966 0.06229508 -0.020227324 0.08727528 -0.022485118 0.039087012 0.013736279 -0.0546446
-0.042872835 0.055017516 0.0055866134 -0.012061109 0.011242086 0.047370944 0.017874394 -0.0051990324
-0.05756028 0.042627197 0.03007496 0.016921911 -0.055728056 0.024207022 -0.09071221 0.17538999
0.011567551 0.038345058 0.0932872 -0.043706637 0.03398866 0.13140991 0.053191606 -0.029766325
-0.06270901 0.0153514035 0.065539494 0.112809084 -0.10469581 -0.023913309 0.10049875 0.061160218
-0.0107863005 -0.0042041196 -0.005389919 0.10222351 -0.13842234 -0.0025433463 0.0016415778 -0.010206502
0.06403756 0.108665615 -0.09258219 0.027429415 0.08367588 -0.0067995396 -0.14003208 0.045473345
0.11337567 0.061193775 -0.077921785 -0.1288323 0.14266337 -0.04207221 0.061094996 -0.082420565
-0.08445052 -0.033138882 0.049483895 -0.019923408 -0.14923559 0.037068643 0.0384817 -0.051174324
0.12969038 0.16896783 0.041429378 0.014116611 0.03145127 -0.09460216 0.053473596 0.03595496
0.11413321 -0.050951127 -0.0656787 0.087505355 0.033280425 -0.16361624 0.037149604 0.067965366
0.059101447 0.006818234 0.07541062 -0.10274399 -0.046311192 0.014347103 0.039216578 0.06497986
-0.07585166 0.15814029 0.15646419 0.102690846 -0.13498856 0.011836807 -0.12077558 -0.0415345
-0.043487966 -0.036858607 0.0091757225 -0.14929052 0.028533436 0.041689377 0.10220534 -0.037911817
-0.16208526 -0.06386541 -0.16282356 -0.14900503 -0.116893314 -0.058900308 0.08788979 -0.046885543
0.20123474 0.010866935 -0.06151734 -0.08939487 -0.099061064 -0.02066665 -0.09836516 -0.07535516
-0.17338724 0.19046775 0.0030796782 0.07308376 -0.15072002 0.009700435 0.12770027 -0.055000894
-0.08576643 0.07221934 -0.08697839 0.07279197 0.02094026 -0.013079234 -0.002209484 -0.04025416
-0.092658974 0.1465894 0.0064075175 -0.0152743375 0.06941764 0.10242077 -0.113225535 -0.08350967
-0.0678512 -0.06673624 0.04949703 -0.030884886 0.107884616 0.123130165 0.016326891 0.04030054
-0.14556338 -0.013269956 -0.013799834 0.032317255 -0.040964253 0.120104276 0.030576706 0.069916055
0.12783605 0.06980834 -0.13860603 0.08817699 -0.0564181 0.15868366 -0.025476197 -0.029166069
0.013206621 0.10389187 -0.042852327 0.061078336 0.023547012 -0.037297707 -0.16815035 -0.04559131
0.01685896 0.19472623 0.06107502 0.0111704385 0.094003975 -0.070480056 0.010534297 -0.014626053
00000000: f954 81bd 2dae 093e b30e c33c d6e7 8fbd
00000010: d734 00be e3c7 b2bd ad3f 833d 22f2 c0bc
00000020: 76f6 ad3c 2b83 96bb 6d6f ca3d 7d91 6abd
00000030: f232 16bd dece 073b 123c 92bc fdb4 4e3d
00000040: 931d 4d3e c1e5 1ebd e6e0 42be 4d75 3c3e
00000050: 3888 583c f9f1 a1bd bff4 f23c 098e 943d
00000060: 5987 a83c 9f97 c6bd d70a 9c3d 4bc1 2f3d
00000070: 6fcf 7ebd 12bf baba a09b 233d 373d 4a3d
00000080: 7d76 e5bc d4ad 293d d062 953b 85ec bd3d
00000090: 495c cb3c 9e9a 6d3c ea61 a83d ac8c b4bd
000000a0: 0a8a c6bd 9178 e1bc 978f 05be 60e2 03bd
000000b0: 6604 b23d bc11 d63c 1bb9 0ebc 5bdc d4bd
000000c0: 6262 4dbe c1cc cabd 1851 cf3d ea81 d7bd
000000d0: 5478 083e 8178 96bb c915 0d3e 6948 48be
000000e0: 3c45 fe3d 5168 023e 657a 9ebd df8c c3bd
000000f0: a1c3 72bd c357 23be 5a97 45ba e030 0ebd
00000100: 4467 27bd 2029 7f3d c6b3 a5bc 62bd b23d
00000110: b632 b8bc b419 203d 210e 613c 04d3 5fbd
00000120: 6d9b 2fbd 0c5a 613d e90f b73b f59b 45bc
00000130: ba30 383c 0908 423d 526d 923c a55c aabb
00000140: 54c4 6bbd db99 2e3d c35f f63c d29f 8a3c
00000150: 1a43 64bd ce4d c63c 53c7 b9bd 6f99 333e
00000160: d385 3d3c b50f 1d3d 5c0d bf3d bb05 33bd
00000170: b137 0b3d 5290 063e 71df 593d 82d8 f3bc
00000180: 956d 80bd 7484 7b3c 9239 863d 7308 e73d
00000190: c26a d6bd d8e5 c3bc 4ad2 cd3d 2383 7a3d
000001a0: 06b9 30bc b6c2 89bb eb9d b0bb 8f5a d13d
000001b0: 96be 0dbe 45ae 26bb 362a d73a 2c39 27bc
000001c0: 2026 833d 148c de3d bb9b bdbd a7b3 e03c
000001d0: 435e ab3d acce debb 9264 0fbe 4242 3a3d
000001e0: 8131 e83d 53a6 7a3d 7595 9fbd 9dec 03be
000001f0: 5916 123e e953 2cbd bf3e 7a3d 1dcc a8bd
00000200: 65f4 acbd a3bc 07bd a0af 4a3d 6a36 a3bc
00000210: 37d1 18be 4ad5 173d fd9e 1d3d 2b9c 51bd
00000220: 8ecd 043e e705 2d3e dab1 293d 5c49 673c
00000230: 0cd3 003d c7be c1bd 2107 5b3d 8245 133d
00000240: acbe e93d 21b2 50bd 8e82 86bd 0236 b33d
00000250: 0e51 083d 048b 27be 2f2a 183d 6d31 8b3d
00000260: 5c14 723d 7e6b df3b e270 9a3d 716b d2bd
00000270: ceb0 3dbd 1d10 6b3c 90a1 203d 2914 853d
00000280: 1d58 9bbd 87ef 213e 2638 203e 944f d23d
00000290: 713a 0abe 2bef 413c 3059 f7bd 1420 2abd
000002a0: 7020 32bd 0df9 16bd c555 163c 9ddf 18be
000002b0: f4be e93c 7bc2 2a3d 0951 d13d 6c49 1bbd
000002c0: aef9 25be decb 82bd 38bb 26be c694 18be
000002d0: c365 efbd 7341 71bd 90ff b33d 0e0b 40bd
000002e0: 7b10 4e3e 3b0b 323c 9bf9 7bbd a814 b7bd
000002f0: 87e0 cabd 1b4d a9bc ac73 c9bd ce53 9abd
00000300: 6d8c 31be fa09 433e 6dd4 493b f0ac 953d
00000310: 5956 1abe 93ee 1e3c dcc3 023e 9e48 61bd
00000320: 4fa6 afbd bce7 933d ba21 b2bd f513 953d
00000330: e88a ab3c 494a 56bc fecc 10bb 8ce1 24bd
00000340: fdc3 bdbd 881b 163e 27f6 d13b 3741 7abc
00000350: d62a 8e3d fbc1 d13d cae2 e7bd 1e07 abbd
00000360: 92f5 8abd 03ad 88bd 66bd 4a3d 4d02 fdbc
00000370: 9cf2 dc3d ab2b fc3d f9bf 853c 2e12 253d
00000380: 910e 15be 3b6a 59bc b318 62bc 195f 043d
00000390: 22ca 27bd 3bf9 f53d 007c fa3c 2630 8f3d
000003a0: 74e7 023e adf7 8e3d bdee 0dbe 2396 b43d
000003b0: aa16 67bd f87d 223e 75b3 d0bc aeed eebc
000003c0: 9560 583c 43c5 d43d ec85 2fbd 472d 7a3d
000003d0: aae5 c03c 7bc5 18bd 9b2f 2cbe f4bd 3abd
000003e0: cd1b 8a3c 5066 473e cd29 7a3d 3704 373c
000003f0: 2885 c03d d957 90bd 0b98 2c3c 1da2 6fbc

lstm1.bias_hh_l0 f4 [512]
0.096341625 -0.0013575866 0.1308405 0.054609135 0.025035122 0.041607976 0.03980212 -0.014029202
-0.030401023 0.104435 -0.034925267 -0.032609753 -0.08675846 -0.13567898 -0.0013146974 0.01690341
0.08931008 -0.14580491 -0.1652599 0.16754456 0.00027309312 -0.1411466 0.05045243 0.14469214
-0.09416757 0.010416236 0.0652422 -0.055362005 0.045626145 -0.0038222321 -0.041602187 0.065683596
-0.16083226 0.10216756 0.045643263 0.08061542 0.06142252 -0.0257886 0.0004732404 0.06058672
-0.18814157 -0.07337551 -0.0838524 -0.11136006 -0.004463874 0.13398881 -0.04636206 0.029289855
-0.18340793 -0.03648556 0.09542327 -0.09618996 0.118864365 -0.15636843 0.12972157 -0.16141473
0.061044715 0.06968733 -0.061098438 -0.034848798 -0.13804892 -0.027752658 -0.015475713 -0.019634388
-0.12744519 0.1545364 -0.015222637 0.02192641 -0.037052646 0.057761252 -0.0093023805 -0.1515794
-0.016959582 0.1303039 -0.005203827 0.106493235 0.101480596 -0.015973575 0.02573235 0.026072867
0.015048003 -0.037825104 0.011556455 0.005528367 0.024549736 0.082983874 -0.07978784 0.2089175
-0.027433818 -0.04608905 0.1432196 -0.08156124 0.17635788 0.102819294 0.08708591 -0.04531422
-0.030867264 0.061803274 0.028434452 0.12570712 -0.074044004 0.044383522 0.09255697 0.12434964
0.0018296507 -0.019253675 -0.060232263 -0.03649133 -0.1919797 0.1671645 0.10052912 0.046018697
0.08935419 0.10999801 0.029539725 0.02041748 -0.017638078 0.08626669 -0.11190646 -0.026013609
0.09521245 0.05253872 -0.044073667 -0.021918396 0.12942378 -0.17305532 0.06461851 -0.033351228
-0.12696029 0.06714726 0.10978318 -0.0043630456 -0.014777972 0.0582062 0.11891496 0.05693231
-0.007973203 0.14583391 -0.005083037 0.012082846 -0.032552682 0.015870381 -0.009740772 -0.06918122
0.08554897 -0.10577298 -0.075962424 0.16359352 0.07178443 -0.07323674 0.057672624 0.06560988
0.01229919 -0.021229438 -0.012040854 0.002655444 -0.1169933 -0.086007774 -0.053790666 0.18675248
-0.041176233 0.119692795 0.024851184 0.059761655 -0.06875966 -0.037615895 -0.076230414 0.05416611
-0.08737627 -0.1154818 -0.055833977 -0.09424655 0.047561616 0.16663589 0.0889967 0.01735476
-0.1642406 -0.04042606 -0.05531368 0.0059210495 -0.035044234 -0.12407004 0.12651652 -0.10857513
0.10127954 0.10436252 0.0368382 0.044544667 -0.07197797 -0.17666218 0.00705946 -0.08818096
-0.17662756 0.09875965 -0.13247031 0.19330195 -0.13289315 -0.009096496 0.2287938 -0.20252453
-0.06673952 0.13134146 -0.027482433 0.13381866 -0.06810937 -0.029229715 0.03747425 0.039579473
0.008351352 0.13782133 -0.07710477 -0.12539579 0.0951484 0.07399519 -0.16024046 0.014423424
-0.10709411 0.0643788 0.014833573 0.033789348 0.16922279 0.038943958 0.017406516 -0.028295122
-0.06652573 0.0052807964 -0.025253376 0.08191612 -0.018086148 0.014293057 -0.03864927 0.043167334
0.16709477 0.033776525 -0.08094923 0.09523637 -0.07649518 0.09530064 -0.0117232185 -0.049922146
0.14245956 0.104610555 -0.03706625 0.014011758 -0.01150907 -0.020189838 -0.15360579 -0.074527495
0.07208872 0.07441994 0.036347453 -0.017682996 0.14619847 -0.08024818 -0.07727058 -0.0993647
00000000: c24e c53d 0cf1 b1ba 0dfb 053e d4ad 5f3d
00000010: 7516 cd3c 206d 2a3d 8c07 233d bdda 65bc
00000020: 910b f9bc 04e2 d53d cc0d 0fbd ce91 05bd
00000030: 6bae b1bd 6eef 0abe ed51 acba 0579 8a3c
00000040: 34e8 b63d e24d 15be e439 29be cd90 2b3e
00000050: f02d 8f39 bc88 10be 35a7 4e3d 2d2a 143e
00000060: edda c0bd dca8 2a3c b49d 853d 45c3 62bd
00000070: 7be2 3a3d 6a7e 7abb 0e67 2abd 1f85 863d
00000080: 36b1 24be 3a3d d13d 6ef4 3a3d b319 a53d
00000090: 2e96 7b3d 9d42 d3bc 401d f839 c829 783d
000000a0: 2fa8 40be e645 96bd cfba abbd be10 e4bd
000000b0: b045 92bb 5d34 093e 25e6 3dbd 47f1 ef3c
000000c0: 4acf 3bbe e271 15bd 466d c33d 3eff c4bd
000000d0: 296f f33d 0c1f 20be bbd5 043e e749 25be
000000e0: 060a 7a3d 3bb8 8e3d 5b42 7abd 9dbd 0ebd
000000f0: b25c 0dbe 8b59 e3bc d88d 7dbc 4cd8 a0bc
00000100: fe80 02be ca3e 1e3e 5e68 79bc 049f b33c
00000110: 84c4 17bd 1097 6c3d 0369 18bc a137 1bbe
00000120: d2ee 8abc 636e 053e dd84 aabb 2019 da3d
00000130: 0fd5 cf3d 04db 82bc a6cc d23c c496 d53c
00000140: e68b 763c 7fee 1abd 4957 3d3c 4e27 b53b
00000150: 871c c93c 73f3 a93d cf67 a3bd 78ee 553e
00000160: e3bc e0bc dfc7 3cbd 29a8 123e 9409 a7bd
00000170: 2997 343e ec92 d23d 195a b23d 679b 39bd
00000180: 58dd fcbc 6e25 7d3d 5eef e83c 5eb9 003e
00000190: 62a4 97bd 7fcb 353d 828e bd3d 06ab fe3d
000001a0: e4d0 ef3a e2b9 9dbc 1bb6 76bd ef77 15bd
000001b0: 5496 44be 2c2d 2b3e 36e2 cd3d 1a7e 3c3d
000001c0: 54ff b63d a346 e13d 4bfd f13c 8f42 a73c
000001d0: bb7d 90bc 97ac b03d 372f e5bd 7e1a d5bc
000001e0: bffe c23d d732 573d 9786 34bd 358e b3bc
000001f0: ab87 043e 6a35 31be b656 843d 4c9b 08bd
00000200: e101 02be 8184 893d 01d6 e03d e1f7 8ebb
00000210: 4f1f 72bc a069 6e3d b089 f33d db31 693d
00000220: 0aa2 02bc 7c55 153e 9b8f a6bb 21f7 453c
00000230: f655 05bd 9a02 823c c297 1fbc e2ae 8dbd
00000240: 4c34 af3d 819f d8bd 3092 9bbd 0f85 273e
00000250: b703 933d 25fd 95bd 213a 6c3d 795e 863d
00000260: 8b82 493c 5ce9 adbc 0147 45bc f506 2e3b
00000270: 2f9a efbd d824 b0bd 9a53 5cbd 0b3c 3f3e
00000280: 69a8 28bd 7f21 f53d b694 cb3c a3c8 743d
00000290: ddd1 8cbd 2013 1abd b11e 9cbd 48dd 5d3d
000002a0: 54f2 b2bd b981 ecbd 2bb2 64bd 5604 c1bd
000002b0: f8cf 423d 99a2 2a3e e743 b63d 922b 8e3c
000002c0: b02e 28be cc95 25bd 9990 62bd 5d05 c23b
000002d0: 8b8a 0fbd 6f18 febd 8c8d 013e a35c debd
000002e0: a66b cf3d 04bc d53d a7e3 163d 7874 363d
000002f0: 3069 93bd eee6 34be 0b53 e73b 3898 b4bd
00000300: dbdd 34be 8042 ca3d 4ca6 07be f2f0 453e
00000310: 2415 08be 7809 15bc ec48 6a3e 9762 4fbe
00000320: bbae 88bd 607e 063e d722 e1bc c207 093e
00000330: ed7c 8bbd 2873 efbc 997e 193d 161e 223d
00000340: 1cd4 083c 0921 0d3e 1be9 9dbd c167 00be
00000350: 2add c23d ca8a 973d 1316 24be 3a50 6c3c
00000360: 2854 dbbd 08d9 833d 8408 733c b366 0a3d
00000370: bd48 2d3e b383 1f3d 1c98 8e3c 2ccb e7bc
00000380: a43e 88bd 880a ad3b 2be0 cebc a4c3 a73d
00000390: 6729 94bc 6d2d 6a3c b24e 1ebd 3bd0 303d
000003a0: e41a 2b3e 4159 0a3d b6c8 a5bd 490b c33d
000003b0: 81a9 9cbd fb2c c33d be12 40bc 2a7b 4cbd
000003c0: ebe0 113e 0f3e d63d c8d2 17bd 9391 653c
000003d0: 8a90 3cbc 2965 a5bc d64a 1dbe dfa1 98bd
000003e0: 40a3 933d 7b69 983d 11e1 143d eedb 90bc
000003f0: 0db5 153e 2859 a4bd 0a40 9ebd b87f cbbd

lstm2.weight_ih_l0 f4 [128, 128]
0.05724369 -0.19895889 -0.14849037 0.16432016 0.14513426 -0.13954923 0.065054655 -0.13196696
-0.14124537 0.040242933 -0.14445151 0.15884314 0.105564445 -0.14249681 0.06605735 -0.0017574028
0.25070143 -0.016332224 -0.12115468 -0.11768192 -0.031583168 0.21085685 0.22114311 0.22422224
-0.06867753 0.032710433 -0.18688688 0.15923418 0.022017404 0.13652794 0.021723608 -0.1579564
0.12848717 -0.05940542 -0.104903065 -0.022003684 0.07021925 -0.011835802 0.32879114 -0.04724613
0.1569719 -0.04893462 -0.17661253 0.1472328 -0.18664221 0.08022547 -0.114239134 0.17444016
-0.094362475 -0.1906043 -0.038092323 0.0923451 0.3347706 -0.035382688 0.24810909 -0.0048684794
-0.2220127 0.0951738 -0.027442645 0.028197711 -0.14281939 0.18984175 -0.023594823 -0.010598422
-0.087194905 -0.14265211 -0.19511387 0.21627851 0.18623286 0.034209717 0.28441226 -0.041553475
0.07257939 -0.22214486 0.0011676409 0.008959239 -0.034858633 0.18523419 0.033603348 -0.14158581
-0.1341043 0.23837884 -0.11717614 -0.15267447 0.042836536 0.10235828 -0.06916035 0.1248559
0.0071589034 -0.09534503 -0.14889929 0.059067786 0.016107338 0.023694845 -0.12245054 -0.0682269
0.18268186 -0.030487077 0.13100132 -0.19011304 0.06700015 0.15887369 -0.16236797 -0.22211115
0.19723023 -0.013333159 0.14621925 -0.05426963 0.13957986 -0.19373113 -0.061882764 0.12430915
-0.045499302 0.08826102 0.006346745 0.020643037 -0.18232267 -0.06475887 0.13292946 0.06551139
-0.089803964 -0.25384378 -0.06646465 -0.19712833 0.007718821 -0.10442158 -0.023399955 0.16331428
0.06848077 0.2094793 -0.047425214 -0.27640197 0.3134575 0.1952267 0.11667712 -0.11387315
-0.051106855 0.015299604 0.20214249 0.03379734 -0.05234821 0.3044432 0.08221685 -0.19789514
0.033089228 0.0063469023 0.17495725 -0.0037187452 0.076765075 -0.18768546 -0.15458563 0.007575892
-0.007142312 0.022377307 -0.11433485 -0.035559054 -0.16512536 0.14320597 0.25913614 0.06416998
0.095791034 -0.12143352 -0.08982663 -0.16403426 -0.13885851 0.15072222 0.07048177 -0.28461263
0.00045431964 -0.009357514 0.089323364 0.42905533 -0.066834874 -0.10776693 0.14230144 0.085325025
-0.05618205 -0.07180184 0.14315628 0.2084015 0.13925551 0.17963004 0.07832621 -0.017541494
0.014247061 0.18839702 0.16644016 0.040201575 0.0016975325 -0.17487893 0.11021574 -0.19554552
-0.047488883 -0.1109076 0.054439843 -0.06235292 -0.2630541 0.12327276 -0.02816464 -0.100714214
-0.026700944 -0.058039542 -0.07120065 0.23962326 -0.27532035 0.24576016 -0.053751655 0.056243293
0.023444613 -0.057277992 0.15799773 -0.1367196 -0.286553 -0.04705186 -0.043200817 -0.06115594
-0.32834783 -0.062580384 -0.08589192 -0.12644765 -0.11546646 0.24850234 -0.28451717 -0.05698888
-0.059416987 -0.08789537 -0.06170627 0.09366526 -0.2102111 -0.24505015 -0.1193888 -0.06497581
0.1216235 -0.04403927 -0.09523507 -0.08743429 0.058042746 0.17103262 0.18806164 0.028140647
-0.10339773 -0.11609983 0.19814809 -0.08848828 -0.041253008 -0.15734525 -0.274916 0.010992775
0.038929354 0.009470898 0.16221802 0.21081614 -0.01914086 0.061441783 0.2708472 -0.051404964
00000000: 5c78 6a3d e1bb 4bbe dc0d 18be 8b43 283e
00000010: 139e 143e fee5 0ebe 603b 853d 5922 07be
00000020: a0a2 10be c6d5 243d 19eb 13be c7a7 223e
00000030: 2c32 d83d afea 11be 1349 873d a758 e6ba
00000040: f05b 803e 28cb 85bc f21f f8bd 3803 f1bd
00000050: 5a5d 01bd dcea 573e 5773 623e 849a 653e
00000060: cea6 8cbd 60fb 053d 465f 3fbe 490e 233e
00000070: d85d b43c fbcd 0b3e b5f5 b13c 53bf 21be
00000080: 2492 033e 1953 73bd 6bd7 d6bd 1241 b4bc
00000090: 1ccf 8f3d f4ea 41bc 5057 a83e 2885 41bd
000000a0: 3ebd 203e ab6f 48bd ead9 34be 32c4 163e
000000b0: 231f 3fbe 404d a43d 35f6 e9bd 71a0 323e
000000c0: 1d41 c1bd c62d 43be b206 1cbd 6e1f bd3d
000000d0: 0d67 ab3e 70ed 10bd 4f10 7e3e c487 9fbb
000000e0: 4c57 63be 7bea c23d 66cf e0bc e3fe e63c
000000f0: 3f3f 12be e065 423e ee49 c1bc 01a5 2dbc
00000100: 3e93 b2bd 6513 12be eecb 47be 1d78 5d3e
00000110: d4b3 3e3e 7d1f 0c3d 7c9e 913e fa33 2abd
00000120: 81a4 943d f179 63be 870b 993a c6c9 123c
00000130: edc7 0ebd 08ae 3d3e aaa3 093d dffb 10be
00000140: a352 09be 9519 743e 0bfa efbd b256 1cbe
00000150: 5d75 2f3d 38a1 d13d f1a3 8dbd 73b4 ff3d
00000160: 3c95 ea3b 4144 c3bd 0e79 18be 10f1 713d
00000170: 89f3 833c b11b c23c 59c7 fabd 8cba 8bbd
00000180: f410 3b3e 09c0 f9bc 3625 063e feac 42be
00000190: 6037 893d c9af 223e ca43 26be 1b71 63be
000001a0: b9f6 493e 5273 5abc 80ba 153e d549 5ebd
000001b0: 06ee 0e3e 7461 46be c878 7dbd cc95 fe3d
000001c0: 7a5d 3abd 32c2 b43d 5bf8 cf3b 961b a93c
000001d0: cbb2 3abe 4ca0 84bd a91e 083e d62a 863d
000001e0: 24eb b7bd d0f7 81be 9e1e 88bd 02dc 49be
000001f0: 2aee fc3b fbda d5bd 43b1 bfbc dc3b 273e
00000200: a53f 8c3d be81 563e f140 42bd 8f84 8dbe
00000210: 807d a03e 82e9 473e 6af4 ee3d 5336 e9bd
00000220: 6c55 51bd 31ab 7a3c 71fe 4e3e 146f 0a3d
00000230: 146b 56bd fbdf 9b3e 4f61 a83d 06a5 4abe
00000240: 9288 073d adf9 cf3b fe27 333e 31b6 73bb
00000250: 0237 9d3d 9e30 40be b24b 1ebe 303f f83b
00000260: 0e0a eabb 9d50 b73c 6428 eabd 5fa6 11bd
00000270: 9f16 29be 96a4 123e 7ead 843e 8d6b 833d
00000280: 172e c43d 23b2 f8bd 06f7 b7bd 99f8 27be
00000290: ed30 0ebe ed56 1a3e bf58 903d bfb8 91be
000002a0: c031 ee39 4250 19bc 2bef b63d 24ad db3e
000002b0: b9e0 88bd e8b4 dcbd 78b7 113e e3be ae3d
000002c0: 261f 66bd d80c 93bd 8f97 123e 3467 553e
000002d0: ff98 0e3e f0f0 373e 7e69 a03d 2eb3 8fbc
000002e0: 816c 693c 26eb 403e 4a6f 2a3e 68aa 243d
000002f0: bd7f de3a 7613 33be cab8 e13d 163d 48be
00000300: b483 42bd 8623 e3bd 50fc 5e3d c765 7fbd
00000310: 07af 86be 6e76 fc3d 88b9 e6bc 4143 cebd
00000320: f0bb dabc dfba 6dbd a5d1 91bd cd5f 753e
00000330: caf6 8cbe 8da8 7b3e b22a 5cbd 5e5f 663d
00000340: eb0e c03c 549c 6abd 28ca 213e 3900 0cbe
00000350: 13b7 92be 73b9 40bd 57f3 30bd a77e 7abd
00000360: 351d a8be 252a 80bd 1ae8 afbd 7e7b 01be
00000370: ae79 ecbd 6677 7e3e 3cac 91be 2c6d 69bd
00000380: 3a5f 73bd 7d02 b4bd b7bf 7cbd 92d3 bf3d
00000390: 9441 57be 6dee 7abe 1d82 f4bd 0a12 85bd
000003a0: be15 f93d 8662 34bd 9b0a c3bd c010 b3bd
000003b0: 3bbe 6d3d 2d23 2f3e 3b93 403e 3787 e63c
000003c0: 30c2 d3bd bfc5 edbd 55e7 4a3e 5839 b5bd
000003d0: eaf8 28bd 1d1f 21be cac1 8cbe 0a1b 343c
000003e0: 6374 1f3d d32b 1b3c 7b1c 263e 30e0 573e
000003f0: 4bcd 9cbc 61aa 7b3d 7cac 8a3e 038e 52bd
