model/models/30m/trained_model.pt (torch, 666885 bytes, 17 tensors)

conv1.weight f4 [48, 5, 5]
0	0x3e1fc06d	0.15600748
1	0x3d9a0857	0.07521122
2	0x3d654818	0.055976957
3	0xbd81bf56	-0.063353226
4	0x3e57e372	0.21082857
5	0x3e43dcd7	0.19127212
6	0xbd0d9778	-0.03456828
7	0x3e370673	0.17873554
8	0x3d4e63a7	0.050388005
9	0x3c7def98	0.015499018
10	0xbd5377fd	-0.0516281
11	0x3d7022e6	0.05862703
12	0x3cf034f4	0.029322125
13	0x3df04ba1	0.11733175
14	0x3dbed951	0.093187936
15	0x3e003f45	0.12524135
16	0xbc5a87ce	-0.013338042
17	0x3d49658a	0.0491691
18	0xbc738820	-0.014863998
19	0x3e2f6b32	0.17130736
20	0xbd93b4bc	-0.07212207
21	0xbe5449a7	-0.20731221
22	0xbe35f7bc	-0.17770284
23	0x3dd2f789	0.1030112
24	0x3e2329e5	0.1593395
25	0xbda178f3	-0.07884397
26	0x3e00a26b	0.12561958
27	0x3e44b075	0.19207938
28	0xbdc33416	-0.09531419
29	0xbe190c9f	-0.14946221
30	0x3d9d9a6c	0.07695469
31	0xbe2abbb9	-0.16673173
32	0xbdf7701a	-0.120819286
33	0xbd2ce047	-0.042206075
34	0xbe58d6d1	-0.21175696
35	0x3dbd4e64	0.092434675
36	0x3e0e327e	0.13886449
37	0x3d8b427f	0.067997925
38	0xbdd31742	-0.103071705
39	0xbe37143a	-0.1787881
40	0x3d2cc53c	0.042180285
41	0x3e0d11b9	0.13776292
42	0x3e47b143	0.19501214
43	0x3e6f523b	0.23371212
44	0xbe0ef2c4	-0.13959795
45	0xbd200c0d	-0.039073993
46	0xbdfdbc13	-0.12389388
47	0x3e02e94f	0.12784313
48	0x3ec42ea9	0.3831685
49	0xbeaa78be	-0.33295244
50	0x3cbc88fd	0.02301454
51	0xbe43160f	-0.19051383
52	0xbdfb8f84	-0.12283233
53	0xbd49f398	-0.049304575
54	0xbe216894	-0.1576255
55	0xbe3ffb7f	-0.18748282
56	0xbddce6e0	-0.107862234
57	0xbc1c5a30	-0.009542987
58	0xba89bb3f	-0.0010508074
59	0x3d5d712a	0.054063
60	0x3de01a13	0.10942473
61	0xbdd569d5	-0.104205765
62	0xbe681684	-0.22664839
63	0xbe1a5ccd	-0.15074463
64	0xbd19386d	-0.037407327
65	0xbd147270	-0.03624195
66	0xbd0f9ce6	-0.03506174
67	0x3dd650ac	0.10464606
68	0xbca834bf	-0.020532964
69	0xbd29e4a2	-0.041477807
70	0xbdcc5afd	-0.09978292
71	0xbd6115fa	-0.0549526
72	0x3d6320c3	0.055451166
73	0xbd13d097	-0.0360876
74	0xbe5570da	-0.2084383
75	0xbd280c24	-0.041027203
76	0xbdaee20b	-0.08539208
77	0xbe18c7b8	-0.14919937
78	0x3d709726	0.058737896
79	0x3e4f4c81	0.20244028
80	0xbdc7a820	-0.09748864
81	0xbde420f9	-0.111391015
82	0xbd18e4b8	-0.0373275
83	0x3bf28220	0.007400766
84	0x3e9a82cc	0.30177915
85	0xbd17c706	-0.037055038
86	0x3e59b98d	0.21262188
87	0x3bc6cf96	0.0060672266
88	0x3e518674	0.20461446
89	0x3e84d2a5	0.2594196
90	0x3d17d6ba	0.037070014
91	0xbdd994ce	-0.10624085
92	0xbe1ac0f5	-0.1511267
93	0x3e43aab7	0.19108091
94	0x3dc88cf2	0.09792508
95	0x3dfb3e37	0.12267726
96	0x3dd988f2	0.10621823
97	0x3d445ce5	0.047940154
98	0xbdcad115	-0.099031605
99	0x3d1c8f7e	0.038222782
100	0xbda6fc53	-0.08153596
101	0xbd37ee0b	-0.04490475
102	0x3decf055	0.11569277
103	0x3d9b35ac	0.075785965
104	0xbe22986f	-0.15878461
105	0x3e60d315	0.21955521
106	0x3e2ba5a5	0.16762407
107	0xbd314561	-0.043279056
108	0xbd4d4d1b	-0.05012236
109	0xbe8305b9	-0.25590304
110	0x3d995d11	0.07488454
111	0x3e50ae5a	0.2037901
112	0x3e090f5d	0.13384767
113	0xbc9787c4	-0.018497355
114	0xbe99dd06	-0.3005144
115	0xbd9a0e0a	-0.07522209
116	0x3e60c7f0	0.2195127
117	0xbd133895	-0.035942633
118	0x3dbd12b7	0.09232085
119	0xbe7a2ca3	-0.2443109
120	0x3da8ef83	0.08248808
121	0xbddeea0b	-0.10884484
122	0xbc203cf6	-0.009780159
123	0xbdee7855	-0.11644045
124	0x3d1565ae	0.036473922
125	0x3e180db7	0.14848982
126	0x3e0fd96d	0.14047785
127	0xbe4c835f	-0.19971989
128	0x3c03fe50	0.008056238
129	0xbe2eb4b5	-0.17061122
130	0xbe45ecba	-0.19328585
131	0xbc5e6c50	-0.013575628
132	0xbba49a00	-0.005023241
133	0xbe2e864b	-0.17043416
134	0x3c59cbe0	0.0132932365
135	0xbd2df94c	-0.042474076
136	0xbcd070b0	-0.025444359
137	0xbe28a4cd	-0.16469117
138	0x3a857f00	0.0010184944
139	0x3e4567f9	0.19277944
140	0xbc7d0b80	-0.015444636
141	0x3d0dd674	0.034628347
142	0xbe050fec	-0.12994355
143	0xbe45f192	-0.19330433
144	0xbdfe1d30	-0.12407911
145	0xbd895630	-0.06705892
146	0x3cc0b550	0.023523957
147	0xbb432600	-0.0029777288
148	0x3dfb9f8e	0.12286292
149	0xbe2a720e	-0.16645071
150	0x3e3bc704	0.18337637
151	0x3c555c4f	0.013022496
152	0x3e100e2c	0.14067906
153	0x3e6c9130	0.2310226
154	0x3d25e0ab	0.040497463
155	0xbe1d772b	-0.1537749
156	0xbd6acd90	-0.057324946
157	0xbe46a389	-0.19398321
158	0xbd9a8318	-0.075445354
159	0x3d13d1fa	0.03608892
160	0xbdbd6abb	-0.09248873
161	0xbdda621d	-0.10663245
162	0xbde2e933	-0.110796355
163	0xbe0c40fe	-0.13696668
164	0xbe1a8919	-0.15091361
165	0xbd64dad7	-0.055872764
166	0x3e4c6dd9	0.19963779
167	0xbcefbebc	-0.029265754
168	0xbe36525a	-0.17804852
169	0x3bc91b5b	0.006137294
170	0xbdd66008	-0.10467535
171	0xbd2f7f7d	-0.04284619
172	0x3db022cc	0.08600387
173	0xbc611c9e	-0.013739733
174	0x3d947e85	0.07250694
175	0xbe2730f4	-0.16327268
176	0x3c4e65e6	0.012597537
177	0xbe0644be	-0.1311216
178	0xbe46bc1e	-0.19407699
179	0xbe289f52	-0.16467026
180	0x3e2074db	0.15669577
181	0xbdfa4207	-0.12219625
182	0xbe3ddd37	-0.18541418
183	0xbe296e5d	-0.16546007
184	0x3e267e5d	0.16259141
185	0x3d589cd9	0.052883957
186	0x3d2baac8	0.041910917
187	0xbe6ec4f8	-0.23317325
188	0xbbad4a72	-0.0052884156
189	0xbd9e171d	-0.07719252
190	0x3da4f275	0.080540575
191	0x3db9a126	0.0906394
192	0xbc05aa1e	-0.008158235
193	0x3e041da8	0.12901938
194	0xbdd4bbff	-0.1038742
195	0xbe31c249	-0.1735927
196	0xbdc09814	-0.094040066
197	0x3d5c5f9b	0.053802114
198	0xbd4fc5f0	-0.050725877
199	0xbdea7b1c	-0.114492625
200	0xbd92f587	-0.07175737
201	0x3d92d0d9	0.07168741
202	0xbe0f764f	-0.14009975
203	0x3db1e9a3	0.08687141
204	0xbe162a48	-0.14664567
205	0x3d9ef95f	0.077624075
206	0x3ce4bb9f	0.027921496
207	0x3dfc3ee7	0.12316685
208	0xbe24944f	-0.160722
209	0x3b99a015	0.0046882727
210	0x3d25d7f3	0.04048915
211	0xbcff1701	-0.031138899
212	0xbd942c19	-0.072349735
213	0xbe0c2365	-0.13685377
214	0xbd0d963c	-0.034567103
215	0x3dfb40db	0.122682296
216	0xbdcd4fa3	-0.10024955
217	0xbd82a67e	-0.06379412
218	0xbe569598	-0.20955503
219	0xbe1cc4a0	-0.15309381
220	0x3e111f7f	0.14172171
221	0xbe599200	-0.21247101
222	0xbe48d1ea	-0.19611326
223	0xbdb06e59	-0.08614797
224	0x3e119dbc	0.14220327
225	0x3d34a0ea	0.044098772
226	0xbe15a610	-0.14614129
227	0x3de88c86	0.11354928
228	0x3d4486f7	0.047980275
229	0x3e37280a	0.17886367
230	0x3e27f34d	0.16401406
231	0xbd25e927	-0.040505555
232	0xbdd5d18b	-0.10440358
233	0xbbb807c7	-0.0056161615
234	0x3c9c0f57	0.019050283
235	0x3d8ad828	0.0677951
236	0x3e4852ec	0.19562882
237	0x3e0ef20e	0.13959524
238	0x3d0d99a3	0.034570348
239	0xbdca38c6	-0.0987411
240	0x3db59d5b	0.08867904
241	0x3d241bf6	0.040065728
242	0x3e5c8881	0.21536447
243	0x3e591db5	0.21202739
244	0xbca00023	-0.019531315
245	0x3d91bfe6	0.0711668
246	0x3dee445b	0.116341315
247	0x3d8d751c	0.069071025
248	0xbe3b4539	-0.18288125
249	0x3ea76c39	0.32699755
250	0x3e42fb0d	0.19041081
251	0x3d95fbee	0.073234424
252	0xbe18e19a	-0.1492981
253	0x3cf99c6b	0.030470094
254	0xbdbfa718	-0.093580425
255	0xbdcaabbb	-0.09896036

conv1.bias f4 [48]
0	0xbec19ad8	-0.3781345
1	0xbecce145	-0.40015617
2	0xbbbecdd1	-0.005822875
3	0xbebdb0e5	-0.37049022
4	0xbed14cf9	-0.40879038
5	0xbdc8133d	-0.097692944
6	0x3ec2d051	0.38049558
7	0xbcbf281d	-0.023334557
8	0xbdf8e364	-0.12152746
9	0xbe9b4c13	-0.30331478
10	0xbec3c466	-0.38235778
11	0x3e6deed4	0.23235637
12	0x3e696b9c	0.22794956
13	0xbdfb0813	-0.122573994
14	0xbbb0a39d	-0.005390598
15	0xbdc55d77	-0.09636968
16	0xbd3c7f00	-0.046019554
17	0xbe0d2d54	-0.13786823
18	0x3ed83f16	0.4223563
19	0x3bf1c45b	0.0073781437
20	0xbdfe54ea	-0.1241854
21	0x3ddea2e4	0.10870913
22	0xbdfce164	-0.12347677
23	0xbd83a3d3	-0.06427731
24	0xbc897f98	-0.016784474
25	0xbe1d2af9	-0.15348424
26	0xbd8252d6	-0.06363456
27	0xbd801dbb	-0.06255671
28	0xbcb65bc4	-0.022260554
29	0xbedcf894	-0.431584
30	0x3e4460d7	0.19177566
31	0xbeeb1578	-0.45914817
32	0xbc9c1980	-0.019055128
33	0xbd8f81c4	-0.07007173
34	0xbf05892b	-0.52162427
35	0x3c5898c3	0.013220015
36	0x3edc16cb	0.4298614
37	0xbecebc7a	-0.4037817
38	0xbdb938e8	-0.09044057
39	0xbd6fd545	-0.058553
40	0xbc5eec12	-0.013606088
41	0xbd68a365	-0.05679645
42	0xbd1f113f	-0.038834807
43	0x3bb07720	0.0053852946
44	0xbdae9c8f	-0.08525955
45	0xbd960809	-0.07325751
46	0xbebb1a51	-0.36543515
47	0xbe06ba01	-0.13156892

conv2.weight f4 [96, 48, 5]
0	0xbd3dfd3b	-0.046384078
1	0x3ca662f1	0.02031085
2	0xbdc7dfbe	-0.09759472
3	0xbd92654c	-0.07148227
4	0xbd60ba44	-0.054865137
5	0xbc8087ee	-0.015689816
6	0x3ca48e6c	0.020087443
7	0x3b8fccdc	0.004388435
8	0x3c0a822d	0.008453888
9	0x3d51b90c	0.051201865
10	0x3bc17329	0.0059036207
11	0xbc80c42f	-0.015718548
12	0xbce178cd	-0.027523423
13	0x3d621eb5	0.055205066
14	0xbd848cfa	-0.06472202
15	0xbc93b573	-0.018030858
16	0x3d747cef	0.05968946
17	0xbc3619c2	-0.01111454
18	0xbd94bdc1	-0.07262755
19	0xbd3ae508	-0.045628577
20	0x395a2600	0.00020804256
21	0x3ce0c418	0.027437255
22	0x3c8f1e85	0.017470608
23	0x3d3a85a9	0.045537625
24	0x3d24650d	0.040135432
25	0xbc7b5fc0	-0.015342653
26	0x3d101c06	0.035182975
27	0xbd641640	-0.05568528
28	0x3cdb1b3c	0.026746385
29	0xbcf8d5ec	-0.030375443
30	0x3db012cd	0.08597336
31	0xbd1ba266	-0.037996672
32	0xbdab817a	-0.08374305
33	0x3cddc7c6	0.027072798
34	0x3a9dc4f1	0.0012036843
35	0xbc85734e	-0.016290333
36	0x3d440dd4	0.04786475
37	0xbb6a4066	-0.003574395
38	0x3d11c4c9	0.03558806
39	0x3dbae5cb	0.09125861
40	0x3d6e66e3	0.05820359
41	0x3cc79ea3	0.024367636
42	0x3dafd660	0.08585811
43	0x3c9cad43	0.019125586
44	0x3db53213	0.088474415
45	0xbc0e84c6	-0.008698648
46	0xbd0febe0	-0.035137057
47	0xbd6e51c8	-0.05818346
48	0xbcfdf374	-0.030999877
49	0xbce8580b	-0.028362295
50	0xbd754e22	-0.059888966
51	0xbc7f931c	-0.015599038
52	0xbdcffc34	-0.10155526
53	0xbd1351eb	-0.035966795
54	0xbcbd1b56	-0.023084324
55	0xbd01141b	-0.031513315
56	0xbd919afc	-0.07109639
57	0x3e36a8bf	0.17837809
58	0x3d2caee5	0.04215898
59	0xbda648ad	-0.081193306
60	0x3d98188e	0.074265584
61	0xbd29012e	-0.04126089
62	0xbe117771	-0.1420572
63	0x3bafbcff	0.0053631063
64	0xbdb27907	-0.087144904
65	0xbdf2e963	-0.11860921
66	0xbd8a5938	-0.067552984
67	0xbd2edd8b	-0.04269175
68	0xbdc1284f	-0.094315164
69	0xbda33bfc	-0.079704255
70	0xbe5a6df1	-0.21331002
71	0xbe35ef3f	-0.17767046
72	0xbdb8449d	-0.08997462
73	0xbdfa6dd7	-0.122279815
74	0xbc755d47	-0.014975852
75	0xbcd1d69a	-0.025615025
76	0xbcd975ba	-0.026545394
77	0x3cce7630	0.02520284
78	0x3d107994	0.035272196
79	0xbd200c10	-0.039074004
80	0xbe13b749	-0.14425386
81	0xbd8a7931	-0.06761397
82	0xbd8fe640	-0.070263386
83	0xbdd1b30f	-0.10239231
84	0x3ca86a41	0.020558478
85	0x3d43a104	0.04776098
86	0x3ab7ba80	0.0014017373
87	0x3d58dbae	0.052943878
88	0x3d322bb6	0.043498717
89	0x3c2f35b0	0.010693952
90	0xbddca7f1	-0.1077422
91	0x3d27f33a	0.041003443
92	0xbd916c0e	-0.07100688
93	0x3d21a54f	0.03946429
94	0xbe0652fa	-0.1311759
95	0xbdb91b74	-0.090384394
96	0xbd277dc2	-0.040891416
97	0x3c9a1659	0.018809484
98	0x3cf2de23	0.029646939
99	0xbda6d372	-0.08145799
100	0xbc8c427b	-0.017121544
101	0x3ca8fb5f	0.020627676
102	0x3d7b8031	0.06140155
103	0xbc92efb8	-0.017936572
104	0xbc83d21c	-0.016091399
105	0xbd2527a1	-0.040320996
106	0xbd104841	-0.035225157
107	0x3dd61fad	0.104552604
108	0x3d1c29b2	0.0381257
109	0xbdbde042	-0.092712894
110	0xbe25b347	-0.1618167
111	0xbd904cae	-0.070458755
112	0xbbcbcca8	-0.0062194653
113	0xbd831fb1	-0.06402529
114	0xbd94ea54	-0.07271257
115	0x3d6c8828	0.057747036
116	0xbceef8ff	-0.029171465
117	0xbbbd22ff	-0.005771994
118	0xbd6d7f90	-0.05798298
119	0xbd509a8f	-0.05092865
120	0xbd96a49b	-0.07355615
121	0xbd15166d	-0.03639834
122	0xbd67a2c5	-0.056551713
123	0xbcb7ac8c	-0.022421144
124	0xbcaac121	-0.020844044
125	0xbe01ad88	-0.12663853
126	0xbe1ad7e9	-0.15121426
127	0xbdc1e12f	-0.094667785
128	0xbb8f2aae	-0.0043691015
129	0xbc65ce11	-0.014026181
130	0xbc84d702	-0.016215805
131	0x3c25f7f8	0.010129921
132	0xbd1c1673	-0.038107347
133	0xbd716765	-0.058936495
134	0x3a89f880	0.0010526329
135	0xbdc4a1ba	-0.096011594
136	0xbdb4ffbb	-0.08837839
137	0xbd06cca5	-0.032910008
138	0xbe194f9f	-0.1497178
139	0x3c353264	0.011059377
140	0xbda60402	-0.08106233
141	0xbe263caa	-0.16234079
142	0xbdeb2543	-0.114817165
143	0xbcc49550	-0.023996979
144	0xbd826dab	-0.06368574
145	0x3a055280	0.0005085841
146	0xbc6bca50	-0.014391497
147	0x3cfe3995	0.031033317
148	0x3d6a8566	0.057256125
149	0x3dcebe2b	0.100948654
150	0xbc83b062	-0.016075317
151	0x3daa5a06	0.08317952
152	0x3d0f212e	0.034943752
153	0x3d88d7d1	0.06681789
154	0x3c20f19e	0.009823231
155	0xbdd1fba5	-0.102530755
156	0xbd0f0bc3	-0.034923326
157	0x3d8466f9	0.06464953
158	0x39157780	0.00014254265
159	0x3d888f92	0.06668009
160	0x3d78fe62	0.060789473
161	0xbd4c4e59	-0.049879406
162	0x3d422fbc	0.047408804
163	0x3c971470	0.018442363
164	0xbca084ca	-0.019594569
165	0xbc8b6606	-0.017016422
166	0xbd29a21a	-0.041414358
167	0x3d9068fc	0.07051274
168	0x3bc9d473	0.006159359
169	0xbcce08f5	-0.025150755
170	0xbd94394a	-0.072374895
171	0xbdb168f7	-0.086625986
172	0xbd36d1d8	-0.044633716
173	0xbd9e4283	-0.0772753
174	0xbd792c60	-0.060833335
175	0xbdbfe83b	-0.09370466
176	0xbd9214e5	-0.071328916
177	0xbdda881a	-0.106704906
178	0x3c329ad8	0.010901175
179	0xbd9c3221	-0.07626749
180	0x3d9fb9a8	0.07799083
181	0x3ce29d89	0.02766301
182	0xbd07eac0	-0.03318286
183	0x3d869d68	0.065729916
184	0xbe5adbdf	-0.21372937
185	0xbc4d08e1	-0.012514324
186	0xbdab5340	-0.08365488
187	0xbd33282c	-0.043739483
188	0xbb93de54	-0.0045125876
189	0xbc7e3d72	-0.015517579
190	0xbe24651d	-0.16054197
191	0xbe9f037a	-0.3105734
192	0xbe4b3aac	-0.198466
193	0xbe073181	-0.13202478
194	0xbdb32f6d	-0.0874928
195	0xbda9273d	-0.08259437
196	0xbd82da0d	-0.06389246
197	0xbd69f6d0	-0.057120144
198	0xbc62863c	-0.013825949
199	0xbd9249de	-0.07142995
200	0xbe1a1171	-0.15045716
201	0xbe4fa6b2	-0.20278433
202	0xbd7c1fd8	-0.061553806
203	0xbd0c33e2	-0.034229167
204	0xbd9315ec	-0.07181916
205	0x3d2bee19	0.041975114
206	0xbc5e89a3	-0.01358262
207	0x3cebfe31	0.028807731
208	0xbd0dc422	-0.034610875
209	0x3c7065b1	0.014672683
210	0xbd18faa4	-0.037348405
211	0xbd1af1b0	-0.037828147
212	0xbd2ba649	-0.04190663
213	0x3c10f806	0.008848196
214	0x3d79d2a9	0.060991917
215	0x3c4a3daf	0.012343808
216	0xbda36c51	-0.07979644
217	0xbd851457	-0.0649802
218	0x3c04d3da	0.00810715
219	0xbc50afc8	-0.012737222
220	0xbe723a74	-0.2365511
221	0xbe339c66	-0.1754013
222	0xbd31a5f6	-0.043371163
223	0xbdb2e59a	-0.08735199
224	0xbd5dd069	-0.054153834
225	0x3cf8d901	0.030376913
226	0x3d112b6e	0.03544181
227	0x3c9b8f71	0.018989297
228	0xbcc58c20	-0.024114668
229	0x3ce54f49	0.027991908
230	0xbcb667ad	-0.022266233
231	0x3d68eb5a	0.056865074
232	0x3ca19d45	0.019728312
233	0xbd35a1b4	-0.044343665
234	0x3bc7f42b	0.006102105
235	0xbd53f4f7	-0.05174729
236	0xbd09fed0	-0.033690274
237	0xbd54294a	-0.05179719
238	0xbd255142	-0.040360697
239	0x3caad504	0.020853527
240	0x3d8a38c9	0.06749112
241	0x3dafcd41	0.08584071
242	0x3dd7e25d	0.10541222
243	0x3de6e12d	0.112734176
244	0x3e0fb521	0.14033939
245	0x3b93e953	0.0045138984
246	0x3b4f2cd0	0.0031612404
247	0x3d971ea5	0.07378892
248	0x3e094787	0.13406192
249	0x3e114ad8	0.14188707
250	0xbd231d2c	-0.039822742
251	0x3c460073	0.012085068
252	0x3d198f4a	0.037490167
253	0xbd053cae	-0.03252857
254	0x3ca65819	0.02030568
255	0x3d091d43	0.03347517

conv2.bias f4 [96]
0	0xbd96c190	-0.07361138
1	0xbda1c2b9	-0.078984685
2	0xbe8a3abc	-0.26997936
3	0xbdc6bcfd	-0.097040154
4	0xbe00c933	-0.12576751
5	0xbe443a2c	-0.19162816
6	0xbd09f283	-0.033678543
7	0xbe5a3590	-0.21309495
8	0xbddc71c0	-0.107638836
9	0xbdf28b4c	-0.11842975
10	0xbd8e5aee	-0.06950937
11	0x3c1bd007	0.009510047
12	0xbe3fe217	-0.1873859
13	0xbbd12837	-0.006382968
14	0xbd6dbeeb	-0.0580434
15	0xbd160d90	-0.036634028
16	0xbe3c6d98	-0.18401182
17	0xbe255a3f	-0.16147707
18	0xbd706050	-0.0586856
19	0xbe2a9f3e	-0.16662309
20	0xbd88280b	-0.066482626
21	0xbd2e7daa	-0.04260031
22	0xbdf91e42	-0.12163974
23	0xbe4d3aa2	-0.20041898
24	0x3ccac4ec	0.024752103
25	0xbd6dba00	-0.05803871
26	0xbe247c32	-0.16063002
27	0xbda9833d	-0.08276985
28	0xbe0276f6	-0.12740692
29	0xbdd98849	-0.106216975
30	0x3d29352e	0.04131048
31	0xbe45ddc4	-0.19322878
32	0x3ca6cb98	0.020360753
33	0xbd48ed16	-0.049054228
34	0xbdd77f75	-0.105223574
35	0xbdcdb71a	-0.100446895
36	0xbdac6c38	-0.084190786
37	0xbdc312ea	-0.09525092
38	0xbd1e0f01	-0.038588528
39	0xbdac0092	-0.08398546
40	0xbe092dc4	-0.13396364
41	0xbe7934c8	-0.2433654
42	0xbe08c21f	-0.13355301
43	0xbb011b89	-0.001970025
44	0xbe00eea3	-0.12591033
45	0xbd2783ef	-0.040897306
46	0xbd5564f8	-0.052098244
47	0x3c04a7ed	0.008096677
48	0xbd94add9	-0.07259721
49	0xbe39185e	-0.18075702
50	0x3c2f0e24	0.010684524
51	0xbd935533	-0.07193985
52	0xbcf46705	-0.02983428
53	0xbe06ec34	-0.13176042
54	0xbdf4f631	-0.1196102
55	0xbdbec4a1	-0.09314848
56	0xbccfabc4	-0.025350459
57	0xbdd4bbfe	-0.10387419
58	0xbc5b6935	-0.0133917825
59	0xbd882d86	-0.06649308
60	0xbd9111be	-0.07083462
61	0xbdf9fc57	-0.12206333
62	0xbd09be4e	-0.033628754
63	0xbd90e4d6	-0.07074897
64	0xbce1be59	-0.027556585
65	0xbdb6ae28	-0.089199364
66	0xbd636e67	-0.05552521
67	0xbd50bf6a	-0.050963797
68	0xbcc89110	-0.024483234
69	0xbe5a8268	-0.21338809
70	0xbd454fc9	-0.048171792
71	0xbd93f613	-0.07224669
72	0xbd94484e	-0.072403535
73	0xbd391a75	-0.045191247
74	0xbd3aec99	-0.045635793
75	0xbe177b86	-0.14793214
76	0xbdcc3e6e	-0.09972845
77	0xbe15e9a0	-0.14639902
78	0xbde2645d	-0.11054299
79	0xbd3e0136	-0.046387874
80	0xbcf7b688	-0.030238405
81	0xbe09d883	-0.13461499
82	0xbd7de700	-0.061987877
83	0xbe0e793a	-0.13913432
84	0xbd0e7ed4	-0.03478892
85	0xbe25d12d	-0.16193075
86	0xbe4b6ab1	-0.19864918
87	0xbe00f7be	-0.12594506
88	0xbe0fb290	-0.1403296
89	0x3cdc0ce1	0.02686161
90	0xbe73c5ca	-0.2380592
91	0xbd98a345	-0.07453016
92	0xbe8d2c09	-0.2757266
93	0xbd588b2d	-0.052867103
94	0xb9aad271	-0.00032581718
95	0x3e0b7f0d	0.13622685

lstm1.weight_ih_l0 f4 [512, 96]
0	0xbea9ca5e	-0.33162206
1	0xbe101cd5	-0.14073499
2	0xbdc2260e	-0.094799146
3	0x3bb0dbe3	0.0053973063
4	0xbe167045	-0.14691265
5	0xbe12eaaf	-0.14347337
6	0xbdee594c	-0.11638126
7	0xbd39626d	-0.04525988
8	0xbd92f66e	-0.07175909
9	0xbd190dc1	-0.037366632
10	0xbd973709	-0.07383544
11	0x3d8342f9	0.064092584
12	0xbe15630e	-0.14588568
13	0x3da0c583	0.07850172
14	0x3d4370c8	0.04771498
15	0xb9cfe2fd	-0.00039651236
16	0xbdfd7fa1	-0.12377859
17	0xbe18c951	-0.14920546
18	0xbc8710b1	-0.016487451
19	0xbda11ec1	-0.07867194
20	0xbe9f61b3	-0.31129226
21	0x3d4ad1d7	0.049516525
22	0x3d65ca59	0.056101177
23	0xbe467473	-0.1938036
24	0xbe09649d	-0.13417287
25	0x3da7923b	0.08182188
26	0xbcee0780	-0.02905631
27	0xbd5bb9f2	-0.05364413
28	0xbd1be5a5	-0.038060803
29	0xbce28d34	-0.027655222
30	0x3d8b59a4	0.06804207
31	0xbe28aa10	-0.16471124
32	0xbdb75cbb	-0.08953234
33	0xbd1dfec9	-0.03857306
34	0x3ce3c99f	0.027806101
35	0xbdc5e6aa	-0.09663136
36	0xbde363f1	-0.11103047
37	0xbde64daf	-0.11245286
38	0x3cac0967	0.021000577
39	0xbdae93bf	-0.08524274
40	0xbdda5362	-0.10660435
41	0xbd37e390	-0.044894755
42	0xbe036e2f	-0.12835
43	0x3d511c13	0.051052164
44	0xbd415615	-0.047201235
45	0xbcca2351	-0.024675043
46	0xbc94c869	-0.01816197
47	0x3dd5ff24	0.10449055
48	0xbdb12350	-0.086493134
49	0xbe16ca26	-0.14725551
50	0x3cca6db7	0.02471052
51	0xbd5e2886	-0.054237865
52	0xbe1d13db	-0.15339606
53	0xbde1e119	-0.11029262
54	0xbddce6bd	-0.10786197
55	0x3d8f0cad	0.069848396
56	0x3d3b7b57	0.045771923
57	0xbdbf3f6b	-0.09338268
58	0xbd93796a	-0.07200892
59	0xbdeed3ea	-0.11661513
60	0xbde48fa4	-0.1116021
61	0xbd60492d	-0.054757286
62	0xbd97d5c0	-0.074138165
63	0xbe22c4ab	-0.15895335
64	0xbe1ebf62	-0.15502694
65	0xbd36a630	-0.044592083
66	0xbd98efa2	-0.07467581
67	0xbd95ccdf	-0.07314467
68	0xbd1d9b38	-0.038478106
69	0xbd39e9bd	-0.045388926
70	0xbd00825f	-0.03137433
71	0xbdceb4a1	-0.10093046
72	0x3bab4db3	0.0052277683
73	0x3c962df4	0.018332459
74	0xbdc943c9	-0.09827382
75	0xbe0f8a6e	-0.1401765
76	0xbc2a44ef	-0.010392412
77	0xbd185982	-0.037194736
78	0x3c9cb427	0.019128872
79	0x3d61b5ba	0.05510495
80	0x3d7e9961	0.062157992
81	0xbd34d605	-0.044149417
82	0x3d26cb02	0.040720947
83	0xbe92be0b	-0.28660616
84	0x3d8c4816	0.06849687
85	0xbd64a05d	-0.055816997
86	0xbe47ea14	-0.19522887
87	0xbd658f9d	-0.056045163
88	0x3cd4b110	0.025963336
89	0xbdbcb98b	-0.09215077
90	0xbe17e5ff	-0.1483383
91	0x3cd23f33	0.025664901
92	0xbdbc0646	-0.09180884
93	0x3dcad6ff	0.099042885
94	0xbde96d50	-0.11397803
95	0xbdf56aaf	-0.11983239
96	0xbe5d7842	-0.21627906
97	0xbde4cbb1	-0.111716636
98	0xbdd37999	-0.10325927
99	0xbdc31d13	-0.0952703
100	0xbd61da57	-0.055139866
101	0xbe1b0b54	-0.1514104
102	0x3ca9bab4	0.02071891
103	0xbdfaa9b4	-0.122393996
104	0x3cc183b7	0.023622377
105	0xbd23fc32	-0.040035434
106	0xbd3141c3	-0.043275606
107	0x3a00c00d	0.00049114303
108	0xbcb824ff	-0.022478579
109	0x3d7b7a9e	0.061396234
110	0x3ce9db6b	0.02854701
111	0xbc6ea455	-0.014565547
112	0xbc7c7777	-0.015409342
113	0xbd969612	-0.073528424
114	0xbdb51894	-0.088425785
115	0xbe788128	-0.24268019
116	0xbd96e3f2	-0.07367696
117	0x3d33cbd0	0.043895543
118	0xbdfccc1b	-0.123436175
119	0xbd7b582b	-0.06136338
120	0xbd4009a2	-0.046884187
121	0xbd41d240	-0.04731965
122	0x3c6c53c9	0.014424273
123	0x3d786ac3	0.06064869
124	0x3d55ede0	0.05222881
125	0x3da7cceb	0.08193382
126	0xbd2d1032	-0.042251773
127	0xbd8a2af4	-0.06746474
128	0xbd920b03	-0.071310066
129	0xbc1a0583	-0.009400728
130	0xbe8f0d14	-0.27939665
131	0xbd62e704	-0.055396095
132	0xbd39e6aa	-0.045385994
133	0xbc1b1962	-0.009466501
134	0xbc0a0b31	-0.00842552
135	0xbcf2f042	-0.02965558
136	0xbe3adc15	-0.18248017
137	0x3c37e02d	0.011222881
138	0xbd903187	-0.070406966
139	0xbd32b5cf	-0.043630417
140	0xbcea92fe	-0.028634544
141	0xbca90374	-0.02063153
142	0xbd2fa893	-0.042885374
143	0x3d1e9de1	0.038724784
144	0x3cea4cc1	0.028601052
145	0xbd391dd7	-0.045194473
146	0x3d658be0	0.0560416
147	0xbcb51a02	-0.022107128
148	0x3d0a362b	0.033743065
149	0xbdbdc8df	-0.09266829
150	0xbde281b8	-0.11059898
151	0x3cdc0ce0	0.026861608
152	0xbd074c48	-0.03303173
153	0x3ca9b600	0.020716667
154	0xbce217f4	-0.027599312
155	0xbdd95091	-0.1061107
156	0x3caee09e	0.02134734
157	0x3d225a6c	0.039637014
158	0xbe074818	-0.13211095
159	0xbda02d0e	-0.078210935
160	0xbdc02a7d	-0.09383104
161	0xbd3dc7fd	-0.0463333
162	0xbda661fe	-0.08124159
163	0xbddea485	-0.10871223
164	0xbdeadaca	-0.11467512
165	0xbdf39a9c	-0.11894724
166	0xbdb645a3	-0.08900001
167	0xbd8198d3	-0.06327977
168	0xbd2855cc	-0.041097447
169	0xbc5c4bd8	-0.013445817
170	0x3d2b1022	0.041763432
171	0xbdc5ea75	-0.0966386
172	0xbdfb807d	-0.122803666
173	0xbcdd61d4	-0.027024187
174	0x3c5ae9b2	0.013361381
175	0xbd8484f5	-0.06470672
176	0x3d172e3f	0.036909338
177	0x3c77f9b4	0.015135217
178	0xbdecf8c2	-0.11570884
179	0xbd815fe3	-0.06317117
180	0xbd8064c6	-0.06269221
181	0xbd9e76b2	-0.07737483
182	0xbdf5e2e9	-0.1200617
183	0x3cf1a5fc	0.029498093
184	0x3b30198d	0.0026870698
185	0xbe05b104	-0.13055807
186	0xbdea09c6	-0.114276454
187	0x3cb9bed5	0.022674004
188	0x3d65f47a	0.056141354
189	0xbbf95d90	-0.0076100305
190	0xbd88d41a	-0.0668108
191	0xbe0616a2	-0.13094571
192	0xbceff23e	-0.029290315
193	0xbd3df136	-0.046372615
194	0x3ce480ca	0.027893443
195	0xbce7ff65	-0.028320024
196	0xbe08d0f6	-0.13360962
197	0x3d21e15b	0.039521556
198	0x3dad75ac	0.0846971
199	0x3cb3eded	0.021964038
200	0x3cc67370	0.024224967
201	0xbd7e5791	-0.06209523
202	0xbcf3522c	-0.029702269
203	0xbdabfafe	-0.08397482
204	0xbd041ccb	-0.03225402
205	0x3cf50109	0.02990772
206	0x3dbeb7ba	0.09312387
207	0xbd37ea67	-0.044901278
208	0x3d3bac97	0.04581889
209	0x3d87f0e6	0.066377446
210	0x3d2953d5	0.041339714
211	0x3dacdbde	0.08440374
212	0xbd76c9ed	-0.060251165
213	0x3d954ac3	0.0728965
214	0xbba97ae1	-0.005172119
215	0x3c62ee6f	0.013850792
216	0x3d5da9bd	0.054116953
217	0xbc05ffd3	-0.008178669
218	0x3d2303da	0.039798595
219	0x3cbf0d5e	0.023321804
220	0x3c239edf	0.009986608
221	0x3d5fa6a3	0.054602277
222	0x3cc2d652	0.023783837
223	0x3d8e43fe	0.06946562
224	0x3dc7e52e	0.097605094
225	0xbb6d6137	-0.0036221275
226	0x3d878b30	0.06618345
227	0x3daece1b	0.08535405
228	0x3ca2dec3	0.019881612
229	0xbcecd5a3	-0.028910464
230	0x3d95accc	0.07308349
231	0x3d0f3dfa	0.034971215
232	0x3d42c80c	0.04755406
233	0x3db695e0	0.08915305
234	0xbcf4693b	-0.029835334
235	0x3be40315	0.006958375
236	0xbcda6deb	-0.026663741
237	0x3babdcc0	0.0052448213
238	0xbd0bba5b	-0.03411327
239	0x3d9f395f	0.077746145
240	0x3de22828	0.110428154
241	0x3d0e220d	0.034700442
242	0x3d6427af	0.055701908
243	0xbcd4865d	-0.025942976
244	0x3c2d2704	0.010568384
245	0xbdb00f77	-0.085967
246	0x3dea318e	0.11435233
247	0x3df265f6	0.11835854
248	0x3cae75fd	0.021296496
249	0x3dc32d95	0.095301785
250	0x3d9d5bc8	0.076835215
251	0x3dbcaf5c	0.09213135
252	0xbc9ee0b2	-0.019394252
253	0x3df285bb	0.11841913
254	0xbcbf9c02	-0.02338982
255	0xbbd27014	-0.006422052

lstm1.weight_hh_l0 f4 [512, 128]
0	0x3d0d37b9	0.03447697
1	0x3e198b9b	0.14994662
2	0x3db1cd5d	0.08681748
3	0x3da7044c	0.081551164
4	0x3d9bcece	0.07607804
5	0xbe5545f0	-0.2082746
6	0x3c9a7396	0.018853944
7	0x3e034db0	0.12822604
8	0x3e0cb829	0.13742127
9	0xbe5ae35e	-0.21375796
10	0xbc4161a3	-0.011803064
11	0xbe7c5769	-0.2464272
12	0x3e16c087	0.14721881
13	0x3d9ffbc8	0.07811695
14	0x3e32d479	0.17463864
15	0xbe60f4fb	-0.21968453
16	0x3de53701	0.11192132
17	0xbe18d7b2	-0.14926031
18	0xbe604e3e	-0.21904847
19	0xbe00387d	-0.12521549
20	0xbe386ba8	-0.18009818
21	0xbd7b7cbf	-0.061398264
22	0x3d84dec0	0.06487799
23	0xbc84dd93	-0.016218936
24	0x3e662d9a	0.22478333
25	0xbd299a71	-0.041407052
26	0x3cda73e6	0.026666593
27	0xbe20d40e	-0.15705892
28	0xbd62672a	-0.055274166
29	0x3e9e3798	0.3090179
30	0x3d13303c	0.03593467
31	0xbda77ac2	-0.08177711
32	0x3dd0767e	0.101788506
33	0x3b2e581f	0.0026602817
34	0xbde2d475	-0.11075679
35	0x3e450291	0.1923926
36	0x3e096ce0	0.13420439
37	0xbd6de84f	-0.058082875
38	0xbdc600e9	-0.09668142
39	0xbb8650a3	-0.004098968
40	0xbc7fc8f1	-0.015611873
41	0xbdcb5fc2	-0.09930374
42	0x3d871cec	0.06597313
43	0x3e425b30	0.18980098
44	0x3e02d046	0.12774763
45	0xbd8154d1	-0.063150056
46	0x3d6bf94c	0.057610795
47	0x3c151e58	0.009101473
48	0xbdb16c5b	-0.08663245
49	0xbe1064f2	-0.14101008
50	0x3e57d04c	0.21075553
51	0x3dba3d74	0.090937525
52	0x3d50ab6e	0.050944738
53	0xbda25114	-0.07925621
54	0x3e5a0af1	0.21293236
55	0xbda16e65	-0.07882384
56	0x3d33cadf	0.043894645
57	0xba81bec3	-0.000989877
58	0xbde2ff3d	-0.11083839
59	0xbe1849b7	-0.1487187
60	0xbdaf6e74	-0.08565989
61	0x3e858981	0.2608147
62	0x3d1162e1	0.03549469
63	0xbc17c89b	-0.009264137
64	0xbd43bf89	-0.047790084
65	0xbe62a170	-0.22131896
66	0x3dc0df4c	0.094175905
67	0xbdae8474	-0.08521357
68	0x3ddc6df4	0.107631594
69	0x3dbc8481	0.092049606
70	0xbe3dbd25	-0.18529184
71	0xbe571580	-0.21004295
72	0xbdf773bc	-0.120826215
73	0x3dc24aa4	0.09486893
74	0xbdee4d7f	-0.11635875
75	0xbd2ebabe	-0.04265856
76	0xbda41cd7	-0.08013313
77	0xbe7f6da4	-0.24944168
78	0x3db74241	0.08948184
79	0xbdfd5ae5	-0.123708524
80	0xbdbfad92	-0.09359278
81	0x3df7b801	0.12095643
82	0xbc5b675d	-0.013391343
83	0xbd5d1ee6	-0.053984545
84	0x3e066282	0.13123515
85	0xbe36964d	-0.17830773
86	0xbdb9d5a8	-0.09073955
87	0x3d878c54	0.06618562
88	0xbe8b9c2f	-0.27267596
89	0xbe84aa9b	-0.25911412
90	0x3da00aed	0.07814584
91	0xbe0421cf	-0.12903522
92	0xbe4e4a37	-0.20145498
93	0xbe1856bd	-0.14876838
94	0x3c88bbae	0.016691055
95	0x3dfe7128	0.124239266
96	0xbe1d22ea	-0.1534535
97	0x3e634fc7	0.22198401
98	0x3e21c306	0.15797052
99	0xbd876d8e	-0.06612693
100	0xbe84e2d2	-0.259543
101	0x3d14ffa6	0.036376618
102	0x3d8c7f07	0.06860166
103	0xbdeec78e	-0.11659156
104	0x3c5d38eb	0.01350234
105	0xbd480398	-0.048831552
106	0x3e7cef6c	0.24700707
107	0xbd0c0abe	-0.034189932
108	0x3ddafd10	0.10692799
109	0x3b36c5f3	0.0027888983
110	0xbd4d2237	-0.050081458
111	0xbd5ced31	-0.05393714
112	0xba6a6af4	-0.0008942329
113	0x3de2a9b8	0.110675275
114	0xbd2ee698	-0.04270038
115	0xbd4ae1bb	-0.04953168
116	0x3df8ccec	0.12148461
117	0x3c0ac182	0.008468987
118	0x3d0da9ec	0.03458588
119	0xbd1ead42	-0.03873945
120	0xbddf3672	-0.108990565
121	0x3dea4dc7	0.11440616
122	0xbd8979e5	-0.06712703
123	0x3dae402b	0.08508333
124	0x3db4f3b3	0.088355444
125	0x3ce51035	0.02796183
126	0x3d9f2e3e	0.07772492
127	0x3dc65e9d	0.09686015
128	0xbc75f7e8	-0.015012719
129	0xbda07d4c	-0.078363985
130	0xbc72df98	-0.014823817
131	0x3c4e81a9	0.012604156
132	0xbdd4cdb9	-0.10390801
133	0xbd862f73	-0.06552019
134	0xbc8ac31c	-0.016938739
135	0x3d9913ce	0.074744806
136	0xbd910ce6	-0.07082538
137	0x3d704ba6	0.058665894
138	0x3ad01c22	0.0015877525
139	0xbdd978fa	-0.106187776
140	0xbd46bfdb	-0.04852281
141	0xbdb19a8a	-0.08672054
142	0xbcd23078	-0.025657877
143	0xbd75e95e	-0.06003701
144	0x3d5338b6	0.051567756
145	0xbd467d13	-0.048459124
146	0x3de4bedb	0.11169215
147	0x3d3f5496	0.046711527
148	0x3d7c8252	0.06164772
149	0xbe5eebd4	-0.21769649
150	0xbc6416ed	-0.013921482
151	0x3bf7385f	0.0075445618
152	0x3dbc9a7f	0.09209155
153	0x3e612edc	0.21990532
154	0xbd891550	-0.06693518
155	0x3e0714ea	0.13191572
156	0x3c875b1b	0.016522935
157	0x3d164e0a	0.036695518
158	0x3dab1012	0.083526745
159	0x3ce2cdd3	0.027686035
160	0xbd6d6b29	-0.057963524
161	0x3e3d65dc	0.18495888
162	0x3d2605f0	0.040533006
163	0xbda95ff6	-0.08270256
164	0xbd3547e0	-0.044258
165	0x3d4de287	0.05026486
166	0xbd7c403a	-0.06158469
167	0xbda39f47	-0.07989364
168	0x3de19628	0.11014968
169	0x3cee266e	0.02907106
170	0xbd4bab0a	-0.049723662
171	0x3de393db	0.111121856
172	0x3d1d2a45	0.03837039
173	0xbd7b0846	-0.061287187
174	0xbd98c4fb	-0.07459446
175	0x3db02284	0.08600333
176	0x3e2d8f4d	0.16949196
177	0x3cf012c5	0.029305825
178	0xbdfd752e	-0.12375866
179	0x3ddbdeb9	0.1073584
180	0xbdf9dfaf	-0.122008674
181	0xbd2c4d97	-0.042066183
182	0x3d91a805	0.07112125
183	0x3d5c59ac	0.053796455
184	0x3c086fe1	0.008327455
185	0x3d0024bf	0.031285044
186	0x3dd2f2ac	0.10300192
187	0x3e3bdd5f	0.18346165
188	0xbd452063	-0.04812659
189	0x3d3abbd3	0.04558928
190	0x3dcc7928	0.09984046
191	0xbde70c88	-0.11281687
192	0x3d262ddd	0.040571082
193	0x3d2e59d4	0.042566136
194	0xbd5ea5b4	-0.054357246
195	0x3df6abd6	0.12044494
196	0x3b665d99	0.0035151003
197	0x3e03092f	0.12796472
198	0xbd198a5e	-0.037485473
199	0x3ccbb239	0.024865257
200	0x3d8a287e	0.067460045
201	0xbda3b72c	-0.07993922
202	0xbd6c4ee5	-0.057692427
203	0x3c917738	0.017757043
204	0x3d93e78c	0.072218984
205	0xbe170751	-0.14748885
206	0x3d1bbe7a	0.03802345
207	0xbe5e2ad9	-0.21696033
208	0xbd9c2f84	-0.076262504
209	0xbc900b12	-0.017583404
210	0xbdabba2e	-0.0838512
211	0xbcbef5ad	-0.023310507
212	0x3df137a8	0.11778194
213	0x3dc985ac	0.09839949
214	0xbd16f9f2	-0.03685946
215	0x3cd13eb5	0.025542596
216	0x3e221c40	0.15831089
217	0x3d4284e8	0.04749003
218	0xbd89b2bd	-0.06723545
219	0x3e1d33e1	0.15351821
220	0xba065032	-0.00051236444
221	0x3d9c7d2b	0.076410614
222	0xbc851693	-0.016246116
223	0x3d208a3e	0.039194338
224	0xbd4a5ea7	-0.049406674
225	0xbd976d76	-0.07393925
226	0xbd0b1272	-0.033953138
227	0xbd907b3d	-0.07054756
228	0xbdffce1b	-0.124904834
229	0x3bcfb119	0.0063382504
230	0xbd032666	-0.03201904
231	0x3d7ff800	0.06249237
232	0xbd8bc819	-0.06825275
233	0x3da8d268	0.08243257
234	0x3dffddb8	0.12493461
235	0xbd0c43c9	-0.034244332
236	0xbc5e1c2f	-0.013556524
237	0xbcbbed89	-0.022940414
238	0xbd8cbf29	-0.068723984
239	0xbe30835b	-0.17237608
240	0x3c0561c8	0.008140989
241	0xbd32a1d1	-0.04361135
242	0xbe70ce98	-0.2351631
243	0xbbace13e	-0.0052758744
244	0x3e5cd62b	0.21566074
245	0xbe011f38	-0.12609565
246	0x3d5984d5	0.053105194
247	0xbca78254	-0.020447887
248	0xbe381a75	-0.17978843
249	0x3e743805	0.23849495
250	0xbdcc424f	-0.09973585
251	0x3d8946d7	0.06702965
252	0x3c116236	0.008873513
253	0x3e58846f	0.2114427
254	0xbc8aa067	-0.016922189
255	0xbd26e9d7	-0.04075035

lstm1.bias_ih_l0 f4 [512]
0	0x3e0ca355	0.13734181
1	0xbe81b826	-0.25335807
2	0xbd85a1fe	-0.06525038
3	0xbd76b75c	-0.06023346
4	0xbe34890e	-0.17630407
5	0xbdc44ce0	-0.09584975
6	0xbd8d677a	-0.06904502
7	0xbd742b8e	-0.05961185
8	0x3d9f5403	0.07779696
9	0xbdb3ee45	-0.08785681
10	0x3d44afbf	0.048019167
11	0xbe045403	-0.12922673
12	0xbe022774	-0.12710363
13	0xbdfb7c08	-0.122795165
14	0xbd37975f	-0.044822093
15	0x3dee7bdf	0.1164472
16	0xbe13c934	-0.14432222
17	0xbe39c18c	-0.18140239
18	0xbd1c12c7	-0.038103845
19	0x3cf45011	0.029823335
20	0xbdf30d6b	-0.11867794
21	0xbbd5c35b	-0.0065235323
22	0xbdcd8733	-0.10035553
23	0xbd92c90d	-0.07167254
24	0x3bc37589	0.005964939
25	0xbde04dd0	-0.109523416
26	0x3b5aea4d	0.0033403814
27	0xbe2ebbd7	-0.17063843
28	0xbe12dc83	-0.14341931
29	0xbcb02b5c	-0.02150505
30	0xbe0bfe90	-0.13671327
31	0xbc9691d2	-0.01838008
32	0xbcd003a2	-0.025392357
33	0xbd553f70	-0.05206245
34	0xbe2d31db	-0.1691355
35	0xbd907463	-0.07053449
36	0xbe0c8ee2	-0.1372638
37	0xbe0cff5c	-0.13769287
38	0xbdc70a28	-0.09718734
39	0xbba961ae	-0.005169115
40	0x3bcaba74	0.0061867777
41	0xbd8c544d	-0.068520166
42	0xbdb4b62d	-0.0882381
43	0x3bba954c	0.005694067
44	0xbc96e18a	-0.018418092
45	0xbd653456	-0.055958115
46	0xbb823d9c	-0.0039746296
47	0xbe3c0ed6	-0.18365034
48	0x3dbe94a7	0.09305697
49	0xbbf71951	-0.0075408597
50	0x3d7cd243	0.06172396
51	0xbe40a07e	-0.18811223
52	0xbde8f365	-0.11374549
53	0xbd53d8d4	-0.051720455
54	0xbdc5668b	-0.09638699
55	0xbe23fd8a	-0.16014686
56	0xbdc846fd	-0.09779165
57	0xbe0b0e52	-0.13579682
58	0xbdf233f7	-0.11826318
59	0xbd2264af	-0.0396468
60	0xbe029c98	-0.12755048
61	0xbea17ecd	-0.31542054
62	0xbe28ff4b	-0.16503637
63	0xbdfce7d5	-0.12348906
64	0xbde73b6f	-0.11290633
65	0x3bc4bb22	0.0060037533
66	0xbd1638ae	-0.036675148
67	0xbe015352	-0.1262944
68	0xbd3fe07f	-0.046844956
69	0xbe3332e8	-0.17499888
70	0x3cc7a473	0.024370408
71	0xbd8bc7a0	-0.06825185
72	0xbddbab16	-0.107259914
73	0xbdccf3b6	-0.10007422
74	0x3bf8986e	0.0075865304
75	0x3c39c9b5	0.011339595
76	0x3b812a80	0.003941834
77	0xbcf4ecd4	-0.029898085
78	0xbe5423d6	-0.20716795
79	0xbdd7964d	-0.105267145
80	0xbdd7c170	-0.10534942
81	0xbe4b4a3f	-0.19852541
82	0x3cdb1b7d	0.026746506
83	0xbe087ca6	-0.133288
84	0xbccb6795	-0.024829665
85	0xbda2e15b	-0.079531394
86	0xbdaf8c80	-0.0857172
87	0xbe049b2d	-0.1294982
88	0x3e43c5bc	0.19118398
89	0xbd4a123a	-0.04933379
90	0xbd898d90	-0.06716454
91	0xbdc51c2c	-0.09624514
92	0xbe1e266f	-0.15444349
93	0xbdbeb2b5	-0.093114294
94	0xbda788de	-0.08180402
95	0xbdad3660	-0.08457637
96	0x3cbbfa94	0.022946633
97	0x3c649aba	0.013952905
98	0xbe16bc42	-0.14720252
99	0x3c563e4c	0.013076376
100	0xbd5b8513	-0.053593706
101	0xbd731413	-0.059345316
102	0xbd7f066f	-0.062261995
103	0xbdec6858	-0.115433395
104	0xbdc773b5	-0.09738866
105	0xbd60e67a	-0.0549073
106	0xbe62feb8	-0.2216748
107	0x3d0b9bce	0.034084134
108	0xbe1348df	-0.14383267
109	0xbd8dae66	-0.069180295
110	0xbe3fc47e	-0.187273
111	0xbdab2fd5	-0.083587326
112	0x3e242c11	0.16032435
113	0xbb4ba031	-0.0031070823
114	0xbe2681dd	-0.16260476
115	0xbe2cc070	-0.16870284
116	0x3c5066c9	0.012719818
117	0xbd3236f1	-0.043509427
118	0xbb102a72	-0.0021997956
119	0xbe4a77a9	-0.19772209
120	0xbe127871	-0.14303757
121	0xbde31fa2	-0.11090018
122	0xbd087596	-0.033315264
123	0xbdf97283	-0.121800445
124	0xbe237f2d	-0.15966482
125	0xbe3fa742	-0.18716148
126	0x3b9c4640	0.0047691166
127	0xbd30a134	-0.043122485
128	0xbda1adbe	-0.07894467
129	0xbde7c90f	-0.11317646
130	0xbd4036fc	-0.046927437
131	0xbdcaecb6	-0.0990843
132	0x3c604334	0.0136878975
133	0xbd3e6035	-0.04647847
134	0xbd9a311d	-0.07528899
135	0xbdd613c3	-0.10452988
136	0xbc399f4b	-0.011329482
137	0x3c95981c	0.018261008
138	0xbd653668	-0.05596009
139	0xbe5c914b	-0.215398
140	0xbd486145	-0.04892089
141	0x3d1acbb3	0.03779192
142	0xbe17c431	-0.14820935
143	0x3d6566a5	0.056006093
144	0xbe12ceb2	-0.1433666
145	0xbe86f61d	-0.26359645
146	0xbd6352d6	-0.05549892
147	0xbd23a2f9	-0.039950345
148	0xbc00482a	-0.007829705
149	0xbdda4cd6	-0.106591865
150	0xbcd28ea8	-0.02570279
151	0xbc8647c0	-0.016391635
152	0xbc20f51c	-0.009824064
153	0xbc1d743e	-0.009610234
154	0xbe54fe22	-0.20800069
155	0x3c9b391e	0.018948134
156	0xbdbd739b	-0.092505656
157	0xbd1790c5	-0.037003297
158	0xbe353d20	-0.17699099
159	0xbccb8404	-0.024843223
160	0xbda7802a	-0.08178742
161	0xbdf80d8e	-0.1211196
162	0xbd80320a	-0.06259544
163	0xbdc6408a	-0.096802786
164	0x3bb5e745	0.005551251
165	0xbd16e29b	-0.0368372
166	0xbe1395f4	-0.14412671
167	0xbd776086	-0.060394786
168	0x3d365782	0.044517048
169	0x3d70d96d	0.058801103
170	0xbe046e47	-0.12932692
171	0xbe5b572c	-0.21419972
172	0xbe25224a	-0.16126361
173	0xbdf3686c	-0.11885151
174	0xbc9b76c0	-0.018977523
175	0xbe08f9c7	-0.13376532
176	0x3d9503fd	0.07276151
177	0xbe010362	-0.12598947
178	0x3e2a14e4	0.16609532
179	0xbcdc053d	-0.026857967
180	0xbde03d5a	-0.10949202
181	0x3c7801d7	0.015137157
182	0xbe0dd1b9	-0.13849534
183	0xbe20b599	-0.15694274
184	0x3cdd8e76	0.02704547
185	0xbdeed3dd	-0.116615035
186	0x3d49943b	0.04921363
187	0xbcde7132	-0.027153585
188	0xbdbe0e9e	-0.09280132
189	0xbd4a81fb	-0.049440365
190	0xbcd3cb94	-0.02585391
191	0xbd4d1df3	-0.05007739
192	0xbda33376	-0.079688
193	0x3cd77af0	0.026303738
194	0xbe011b41	-0.12608053
195	0xbd5f3dd2	-0.054502316
196	0x3c306432	0.010766076
197	0xbd9e834a	-0.07739885
198	0xbc386f44	-0.011256997
199	0xbdab88d2	-0.08375706
200	0x3d4960b7	0.0491645
201	0xbdc1c780	-0.0946188
202	0x3c2d42d2	0.010575013
203	0xbe039f84	-0.12853819
204	0x3c8e208c	0.017349504
205	0xbd2aa3ac	-0.041659996
206	0xbe00092c	-0.12503499
207	0xbd819105	-0.063264884
208	0xbe2a5fac	-0.16638058
209	0x3ceed5c9	0.029154675
210	0xbddc0ebf	-0.10745
211	0xbe487b1c	-0.19578212
212	0xbcb54645	-0.022128234
213	0xbdead503	-0.1146641
214	0xbdf11792	-0.11772074
215	0xbcc927d9	-0.024555134
216	0x3def03cc	0.11670646
217	0x3c7bf6c1	0.015378655
218	0xbd77df9d	-0.06051599
219	0x3c2b3ea9	0.010451951
220	0xbe91c29a	-0.28468782
221	0xbce36002	-0.027755741
222	0xbe0751e4	-0.13214833
223	0xbd3f594e	-0.046716027
224	0xbd5d7ff2	-0.054077096
225	0xbc06add5	-0.008220156
226	0xbc38511b	-0.011249806
227	0xbd9bbd62	-0.07604481
228	0xbe080abd	-0.13285346
229	0xbd7483f7	-0.059696164
230	0xbd8ff503	-0.07029154
231	0xbe0e1ef8	-0.13879001
232	0xbe09523b	-0.13410275
233	0x3d80d728	0.06291038
234	0x3bdf5065	0.0068150037
235	0xbe58c499	-0.21168746
236	0xbd7eb9aa	-0.06218878
237	0xbe321ffc	-0.17395014
238	0xbdfb2c7b	-0.12264343
239	0xbb8b74b4	-0.0042558555
240	0xbc0d1180	-0.008610129
241	0xbd8959c9	-0.06706578
242	0xbdcd452a	-0.100229576
243	0xbd53b547	-0.05168655
244	0xbd5714a6	-0.052509926
245	0xbc899f16	-0.01679949
246	0xbbfa5c26	-0.0076403795
247	0xbc8a761f	-0.016902028
248	0xbd80930b	-0.06278046
249	0xbe296183	-0.16541104
250	0x3d10fed4	0.035399273
251	0xbdaff236	-0.0859112
252	0xbe067081	-0.13128854
253	0xbdec81e8	-0.11548215
254	0xbd7c09a2	-0.061532624
255	0xbdaafeef	-0.08349406

lstm1.bias_hh_l0 f4 [512]
0	0x3e52d35b	0.20588438
1	0xbe76c7b8	-0.24099624
2	0xbdcc75e0	-0.0998342
3	0xbe3fb0b3	-0.18719749
4	0xbe0decf8	-0.13859928
5	0x3d040086	0.03222706
6	0xbe21e2ae	-0.15809128
7	0x3cbdfb73	0.02319119
8	0xbc77673d	-0.0151002975
9	0xbdaae998	-0.08345336
10	0xbccc8401	-0.024965288
11	0xbc60b42b	-0.01371483
12	0xbe1c16db	-0.15243094
13	0xbc0dd749	-0.008657285
14	0xbe3dd32a	-0.18537584
15	0x3d3e77ac	0.046500847
16	0xbdf65d32	-0.12029494
17	0xbdf161b4	-0.117862135
18	0xbdf4503f	-0.11929368
19	0x3d34e7ce	0.04416638
20	0xbe558fcf	-0.2085564
21	0x3ca15b0f	0.01969674
22	0xbe26175e	-0.16219851
23	0xbd77cbe3	-0.060497176
24	0xbc0656ef	-0.0081994375
25	0xbd72c249	-0.059267316
26	0x3cd6269c	0.026141457
27	0xbdebfe1b	-0.11523076
28	0xbe1d7940	-0.15378284
29	0xbcb42142	-0.021988515
30	0xbdb1cb3b	-0.08681341
31	0x3cc3faeb	0.023923358
32	0xbe1c3bed	-0.15257235
33	0xbd5e4da4	-0.054273263
34	0xbd2c0c45	-0.04200389
35	0xbdfa98f9	-0.122362085
36	0xbd5c52e3	-0.053789984
37	0xbe836999	-0.25666502
38	0xbd2d28ac	-0.042275116
39	0xbe19fad6	-0.15037093
40	0xbda5a0af	-0.080872886
41	0xbcf6c953	-0.030125296
42	0xbe632a62	-0.22184137
43	0xb9d8bc29	-0.0004133892
44	0xbdfecb36	-0.12441103
45	0xbd16de7c	-0.03683327
46	0xbdfda0ef	-0.12384211
47	0xbd272b1f	-0.040812608
48	0xbcde5bfe	-0.027143475
49	0xbdc0a049	-0.09405572
50	0x3d8fe38f	0.07025825
51	0xbdf1926a	-0.117955044
52	0x3c824690	0.015902787
53	0xbde2dab4	-0.110768706
54	0x3c55cf94	0.013049979
55	0xbd7648da	-0.06012807
56	0xbdefff87	-0.1171866
57	0xbe3c3d8b	-0.18382852
58	0xbe25df53	-0.16198473
59	0x3c2dc7db	0.010606731
60	0xbe196998	-0.14981687
61	0xbe7e5cc3	-0.24840073
62	0xbe12d8d8	-0.14340532
63	0xbcefaa14	-0.029255904
64	0xbe78e9c3	-0.24307923
65	0x3dda00f6	0.106447145
66	0xbe02f79c	-0.12789768
67	0xbcce11f6	-0.025155049
68	0xbdae65ed	-0.085155345
69	0xbe0ca5f8	-0.13735187
70	0xbd6cba96	-0.05779513
71	0xbdcfdf6b	-0.101500355
72	0xbdcaaf36	-0.098967
73	0xbdf2bd02	-0.11852457
74	0xbe0f3611	-0.13985468
75	0x3c85ff9d	0.016357237
76	0xbdcef769	-0.101057835
77	0xbe0d37e6	-0.13790855
78	0xbd7cca1a	-0.061716177
79	0xbe2b8e2c	-0.16753453
80	0xbe35a434	-0.1773842
81	0xbe064cdd	-0.13115259
82	0xbcf3bcb7	-0.029753072
83	0xbe094fa1	-0.13409282
84	0xbd94b263	-0.07260587
85	0xbda96ff0	-0.082733035
86	0xbe077b22	-0.13230565
87	0xbd14ed4c	-0.036359116
88	0x3e0cca56	0.1374906
89	0x3b1b9f1e	0.0023745964
90	0xbe00d888	-0.125826
91	0xbd4ebbf8	-0.05047223
92	0xbe104a33	-0.14090805
93	0xbe0674b3	-0.13130455
94	0xbd326186	-0.043550037
95	0xbca84b72	-0.020543788
96	0x3d0f7f16	0.035033308
97	0x3bdd90e6	0.006761658
98	0xbda7e9bf	-0.081988804
99	0xbc153f41	-0.009109319
100	0xbd8cea37	-0.068806104
101	0xbcc7c668	-0.0243866
102	0xbde6a299	-0.11261482
103	0xbe794ea6	-0.24346408
104	0xbe43544b	-0.19075124
105	0xbda38bf0	-0.07985675
106	0xbe42b698	-0.19014966
107	0xbdcf11ea	-0.10110839
108	0xbd99b147	-0.07504516
109	0xbe3b9889	-0.18319906
110	0xbe272ba4	-0.16325241
111	0xbc75ca67	-0.01500187
112	0x3da0fe27	0.07860976
113	0xbd91a30d	-0.071111776
114	0xbd95633b	-0.07294317
115	0xbd61aa3c	-0.05509399
116	0x3dbb9a19	0.09160251
117	0xbd98ad14	-0.07454887
118	0xbc067a71	-0.008207903
119	0xbd3368d1	-0.043801133
120	0xbde691b7	-0.11258262
121	0xbe57c1c3	-0.21070008
122	0xbd872e55	-0.06600634
123	0xbe32ea2c	-0.17472142
124	0xbe290ccf	-0.16508792
125	0xbe3a6cdc	-0.18205589
126	0x3d95b72d	0.07310329
127	0xbd9d7eaf	-0.076901786
128	0xbd7e2e2c	-0.06205575
129	0xbdc3a8a1	-0.09553648
130	0xbd1b027a	-0.03784416
131	0xbcf72d76	-0.030173045
132	0xbd82d1fb	-0.06387707
133	0xbd1ad138	-0.037797183
134	0xbdcd6fad	-0.10031066
135	0xbdb5ac55	-0.0887076
136	0x3e0217a6	0.12704334
137	0xbd81746f	-0.06321036
138	0xbe2d4a1e	-0.16922805
139	0xbe26c7b3	-0.16287117
140	0xbd8ffb5d	-0.070303656
141	0xbd727f4b	-0.059203427
142	0xbe364e7b	-0.17803375
143	0x3cb914cf	0.02259293
144	0xbdd1b20f	-0.1023904
145	0xbe2426a2	-0.16030362
146	0xbdfbc7d8	-0.122939765
147	0x3d3cf849	0.04613522
148	0xbc6dc1eb	-0.014511566
149	0x3d1387eb	0.036018293
150	0xbdedd205	-0.11612324
151	0xbda9dacb	-0.082936846
152	0x3bf89358	0.007585924
153	0xbc9e80cf	-0.01934853
154	0xbe64306f	-0.22284101
155	0xb7e9ae74	-2.7857e-05
156	0x3ca235f2	0.019801114
157	0xbcaede3b	-0.021346202
158	0xbe3749b4	-0.1789921
159	0xbd973635	-0.07383386
160	0xbe3127f4	-0.17300397
161	0xbd907554	-0.070536286
162	0x3d17898d	0.036996413
163	0xbd9a13ec	-0.07523331
164	0xbe11adee	-0.14226505
165	0x3bb3376d	0.0054692538
166	0xbd56af15	-0.052413065
167	0xbd09309a	-0.033493616
168	0x3c852d5f	0.016256986
169	0xbcf47a15	-0.02984337
170	0xbd64627c	-0.055757985
171	0xbdc90a71	-0.09816445
172	0xbe0cf5a2	-0.13765576
173	0xbe05c2f5	-0.13062651
174	0xbc68c042	-0.014205994
175	0xbdb33b39	-0.0875153
176	0xbd8b19a4	-0.06792
177	0x3d0e9632	0.034811206
178	0x3d483bd0	0.048885167
179	0xbdedc70f	-0.11610233
180	0x3d1aefd0	0.03782636
181	0xbca4294a	-0.02003922
182	0xbdb32fe7	-0.08749371
183	0xbe04c1e6	-0.12964591
184	0xbdfa568a	-0.12223537
185	0xbe74000a	-0.2382814
186	0x3d4fe62d	0.050756622
187	0x3c3cd83f	0.011526166
188	0xbb9bfde5	-0.004760491
189	0xbddf55d9	-0.10905046
190	0xbd80b37a	-0.062842324
191	0xbdccb314	-0.09995094
192	0xbe137016	-0.14398226
193	0x3dbd3ceb	0.09240135
194	0xbe1ac1c5	-0.1511298
195	0x39c69107	0.00037873557
196	0x3d290eac	0.041273758
197	0xbd9fc8bd	-0.0780196
198	0xbe1ff0bb	-0.15619175
199	0xbcb64201	-0.02224827
200	0xbd19746f	-0.037464555
201	0xbe19713a	-0.14984599
202	0xbd86b9d1	-0.065784104
203	0xbd3562d2	-0.044283696
204	0x3d7b3122	0.061326154
205	0xbe30908f	-0.17242645
206	0xbd64af63	-0.055831324
207	0x3c311c2d	0.01080994
208	0xbe1be488	-0.15223897
209	0x3d4af074	0.04954572
210	0xbd722354	-0.059115723
211	0xbe137b3c	-0.14402479
212	0xbd1b351b	-0.037892442
213	0x3b197be6	0.0023419796
214	0xbcb47ab9	-0.022031175
215	0xbd800d38	-0.06252521
216	0x3df1d408	0.1180802
217	0x3dce729d	0.100804545
218	0xba82d226	-0.0009980842
219	0xbb15cbfe	-0.0022857185
220	0xbe130a0c	-0.14359301
221	0xbe04d020	-0.12970018
222	0xbe140ff3	-0.14459209
223	0xbdd48fb9	-0.103789754
224	0x3b18f119	0.0023337065
225	0x3d84a8bf	0.06477498
226	0xbd52fd09	-0.051510844
227	0xbcf7b47c	-0.030237429
228	0xbd38f3c9	-0.045154367
229	0xbdd843cc	-0.10559806
230	0xbd298f5d	-0.041396488
231	0xbe16fa9e	-0.1474404
232	0xbda00a8f	-0.07814514
233	0xbd45a37f	-0.048251625
234	0xba80b70c	-0.0009820177
235	0xbe6b6fb2	-0.22991827
236	0x3c5b4d23	0.01338509
237	0xbda5933f	-0.080847256
238	0xbe038200	-0.1284256
239	0xbba52d3d	-0.005040793
240	0xbd87df54	-0.06634393
241	0x3cfddb38	0.03098832
242	0xbd925b3c	-0.07146308
243	0xbde85bcf	-0.11345636
244	0x3b1ab9a0	0.0023609176
245	0xbd479a94	-0.0487314
246	0xbda51675	-0.08060924
247	0xbe15d77e	-0.14632985
248	0xbe43f8f3	-0.19137935
249	0xbcbe59cc	-0.023236178
250	0xbc4403f7	-0.011963836
251	0xbe29f18f	-0.16596054
252	0xbde4dc23	-0.111748
253	0xbe0fe915	-0.14053757
254	0xbd5b657d	-0.053563584
255	0xbe086b8b	-0.13322274
