model/models/3m/trained_model.pt (torch, 666885 bytes, 17 tensors)

conv1.weight f4 [48, 5, 5]
00000000: 4793 ecbd c3fb dfbc d0e2 213e 88d8 20be
00000010: 5762 88bd 9802 56bd c667 eeba 319f 72bd
00000020: 73e1 43be 3943 063e 10b3 40be bfd3 d23c
00000030: 8194 cabd cee2 b43d 6744 fbbd 880e 3dbd
00000040: 9eed 43be 5f20 5abd 3ed2 453e 86c5 a5bd
00000050: 4063 1b3b 05c3 32be c809 31be f70e 283e
00000060: b6ef 463e bd04 153d 40b2 7ebe 0ff1 c8bd
00000070: cdf9 c8bd 0028 593a 69d4 21be 52d2 bd3d
00000080: 66a9 37be 10c6 843c 9460 01bd 3a00 e83d
00000090: d25c 28be f2de 23be 1d3d fdbd e85d bb3c
000000a0: 1eb6 4fbc 09ed 17bd b858 d4bd f59b 44be
000000b0: 1f8b 453e 677e 16be 1eff 62be 0a28 ec3d
000000c0: 272d 30be 90c1 9ebd 67af 363e 6ab0 d9bb
000000d0: 71bf e83d 098e 133e 92bc d73d 3b64 6fbc
000000e0: 73bd 2d3e fad4 623e 2a40 df3d 1feb 283e
000000f0: 2f29 2bbe 7a2e 843d c86e 87bb c8d3 d23b
00000100: ea09 b6bb 867b 49be 710e e4bd a0d0 f6bc
00000110: 312e 073e 7504 2d3e 0f6e dabd d185 34be
00000120: a3a5 f83d 1352 5abd e9bc 3cbe 0383 c0bd
00000130: 12b8 01be 800b b5bd 92c7 15be 3434 48bd
00000140: f3c2 d2bd cc9c 1f3d ea28 bdbd c3e3 b6bd
00000150: b6af 2abe d760 30be bba2 31be faf0 d5bd
00000160: 8e23 a23d 94e5 33bd 538c 18be d22e 12be
00000170: eb80 36be 50ea 363c 8fc1 333e c050 6abb
00000180: 22e7 c83d 4058 f3bc e071 38bc 0073 f43c
00000190: 7ef0 34be 616b 01be 7c59 c13d 72fb 1a3e
000001a0: 3287 1c3e 17db 253e 13c2 393d 0225 8e3e
000001b0: 324f 793e e2be 163e 4988 873c e624 d1bc
000001c0: 799c a4bc dced 403e dd2e 5bbd 9828 d4bd
000001d0: f02e 913d d9c7 793e 748f a03c 2a37 a6bd
000001e0: 971c 423e dd70 323d 3b37 93bd 55f5 6fbe
000001f0: 098c 53be 2f37 a4bd 158e 513c 562c 8ebd
00000200: 2711 20be 9982 bfbc 2e4c 85bd a8cb 31be
00000210: aa6d 32bd 9229 a8bd dfeb 2dbd b466 59bd
00000220: eeb2 1cbe d3d4 84be 3c46 233c f83d 4d3d
00000230: 6482 15bd 5f2b dc3d 59b2 e43d 6f25 e9bd
00000240: a489 49be cadb 0a3d f39e eabd 2ce7 c43d
00000250: 5d9e d33d e5ce 673d 52e9 81bc d291 19be
00000260: b484 b9bd 8a9e 7e3d dbe0 06be 4cab ea3d
00000270: e3c1 eebd 5c3e 56be a4f5 08be 2b3a f8bd
00000280: cc52 10be 2e22 083e 38e9 23bd 20bd 093e
00000290: bb09 a7bd 5403 a33d 5a37 fe3d 67dc a83d
000002a0: e062 00be a373 273d 1e45 4a3e ff6d e33d
000002b0: 5018 ccbd 1ff7 d33c 3134 f23d ba6e 48be
000002c0: bc9b 2e3e 6ea9 823b c7bb fe3d 18b8 32be
000002d0: 88aa d9bd 8654 833d 4e8f 263e 8608 d1bc
000002e0: 1783 543e 0e2e e4bd eeef 4d3e f1ae 9a3d
000002f0: d95d b93c 1a50 d1bd 0f7b 1bbe a984 023e
00000300: dfb7 1c3e 3a70 273e 6428 683d b62e 2f3e
00000310: 9210 403e e603 af3d 4cef f4bd 4837 a1bd
00000320: 43e0 233e 1b74 373d bb04 303e bd6d 933d
00000330: 543f 9ebd 6fc3 adbd 5c09 e13d 378b 573e
00000340: 7e88 863d f5a8 bc3d ad0c d2bd bd48 e4bd
00000350: 3dad 1cbd 99ff 213e 1684 00be a2d2 8dbd
00000360: 42e6 d23d 6b04 2d3e 2d29 813e d932 2e3e
00000370: f782 e43d 4533 d13d da05 17be 4cf5 42be
00000380: a42d 9abd 8c98 0e3e ce7c 7abd 883e e4bd
00000390: ba00 583d 3cda 26bd a2a8 67be 64a7 39be
000003a0: bdd7 efbd e091 f33c 50db 0fbe 9d1a b4bd
000003b0: 84b6 b0bd b62b f7bd 19f2 43bd 4afb 41bd
000003c0: d7b8 6bbd 9d3c 17be 8e04 f2bd ecd3 6cbe
000003d0: 3184 50be d9d6 6a3e 0ba6 7a3e d603 b13c
000003e0: d870 02be d5a5 223b aec5 ccbd 1e32 09be
000003f0: 1ad1 c73d 7bce 203d e83b 97bd 9461 30be
-0.115515284 -0.027341729 0.15809178 -0.157076 -0.06659382 -0.052248567 -0.0018188886 -0.059233848
-0.19128971 0.13111581 -0.18818307 0.025735734 -0.09891606 0.08832322 -0.12268906 -0.046156436
-0.19133613 -0.053253528 0.19318482 -0.08094315 0.002371028 -0.17457207 -0.17288888 0.16411959
0.1942738 0.036381472 -0.24872684 -0.09811603 -0.09813271 0.00082838535 -0.15803684 0.09268631
-0.17935714 0.016207725 -0.031586245 0.11328168 -0.16441658 -0.16003016 -0.12365172 0.022871926
-0.012677697 -0.03709129 -0.10368484 -0.19200118 0.19291352 -0.14696656 -0.22167632 0.11531074
-0.17204724 -0.07751763 0.17840348 -0.0066433446 0.113646396 0.14409651 0.10534014 -0.014611299
0.169668 0.22151557 0.1090091 0.16495942 -0.16714929 0.06454177 -0.004133079 0.0064339377
-0.005555381 -0.19676027 -0.11135567 -0.030128777 0.13201214 0.16896231 -0.10665523 -0.17629172
0.12140968 -0.05330093 -0.18431439 -0.093999885 -0.12667874 -0.08840084 -0.14626911 -0.04887791
-0.1029109 0.038967893 -0.09236319 -0.08930161 -0.16668591 -0.17224441 -0.17347233 -0.10446353
0.07916938 -0.043920115 -0.1489728 -0.14275673 -0.17822616 0.011164263 0.17554305 -0.0035753697
0.0980971 -0.029705167 -0.011257619 0.029839993 -0.17669865 -0.12638618 0.09440896 0.15134981
0.15285948 0.16196857 0.0453511 0.2776261 0.24346617 0.14721254 0.016544478 -0.02553029
-0.020094143 0.18840736 -0.05351149 -0.10359305 0.07089031 0.24392642 0.019599654 -0.081159905
0.18956219 0.043564666 -0.07188269 -0.2343343 -0.20658888 -0.08018338 0.012790223 -0.0694205
-0.15631543 -0.023377704 -0.06508671 -0.17362845 -0.043561615 -0.08211054 -0.042461272 -0.05307646
-0.15302631 -0.25943622 0.009965476 0.050107926 -0.036501303 0.1075046 0.111668296 -0.11384093
-0.19681412 0.033901013 -0.114560984 0.09614405 0.1033294 0.056593794 -0.015858326 -0.14997032
-0.09058514 0.062162913 -0.13171713 0.114584535 -0.11658075 -0.20922226 -0.13374954 -0.1212047
-0.14094085 0.13294289 -0.040017337 0.13451052 -0.08156153 0.07959619 0.12412901 0.082451634
-0.12537718 0.040881764 0.19752929 0.111049645 -0.09965575 0.025874672 0.11826361 -0.19573489
0.17051595 0.0039874827 0.124381594 -0.17453039 -0.106282294 0.06412606 0.16265604 -0.02551676
0.20753132 -0.11141597 0.20111057 0.07552899 0.022627758 -0.10220356 -0.15183662 0.12745918
0.15304516 0.16351405 0.056679145 0.17107663 0.18756321 0.085456654 -0.11959705 -0.07871872
0.16003518 0.04478846 0.17189305 0.07198665 -0.07726923 -0.084845416 0.10988113 0.210492
0.065690026 0.092119135 -0.10256324 -0.11146686 -0.03825115 0.15820159 -0.12550387 -0.06924941
0.102978244 0.16896217 0.25226727 0.17011584 0.11157792 0.10214857 -0.14748326 -0.19038886
-0.075282365 0.1392538 -0.06115418 -0.111447394 0.052735068 -0.04073547 -0.22622922 -0.1813026
-0.11711071 0.029732645 -0.14048505 -0.087941386 -0.08628562 -0.12068884 -0.047838304 -0.04735879
-0.057549324 -0.14769216 -0.11817275 -0.23127717 -0.20362927 0.2293352 0.24477403 0.021608274
-0.12738359 0.0024818082 -0.09998642 -0.13398024 0.0975668 0.039259415 -0.07384473 -0.17224723

conv1.bias f4 [48]
00000000: f7c7 e5bd e8e7 cbba 3c51 57be 7441 0cbd
00000010: ce67 0ebe 3783 29bd a3d2 783e 82aa 93bd
00000020: 5d55 aebe a880 063e 7d36 98bd 9c35 aebd
00000030: 33ee 6ebe 4a7c a2be 7e61 99bb 5a64 23be
00000040: 6a4b 80be c171 24be 2a96 00be fa92 f6bd
00000050: f610 9c3d 6496 9dbe 90c7 d1bc a229 b3bd
00000060: f3f4 e9bd 4d32 8d3e 2a94 f6bd 627d 3dbe
00000070: cb14 653d 9fe0 b63d cd99 20be 567a 3fbe
00000080: 8f23 593e 1277 21bd 8786 71be d245 03be
00000090: 97d5 d0bd a073 fabd e9e0 e03d 7d92 b63d
000000a0: a346 41be 399c a8bd 3e6e edba 4534 143d
000000b0: a3e5 22be 369d cc3c 3b12 9bbe 50e5 e6bd
-0.11219781 -0.0015556784 -0.21027082 -0.03424211 -0.13906786 -0.0413849 0.24299102 -0.07210256
-0.34049502 0.13135016 -0.07432268 -0.08506319 -0.23333053 -0.3173545 -0.0046808114 -0.1595625
-0.25057536 -0.16059019 -0.12557283 -0.12039752 0.076204225 -0.307788 -0.025607854 -0.08748175
-0.114236735 0.2757744 -0.12039979 -0.18504861 0.055928033 0.08929562 -0.1568367 -0.18699011
0.21204971 -0.039420195 -0.23586474 -0.12819603 -0.10196989 -0.12229085 0.10980398 0.08914659
-0.18874602 -0.08232922 -0.001811452 0.03618266 -0.15907912 0.024977308 -0.30287346 -0.11274207

conv2.weight f4 [96, 48, 5]
00000000: 304d 693d b888 663d c262 dabc 1c83 623d
00000010: 2089 f0bc 82f2 82bd 98de 6a3d ded0 483d
00000020: 42d2 58bd fc48 53bc 5a22 16bc 1385 8a3b
00000030: 2d93 e9bc 8457 743a a070 51bd 76fd 57bd
00000040: 5852 edbc 9c39 c4bc d235 10bd 5618 783d
00000050: 5b1a 4bbd c074 2dbd 056c 10bd 926f be3c
00000060: 0c6f 40bd ff64 70bd 40e4 a23a 1fbb 61bd
00000070: 8e30 363d e06d ecbb f066 e13b 6c8d 29bc
00000080: 389c 2e3c d00c b43b 3cbc 333d 61c5 55bc
00000090: de4c 0f3d 9ad0 babc d4d2 9bbd f781 88bd
000000a0: 7c7e f53c 7eb2 58bd 1c50 69bc efef 81bd
000000b0: 88f7 273c 387d 74bd 86fa 23bd 0919 813d
000000c0: 5227 4abd 20e5 133d 747d eebc 5e7e 563d
000000d0: a86c c1bc babe 7bbd 807d 753a 676f 82bd
000000e0: 9652 123c 1e6f b8bd 99d3 71bd 7aa5 38bd
000000f0: 7aac 36bc 387d afbb d622 063d d2d4 8bbd
00000100: 0c42 3dbd dff1 5fbd ad1c 8dbb 7e16 503c
00000110: 2df2 b3bd 97c1 7fbd 206a 003b c377 803d
00000120: ee82 3ebd 240d 843c 1a8e 0e3d a07c c33c
00000130: b47a 1e3d d49c 5abd 6829 5e3c b11d 803d
00000140: b3a1 7abd ba4f 7ebd caa9 1abd e6a7 c13a
00000150: 12db cebc 5607 883b ebba eb3c d4d8 e1bc
00000160: 84e9 60bc 568e 97bd 7e83 c6bc eb3f 12bd
00000170: e96b 29bd ac53 82bd 5006 07bd f0a7 51bc
00000180: f083 b63c 3094 febb bba2 74bd 5e60 17bd
00000190: b89d 3dbc 8c30 4abc d47d 6dbc eb8e 5ebd
000001a0: ea51 bdbc 4e26 5f3d 5a69 cabc ece6 143d
000001b0: 1091 5cbc 3428 0a3d 7e76 30bd 0331 2dbd
000001c0: ec85 21bc c1d1 6ebd 805f a43c f8e3 303d
000001d0: 61b5 d93c 5ed8 29bd a504 c73c 6661 b5bd
000001e0: c469 65bd d03e 47bb dc6c 9dbc b6ec 373d
000001f0: 09a9 26bd a885 423c 18c9 da3c 04e6 4abd
00000200: 5a80 17bd b4dd bebc c244 c0bb 8ce1 ae3c
00000210: ea89 7abd 56d6 46bd 0103 413c 921c 0c3d
00000220: 73ea 82bd b833 dc3c d25a a9bc 20d3 53bc
00000230: 715d 62bd e0fe c8bc 27a0 6cbd 64c0 483d
00000240: 0c88 5c3d 64f4 98bc 9eae 043d 2430 3c3d
00000250: 38f4 45bd a813 0f3d e4b2 b2bc 9e4b afbd
00000260: 8101 0bbd 0643 033d d8ff 05bd 0484 6a3d
00000270: 26cc 29bd 50b4 ec3c c93d 11bd b840 493c
00000280: 0f40 823d 6813 c93c 7a3c 7a3d 9074 2cbd
00000290: d076 db3c 779f 26bd fede 063d 5d28 39bd
000002a0: f721 74bd 60b1 77bb 641f 67bd 14ed 12bc
000002b0: 5ffa bebd a687 41bc b1a1 b0bd 464b b2bc
000002c0: bffd 833d 12f3 98bc 6af0 b8bc a0fa 513b
000002d0: bb7b 75bd 8f60 5dbb ad92 493c 7320 9abb
000002e0: 79cf b6bd ae4a e5bc a0ce fb3b 3e4d 25bd
000002f0: 8cd6 5bbd fc0e 3f3d be89 3fbd 0dc3 5bbc
00000300: 706d 8c3b 898b fb3b 5381 45bd 909d 9b3c
00000310: 3029 15bd ca8e 4dbd bc66 253d ac6a c8bc
00000320: df50 05bc 7101 09bc 26b7 a9bd 4a05 ecbc
00000330: 5189 ee3c faa8 bdbd 39c0 c1bc d198 18bc
00000340: 8b70 68bc 14ac 4bbb b23e 3bbd 6581 353c
00000350: 5be7 bcbd 726d 86bd 1ca5 7fbd 98e3 9fbd
00000360: d2cb 60bd 6858 03bc c409 9dbd ce4d 233c
00000370: a6ca f8bc dc41 d0bc 1697 85bc 90fe 603c
00000380: 6926 00bd 1c13 163d 206f 2e3c 4031 053c
00000390: 5d33 6abd 24cb 163d 4047 fa3b 2414 20bc
000003a0: 00ee 78ba 28bf d6bc c835 113d 1450 b33c
000003b0: 7a21 253d f88c a63c 4c17 b63c 048d 083d
000003c0: 5c65 2bbd d907 1f3b d87b c5bc a81d 00bc
000003d0: ea5a b4bc 3e79 2a3d befd 503d ebd5 123c
000003e0: 813e 71bd c95c 493b f87a 4f3d 0e23 ae3d
000003f0: 5359 b83d 0638 fa3c 7731 313d 90a7 95bb
0.056958377 0.05628273 -0.02665842 0.055300817 -0.029362261 -0.06393911 0.05734119 0.049027316
-0.052934892 -0.012895819 -0.0091634635 0.0042272895 -0.028512562 0.0009320902 -0.0511328 -0.052731954
-0.028969929 -0.023953252 -0.035207577 0.060570084 -0.04958568 -0.04234767 -0.035259265 0.02324656
-0.046980903 -0.058690067 0.0012427643 -0.055110093 0.0444799 -0.0072152466 0.006878726 -0.010348659
0.010657363 0.0054946914 0.043880686 -0.013047547 0.034985416 -0.022804547 -0.07608572 -0.06665414
0.029967539 -0.0529046 -0.014240291 -0.06344592 0.010251887 -0.05968973 -0.04003384 0.06303603
-0.049353905 0.036107183 -0.029112555 0.052366607 -0.023611382 -0.061461188 0.0009364709 -0.063689046
0.008930823 -0.09005569 -0.059039686 -0.045079686 -0.01114952 -0.0053555034 0.032748066 -0.06827702
-0.046205565 -0.054674026 -0.004306397 0.012700675 -0.08786426 -0.06244048 0.0019594505 0.06272843
-0.046511583 0.016119547 0.034803487 0.023863137 0.038691238 -0.05337222 0.013559677 0.06255663
-0.061189365 -0.062087752 -0.03775958 0.0014774769 -0.025250945 0.004151265 0.028775653 -0.027569212
-0.013727549 -0.07400195 -0.024232622 -0.03570549 -0.041362677 -0.063636154 -0.032965004 -0.012796387
0.02227971 -0.00776913 -0.059725504 -0.036957137 -0.011573248 -0.012340676 -0.014495332 -0.054335516
-0.023110349 0.05447989 -0.024708439 0.036353037 -0.01346232 0.033729747 -0.043081753 -0.04228307
-0.00985859 -0.058305506 0.02006507 0.043186158 0.026575746 -0.04146611 0.024294207 -0.08856468
-0.05600907 -0.003040243 -0.019216947 0.04490348 -0.04068855 0.011872686 0.026707217 -0.049535766
-0.03698764 -0.023299076 -0.0058675716 0.021347784 -0.06116668 -0.04854425 0.011780501 0.034206934
-0.06392374 0.02688013 -0.02067319 -0.012928754 -0.055264894 -0.024535596 -0.05776992 0.049011603
0.053840682 -0.018671222 0.03239309 0.045944348 -0.04832861 0.034930855 -0.021813817 -0.08559345
-0.03393698 0.03204634 -0.032714695 0.057254806 -0.041454457 0.028894573 -0.035459314 0.012283497
0.063598745 0.024545386 0.06109283 -0.04210335 0.026790053 -0.04067942 0.032927506 -0.04520451
-0.059602704 -0.0037794933 -0.05642642 -0.008967657 -0.09325098 -0.011812126 -0.0862459 -0.021764409
0.064448826 -0.018670592 -0.022575576 0.0032040253 -0.05993245 -0.0033779477 0.012303037 -0.0047035753
-0.08926291 -0.027989712 0.0076845437 -0.040356867 -0.053671405 0.04664515 -0.04676222 -0.013413203
0.004285507 0.007676546 -0.048219036 0.01899603 -0.036416233 -0.050185002 0.04038118 -0.024464928
-0.008136957 -0.00836216 -0.08286886 -0.028811116 0.029118212 -0.09260745 -0.02365123 -0.009313778
-0.014186989 -0.0031077908 -0.045714088 0.011078213 -0.09223815 -0.06563844 -0.06241332 -0.07807082
-0.05488188 -0.008016683 -0.07667878 0.009967281 -0.030370068 -0.02542203 -0.016307395 0.013732567
-0.03128663 0.036639318 0.010646611 0.008129418 -0.05717789 0.036814824 0.007637888 -0.009770427
-0.0009495914 -0.026214197 0.03545168 0.02188877 0.04031513 0.020330891 0.022227906 0.033337608
-0.04184471 0.0024266152 -0.024106905 -0.007819571 -0.022016007 0.04161953 0.051023237 0.008962135
-0.0588975 0.003072547 0.05065438 0.0850278 0.09001412 0.030544292 0.043260064 -0.004567094

conv2.bias f4 [96]
00000000: 4ce4 81bd eba6 01be 43a3 6bbd 92da 88bd
00000010: 4241 79bd c16f 51bd 7754 3ebd 97f1 d3bc
00000020: 1716 50bd 3a03 c0bd fb91 ee3d cdc3 01bc
00000030: c6f4 05bd c5b4 a2bd 6162 fdbd 4fd6 ccbc
00000040: 6b4b 57bd 0a4b a6bd cd5f 91bd 8a11 0abe
00000050: d411 babd 5cd0 bbbd 015f 8a3d 9d1e 56bd
00000060: 9fff 03be 7615 81bd 89aa 38be dbe8 0e3d
00000070: 18eb a7bd 11ea eb3c f71b bcbd 6289 04bd
00000080: 4c4f 8abd 79bb aebd 4112 cbbd bfe3 01be
00000090: bc73 20bd 4f6d 64bd f6cc 61ba aab8 adbd
000000a0: e415 833c 4b61 ca3b 97d0 91bc 7831 d93c
000000b0: 0f50 323e 6357 9abc cf96 babd 3d94 c33c
000000c0: 939f b2bd 5ad0 d9bc 79d8 f4bd bd9b aa3c
000000d0: 0e1b 123b 8224 c1bd b3fd a4bd 0350 c4bd
000000e0: 84d4 b9bd 79ca c7bd bdc5 94bb 5b3b 87bd
000000f0: e26d 27bd f40f c4bc b121 a1bd f4d2 94bd
00000100: 53cd 88bd 4a6b 4dbc 8dd7 bd3c 0851 8b3c
00000110: ec0d b4bd 7b56 c73c 0e18 95bb a083 afbc
00000120: fc4a a2bd 63bb 85bd c626 64bd 57e2 89bc
00000130: 643d 65bd 8bec cdbd 9667 bcbd 33ba 22bd
00000140: f2f1 afbd 9b19 7ebc fda9 703c 0cc9 dd3b
00000150: ad13 263d 8b00 cabd 95ba 36bd 846a b8bd
00000160: 581f 77bc 1a1d 08bd a8cf 813c 5c48 a8bd
00000170: fc86 18bc 2b7b b7bc 8e37 a0bd c98f 1bbe
-0.06342372 -0.1266133 -0.057528745 -0.06682314 -0.06085325 -0.051131967 -0.04646727 -0.025872035
-0.050802317 -0.093756154 0.11648937 -0.007920218 -0.032704137 -0.07944635 -0.1237228 -0.025004534
-0.05256216 -0.08119781 -0.07098351 -0.13483253 -0.09085432 -0.09170601 0.06756402 -0.05227529
-0.1289048 -0.063029215 -0.18033804 0.034890037 -0.081991374 0.028798135 -0.09185021 -0.03235758
-0.06753406 -0.08531851 -0.09915591 -0.12684534 -0.039172873 -0.055768307 -0.00086136104 -0.084824875
0.01600165 0.006176149 -0.017799659 0.026512846 0.17413352 -0.018840497 -0.09110796 0.023874396
-0.087218426 -0.026588608 -0.119553514 0.020826215 0.0022293958 -0.094307914 -0.08056202 -0.095855735
-0.09073737 -0.097554155 -0.004540174 -0.06603118 -0.040876277 -0.023933388 -0.07867754 -0.072667986
-0.066797875 -0.012537787 0.023174072 0.017006412 -0.08791718 0.02433323 -0.0045499867 -0.021425068
-0.079244584 -0.06529882 -0.05570104 -0.01683156 -0.05596675 -0.100548826 -0.09199445 -0.039728355
-0.08591069 -0.0155090345 0.014688966 0.0067683514 0.040546108 -0.09863385 -0.044611532 -0.09004691
-0.0150831565 -0.03323088 0.015846089 -0.082169265 -0.0093095265 -0.022397598 -0.07823096 -0.15191568

lstm1.weight_ih_l0 f4 [512, 96]
00000000: 350a 0fbb 51d2 4b3d 1c58 8d3c 69a8 9f3d
00000010: 8b3b 833d 3555 dcbc dabd 953d c609 063d
00000020: 2683 0f3e bce2 773c 1981 7fbd db3f 0c3c
00000030: b9b7 26bd fbbf b83d 4e30 94bc ce18 553d
00000040: f8b9 8cbb 40fd 993c 14a0 0ebc f8b9 943d
00000050: 124b e1bd 556d 103e 35b9 d13d 47f0 0a3e
00000060: 5db3 bf3d 5106 2ebc 0053 3e3e 0e95 d5bc
00000070: 20eb 9a3c 3e76 57bd 6b66 bb3d 7485 333d
00000080: c1e5 753d 8f19 813d 6cd1 c5bc e440 1f3e
00000090: 17b7 2d3c 4d6b 023d 019b 913d 1405 233d
000000a0: cafc 063e f51a ab3d 9b09 25bd d8f0 843d
000000b0: 7d27 d73d 9959 97bc 1c49 9abb d6b8 b23d
000000c0: fd9e 393e c89a 173d 63e6 933b 2ffb 2c3d
000000d0: a6f4 3a3d cc18 b93d 0b41 ca3d baec c9bc
000000e0: 8e45 4a3d b190 af3b 0282 3ebd d826 e9bd
000000f0: 0cb8 393e 8a04 85bc 522d 10bd 28f2 a23d
00000100: 9547 413e 5e99 533d bdf1 2fbc bede 4ebd
00000110: ef5e 92bc 5cd5 99bd d023 b93d b4e8 293d
00000120: f86f 9c3c 5f62 7a3d 8e4c 41bd e43a 643c
00000130: f913 cb3c 44b3 443c 341e 19bd c1b3 17bd
00000140: 3b2d 1d3e 30ad ed3d 263b 12bd 2cbe e83d
00000150: 9390 f23d c5b7 063e ce38 123e f7bf 193d
00000160: ecc0 d83d 143d c33d 69ed 123e d037 bc3c
00000170: 7371 eb3d 2a9b ff3c c674 bfbc 9cff fd3d
00000180: a29d 7a3d ed6b 0d3e 8df1 d5bc a983 993b
00000190: 1436 913d 03cb acbb 73df 493d 60bb e13d
000001a0: afb4 b43d 9e78 85bd c97b 5e3d 2cd2 a23c
000001b0: f8f8 db3c f4f8 fdbb 0be3 543d 0456 1f3b
000001c0: 30b0 cb3d 8bd5 46ba a8d8 1d3d 1520 193d
000001d0: dd15 b5bc bf2b 6bbc 9dd0 d33d 045e 06bc
000001e0: 1653 eb3d daa9 973c bf64 bc3d 3737 ac3c
000001f0: 6d9c 8d3d b605 c33d 69de cf3b eed0 ca3d
00000200: ce56 d93d 3d52 df3c 1079 a53d 7328 af3d
00000210: 2057 373d 44ff 003e fb0b a23d 996a 963d
00000220: 7167 b03d c95c d63d bfa3 a53d 2d46 a73d
00000230: 37df e83d bc80 a63d 2780 be3d 080f fc3c
00000240: cc8c 043e 63ca d33d 9c0a 80bc e9be 983d
00000250: f18f 653a 5f08 023c c05a 56bc c113 25bc
00000260: b246 643d 365a ae3d 4210 83bd 6dcd 593d
00000270: e13a 0e3d 0a1e d03d c8e5 033e 6bb8 933d
00000280: 358e bd3d 2725 a53d 7e87 c93c d2ca a73d
00000290: a422 ea3d 60e4 503d 120e 003e 2495 a9bd
000002a0: c897 01bc 3176 873b 1d80 46bd 4363 703d
000002b0: d8a1 a8bc 00ce d8bb 7373 05bc ffc6 7f3d
000002c0: 0146 143d 38a5 b23d 2284 9f3d b3ce c63d
000002d0: 8186 e73d c28c 893d 73eb 323c 21ec cebb
000002e0: 460f bc3d 8dd5 c2bc 1b67 063e 31ac 9f3d
000002f0: 9afc e63d 186e 323d 57cf 10bd 5d7c df3d
00000300: cd3e 973c b245 423d 15df f53d b396 8c3d
00000310: 71a1 98bc 02a1 df3d 9f26 3bbc f944 ab3b
00000320: 5f9a 743c 3230 debc 40b4 eb3d cd87 c83d
00000330: 516f 4dbd cd53 4bbd 4594 db3d 0fae bc3d
00000340: 1a7f 15bd 1daf d73d a07f e03c 4368 ee3d
00000350: db5a 91bd 83fa b9bc d67f 0bbd d5a9 d3bc
00000360: 0288 983d 2c15 9b3c 0319 a23c 8ba2 6d3d
00000370: 9f17 80bd da5c 983d bfbd d13d c546 df3c
00000380: 644b 88bc 4581 f33d 75dd 803d 6b6c 793d
00000390: d695 c23d 5109 2a3d 5d09 a43d 4e13 66bb
000003a0: c13b f73d 5371 de3d 5c78 89bc 501d b83d
000003b0: ec0e 0e3e 04fc bd3c 0429 973d 3fea 903c
000003c0: 6776 da3d 9bc2 043e 77b2 b3bc 35d4 afba
000003d0: bfa2 3abd 8375 623c 239f 0f3c 7d87 a23d
000003e0: d743 c63d cc83 b7bb 170b 49bd ea8d 03bd
000003f0: e6c4 103d f0f3 23bc f1d8 633d a89b 9c3d
-0.0021826152 0.04976112 0.017253928 0.077957936 0.06407841 -0.026896099 0.07311602 0.032724164
0.14014873 0.015129741 -0.062378976 0.008560146 -0.040702555 0.09020992 -0.01808944 0.05202561
-0.00429463 0.018797517 -0.008705158 0.07262033 -0.11000647 0.14104207 0.102404036 0.13568221
0.09360383 -0.010621623 0.1858635 -0.026072051 0.018910944 -0.052603 0.09150394 0.043828443
0.060033564 0.06303703 -0.024147712 0.15552098 0.010602734 0.03184061 0.07109643 0.039799765
0.13182369 0.08354751 -0.040292364 0.0649125 0.10505579 -0.01847534 -0.0047084223 0.08726661
0.18127055 0.037012845 0.004513548 0.042231735 0.04564347 0.09037933 0.09875687 -0.024649013
0.04938274 0.0053578247 -0.046510704 -0.11384362 0.18136615 -0.016237516 -0.03519947 0.07956344
0.18874963 0.051659934 -0.010738787 -0.050505392 -0.017867533 -0.07511398 0.09040034 0.04148169
0.01909636 0.06112897 -0.04719215 0.013930056 0.024789797 0.012005631 -0.03738232 -0.03703666
0.15349285 0.116052985 -0.03570094 0.113643974 0.118439816 0.1315604 0.14279482 0.037536588
0.10583672 0.09533134 0.14348377 0.022975832 0.11496248 0.031201918 -0.023371112 0.12402269
0.061185487 0.13810702 -0.026116157 0.0046848846 0.07090393 -0.0052732243 0.049285363 0.11022067
0.08823525 -0.065171465 0.05431727 0.019875608 0.026852116 -0.007750625 0.051974338 0.0024312744
0.099457145 -0.0007584921 0.038536698 0.03738411 -0.022105152 -0.014353692 0.10342524 -0.008201126
0.11490457 0.018513609 0.09198903 0.021022422 0.069146015 0.09522574 0.006343652 0.099031314
0.1061226 0.027260894 0.080797315 0.08552637 0.044760823 0.12597376 0.07912441 0.07344551
0.0861348 0.10466916 0.08087873 0.08167682 0.113707 0.08130023 0.09301787 0.030768886
0.12944335 0.103413366 -0.015630059 0.07458288 0.00087571057 0.007936566 -0.01308316 -0.0100755105
0.055731483 0.085133 -0.06399585 0.053174425 0.03472412 0.101619795 0.12880623 0.07212909
0.092556395 0.08063727 0.02460074 0.08192982 0.114323884 0.050999045 0.12505367 -0.082803994
-0.007909723 0.0041339626 -0.048462022 0.058688413 -0.020584986 -0.006616354 -0.008145201 0.062445637
0.036199573 0.08722919 0.07788874 0.097073935 0.113049515 0.067163005 0.010920393 -0.00631477
0.09182601 -0.02378347 0.13125269 0.07796515 0.11278649 0.043562025 -0.035353985 0.10912392
0.018462563 0.047429748 0.1200544 0.06864681 -0.018631669 0.10919382 -0.011422782 0.005226728
0.014929383 -0.02712259 0.11508989 0.09791527 -0.050154988 -0.049640466 0.107216395 0.092128865
-0.036498167 0.10531447 0.027404606 0.1164098 -0.070974074 -0.022702461 -0.03405746 -0.025837818
0.074478164 0.018930994 0.019787317 0.05801634 -0.06254505 0.07439585 0.10241269 0.027255425
-0.016637512 0.118898906 0.062922396 0.06089441 0.09501235 0.04151279 0.080095984 -0.0035106721
0.12071944 0.10861459 -0.016781025 0.08989966 0.1387288 0.02319146 0.0738087 0.017689822
0.10667115 0.12964861 -0.021935685 -0.0013414683 -0.045565363 0.013821962 0.0087659685 0.079359986
0.09680908 -0.005600428 -0.04908284 -0.03211776 0.035344027 -0.01000689 0.055626813 0.076468766

lstm1.weight_hh_l0 f4 [512, 128]
00000000: b61f b1bd f1f0 25bd 976d 183e 26f6 023d
00000010: 178e 453d da77 373d 2048 19bd b55e bbbd
00000020: a97f 7fbd e273 aebc 4da5 b2bc c019 ca39
00000030: 5cbf 8fbc 62ac b2bc ddfb 783d 938d e3bd
00000040: d8ec f1bc 7c51 98bd c9f7 9bbd 191d 133d
00000050: ac3f 8dbb f35e cdbd 7998 09be 2cda 14bd
00000060: a654 953d c7c7 5abd 55dc 05be 00cd 753d
00000070: 6bfc 133e 0fd4 0ebe 9cf5 833d 65ce 153e
00000080: 0555 d4bb 27f0 323e 24df 9fbd 8037 89bd
00000090: 7712 d5bd 2352 813d 9c80 65bc 8341 fcbd
000000a0: 9b49 e7bd 3cba d1bd 7a74 b03d 7a41 533d
000000b0: ae15 163d 4ef7 533d f649 92bd cf1d bd3d
000000c0: 9df5 063e a1c5 8abd 8de1 123d 1c6c 1ebd
000000d0: f13d b93d 959a dfbd 5a9e fc3d fa2f 14bd
000000e0: 2e9a a63d 568e f3b9 7c10 efba e58b 513c
000000f0: 294a a7bd e0e8 823c 2bfb a3bc 799e e9bd
00000100: d5d1 983d 494f 1e3e 719e ccbd 9d07 43be
00000110: 406b 5ebd 3cd0 063d 73b8 66be 239b e6bd
00000120: e07e 10bd 076b 843d f71f a7bd 9aca f4bd
00000130: 48e3 34bd 2944 3b3e eb62 f03c e5fb 943d
00000140: 1317 8abd b29d 25bc a022 243d 22f9 7b3b
00000150: 942b 23bc 1ef3 91bd 2531 063c dda9 923d
00000160: 6b88 423d 6e94 d5bc a844 62ba 66dd 3cbd
00000170: 26d2 473d cd29 0ebc 016b 943d 0d1b dabd
00000180: 5d0e 17be fc37 133d 3ec8 a7bd 122f c83c
00000190: 3513 2b3d db07 bd3c 1a77 943d dd2f 11bd
000001a0: 7476 93bd 5ef3 013d 9e97 afbd b7a1 8dbd
000001b0: a21c 94bd 322f 013e 5d7e edbc 4622 003c
000001c0: 31d3 893d 376d 9c3d b16f 40bd 035a aabd
000001d0: fd9b f33c b28e c4bc 50f8 a33d 32d0 bc3b
000001e0: dc5b 14bd ff7f fc3c 4349 cbbc de7e 3bbe
000001f0: 7b59 b13b f5a8 9abd 8d52 97bc 8225 3abc
00000200: ec19 ebbc ac08 a0bd 9e76 d1ba 3eb4 4b3d
00000210: d845 19bc f016 96bd a00f 66bc 6d52 39bd
00000220: 91a1 a73c 9456 f7bc e25f 053d b1b8 fcbb
00000230: 84e4 89bc 89df df3d 3f83 823d dc17 2fbb
00000240: 429d 98bc 758a c1bd 2916 c2bc bc19 1e3d
00000250: e0ac e73c e6ce 02bd 125f 95bc 739d d53d
00000260: 052a 033e 3755 10be 5a01 1dbd d2d2 553d
00000270: 0d7d c53d eacc 5e3d 5216 d83d ebbc 81bc
00000280: 10bc 0a3c 5d92 793d 6d82 81bd bb02 a63b
00000290: e11d 68bd c3ff a73b 8832 9cbd a349 5b3d
000002a0: 3af9 8d3c f231 c4bd 758e 103e 8280 adbc
000002b0: 936a 49bc 95a7 bdbc dbe6 bfbc 97b1 803d
000002c0: 8972 703c 2811 4abd 9dd6 afbc 5796 b4bc
000002d0: e7d1 043e 0bc1 9e3c 503f dd3c 2de0 bdbd
000002e0: 8547 45bc f569 1c3d 4854 423c 09fa ec3d
000002f0: cd1a 8ebb 8d97 fabd 0774 ea3d 92a4 e33c
00000300: 16d3 50bd b4e7 8e3d 4e99 f23c 6bd5 d6bc
00000310: b5ba 733d 9060 e83c 2c77 d8bd d00f c93d
00000320: e736 f83c 66fc 1c3d 4029 533c 6edb a6bd
00000330: 29c3 b93b 81d5 69bd 69bd 4d3d 650d b5bd
00000340: ccfb 703d a6a4 2abd 02fc febd 7308 b8bc
00000350: 6212 473c eeac f6bd 0ab0 433d 8bff 9e3d
00000360: cb92 8d3d 7267 923d 1e2b 463d 0ede bcbd
00000370: 7de9 bf3c 5503 d3bd 834c ae3d 1f52 7b3d
00000380: 6b69 96bd 84c4 353c 6a2f e3bd f3cf 5b3d
00000390: de1c 03be 3ad6 b43d d039 053e bdf1 abbc
000003a0: ccb4 f1bc 6569 12bd dc71 993b eb22 d0bd
000003b0: 46b0 87bd bf85 cf3d d6fc 8d3d 1139 69bd
000003c0: 25c2 733d fc79 fd3d 864d 6ebc 7c62 cebd
000003d0: 6a72 b33d 21ca 063d 4cfd 8fbd 537e dabb
000003e0: 69ae ebbc 7f35 d5bc 9a0d ec3d be95 1dbe
000003f0: 5bae c7bb 78c5 a9bd 13ef 8e3b 3917 bf3b
-0.086486265 -0.040512983 0.14885555 0.031973027 0.04823121 0.044792034 -0.0374223 -0.09148923
-0.062377606 -0.021295492 -0.021807337 0.00038547628 -0.017547302 -0.021810714 0.06078707 -0.111109875
-0.029531881 -0.07437417 -0.07615621 0.03591642 -0.004310569 -0.10027876 -0.1343707 -0.036340877
0.07291536 -0.05341318 -0.13072331 0.060009956 0.14451759 -0.13948081 0.06443331 0.14629515
-0.0064798617 0.17474423 -0.078062326 -0.06700039 -0.104039125 0.063144945 -0.014007714 -0.12317183
-0.11293336 -0.102405995 0.08615966 0.051576115 0.03664177 0.05174952 -0.07143013 0.09234201
0.13179632 -0.06775976 0.035859633 -0.03867732 0.090450175 -0.10918156 0.12334891 -0.036178567
0.08134876 -0.0004645462 -0.0018239166 0.012789701 -0.08168442 0.015980184 -0.020017227 -0.114071794
0.07461897 0.15459932 -0.09991158 -0.19045873 -0.0543015 0.03291343 -0.225313 -0.11260059
-0.035277247 0.06465726 -0.08160394 -0.11952706 -0.044162065 0.1828772 0.029344043 0.072746076
-0.06742682 -0.010108398 0.040072083 0.0038448055 -0.00995912 -0.07126449 0.008190428 0.07161305
0.04749338 -0.026071753 -0.00086314464 -0.04610958 0.048784398 -0.008676958 0.07246972 -0.10649691
-0.14751573 0.035942063 -0.0819249 0.024436507 0.041766364 0.023075035 0.07249279 -0.035446037
-0.072003275 0.031726234 -0.085738406 -0.0691561 -0.07232024 0.1261566 -0.028990919 0.007820671
0.06729735 0.076380186 -0.046981517 -0.083179496 0.029737467 -0.023993824 0.08006346 0.0057621235
-0.036220416 0.030822752 -0.024815207 -0.18310115 0.005412278 -0.07551757 -0.01847198 -0.011361482
-0.028698884 -0.07814154 -0.0015980785 0.04973244 -0.009355031 -0.07328594 -0.014041811 -0.045244623
0.020462783 -0.03019265 0.032562144 -0.0077124466 -0.016832598 0.10931308 0.063726895 -0.0026717102
-0.018629674 -0.09450237 -0.023692207 0.03859876 0.028280675 -0.031935595 -0.01823381 0.10430422
0.12808998 -0.14095007 -0.038331367 0.052203007 0.09642992 0.05439464 0.10551132 -0.015837153
0.008467689 0.0609306 -0.06323705 0.0050662435 -0.05666912 0.0051269247 -0.076268256 0.053537022
0.017330755 -0.09579839 0.14116843 -0.021179441 -0.012293476 -0.023151198 -0.02342551 0.062838726
0.014675745 -0.049332768 -0.02146464 -0.022044344 0.12970696 0.01937916 0.027007729 -0.09271274
-0.012040977 0.038186986 0.0118609145 0.11571128 -0.004336691 -0.12235937 0.11447912 0.027788434
-0.050982557 0.069777876 0.029614117 -0.026224812 0.05950423 0.028366357 -0.10569605 0.09817469
0.030299617 0.038326643 0.012888253 -0.08147322 0.005669017 -0.05708838 0.050229464 -0.088404454
0.058833882 -0.041660927 -0.124504104 -0.022464966 0.012150379 -0.120447025 0.047775306 0.07763585
0.06912764 0.07148637 0.048380964 -0.09222041 0.023426766 -0.1030337 0.08510687 0.061357614
-0.07344326 0.011094216 -0.11093028 0.053665113 -0.1280398 0.08829923 0.13010335 -0.020989293
-0.029505156 -0.035745043 0.0046827625 -0.1016291 -0.06625418 0.10132932 0.0693299 -0.05693919
0.059511323 0.12376782 -0.01454485 -0.10077378 0.08762057 0.03290761 -0.070307344 -0.006667891
-0.028769689 -0.026026485 0.11526032 -0.15389153 -0.006093783 -0.08289617 0.004361996 0.005831626

lstm1.bias_ih_l0 f4 [512]
00000000: 7756 6e3d 0731 f83d 026f eebc 8f5e f73c
00000010: 29ae e7bc 5b31 dfbc 8738 493d 7d2c 5a3c
00000020: 4895 e9bc b712 a43d 1b0a 0a3e a135 29bc
00000030: 8704 e13d 0b5a 6f3c 7c6c dd3d 0d59 14bd
00000040: 930e a3bc 5e88 f03c 45dd c43d b397 453d
00000050: b30a e63b 2830 a53c 90d8 81bd 98ee 1c3b
00000060: 6659 00bd 5ef7 21bc 23fa a83c 3561 e43d
00000070: 4226 e7b9 904a c4bd e385 80bd ffa5 fb3c
00000080: 5a8e c9bd 3944 7cbc a806 1bbe c8c3 383d
00000090: 8317 3b3b 2b04 153b 959b 8bbd 1f4c 18bd
000000a0: 92f4 0e3e 73cb aa3d 1992 ff3d ed8a a23d
000000b0: d056 833d e6b1 ce3c 739e 2d3c a3f6 db3c
000000c0: 6c9a 443d 8e4d c73d 7196 6a3d e318 573d
000000d0: 5438 5e3d e96c 7e3d ea79 fc3d 6ef8 bebc
000000e0: 4777 22bd bb07 bf3c 9092 4b3d 9bd4 243d
000000f0: 4942 90bd 3fa8 22bc 3dfe 9f3d 8d0e bbbc
00000100: ecc1 e93b 01bc 373d 310c 2d3a f765 04bd
00000110: 2f53 cabd 6608 8c3c 2353 32bd af81 3cbd
00000120: 881e 703d 3aaa 92bc 2475 b23c 28ed 0b3d
00000130: 6cfc 663d e0c5 78bd 26d9 043e 1de2 d2bc
00000140: f8e0 b23c f2d8 b63d d552 ae3d a5c3 823d
00000150: 513e 203c 98f8 23bb 8d30 b8bd 8d2a 873d
00000160: bf82 13bc d334 893d 758f 6c3c c8c1 103e
00000170: acf0 abbc 8ffc a1bd 860e 5c3d cb7a 033d
00000180: 5719 b6bc d078 cdbd 7a51 1abd 563e c83d
00000190: fce1 3a3d e26d bfbd 0392 073e bfd2 053e
000001a0: 2474 073d eb47 60bd ed7a d03d b2fd 2d3d
000001b0: 3860 c3bd 3d22 f23a fa5d e7bc 67e9 91bc
000001c0: 5ba0 be3c 147c 8e3c 0a8c a63d 093f b0bb
000001d0: 5064 9e3d d8be 64bb b7ed 0c3c c2df 803d
000001e0: a5cf 023e f37c 283d 400f e4bc ff89 80bd
000001f0: 298a febc 4772 01bc 92b7 24bd f4b6 c93c
00000200: ab4e e43d 43a6 f73d 3043 903d ea77 52bd
00000210: 1b74 5abd d348 993d 572b 15bd bbd4 053c
00000220: 5243 66bc 4d5f 843d fad1 7d3b 77fb 003d
00000230: cc98 b73b 1f03 ebbc acdb 2c3c 3494 c2bd
00000240: cc0e bfbc 5bb8 053e 2341 ed3d 25c0 1fbe
00000250: cf92 b93d 3eb2 67bd bd4e b4bb 20e2 4f3d
00000260: 2c35 24bd 1453 c239 6a3a dcbc a13c 2cbd
00000270: 6685 a63c 080e 03be 7837 b4bc 9a42 b53d
00000280: 27bb b4bc 2bab c63d 9675 1fbd eacf cabc
00000290: 98ff 773c 9ca6 fb3d 4d8d 303a db97 54bd
000002a0: 96ee c73d b530 3fbd fed6 e13d 6b53 ab3d
000002b0: b76b a03b 5abe 3c3d 01c6 9e3d 10a7 e03c
000002c0: 74b6 8e3b 370d 943d 8606 163d d2b5 9dbd
000002d0: c05d 38bd 8e5b 833d b97f e53d d93d 0ebd
000002e0: f972 963d 214d c9bd 2964 2dbe 085c 03bd
000002f0: 94cb 0abc 4260 f83d 1ee0 0bbe 265b 99bc
00000300: c1b5 873d 4269 f63c 9ba9 5d3d a99a 8fbd
00000310: a7ab ec3c 7630 b0bb 8ffd 48bd e778 85bd
00000320: 9a0a eabb f118 08be e690 36bd 3cb8 c73c
00000330: 0b37 6c3d c4a1 2ebd 01d8 a83d 57db 643d
00000340: 6f5b 183d 5e5c b4bd b915 a43c 5474 aabc
00000350: f058 56bd 4c7d 833d de9a 0abe 37f9 733d
00000360: c2e9 d1bd eae4 15ba 0ea2 783d e72a c13d
00000370: 5f91 75bc f60f 92bc a05d 5abc bc96 4dbd
00000380: ae0f 5cbd d3e1 aabd d36f f3bb 2235 b43d
00000390: 37e5 55bd f19e c03b 3e4d 58bb 2788 683d
000003a0: e78a 963d 0168 353d 095b 0c3e 7f6d 963d
000003b0: ef90 ccbd b313 053e 8ef7 5bbd 7d16 a43d
000003c0: 069d 42bd 6959 cd3d bcea a53c 053c 863d
000003d0: e149 183c 4fa0 cbbd c772 f53c 0a80 8b3d
000003e0: 77b9 013e 7cdc fe3c 7f78 493d 777f 073c
000003f0: 2f27 a4bd 7641 da3c 79c8 c73c c90e b83b
0.058187928 0.12118726 -0.029105667 0.030196456 -0.028281288 -0.027245214 0.049126174 0.013316271
-0.028513566 0.08011382 0.13480417 -0.0103277275 0.10987192 0.01460887 0.108117074 -0.036217738
-0.01990441 0.0293619 0.09612516 0.048240375 0.0070203184 0.020164564 -0.06340134 0.0023945924
-0.031335257 -0.009885637 0.020627087 0.11151353 -0.00044088258 -0.09584534 -0.06275537 0.030718802
-0.098416045 -0.015397125 -0.15139258 0.045108587 0.002854795 0.002273808 -0.06816784 -0.03718197
0.13960484 0.08339586 0.12479038 0.07936654 0.064130425 0.025231313 0.010596859 0.026851004
0.04799883 0.09731589 0.05727238 0.05251397 0.054252937 0.062115584 0.12327941 -0.02331182
-0.039664533 0.023319116 0.04970032 0.04024182 -0.07043893 -0.009927808 0.07812164 -0.022834087
0.007133713 0.04485703 0.0006601243 -0.032323804 -0.09879147 0.017093848 -0.043536317 -0.046022113
0.058622867 -0.017903436 0.021784373 0.034161717 0.056393072 -0.060735583 0.1297346 -0.025742585
0.02183579 0.08928098 0.08511893 0.063849725 0.009780482 -0.002502 -0.08993635 0.06599913
-0.00900334 0.066995285 0.0144385 0.14136422 -0.020988785 -0.079095 0.053724788 0.032099526
-0.02222888 -0.10032809 -0.03767536 0.09777515 0.04562567 -0.0934713 0.13239293 0.13068675
0.033069745 -0.054756086 0.10179696 0.04247827 -0.09539837 0.0018473339 -0.028243054 -0.01781149
0.023269823 0.01739315 0.08132179 -0.005378608 0.07733977 -0.003490379 0.0086015975 0.062926784
0.12774523 0.041134786 -0.027839303 -0.06276321 -0.03107174 -0.007900781 -0.04021413 0.024623372
0.11147817 0.12092259 0.07044065 -0.05138389 -0.053333383 0.07484593 -0.036418285 0.008168395
-0.014054136 0.0646349 0.0038729892 0.031489816 0.0056029316 -0.028688012 0.010550421 -0.09500924
-0.023322485 0.13058607 0.115846895 -0.15600641 0.09061205 -0.05656647 -0.0055025504 0.05075276
-0.04008977 0.00037064462 -0.026883323 -0.042050008 0.020327281 -0.12798321 -0.021999106 0.08850594
-0.022061897 0.097006164 -0.038930498 -0.024757344 0.015136622 0.122876376 0.00067349226 -0.051902633
0.097623035 -0.04667731 0.11027335 0.0836552 0.004895653 0.04607997 0.0775261 0.027423412
0.004355246 0.07229083 0.036627315 -0.07700695 -0.045011282 0.06413947 0.11206002 -0.03472695
0.07346148 -0.09829164 -0.1693274 -0.03207019 -0.008471388 0.12127735 -0.13659713 -0.01872022
0.06626464 0.030079488 0.054116827 -0.07011921 0.028890444 -0.0053768707 -0.049069937 -0.06517201
-0.007142377 -0.13290764 -0.04457178 0.024379842 0.05766968 -0.04263474 0.082443245 0.05587324
0.037196573 -0.0880668 0.02002989 -0.020807423 -0.05233091 0.06420383 -0.1353564 0.05956384
-0.10249664 -0.000571801 0.060701422 0.09432011 -0.014988272 -0.017829876 -0.013327986 -0.05019258
-0.05372589 -0.08343854 -0.007429102 0.08799197 -0.05222055 0.0058783223 -0.0033005024 0.05677047
0.07350712 0.04428864 0.13706602 0.073451035 -0.099885814 0.12995796 -0.053702883 0.08012102
-0.04751303 0.10026819 0.020253532 0.065544166 0.009294958 -0.09942686 0.029961957 0.06811531
0.12668405 0.031110995 0.04918718 0.008270136 -0.08015286 0.026642542 0.024387585 0.005616997

lstm1.bias_hh_l0 f4 [512]
00000000: 90b2 f03d ff9e c43d d623 073d 6e06 e33d
00000010: f61b 82bb 919e 943b 3552 9a3d 2001 64bd
00000020: 7238 213d 1815 bd3d e3cf c93d 9cbd 56bc
00000030: 1156 e13d 0588 d2b8 b3a2 1dbd 5a68 abbc
00000040: 82ae c2bb 0842 fa3c 2dcd f73d dd69 b53d
00000050: fdf0 173c 9f52 84bd c083 a0bd 4525 80bd
00000060: c46b 1d3b 0690 58bd 2530 67bc ce5d abba
00000070: 120a 2e39 bae1 753a b879 c6bd 634b d1bc
00000080: 8b66 443d 828f ba3a 969c 03be ed45 ce3d
00000090: f239 d63d 85dc 9a3b 7e2f 41bd 8e60 28bd
000000a0: d4af 5abc 3c9e 8f3c 2059 c83b cb7d 803d
000000b0: e6b6 d0bd f5f5 30bd b38d 8a3d c8d1 15bc
000000c0: acc4 913c c605 e2bc 792b ba3d 35a1 82bd
000000d0: 0b41 e63d f6e8 b6bc e281 07bc f1ca 8c3b
000000e0: 453e a83d 586a d0bd c3a0 ffbc 01d4 dbbc
000000f0: a4be 87bd 9e29 0b3e 5b5f 043c 2b35 ab3d
00000100: d3be abbc ab4a 9cbd a36b dcbb 0ff8 a13c
00000110: 094c 7bbd 2211 e13c aec0 893c ca06 843b
00000120: 0067 06bd 99ae 0bbe 36c0 56bb d614 0f3e
00000130: 97f5 133d 7542 073b 2f5d 4cbc 9095 eab8
00000140: 5881 703d 80cc c33d 4dee 45bd 4a49 1c3e
00000150: 62ba 2bbb f27b 763b 2e12 85bd 54d3 ee3d
00000160: 14b5 4a3d e73f adbd 24eb ab3d 3d52 713d
00000170: a031 c4bc b694 f2bd 584b 4e3b e37f 07bc
00000180: e076 303c 1974 7bbd 8e43 fbbd 547d bd3c
00000190: f17e 843d 52c3 10bc c11f d83d eb23 0cbd
000001a0: 0add 893d c6c7 a43c 3b00 de3c 99b7 3ebb
000001b0: 08a7 e3bc 0499 3e3d 88a5 8e3d ce9d bb3d
000001c0: baf9 8d3d db12 37bc 48e7 d53d 872c c3bc
000001d0: f375 6f3b 14cb 8c3d 5053 3d3d 51ff c73d
000001e0: 1e00 da3d 95f6 5d3d 383a 173d 595f cfbb
000001f0: c94c 02bd 30bd cd3d d74b 293d ff30 20bd
00000200: 5308 b23d ddb3 e93d 41bd 2e3d 4dd0 73bc
00000210: 62f3 833d e8dc ccbb e36e 8d3c ffa0 0c3e
00000220: d20d 883d 005e 53bc 80c0 cf3b 9c14 983d
00000230: 1c8b 1b3e e867 f2bd e392 ed3b f8a1 5abd
00000240: e26b cabc bedb 2a3d b4a1 113e aea1 a5bd
00000250: bc7a 28bc 6238 a7bd 9952 3ebc b160 75bd
00000260: 7950 753d 88cb a63b 7ed7 04bd 2e1b 683c
00000270: 7827 9b3d 969d f9bd 919c 38bd 0d3f 6fbb
00000280: 6f23 493d b50a 8ebb 67d3 b23b 697b 8e3d
00000290: b886 a63c 2c0a 23ba 6bcb 4d3d 2032 b5bd
000002a0: d0b3 e13d cbdb ce3d 5116 2e3d 8910 e93d
000002b0: 5e2d 8bbd 05f2 f13c 8a67 e83d 2c7a 103d
000002c0: cdcf 9f3a 62bd 4dbc 2fad 9f3d e4c3 5c3c
000002d0: 7a86 563d a5f3 f23d a955 d43c 7715 3a3c
000002e0: f206 923d 7156 27bd 18b6 63bd e5aa e8bc
000002f0: 549a 9bbd 115f dbba 7178 11be 7e36 803d
00000300: 569b 4f3d 8890 dcbd 8b36 bb3d 1a6b c4bc
00000310: 6d6b a3bd 2c2e 423d 14e2 f43c dfaa f63c
00000320: abaa 0dbe b239 b0bb 03c2 ca3d 7ecd 263d
00000330: d02e d83c 952d 70bd 59f0 073e 83a4 bdbd
00000340: c591 aa3d 16f2 e43c 38c3 b8bc 9992 003e
00000350: 266c 80bd a16d b13d f423 c0bd d778 543d
00000360: f0ca a7bd b293 32bd 2c75 d63d b3f2 473d
00000370: 7725 0ebd af95 4abd 62f3 10bd 9208 93ba
00000380: f844 1abd de74 f2bd e0be 1ebe 747e c03a
00000390: 0109 acbd 58a9 07bc 7f4b db3d 3f62 61bc
000003a0: 18a4 563c f9f9 d9bc 6891 063e eb1b 0a3e
000003b0: de4f 3f3d c113 dd3d 3411 bbbc 35d5 a63c
000003c0: 26da c43c 69c1 943d 3fe6 ca3d 172e 743c
000003d0: b824 03bc 3b55 c7bc e128 f1bc e386 133d
000003e0: 1ffe 75bb 439f 69bc 2c7d 9a3d 28bd 053d
000003f0: 5b8e 09bd 895f b0bd 463b f33c e739 a43d
0.11752808 0.096006386 0.03299316 0.11085211 -0.0039706184 0.004535504 0.07535211 -0.055665135
0.03936047 0.09232539 0.09854104 -0.01310673 0.11002744 -0.00010038916 -0.03848524 -0.020923782
-0.005941213 0.030549064 0.12099681 0.088580824 0.009273765 -0.06461071 -0.07837629 -0.062571086
0.0024020532 -0.052871726 -0.0141106 -0.0013074221 0.00016597685 0.0009379644 -0.09691185 -0.025548643
0.047949355 0.0014233442 -0.12852702 0.10071931 0.10460271 0.004725995 -0.047164433 -0.041107707
-0.013347585 0.017531507 0.00611414 0.06273993 -0.10191135 -0.043203313 0.06765308 -0.009144254
0.017793976 -0.027590644 0.09090323 -0.06378404 0.11242875 -0.022327881 -0.008270713 0.0042966534
0.08215002 -0.101765335 -0.031204587 -0.02683449 -0.06628159 0.13590094 0.008079375 0.0835975
-0.020965016 -0.07631429 -0.0067266985 0.019771604 -0.06135181 0.02747399 0.01681551 0.0040291296
-0.032813072 -0.13640822 -0.0032768375 0.13972792 0.036122885 0.0020638977 -0.012473389 -0.00011185848
0.0587171 0.0956049 -0.048322964 0.15262333 -0.0026203622 0.0037610498 -0.06497608 0.116614014
0.049489096 -0.08459454 0.08394459 0.05891632 -0.023949444 -0.118447706 0.0031478014 -0.008270237
0.0107705295 -0.061390016 -0.122687444 0.02313105 0.06469525 -0.0088356305 0.105529316 -0.03421394
0.06731613 0.02011479 0.02709972 -0.0029101132 -0.027789608 0.046532646 0.06965166 0.09160958
0.06932397 -0.011173929 0.10444504 -0.023824943 0.003653881 0.068746716 0.04622203 0.097654946
0.106445536 0.054190237 0.036920756 -0.006328505 -0.03181151 0.1004585 0.041332092 -0.039109226
0.08692994 0.11411259 0.042660955 -0.014881206 0.06442906 -0.00625192 0.017264789 0.1373329
0.06643261 -0.012900829 0.0063400865 0.07425806 0.15189785 -0.11836225 0.0072501763 -0.05337712
-0.024709646 0.04171347 0.14221841 -0.080874786 -0.010283168 -0.08165051 -0.0116163725 -0.059906665
0.059891198 0.005090181 -0.032432072 0.014166636 0.075758874 -0.1218826 -0.04507119 -0.0036506087
0.049106058 -0.0043347725 0.00545733 0.06957132 0.02032791 -0.0006219472 0.050242823 -0.08847451
0.11020625 0.10100516 0.04250175 0.11380107 -0.067957625 0.02953435 0.113478735 0.035272762
0.0012192667 -0.012557359 0.07796704 0.013474438 0.05237434 0.11862878 0.025919752 0.011357657
0.07130231 -0.04085392 -0.05559358 -0.028401801 -0.07597795 -0.0016736706 -0.14206101 0.062603936
0.05068525 -0.10769755 0.091412626 -0.023976851 -0.07979474 0.047407314 0.029892959 0.030110775
-0.13834636 -0.0053779716 0.09900286 0.040723316 0.02638951 -0.05863722 0.13275279 -0.09259894
0.083285846 0.027947467 -0.022554025 0.12555923 -0.06270628 0.08663488 -0.093818575 0.051873054
-0.08193004 -0.043597884 0.104715675 0.04881544 -0.034703698 -0.049459156 -0.035388358 -0.0011217764
-0.03766343 -0.11838697 -0.155025 0.0014686123 -0.08400155 -0.008280121 0.10707759 -0.013756334
0.013100646 -0.026608454 0.13141406 0.13487212 0.046707027 0.107947834 -0.022835352 0.020365337
0.024029803 0.072634526 0.09907197 0.014903567 -0.00800436 -0.024332633 -0.029438438 0.03601731
-0.0037535501 -0.014259162 0.07543406 0.032651097 -0.033583026 -0.08611972 0.02969135 0.080188565

lstm2.weight_ih_l0 f4 [128, 128]
00000000: a63d 4c3e eab0 3f3d da3b 373e 90a8 853c
00000010: 6273 033e 684f d83c 2e54 473e 47c0 84bc
00000020: 6d86 843d 0664 4c3d 2f15 15be 4884 183d
00000030: c730 5b3e 6e51 28be deb5 5a3e 82b0 1bbe
00000040: 1e58 09be 7320 d4bc 8e7d 4f3d f441 c2bc
00000050: 10b0 6f3e eeaa d0bd 8a84 48be aef7 5ebe
00000060: 3d04 313e f3f1 173e 9dc8 d93d d1c5 5d3e
00000070: f0ca 3d3c 3c17 253e 7770 c93d a861 293d
00000080: c95f cebd 6a0b 863d a274 fa3d 2e4b 2cbe
00000090: e62f 6ebe 206b d93d ba6b f73b 2511 283e
000000a0: c8ac 2fbe ebff a3bd b008 06be b2a4 d43c
000000b0: e515 853e 10bf c23b 1f55 9f3d 2495 56bc
000000c0: 3acd 6b3e c5cd 813d 29ba c1bc 23d6 cdbd
000000d0: 4c9b 043d 9d5b 0c3e 74b1 803d 65cd 033d
000000e0: c0c9 15be b07a 043e 8a2f 8ebe 829f 68be
000000f0: ad2a 1d3e 0d3b da3d 31c9 f4bd 1320 37bd
00000100: da2d 103d c95e 49be fed3 76bd d0f2 373d
00000110: 9228 7bbd c6e9 153e fc14 013d cc0a bebd
00000120: c7ad 3e3e a250 283d 5458 7b3d 2b65 943d
00000130: 392f 383e 3ca8 9bbd e4e7 a3bd 0089 613e
00000140: c259 cc3d c5b9 7cbc 1085 c6bd 6a17 3e3e
00000150: 31ab 79bd 95c0 4f3e aa01 0dbe c085 07bd
00000160: 35b9 403e eb0f 23be 90d1 4abe bcdd 3f3e
00000170: 76fd 3a3e 0669 1ebd f7e3 aebd cad4 95bd
00000180: 2ac1 a3be 99c5 63be 7c85 cfbd d6a7 ef3d
00000190: 7f9a c1bd 116c d5bd 8bca 143e 89f3 0abe
000001a0: d54d 963c de92 abbb 9c74 8d3c 3ac5 a7bd
000001b0: 8ad1 aebd a1df 653e 6f70 4f3c 66d0 363d
000001c0: 706c ffbd 9dfb b3bb 8ec5 02bd dc66 0e3e
000001d0: f47a 7e3c df39 663e f743 c13d 45bd 6a3d
000001e0: 3e8d 523e 1b23 253e a551 99bd 9d57 483e
000001f0: 4ad8 b4bd 7bf8 933d 8864 a03d 7c00 e43b
00000200: c0fd 13be e20f 1fbe ee55 693d e866 12bd
00000210: b568 1bbd 3f6b fcbc 3d1d 353e 5255 d1bd
00000220: 51a7 5ebe 3c38 96bd 5f50 853c f51a 10be
00000230: 96a7 543e 1476 04bd 5521 de3e a4e3 eebd
00000240: 7172 283d f26e 6d3d e426 3d3e 94c0 0c3c
00000250: 7cc8 df3d d3fd 053d 0af3 ffbd 0f27 42be
00000260: 404a 173e aa1d 803d b770 2ebe 13dc 693e
00000270: aaf4 7d3d ce11 e9bd dbe7 6d3d 5836 eb3d
00000280: b498 d8bd 548e ae3c 88c1 dcbd 98ba c2bc
00000290: 3028 bcbe f2d3 e13d b9de 733d cb6b 743d
000002a0: 7cf1 713d fcdc 033e 4370 ee3c 48f5 ea3c
000002b0: 74c3 423c bd1d 2ebd 77b4 90bd ec48 70be
000002c0: c9ae 2b3e ec4d dd3d 6e67 5dbd cb46 63be
000002d0: f684 a43d b22f 603c c668 483d b022 8bbd
000002e0: 4273 f0bd b309 153d 6cc9 75be db8f 0dbe
000002f0: aafb 613d 047e 51be 3932 82bc 4cbd 903c
00000300: 7963 943e 6012 8b3c ade3 33be 1ff6 75be
00000310: e9b5 11be f851 8c3d 76c3 4b3e f482 c5bc
00000320: b075 d83d 8ea3 373e 477e cbbd 58de 19bd
00000330: 3e6d e63d 3bc3 34be 1443 873e 99ef 5d3e
00000340: 54f0 923d 6427 d23e a316 89bd f250 0dbd
00000350: d99b 0bbe 7f6c 9e3d 1ffb 6f3c dd49 183d
00000360: 262a a23e d428 0dbd 1e21 7ebe ee99 83bd
00000370: 111a 3d3e c14a f43c 8d97 2bbe 20ce c1bb
00000380: f7c3 b6be c246 763c 97cf 3fbe 0aef d5bb
00000390: 01cd 8d3d 29d9 ba3b 7051 eabc 7a75 e0bd
000003a0: a7b5 b0bc 031a 003d 0082 b43d f23c 8e3d
000003b0: 424b 0cbe a3e3 9d3d 6434 a8bc b169 89bd
000003c0: 4002 3bbd aa87 43bd 40f4 92bc a0a6 113d
000003d0: 74bd 203e 6683 f93d 09e9 de3d 18c1 2cbc
000003e0: 6e14 dc3d 6dc7 23bd e770 89bd 6a71 263e
000003f0: 5e4e ba3c 2dbe 42bd 3f7d 903d 3442 4d3d
0.19945392 0.046799578 0.17893925 0.016315728 0.12836984 0.026405051 0.19465706 -0.016204966
0.06470952 0.049900077 -0.14558862 0.03723553 0.21405326 -0.16437313 0.2135844 -0.15204051
-0.1341252 -0.02589438 0.050656848 -0.02371309 0.23407006 -0.10188852 -0.1958181 -0.2177417
0.17286773 0.1483839 0.10633967 0.21657492 0.011584029 0.16122144 0.09835904 0.041352898
-0.10076863 0.06545146 0.12229277 -0.16825554 -0.2326046 0.106161356 0.007550684 0.1641279
-0.17155755 -0.08007797 -0.13089252 0.02595744 0.25993267 0.0059431866 0.077799074 -0.013097081
0.23027506 0.063380755 -0.023648338 -0.10050609 0.032374665 0.13706823 0.062838465 0.0321783
-0.14627743 0.12937427 -0.27770644 -0.22717097 0.15348311 0.10655794 -0.11952437 -0.044708323
0.035199977 -0.19665064 -0.060260765 0.0449093 -0.061317988 0.14639959 0.031514153 -0.09279403
0.18620978 0.041092522 0.061363533 0.07245859 0.17986764 -0.076004475 -0.08003214 0.22024918
0.099780574 -0.01542515 -0.096933484 0.1856362 -0.060954276 0.20288308 -0.13770166 -0.03308654
0.18820651 -0.15924041 -0.19806504 0.18736929 0.1826075 -0.038674377 -0.085395746 -0.07315977
-0.3198331 -0.22243346 -0.10132882 0.11701934 -0.09453296 -0.10421003 0.14530389 -0.13569464
0.01834766 -0.005236014 0.017267518 -0.08191915 -0.0853606 0.22448589 0.012661084 0.044632338
-0.12471855 -0.005492641 -0.031926684 0.13906425 0.015532244 0.22483014 0.094367914 0.057309408
0.20561692 0.16126673 -0.074862756 0.19564672 -0.08830316 0.07225128 0.07831675 0.0069580656
-0.14452267 -0.15533403 0.056966715 -0.03574267 -0.037941653 -0.030812858 0.17686935 -0.10221352
-0.21743514 -0.073349446 0.016273675 -0.14072783 0.20767054 -0.03233917 0.43384805 -0.11664513
0.041124765 0.057967134 0.18471867 0.008590836 0.10926911 0.03271277 -0.12497528 -0.18960212
0.14774418 0.06255658 -0.17035185 0.22837858 0.062000908 -0.11380349 0.058082443 0.114849746
-0.10576001 0.021308102 -0.10779101 -0.023770615 -0.3674941 0.110267535 0.059538577 0.059673112
0.059068188 0.12877268 0.029106265 0.028681412 0.01188742 -0.04250883 -0.07065671 -0.23465317
0.16765894 0.10805878 -0.054053716 -0.22194974 0.08033173 0.013683246 0.048928045 -0.067937255
-0.11740734 0.036386203 -0.24002618 -0.13824408 0.055171646 -0.20458227 -0.015893089 0.017668389
0.28982142 0.016976535 -0.1756732 -0.24019669 -0.1422955 0.06851572 0.19898781 -0.024110295
0.10569322 0.17933485 -0.09936195 -0.03756556 0.11251305 -0.176526 0.26418364 0.2167343
0.07174745 0.41045678 -0.06693771 -0.034501024 -0.1363367 0.07735538 0.014647274 0.037179817
0.31672782 -0.034462765 -0.2481732 -0.06425844 0.18466975 0.029820802 -0.16757031 -0.0059144646
-0.35696384 0.015031518 -0.18731533 -0.00652874 0.06923867 0.005702157 -0.028603286 -0.10959907
-0.021570994 0.031274807 0.08813858 0.06945218 -0.13700584 0.07709434 -0.020532794 -0.06709612
-0.045656443 -0.0477368 -0.017938733 0.035559297 0.1569727 0.121832654 0.10884292 -0.010544084
0.10746084 -0.03998511 -0.067109875 0.16254202 0.022742447 -0.047544647 0.07055139 0.050111964
