model/models/4h/trained_model.pt (torch, 666885 bytes, 17 tensors)

conv1.weight f4 [48, 5, 5]
00000000: 45b8 6bbe b50d 0b3e e1c3 48bd ad1f a5bd
00000010: 08b8 f23d 9cb2 993d c3f9 5bbd 0ee1 6a3d
00000020: 5133 dd3d 2e79 29bd c76a c0bd 335e 4f3d
00000030: e731 98bd da2f 773d 265a e6bd 0993 6fbd
00000040: 5d97 383d f2d8 ee3c cc2d 43be ebc2 4e3d
00000050: 9e13 6fbe 1eff b43d 933a 7abd 85db 06be
00000060: 728b 72bd 4730 713d 7156 983d 3fd8 073d
00000070: 51cc e8bd 8e0e 0bbd c1ea 8ebd 5361 12bc
00000080: 08c3 353c 3d19 583d ec5c c23c 7ad3 7a3d
00000090: 66f1 ccbc 85fa 063e 80e2 033e 9fad 09be
000000a0: 6d90 5fbe 9d6c 50bd fccd 8439 58c5 36be
000000b0: f445 36be 6467 c33d 3b0c 0fbe 6cef 76bb
000000c0: 30d8 593d c61e b43d 710d cdbd 39d9 4cbe
000000d0: 9240 623d 82db 1f3e eba2 9a3c d526 073e
000000e0: 5624 17be 2210 03be 2246 55be 5080 aabd
000000f0: 31c2 3cbe 22af cf3d 370b b63d 1a8f f93d
00000100: ad07 3abd a149 c33a 7a05 0dbe 7791 e33d
00000110: 4fb3 ddbd e569 44be d89a 80bc 9ba5 8e3d
00000120: 400c 29be 89a3 613c 6f5b efbd 6047 843d
00000130: eb81 b4bd b419 353e 1f04 d53d 8cbb b33d
00000140: 3cc8 02be eca7 633d f091 8a3d 1006 a33d
00000150: c5f3 f6bd c210 b43c 0821 963c a9ef e23c
00000160: b441 8dbc 15e1 263e 48bf 43bc 77c4 3fbe
00000170: cd2f 0c3e 132b 10be 6065 3e3e 1f11 9fbc
00000180: c468 9ebd 18ca 62be 235e 79be b510 e43c
00000190: 3177 13be d127 ef3d 9b1b f93c f1e2 56bb
000001a0: c85d ebbc 73ed 61bd eff4 de3d 129b fa3d
000001b0: f022 e63d b5b9 cb3c 4c0f 9d3c 5a82 b2bd
000001c0: 952c 29be d671 d03d 593e a23d eebf 133d
000001d0: e303 013e 1efb 0a3e 12c1 9d3d 1e86 d639
000001e0: 166d 0e3d d9f8 11be 74f5 21bd f500 dbbd
000001f0: 8ecc 79bd e0cc 173e d20b 013e 655f ee3c
00000200: a415 3f3e 9782 e9bd 4110 b8bb 1bee 00be
00000210: 0035 31bd 223b 033e ca0b 4e3d f1aa 063e
00000220: 4238 31be c0a1 53bd b114 8b3d 98ff 073d
00000230: 07c6 2dbe 62cc 3ebe b881 bc3c ff8f 6b3d
00000240: 5216 2e3d 25a3 c9bc 20a8 57be f42e fdba
00000250: 539f 75be 9c9c cc3d b4ef 3f3e 60ae d13d
00000260: c372 493e 7c6d 21be d6e6 e4bd 1f3f fb3d
00000270: 422e cf3c 9ef9 c5bd b0a2 473d 949b 193e
00000280: 3348 30be 7a10 453e e057 0c3e 489a 303e
00000290: 5e5b 5fbd b439 ff3d f7ac 393e a9ec 063c
000002a0: 4c7a 133e 8e27 a1bd 550d 09bd f4e5 61bc
000002b0: 89d3 73be a6c0 0b3c 10ed 37be d819 983d
000002c0: fa58 223e 8e69 ffbc 4ecd 3dbe 3d48 43be
000002d0: 3ee0 ac3d ac21 cbbd 9300 cd3d db39 253d
000002e0: eb02 dabd a11b c33d e0d9 0e3e 4462 8abd
000002f0: fdc4 0e3d 18c7 393e c60a ad3c 4058 53be
00000300: 6749 1f3e d90d 4bbe fc6b 6c3d 1f8b 65be
00000310: 540e 833d 2875 ecbc 5740 4abc 21be 853d
00000320: 8717 d9bd 0707 20bd 5a64 403d c7fb 3fbe
00000330: 7ab0 043e 4fc3 34be be93 243e 8d12 3fbe
00000340: 1d6c 70bd 8962 c23d f73d cbbd be5e 373e
00000350: f1dc c33d b386 083e 2b9f efbd c3ff 3e3e
00000360: 5233 04be 266a 28be d947 903d d9ec ec3b
00000370: 901a 9b3c 097c 0fbe 2297 06be 5375 2fbe
00000380: e162 473d 22a7 603d fcd2 373e 5af2 53be
00000390: f06f dcbd b8f4 4ebe 407e 483e 5d4c 50bc
000003a0: 3af5 2a3d 43bb 313e aecb f439 65bf 88bc
000003b0: fe32 893d 3f57 22be 9ec8 3f3d 939f 223e
000003c0: 2c85 8d3d 78d7 193e d45e 83bd 13ce 073d
000003d0: 4177 3b3e 5c4d 36bd a95f e1bd 88ec 83be
000003e0: be4b 30be bc52 8ebe bc58 493d d98e 11be
000003f0: ba82 3f3e b63a 80be d058 c9bd 8913 373d
-0.23019512 0.13579448 -0.04901493 -0.08062682 0.118515074 0.0750477 -0.05370499 0.057343535
0.108008035 -0.04137533 -0.09395366 0.050626945 -0.07431393 0.06034837 -0.11247663 -0.058489833
0.045066226 0.029156182 -0.19060439 0.050478857 -0.23347327 0.08837722 -0.061091017 -0.13169678
-0.059215017 0.05888393 0.074383624 0.033165213 -0.11367095 -0.033949427 -0.069783695 -0.008934337
0.011093862 0.052758444 0.02372595 0.061236836 -0.025017451 0.13181503 0.12879372 -0.13445137
-0.21832438 -0.05088483 0.00025330472 -0.17848718 -0.17800122 0.095412046 -0.1396951 -0.0037679328
0.053184688 0.08794932 -0.10012329 -0.20004739 0.05523736 0.1561108 0.018876513 0.13198407
-0.14759955 -0.12799123 -0.20827535 -0.08325255 -0.18433453 0.10140826 0.08888858 0.121854976
-0.045417476 0.0014899262 -0.1377162 0.111117296 -0.10825216 -0.1918102 -0.015698835 0.069651805
-0.16508579 0.0137719 -0.116873614 0.06458926 -0.088138424 0.17685586 0.10401177 0.08776006
-0.12771696 0.055580065 0.067661166 0.07960141 -0.12058214 0.021980647 0.018326297 0.02770217
-0.017243244 0.162968 -0.0119474605 -0.18727289 0.1369011 -0.14078932 0.18593359 -0.019417344
-0.07734826 -0.22147405 -0.24352317 0.027839998 -0.14400937 0.11677516 0.030408671 -0.0032789076
-0.028731242 -0.05515809 0.10886561 0.122366086 0.112371325 0.024868825 0.019172333 -0.08716269
-0.16520913 0.101779625 0.07922048 0.03607171 0.12599139 0.13572356 0.07702841 0.00040917186
0.034772 -0.14255084 -0.039540723 -0.10693542 -0.060986094 0.14824247 0.12602165 0.029098222
0.18660599 -0.11401861 -0.005617172 -0.1259083 -0.043263435 0.12815526 0.05030421 0.13151146
-0.17306617 -0.05166793 0.06791056 0.033202738 -0.16970073 -0.18632653 0.023011073 0.057510372
0.042501755 -0.024613926 -0.21060228 -0.0019316361 -0.23986559 0.09990808 0.18743783 0.102383375
0.19672684 -0.15764421 -0.11176841 0.12267899 0.025290612 -0.09666751 0.048739135 0.15000755
-0.17215042 0.19244567 0.13705397 0.17246354 -0.054530494 0.12462178 0.18132387 0.008235135
0.14402121 -0.078688726 -0.03345998 -0.013787735 -0.23811163 0.008529818 -0.17961526 0.07426804
0.15854254 -0.031178262 -0.18535349 -0.19070525 0.08441208 -0.09918532 0.10009875 0.04033838
-0.10645088 0.09526754 0.139503 -0.06757024 0.03485583 0.18142354 0.021123301 -0.20639133
0.15555345 -0.19829501 0.05772017 -0.22416352 0.06399217 -0.028864458 -0.012344441 0.06530405
-0.106001906 -0.0390692 0.046970703 -0.18748389 0.12957945 -0.1765263 0.16071984 -0.1865942
-0.058696855 0.0949145 -0.09923928 0.17907235 0.095636256 0.13332634 -0.11700281 0.18652253
-0.12910202 -0.16446742 0.07044954 0.007230383 0.018933564 -0.1401216 -0.1314359 -0.171346
0.048678283 0.05484689 0.17951578 -0.20697919 -0.10763538 -0.2021054 0.1957941 -0.012713519
0.041737773 0.17356591 0.0004669106 -0.016692827 0.06699179 -0.15853594 0.046822183 0.15881185
0.06910166 0.15023601 -0.064145714 0.033155512 0.1830721 -0.04450737 -0.11004574 -0.25766397
-0.17216393 -0.27797496 0.04915689 -0.14214648 0.18702212 -0.25044793 -0.09831393 0.044696365

conv1.bias f4 [48]
00000000: 6c48 a93d 0304 a83d e26f 6fbd 585f ffba
00000010: 464e 013e 6360 7d3d 5ec0 a3bc a8df 50bd
00000020: 1a43 4abe 86b9 623d c360 97bc 5e20 4fbe
00000030: 9db9 1dbe 20a2 b53c df7f 8ebc 1346 7bbd
00000040: f8e6 e13d 7694 a9bd 530b ff3d b4d3 27be
00000050: bdd8 aa3d cbb8 163e bf20 0fbd abff 26bd
00000060: 9be0 923d e859 c63d 1869 113e 4ef0 0cbe
00000070: 4bc1 173e 2216 e0bd e7bf 63bc 8297 ab3b
00000080: e897 90bd 8d00 aa3d e099 093d 46f0 603e
00000090: ab2b c2bd c214 52be 8c03 bd3d a5d8 07bd
000000a0: a7af 313e 584a 853c c140 0fbd 0c7b 45be
000000b0: 4da4 02bd 18c1 32be 96a7 fb3d a37a 88bc
0.082657665 0.0820389 -0.05845631 -0.0019483371 0.12627515 0.0618595 -0.019989189 -0.050994545
-0.1975216 0.05535271 -0.018478757 -0.20227191 -0.15402837 0.022172034 -0.017394958 -0.061346125
0.11030382 -0.0828027 0.12453332 -0.16389352 0.08342121 0.1471893 -0.03494334 -0.040771168
0.07171746 0.09685117 0.14200246 -0.13763544 0.14819829 -0.109417215 -0.013900734 0.005236567
-0.07060224 0.08300886 0.033594012 0.21966657 -0.09480985 -0.20515731 0.09229192 -0.033165593
0.17352162 0.016270801 -0.034973864 -0.1928522 -0.03189497 -0.17456472 0.12287824 -0.01666004

conv2.weight f4 [96, 48, 5]
00000000: ceb0 b73a f140 46bd 639b 4e3d 58dc fdbb
00000010: ce11 003d 63f8 69bd 5f6c 89bc 7fdd dbbc
00000020: 5142 7ebd 2a2c 14bd 16d8 7d3b 3c6e 2bbd
00000030: 0a5d 0cbc a9ae 293d 5b46 bb3c 232e 123d
00000040: 49f1 28bd e50c a53c bba2 233d f272 22bd
00000050: 7385 443d 61ab 313d 04da 10bd af66 de3c
00000060: 7380 b9bb f08d 56bd 6e61 82bd d66a 633c
00000070: 2426 67bd 9496 2fbc 17ed 6a3d 1b73 8e3d
00000080: 2f13 193d 2e15 b63c bf15 d3bc 745f f13c
00000090: 7769 44bc 91e1 23bd ddda d8bb 6564 073d
000000a0: e477 8a3d 461e d93c 0b94 ea3b 219e 36bd
000000b0: d59c 61bd 33a1 ea3c cfff 613d d977 9e3c
000000c0: 3fef 20ba 5ce3 9b3d 2d14 07bd 3cb7 9e3c
000000d0: b7db a73c cb15 833c acd6 293e e234 d4bc
000000e0: 2369 83bd fc0f 193d 9bd7 123d 282a ecbb
000000f0: 64a1 893d 691c c0bc 8526 603d 3546 863d
00000100: 994f a73d d579 df3b a82a a3bc 517a 95bd
00000110: 3e23 b8bd cc39 c8bd b30f 493d 9754 bab9
00000120: 4d25 433d d70b 47bd 7062 14bd 16d0 46bd
00000130: b300 65bb 7c36 a33c 2773 b03c 4aab c53b
00000140: 1f8a 80bd 3671 05bb a564 bbbd 078e 3abd
00000150: ae1b 2fbd a0a2 9a3d d9ce 0bbd 9ff5 26bd
00000160: 5468 983d 3be2 993d e9a2 113d fd13 de3c
00000170: 790c 3f3c e23e 34bc bb2a ffbc 5955 053d
00000180: 73a2 a23d 7869 603a 20ef d43c 6ff4 d7bc
00000190: d8e5 24bd e4df 56bd 5eb7 47bd f1b9 f4bd
000001a0: 24c1 bbbc a273 e0bd ac08 83bd 6e9e adbd
000001b0: f0a5 cbbc e718 5a3c 5825 713c aeca e8bb
000001c0: 4d3e e83c 9c39 223c 8594 9abb f4a0 e6bd
000001d0: 6e5f bfbd 3ead df3c 3d16 56bd 8c8d 0abd
000001e0: b7b8 5cbd 85c5 80bd 6cd6 7c3d 5b24 dfbc
000001f0: 3e99 873c 09fb 74bd 50f5 2fbc f549 ccbc
00000200: 98c4 763d 5bb5 92bc 3f13 d9bd 0e10 92bd
00000210: ac2a 56bd 1e62 83bc a22d 103d 28f0 e83c
00000220: 8e3f 483d 1ca6 e93c 4a23 fdbc a982 00bd
00000230: ebcf 023c 16f8 ea3c 7661 8cbd 3773 5ebd
00000240: 4894 413b fe34 fdbc d92c c03c 7b1e 72bd
00000250: 03bd 9a3c daff 4f3b 406a 0dbd 2f32 f0bd
00000260: 2782 86bd e96d eabd c616 b0bd e4d8 6f3d
00000270: f44f fc3c f592 f93c c3e0 00bd 8ec2 cc3c
00000280: ffd9 6abd ebac 2fbd b527 f9bc 351e b0bd
00000290: b3ae d3bd 39ab eebc 1f9f c0bd 87a0 b6bd
000002a0: 5534 223d 5146 d7bb 7581 8ebd 77be f6bc
000002b0: dd19 82bd 1116 4ebd f5ca 94bd 54ef 03bd
000002c0: 51a1 8abd 206c ecbd b34d bdbd a125 b4bd
000002d0: 63da 1d3d bed4 133d bfd7 d1bc d3ac fa3b
000002e0: a97a e73d 7ece b13b 9b43 e03c f370 af3d
000002f0: 7744 8f3d d48f 5a3d 9711 643d 12f7 e83c
00000300: 5127 6dbd 6634 33bd bd87 193d ec38 793b
00000310: 050e 38bc 7beb 2bbd 9f5b 213c 78d5 2abd
00000320: 08cd b03b d877 60bb a8ab 3e3b 4abe d3bb
00000330: 450a 89bd 5654 15bd e481 3abd 8445 543d
00000340: a402 143d 409e 6e3d 0f0f 353d 35a2 65bd
00000350: 2892 c73b 674a 313d 41d6 693d 9b85 9b3c
00000360: bba3 6f3c 4b46 173d c719 b13d 339d b03d
00000370: 7a97 383d 28cd debc 226e 89bc f1b0 403b
00000380: 341e e1ba bfd7 18bc 889e 80bd 9f70 bcbd
00000390: 9784 a7bc 78f2 debd 0f6c 76bc 0f22 01bc
000003a0: 968d 4bbd 0959 96bd f85f 383d ab32 ac3c
000003b0: f374 303c e800 bf3b 5085 403d bf9b 70bd
000003c0: 7505 82bc 22ab 423d 0c5f 0bbd 6fc5 ac3b
000003d0: 3888 a43b fcd9 35bc 3830 29bc 2b9a 323d
000003e0: 49d6 8bbd b584 57bd 185b 8ebb 1fc1 8d3a
000003f0: d92f 4dbc 5b2f e33b 62b3 cebc 074b 44bd
0.0014014484 -0.048401777 0.050441157 -0.0077472143 0.03126698 -0.057121646 -0.016775308 -0.026839016
-0.062074963 -0.03617493 0.0038733534 -0.041853175 -0.008567104 0.041426335 0.022860697 0.03568853
-0.041245732 0.02014775 0.039950114 -0.0396604 0.04797883 0.04337633 -0.035364166 0.027148573
-0.0056610643 -0.052381456 -0.063662395 0.013880452 -0.056432858 -0.010717053 0.057355013 0.069555484
0.03737181 0.022226896 -0.025767205 0.02946446 -0.011988035 -0.04001004 -0.0066178874 0.033054728
0.067611486 0.026503693 0.0071587614 -0.044584397 -0.055081207 0.028641319 0.0551756 0.019344257
-0.0006139166 0.07611725 -0.032978225 0.019374482 0.02049051 0.016001603 0.16585797 -0.025904123
-0.064165376 0.03736876 0.03585015 -0.007207174 0.06720236 -0.023451047 0.054724235 0.0655636
0.08169479 0.0068199434 -0.019917801 -0.07298721 -0.08991097 -0.09776649 0.049087238 -0.0003553971
0.047642995 -0.048595276 -0.03622669 -0.04853829 -0.0034943044 0.019923441 0.021539284 0.006032382
-0.062763445 -0.0020361668 -0.09150056 -0.045545604 -0.042751007 0.075505495 -0.034132812 -0.040761586
0.07441774 0.07513853 0.035555754 0.02710914 0.011660689 -0.011001321 -0.031148305 0.032552097
0.07941141 0.0008560638 0.02599293 -0.026361672 -0.04025826 -0.052459612 -0.048758857 -0.11949528
-0.022919245 -0.10959555 -0.063981384 -0.08477484 -0.024859399 0.013311601 0.014718376 -0.0071042394
0.02835002 0.00990143 -0.004717412 -0.11261168 -0.09344374 0.027304288 -0.0522673 -0.033826396
-0.053887095 -0.06287674 0.061727926 -0.027239015 0.016552564 -0.05980972 -0.010739639 -0.02493761
0.06024608 -0.017908743 -0.10599374 -0.071319684 -0.05228679 -0.016037997 0.03519977 0.028434828
0.048888735 0.02852159 -0.030900616 -0.031374607 0.007984142 0.02868275 -0.06854527 -0.054309096
0.0029537845 -0.030909058 0.023458885 -0.0591111 0.018888956 0.0031738193 -0.034525156 -0.11728322
-0.06567793 -0.11446745 -0.08598094 0.058556452 0.030799843 0.030465582 -0.03146435 0.024995115
-0.057336804 -0.042889517 -0.030414442 -0.085995115 -0.103360556 -0.02913438 -0.0940535 -0.08917337
0.03960069 -0.0065696617 -0.06958286 -0.030120118 -0.06352589 -0.050314013 -0.072652735 -0.032210663
-0.0676905 -0.11544061 -0.092433356 -0.0879624 0.038538348 0.03609156 -0.025615571 0.007649997
0.113026924 0.005426227 0.027375987 0.08566465 0.069954805 0.05335982 0.055680837 0.028438125
-0.057898823 -0.043751143 0.037482966 0.0038028313 -0.011233811 -0.04197262 0.009848504 -0.041707486
0.0053955354 -0.003425112 0.0029094014 -0.006461893 -0.06691412 -0.036457382 -0.04553403 0.051824108
0.03613533 0.058256388 0.044203814 -0.056062896 0.006090421 0.043283846 0.057089094 0.018984606
0.014626439 0.03693227 0.08647495 0.08623733 0.045066334 -0.027197435 -0.016776148 0.002940234
-0.0017175139 -0.009328782 -0.062802374 -0.09201168 -0.020448966 -0.10886091 -0.015040412 -0.007881655
-0.049695574 -0.07341201 0.045013398 0.021020254 0.01077007 0.0058289655 0.047002137 -0.05874228
-0.015871743 0.047526486 -0.03402619 0.0052725594 0.0050211214 -0.011099335 -0.010326438 0.043604057
-0.06827981 -0.052616794 -0.0043443553 0.0010815001 -0.012523615 0.0069331354 -0.02523202 -0.047923114

conv2.bias f4 [96]
00000000: 89ca 8abd 29c0 96bd 4bbe c3bd b417 aebd
00000010: bf8d 993c c304 8ebd ce30 383b a482 00bd
00000020: f906 e0bb ca69 71bd 8bd5 71bc e766 783c
00000030: 8ecb c9bc 661a df3a 92de c0bd 3c85 3b3c
00000040: 0850 f43c f07e 28bd aa3e c1bd 5c45 dbba
00000050: 0c2d b4bd 2b38 ab3b 12ed 4bbd f8de d83b
00000060: 795f 4abd 4c29 9fbd e23f d3bd fbc3 75bd
00000070: b91e 12bd 6c53 9dbc bc04 273c 6d99 063d
00000080: 2f0f 463c c0a6 0ebd a8f9 dcbc e633 b33c
00000090: bd9c 20bd 9824 87bd 6284 c3bd ef21 1abd
000000a0: 1a5d 033b 32e2 b7bd 2f38 1a3a c246 773c
000000b0: 1ef1 0ebd 8734 8fbd dabf 29bd 58f3 2ebc
000000c0: 8f82 75bd 7969 cabc c17c 7fbd 4847 4dbd
000000d0: e328 53bc e4cb a9bd 01b0 10bd ce21 54bd
000000e0: 5e77 0dbd c400 bfbd e095 8bbc 71a2 4cbd
000000f0: 4625 cabd fb29 7fbd 72ad 29bd a4f5 6dbc
00000100: 8d2d 74bd 3993 78bd 875e e3bc 7423 20b9
00000110: d1e7 bb3c e48a 64bd 0dd9 b7bd 9954 51bc
00000120: d9ab 9abd 6445 d8bd b318 cebd dcf9 c4bd
00000130: 54c8 d33d fce5 d4bc 6079 66bd 14cc 30bd
00000140: 9333 cb3b ff91 d83c ba1b 6cbc a974 f1bb
00000150: e677 92bd f36a 98bd dc7d 2dbd 7cf4 f039
00000160: ae6f 82bc f465 a3bc 96eb 1abd 9f12 aabd
00000170: 1b26 1dbd ddf8 9ebd 831e 2fbd 0a1f 8bbd
-0.06776912 -0.073608704 -0.0955778 -0.08500615 0.018744348 -0.06934502 0.0028105262 -0.03137459
-0.0068367687 -0.05893878 -0.014760385 0.015161253 -0.024633195 0.0017021417 -0.09417452 0.01144534
0.029823318 -0.041136682 -0.0943578 -0.0016729045 -0.087976545 0.0052252016 -0.049786635 0.006618377
-0.049407456 -0.07771549 -0.10314919 -0.060001355 -0.03567383 -0.019204818 0.010194 0.032861162
0.012088581 -0.034826994 -0.026974514 0.021875333 -0.039211977 -0.065987766 -0.095467344 -0.037630018
0.0020044507 -0.0897869 0.0005883006 0.015092554 -0.034897916 -0.06992441 -0.04144273 -0.010678135
-0.059938964 -0.024708496 -0.062374834 -0.050116807 -0.012888166 -0.08290842 -0.0353241 -0.05179005
-0.034537666 -0.09326318 -0.01703924 -0.049959604 -0.098703906 -0.062295895 -0.041425176 -0.014523897
-0.059613753 -0.060687277 -0.027755035 -0.00015271996 0.022937687 -0.05579652 -0.08976946 -0.012776517
-0.075523086 -0.1056011 -0.10063305 -0.096179694 0.10340944 -0.025988571 -0.056268096 -0.043163374
0.0062012165 0.026436804 -0.014410907 -0.0073686433 -0.07151775 -0.07442274 -0.042356357 0.00045958522
-0.015922394 -0.019946076 -0.03782233 -0.08304333 -0.03836642 -0.07762311 -0.042753708 -0.067930296

lstm1.weight_ih_l0 f4 [512, 96]
00000000: a011 cebd 7fde 1e3c b3ce 92bd e446 5cbd
00000010: bcfe 293d 108c cd3c 2dcc b1bc 60b4 96bd
00000020: 479b c0bd 641b 8ebd 3741 82bd 4bb4 d9bb
00000030: 9aa7 d4bd 403c 34bd c899 68bc ca3c 07bd
00000040: 91a2 a93c 4017 a0bd 949a 5ebd d604 d3bc
00000050: c547 5f3c 26c7 cabd b461 113d b81a 08be
00000060: b5d5 a9bd 0722 04be 7095 04be 5683 2bbd
00000070: 5dab 43bd da54 d03c 055c 3fbd 4e03 2cbd
00000080: 3622 48bd 5430 c0bd b273 aabd 6c81 ecbd
00000090: 0ca3 d33c 3771 66bd c497 71bd 06b2 8fbb
000000a0: de20 f9bd 0ca6 bb3c f5e6 0dbe e557 f2bd
000000b0: a1df 62bd ed39 9bbd af05 13bd 56c5 a7bb
000000c0: e77e adbd ecf3 7e3d 8f87 5abd 36eb 303d
000000d0: 6fbf 10be 3e84 cdbd 2a1d c6bc 631f dbbd
000000e0: e730 e7bd b54d 0b3d 6b92 59bc 0d05 2bbc
000000f0: df2a 44bc d445 073d da63 c1bb 9119 943c
00000100: cc91 d1bd 08f6 0bbe 9a4f 40bd 2660 1cbe
00000110: 3144 82bd a15b aebd 3d5d c3bd 6a61 89bd
00000120: 42e3 90bc 6492 413b c3ad 00be a420 583d
00000130: 15a4 88bd 68a4 9abc b6e7 13bd 023d 13bd
00000140: c2d0 ccbd c374 d3bd 6baf c4bd 63fe 80bd
00000150: e160 a3bd 32fd 51bd c5af 3a3c 1854 903c
00000160: a8e7 81bd fa60 b1bb ef59 133d 426e 183c
00000170: 6617 49bd 37f2 0dbd a41d cbbd a57f eabd
00000180: 270e 8fbd 06e9 f5bd 98b4 0dbc f560 aebd
00000190: 42ff 37bc e229 973d 8a07 e8bd 81e8 07bc
000001a0: 9425 493d 1c59 90bb 5358 98bd 23ee b5bc
000001b0: 1890 1b3d c282 d6bd 8f17 d13d fad1 babd
000001c0: 8fde d3bc 84e5 e4bd 6183 713d 1471 823b
000001d0: ef4c 3dbc a207 a0bc 1aec bf3d 4216 583d
000001e0: b060 14bd b437 abbc 42c5 9b3c ab7a eebd
000001f0: 4187 c2bd eb20 27bd fdb9 88bd db55 bdbb
00000200: af4d 78bd f805 d4bd a7d7 35bd 46a4 983d
00000210: 0539 7c3d 420a 823d cc0a 853d 9d27 5cbd
00000220: be58 a2bd 0def 943d 14f0 e7bd afed 8c3b
00000230: cd97 e33c ec89 8c3d c668 8abd 21d2 043d
00000240: e24a bcbd 4901 8ebd bbc5 05bd 691e bfbd
00000250: 0481 583c cfb0 a13d 9a5c 233d b2c8 1cbd
00000260: 74b0 59bd 8e22 a73d b1f3 f23c c2ba 7abd
00000270: f4ea c6bd 7364 d4bc 980a cfbd 6230 76bd
00000280: 501e 5e3d 152b 8cbd 29dc 4abb 8f0a 89bd
00000290: 79c2 44bd 68b8 383d 96d4 cabd 4d69 85bd
000002a0: de84 4c3c cf18 883d 1eb7 b6bd ce8c 17bb
000002b0: 6cee d0bd ab3a f4bd cf17 f0bc f1db a23c
000002c0: 1e85 cabd e2c3 2cbd a249 243d 8902 4bbd
000002d0: a845 28bd a4a1 563d 9ba7 6d3c 63ba e33d
000002e0: e22e aabd 8542 6f3c dc5b 55bc df8b 4f3d
000002f0: c8b1 533d 70de 8f3c 3190 9f3c 60e1 92bd
00000300: 414f 103c 7e0d 4dbd 8673 133d 9bdd 6dbd
00000310: f57e ac3c 6d84 5c3d 9139 afbd 90aa 6ebc
00000320: 9bb3 a63c 9cf2 e43c 0f15 6ebd be3e be3b
00000330: 82e8 4a3d c487 cb3c 20d4 983d 5d2b 67bd
00000340: 44f1 0e3d bf51 9fbc 53d0 d2bb bbed 3cbd
00000350: dab7 72bd d9fa 51bd 5081 a3bd b00f a0bc
00000360: 18b4 3c3d 980c 0439 60b5 37bd a92f 53bd
00000370: 4b43 8fbd 6a0a a0bb 29b9 373d b2ad 7bbd
00000380: 5601 71bd 51c6 5ebd bfe7 6b3d b5ce 783d
00000390: e0c2 e13b 1c8e d0bc 0b91 ad3d 183e b2bd
000003a0: ddcc 853d ade0 263b 4f31 0abc 7f45 aa3c
000003b0: f0df c0bd 7f36 2f3d 8dad 6cbd bebb 05bd
000003c0: 71f8 adbd 05e8 afbc 32bc bcbd 3db0 8a3b
000003d0: 4e7e 793d ad5e 943d 089d 93bc 376a fa3d
000003e0: baac 053d 51e7 803c ee02 ed3d a4f7 4239
000003f0: 81f9 783d a63e 783d 1a4d 83bc 5326 a13d
-0.100619555 0.009696602 -0.07168331 -0.053778544 0.0415027 0.025091201 -0.021703804 -0.073586226
-0.09404617 -0.06938818 -0.06360095 -0.006643807 -0.1038353 -0.04400277 -0.014196821 -0.033016957
0.0207074 -0.078169346 -0.054346636 -0.025759142 0.013627951 -0.09901266 0.035493568 -0.13291442
-0.082927145 -0.12903605 -0.12947631 -0.0418733 -0.047770847 0.025431085 -0.046718616 -0.04199534
-0.04886075 -0.09384218 -0.083228484 -0.11548123 0.025834583 -0.056260314 -0.058982626 -0.0043852357
-0.12164472 0.022906326 -0.13857634 -0.11833171 -0.05538905 -0.07579408 -0.035894092 -0.00511996
-0.0847147 0.06224434 -0.053351935 0.043193065 -0.14135526 -0.10034989 -0.024183828 -0.10699346
-0.11288624 0.034009654 -0.013279538 -0.010438216 -0.011973112 0.033025578 -0.005901796 0.018078597
-0.10232887 -0.13668072 -0.046950914 -0.15271053 -0.06360663 -0.085135706 -0.09539268 -0.067080334
-0.01768649 0.0029536719 -0.12566285 0.052765504 -0.06671921 -0.018877223 -0.03610965 -0.035946853
-0.10000755 -0.10325005 -0.09603771 -0.062985204 -0.079774626 -0.051266856 0.011394446 0.017618224
-0.06343013 -0.005413172 0.03597444 0.009303631 -0.04909458 -0.034654822 -0.09917763 -0.114501275
-0.06985121 -0.12007336 -0.008649014 -0.08514587 -0.011230292 0.073810354 -0.11329563 -0.008295179
0.049108103 -0.004405154 -0.074387215 -0.022208279 0.037979215 -0.10474159 0.102095716 -0.09122081
-0.02586296 -0.11176589 0.058963183 0.003980765 -0.011553987 -0.01953489 0.09371205 0.0527556
-0.03622502 -0.020900585 0.019014958 -0.11644491 -0.09498454 -0.040802877 -0.066760994 -0.005778057
-0.06062096 -0.10352701 -0.044395115 0.07453208 0.061577816 0.06349613 0.064962 -0.053748716
-0.079270825 0.07272158 -0.11325088 0.004300795 0.027782345 0.06862244 -0.06758265 0.032426957
-0.0919397 -0.06933839 -0.032659274 -0.09331972 0.0132143535 0.07895052 0.039883234 -0.038277335
-0.053146794 0.08160888 0.029657217 -0.061213262 -0.097127825 -0.025926804 -0.101094425 -0.060104735
0.054228127 -0.06844155 -0.003095398 -0.06691467 -0.048037026 0.04509774 -0.09903829 -0.06514225
0.01248285 0.06645357 -0.089216456 -0.0023124698 -0.10201725 -0.119252525 -0.029308228 0.019880267
-0.09888671 -0.042178996 0.040109284 -0.049562965 -0.041082054 0.052400246 0.014505292 0.11119535
-0.083097234 0.014603262 -0.013022389 0.0506705 0.051683217 0.017562121 0.019477936 -0.07171893
0.008807958 -0.050061695 0.035998844 -0.058072668 0.021056632 0.05383723 -0.08555902 -0.014567032
0.020349314 0.027947716 -0.05812555 0.0058058193 0.049538143 0.024845012 0.07462335 -0.05643784
0.034898058 -0.01944816 -0.0064335256 -0.046125155 -0.059257366 -0.051264618 -0.07983649 -0.01953873
0.04607019 0.00012593193 -0.044850707 -0.051559124 -0.06995257 -0.004884054 0.044854317 -0.061444946
-0.058839165 -0.054388348 0.057594057 0.060744006 0.006889686 -0.025458388 0.084749304 -0.0870325
0.06533215 0.0025463507 -0.008434608 0.020785091 -0.09417713 0.04277658 -0.0577827 -0.032649748
-0.08494652 -0.02147294 -0.09215583 0.004232435 0.06091147 0.072446205 -0.018019214 0.1222729
0.032635428 0.0157353 0.115728244 0.00018593535 0.06078482 0.06060662 -0.016027976 0.07868638

lstm1.weight_hh_l0 f4 [512, 128]
00000000: d17d 623d 1b7d 4a3d c8dc 76bd e639 c4bb
00000010: 5c52 1ebd 81dc 523d 821e 02bb 498b 41bc
00000020: 8f7e aabd 9913 7b3c 9432 3d3c 5039 0bbd
00000030: fa90 c23d d255 8a3c 2333 a4bd 0d33 32bc
00000040: 9a89 953c 9eff a8bd befc 9cbd c224 02bd
00000050: 2402 3dbd 1683 043c 7c44 383d 93b6 993d
00000060: 4859 47bd 6fb9 ed3c ac0f 4f3d 4d4a 4c3d
00000070: 7cf2 513d a483 bdbc 3f60 b1bc 4213 0d3b
00000080: cc8d 5e3d 9d64 b5bd 43d3 6bbd 72af 973d
00000090: 4cf9 9e3d 6c28 f13c e8a2 ad3b dae1 95bd
000000a0: 025e a3bc cf4a ccb9 44d2 c5bc 22f4 233c
000000b0: 0ce8 1fbd dc1b 49bd 8204 b43c 8acd 4f3c
000000c0: e512 823b 4e4f b93d 35ce a9bd 0cc1 6ebd
000000d0: 9c75 9c3d 5a3d d5bc 9736 9cbd 9bb0 76bd
000000e0: 11ed 793d 171d d8bc 318b e3bd cfc6 f13c
000000f0: 83d7 f83a ffea e73c b33a d63d 575e 02bb
00000100: e40c 64bd 01a0 b33d bc59 843c 5334 fabd
00000110: e989 963d d104 553b fae5 03bd b261 15bd
00000120: 4c72 61bc 7cfb c2bd fe83 d63c 459d d23d
00000130: dc22 1cbd b96b 963d 057a 893c 4ba4 0b3d
00000140: 790e 61bc 66bd 86bc 6eb2 03bc 21c4 9bbd
00000150: b7f8 a2bb af0f 813d 8bd8 85bd 96fc fabc
00000160: 21bc af3d 8cd4 47bd 0cef 00bd b4a4 f4bb
00000170: 5708 67bd ea67 e4bd 279d 87bc f829 0fbd
00000180: d71b 713d a2fc 153d 1617 42bd 2fbf 7a3d
00000190: 7449 a93c 401b 21bd c701 a8bd 06d5 bfba
000001a0: 86a9 9d3d 0321 373d 1c33 3a3d 37b8 093d
000001b0: 3c5d b93c 2f45 07bd 65d8 dd3c e21a 5e3d
000001c0: 82e3 5b3d 5bf4 1c3d 6548 a5bc 554a 66bd
000001d0: e574 3b3d b968 033d b6a8 f43c f231 c7bb
000001e0: 143d 8a3c 0071 fbbb 34af a73c a9c8 7abd
000001f0: 085b b83c 01ce b33c 236a 9c3c 2af9 15bd
00000200: eed4 dbba 603d 083c 8f32 5f3d 6da7 d9bd
00000210: 9082 603d 5096 39bb 8f11 673d b82b 043b
00000220: 17d9 5fbd d133 d3bb 049e a43b 25f1 833c
00000230: 6003 e1bc aab7 45bc c029 163d dee1 8a3d
00000240: 6639 5d3c ab1a 5f3d b61c c73c fd8d 803d
00000250: 4601 ce3c 620d cebc 3791 533d 4261 f73d
00000260: 3c65 93bd b7db 643d 9356 08bd 841d 88bd
00000270: a9d2 e5bc 3689 e23d be43 04bd 6724 183b
00000280: a7a8 273d c05e 43bd 7cc4 aabd b6cb 133d
00000290: c206 d23b 61bb 093b 7e25 c93c 1bf3 b0bd
000002a0: b417 dd3d 4eb0 f8bc b0e8 453d 6015 bf3d
000002b0: 42e8 8cbd 8e51 313d a0f0 9abc aea6 b7bd
000002c0: 6cdc 72bc 97c3 c63d 945a b2bd 53ef 4cbd
000002d0: e38b 85bd 2f99 15bd 18e0 953a e22d 50bc
000002e0: 6a6f 49bd 3d9b 593d ea0b b6bc f118 a53c
000002f0: 84fb 4d3d e4e1 313d aee1 87bd c521 8dbc
00000300: da36 6cbd 0e22 80bd c289 bb3d 2e62 2d3d
00000310: 0dc5 18bc 73bd e63b 3de9 913d 2f8d 073d
00000320: e917 5d3d 2008 b33d 4713 dd3c e138 be3d
00000330: a682 0a3d 3e8d 2fbc 29c0 1fbd 773b e33d
00000340: c773 61bd b324 793d c216 d7bb 5d35 82bd
00000350: f929 813d 76d1 003c 4d3e 223d 57c5 323d
00000360: 95e9 1bbc 2ada cabb 8675 1cbc e1f4 843c
00000370: 44bf b63d 0277 87bb ba2a 47bc 0aa8 713d
00000380: cf07 52bc 5f2a 36bd 2c9e 00bd 2f0d 963c
00000390: 8724 b53d e19b 9fbd d1b9 8abd 4aba 233d
000003a0: bf3c a93d df29 14bd 61bc c5bd 8768 54bd
000003b0: 6868 51bd a158 d0bb 9077 b7b9 ce8f d33c
000003c0: afd3 b33d 5d65 13bd 29f6 af3d 0135 90bd
000003d0: b419 29bd 37ba e43c 1dbc 10bd dee9 d1bd
000003e0: b327 453b 5343 0f3d a4c8 53bd 66c8 543d
000003f0: cdfa bf3d 3db9 d83d 05d1 5ebd 70fd a03c
0.05529577 0.049435716 -0.060269147 -0.0059883473 -0.038652763 0.05147982 -0.001985461 -0.011812993
-0.083249204 0.015324497 0.011547703 -0.033990204 0.09500308 0.016886625 -0.08017566 -0.010876429
0.01825409 -0.0825188 -0.07665394 -0.031773336 -0.04614462 0.008087894 0.044987187 0.075055264
-0.04866913 0.029019086 0.050552055 0.049875546 0.05125664 -0.02313406 -0.021652339 0.002152637
0.054334447 -0.08857081 -0.05757452 0.074065104 0.07762393 0.02943822 0.005298961 -0.073184684
-0.019942287 -0.0003896565 -0.024148114 0.010006936 -0.039039657 -0.049098834 0.021974806 0.012683282
0.0039695376 0.09048329 -0.08291284 -0.058289573 0.0763962 -0.026030231 -0.076276 -0.060227018
0.0610171 -0.026381059 -0.11110533 0.029513745 0.0018985126 0.028310297 0.10460415 -0.0019892657
-0.055676356 0.08770753 0.01615607 -0.12217011 0.07350523 0.0032504092 -0.032201745 -0.036470123
-0.013760161 -0.09520623 0.026185986 0.10283903 -0.038119182 0.07344765 0.016781816 0.03409223
-0.013736361 -0.016447734 -0.008038146 -0.07605768 -0.004973497 0.063018195 -0.06535443 -0.03063802
0.085808046 -0.048786685 -0.031477973 -0.007465923 -0.056404438 -0.111526325 -0.016554428 -0.034952134
0.05886444 0.036617883 -0.047385298 0.061217483 0.020664908 -0.03933263 -0.08203464 -0.001463563
0.0769835 0.044709217 0.045458898 0.033622947 0.022627465 -0.033024963 0.027080724 0.054224856
0.053683765 0.038318973 -0.020176122 -0.056223232 0.045765776 0.032082293 0.029865604 -0.006078952
0.016874827 -0.0076733828 0.020469286 -0.06122652 0.022504345 0.021948816 0.019093579 -0.036614574
-0.0016771832 0.008315414 0.054491576 -0.10627637 0.054812014 -0.0028318353 0.05641323 0.002016766
-0.054650392 -0.006445386 0.0050237197 0.016106198 -0.02746743 -0.012067715 0.03666091 0.06781362
0.013502454 0.054468792 0.024305683 0.06277082 0.025147092 -0.025152866 0.05165216 0.12079097
-0.07197043 0.0558736 -0.03328569 -0.06646255 -0.028054552 0.11061327 -0.032291166 0.0023215057
0.040932324 -0.047697783 -0.08338258 0.036082946 0.006409497 0.0021016228 0.02455401 -0.08640119
0.10795537 -0.030357506 0.04831761 0.09330249 -0.06880237 0.043290667 -0.018913567 -0.089673385
-0.0148230605 0.097052746 -0.08708683 -0.050032925 -0.06520822 -0.03652304 0.0011434583 -0.012706252
-0.04917852 0.053126562 -0.022222478 0.020153495 0.050288692 0.043428317 -0.06634842 -0.017228017
-0.057669498 -0.062564954 0.091571346 0.04232996 -0.009324324 0.007041627 0.07124565 0.033093628
0.05397788 0.08741784 0.026986731 0.092881925 0.033816002 -0.010714827 -0.039001618 0.110953264
-0.055042055 0.060826015 -0.0065639922 -0.063578345 0.06306834 0.007862439 0.039610196 0.04364523
-0.0095161395 -0.006190558 -0.009549504 0.016230049 0.089232 -0.00413406 -0.012156183 0.058998145
-0.0128192445 -0.044474002 -0.031400844 0.018316833 0.08844858 -0.077934034 -0.06773723 0.03997258
0.082635395 -0.036172744 -0.09655071 -0.051857498 -0.05112496 -0.0063582216 -0.0003499356 0.025825407
0.0878061 -0.03598534 0.08591873 -0.0704136 -0.041284278 0.027920825 -0.03533565 -0.10249685
0.0030083477 0.034976315 -0.051705018 0.051948927 0.09374008 0.105822064 -0.054398555 0.019652098

lstm1.bias_ih_l0 f4 [512]
00000000: d7d9 95bd 8f82 3a3d 7c5e 32bc 8bf0 fcbd
00000010: 97c2 cbbc 7124 90bd 8e40 283d ece1 213d
00000020: d3cf 8f3b eb8d 0f3d 0f16 8f3c 05c8 e9bd
00000030: 862d 623c 91e5 f23c 46b4 05bd de74 123d
00000040: b5f7 023d baa9 913c 61bd 7a3c 5c4c 3a3d
00000050: f0a0 ebbd 48bf 8e3d e417 383d c9a9 8c3d
00000060: 255e 73bc 2057 d2bd b397 46bd e022 adbd
00000070: e789 1dbd faa0 933d 1118 e8bd ef8e f4bd
00000080: 05ec 803d 8893 cd3a 5653 f03c 50eb 673d
00000090: 8fd0 0f3d 097a 03be 561a eb3c 6fbe 11bc
000000a0: 66c4 483d fc3f b5bd fcaf 8c3c 3a6f d73c
000000b0: 9696 0e3c 16f3 dc3d f605 8ebd f263 b2bd
000000c0: e356 9a3d d79b 55bd 3ef0 7c3d a143 713d
000000d0: 2452 b2bd 7077 ae3d 23b1 bfbd b639 84bd
000000e0: e3d0 bfbd 4295 48bd 98a9 853d 0bca 873d
000000f0: 3e3e 6ebd eafa ee3c af4a 5fbd bc1e 69bd
00000100: 3089 04be c981 943d 16a5 e73c 4fc5 bfbd
00000110: 8c20 b13c c456 c1bd f549 81bd e761 533c
00000120: 9d50 643d 6554 77bd 1afa 0b3c 2a5f 833b
00000130: 178f 80bd 43b3 14bd 1b51 12bc cbc8 953d
00000140: 74bc ab3d d3d7 6dbd 3866 97bd 07be 78bd
00000150: ff04 b2bd 6b52 3dbd f6aa da3c 1f04 05be
00000160: abc1 d03c e5ab ddbd a813 c0bd 4102 13bc
00000170: fafd b73d 7961 12be 66d4 803d a982 52bd
00000180: 39fa 9ebd b770 6bbd 98dc e2bc 7d23 2c3d
00000190: 3c5f 95bc 3f50 a93d b12c 95bd c7f2 f3bd
000001a0: a7db b8bd 61bf 40bc 4af6 1c3d df93 87bd
000001b0: 14ea fc3c 2280 c9bd a47a 41bd ef40 19be
000001c0: 219a bf3c d08b 82bd 4f17 20bd 4145 053d
000001d0: a7ef 2fbc 9040 ccbc 3ed4 f5bc 9a66 95bd
000001e0: 81f0 88bd aac1 a43d 04e7 0b3c 6ed5 acbc
000001f0: 4311 73bc 91c7 97bd 11fe a43c d840 f53d
00000200: de16 e93c e8a3 1abd bf3b b2bc 8a67 dfbd
00000210: 8c8c dd3c fc8f 263d 8040 28bd 88bd 94bd
00000220: 85a3 67bd e506 bcbc 7551 1dbd 35a8 86bd
00000230: 8ced 3b3d 0cce b0bd 2259 d43d b061 77bd
00000240: f65e 4c3d 5f49 30bd eda9 58bd 3fc4 073e
00000250: 2932 46bd a6c7 f13d 7596 ff3c a117 a6bd
00000260: 9cb8 cbbd 0f42 1abe 86b6 fa3c 8f0b 73bb
00000270: c95b ccbd e7dd 9a3c 3959 853c 0567 b8bc
00000280: 2889 4fbd 61d5 273d 2035 60bb 239a 1fbd
00000290: 3686 a7bd a62c f73a 3893 703c 0082 ccbd
000002a0: 0ce4 68bd 6994 abbb 4e18 9cbd 8cab 24bc
000002b0: abdd c0bd c227 b63c 001e 9ebc e5cd 29bd
000002c0: a9ce 07bb 48ab d13c 6512 123d 2abf 6cbd
000002d0: f449 e4bd 9d15 f839 efc8 643d bff7 eebd
000002e0: aaf0 c5bd 3cb8 9bbd a76f 39bd ff82 cdbd
000002f0: d651 353a 58df 2b3c 07ec b6bd 97f3 c03c
00000300: 0f7f debc 34dc fdbb 6e1f 993b 53f3 a7bd
00000310: b14c 44bd 69a9 bbbd 2c6d 733d 6e38 c5bd
00000320: 80b7 adbd 8575 dd3c ecd2 973d 7a83 f3bc
00000330: dde8 14bc 8a9a 42bc 0dc0 3ebd bd2d 8fbd
00000340: 61d4 1d3d 28f0 1cbc a6b3 d7bd be0c 7c3d
00000350: 09d2 afbd 21a8 d5bc 0fe0 5abd 9672 8cbd
00000360: a15e 273d fc3d b9bd a32a 893d 59d4 7bbd
00000370: 1937 983d 76a8 0abe 7bf2 7abc 8394 4e3d
00000380: 8de5 a23d 324e bd3c 1f7d 07be 7efa 923d
00000390: 2451 a3bd c63e c03d b05c 373d a98c 83bc
000003a0: a34a e7bc 0822 0cbd 71ad e4bd f24d 523b
000003b0: c894 babc 0afb ddbb b661 2dbd 011c 5cbd
000003c0: b33d b1bd cf1a 6bbb cd8a 4bbd 1130 c13c
000003d0: 49af 00bd fa0d e4bd 40d2 ccbd 084f b5bd
000003e0: efa4 01bd 4cce 66bc dd09 09be c368 8dbc
000003f0: 2d32 22bd 3fb3 203d 645a 913d bbb1 b03d
-0.0731694 0.045534667 -0.010886785 -0.123505674 -0.024873061 -0.07038201 0.04107719 0.039522097
0.0043887882 0.035047453 0.017466573 -0.11415104 0.013804799 0.029650481 -0.032642625 0.035755984
0.031974513 0.017781127 0.0153039405 0.04548298 -0.11505306 0.06970078 0.04494466 0.068683214
-0.014853989 -0.10270524 -0.048484515 -0.084539175 -0.038461592 0.07208438 -0.11332715 -0.11941325
0.06295017 0.0015684227 0.029336613 0.056620896 0.035111006 -0.12839521 0.028699081 -0.008895501
0.049015425 -0.08850095 0.01717376 0.026298154 0.008702895 0.107885525 -0.06934731 -0.08710469
0.075361036 -0.052150574 0.06175255 0.058902387 -0.08707073 0.08518875 -0.09359958 -0.0645632
-0.09366014 -0.04897047 0.06526488 0.066303335 -0.058164828 0.02917238 -0.054514583 -0.056914076
-0.12942958 0.07251317 0.028276961 -0.093638055 0.021621965 -0.09440377 -0.06312934 0.01290176
0.05574094 -0.06038322 0.008543516 0.004009147 -0.06277292 -0.03630377 -0.00893047 0.07313689
0.08385554 -0.058067154 -0.073925436 -0.0607281 -0.08692359 -0.046221178 0.026692849 -0.12989853
0.025482973 -0.10823802 -0.09378749 -0.008972705 0.08983989 -0.14294995 0.06290512 -0.05139414
-0.0776257 -0.05748054 -0.027693078 0.04202603 -0.018233888 0.08267259 -0.07283915 -0.119115405
-0.0902627 -0.011764378 0.038320817 -0.06620001 0.030873336 -0.098388925 -0.0472361 -0.14966176
0.023388924 -0.06374323 -0.03908473 0.03253675 -0.01073829 -0.02493313 -0.030008432 -0.0729496
-0.066864975 0.08044751 0.008538965 -0.021097865 -0.0148356585 -0.07411111 0.02014068 0.119752586
0.028453287 -0.03775397 -0.021757005 -0.109084204 0.027044557 0.040664658 -0.041077137 -0.07262713
-0.05655243 -0.022952506 -0.03840776 -0.06575052 0.04588084 -0.0863305 0.10368563 -0.060395896
0.04989525 -0.043038722 -0.05289643 0.13258456 -0.04838768 0.11805658 0.031199673 -0.081099756
-0.09947321 -0.15064262 0.030604612 -0.0037085747 -0.09978444 0.01890464 0.016277896 -0.022510061
-0.05066791 0.04097498 -0.0034211352 -0.038965356 -0.081798956 0.0018857911 0.014683537 -0.09985733
-0.056858107 -0.0052361977 -0.07621823 -0.010050666 -0.0941728 0.022235755 -0.019301414 -0.041456122
-0.0020722544 0.025594369 0.035662074 -0.057799496 -0.11146918 0.0004731835 0.055855688 -0.116683476
-0.09665044 -0.07603499 -0.045272496 -0.10034751 0.00069167966 0.010490261 -0.089317374 0.023553653
-0.027160196 -0.0077471975 0.004672936 -0.08200707 -0.0479247 -0.09163172 0.059430286 -0.09629904
-0.084822655 0.027033577 0.07413277 -0.029725779 -0.009088722 -0.011877665 -0.046569873 -0.06991146
0.03853262 -0.009578742 -0.10532312 0.06153559 -0.08584983 -0.026081147 -0.053436335 -0.06857793
0.04086173 -0.09045026 0.066975854 -0.061481807 0.07432384 -0.13540825 -0.015316601 0.0504346
0.079539396 0.023108575 -0.13231324 0.07176684 -0.07974461 0.09386973 0.044766128 -0.016058283
-0.028233832 -0.034212142 -0.11165894 0.0032089916 -0.022776023 -0.006774311 -0.042329513 -0.053737644
-0.08654346 -0.0035874133 -0.049692918 0.02358249 -0.031417165 -0.11135478 -0.100010395 -0.08852965
-0.031651434 -0.014087271 -0.13382669 -0.017261868 -0.039598633 0.039233442 0.07097319 0.086276494

lstm1.bias_hh_l0 f4 [512]
00000000: 57db 253d a7cc 2dbd 0a13 24bb 39d7 f5bd
00000010: d035 9abd 7721 52bd f024 fb3c 9fc4 9ebd
00000020: 5437 babc d183 813d 5442 fdbd 8c03 07be
00000030: 2c33 64bd 3b96 71bd 8bc8 743d 8d70 8dbd
00000040: 60f5 363d 8de5 1abd 3d55 a73b 7712 ec3d
00000050: a153 0fbd a9a5 753d 7127 b8bc bdd1 1c3d
00000060: 537e 293c ff2d 20be a3b7 81bd 77c0 2fbd
00000070: f9f7 55bd c019 603d cb00 07be b5fd df3c
00000080: 35cc 88bd 5789 4a3d 8308 b3bd 2f2e 173d
00000090: ad27 123d 7a60 773c 4bf8 c9bd 8a29 23bb
000000a0: b098 45bc c954 94bd 940b 82bc 2431 f5bc
000000b0: 1508 afbc 98b1 213e 16f8 90bd 66ff 05bc
000000c0: eec1 29bd a31d 983d 61b9 e93b 8935 a83d
000000d0: e0e2 bebd 00ad 833d 6b8f 79bc a29b 9ebd
000000e0: 9f1c ccbd 0c13 79bc f85c 4e3c 8f78 483d
000000f0: 728a 933c 7555 8bbd 2556 bcbd c030 40bd
00000100: bc5f babc 78f4 39bc 6298 263d ced1 563c
00000110: 25a4 1c3d 22b9 683d ba49 683d ffae 573d
00000120: 23fb 34bd 1351 b6bd 8647 27bd 6740 943d
00000130: 9333 23bd bad9 acbd 2081 29bd 3845 473c
00000140: e4d3 1b3c f4f1 a1bc 97d9 a1bd 1a50 a13d
00000150: 5529 4b3d e0f5 b2bb 37b2 c53d 7af3 903c
00000160: fd2d 8a3c 350b 7f3d a4f7 8c3d d98c 2abe
00000170: 7bca 40bc 3bcb 6cbd 6b26 843c c7d8 b4bd
00000180: 8f7a b73c 848d 95b9 1900 93bd f0ee 093e
00000190: d15d 89bc f0fd 38bd bb50 5bbd 1710 cbbd
000001a0: 2b8f a3bc 5eab dbbc 4f74 423c 3f1f debc
000001b0: 9454 36bd 24b9 323d c996 a6bd f57f bfbd
000001c0: 0110 d13c 99ea 9f3d b320 443d 9fef d2bd
000001d0: 1cb9 743b e618 433c 0fb1 163d 152a 073d
000001e0: b53d 3f3d f794 b4bc 8103 b53b 6277 95bd
000001f0: 168d a3bd e6fb 68bb 7724 b93d 30ec 013e
00000200: 1737 903b bc12 68bd 5a4f a0bd 380f 08be
00000210: 324b c9bd 1dee 893d e6a8 303c 9314 ef3c
00000220: b709 02be 2578 78bd b7f0 efbc a2c4 6fbd
00000230: f90e a83c 9ff0 a93c 991a 433d 5564 183d
00000240: 008e 29bb 2682 cdbc b59a 863d a36c 803d
00000250: 6d0c 1abe 769c 953c 14a1 4fbd ca0f 7a3d
00000260: 530d e2bc b052 383c 4878 323d 2915 0c3d
00000270: db75 16be 746a 3dbd 948f 87bc 1918 1e3d
00000280: 37e2 72bd 0c49 41bd 1332 adbc 1161 f7bc
00000290: 82e1 38bd 7797 83bb 16be 80bd ab51 1bbc
000002a0: e56b 903b a62b c2bd 94db f1bd 484d e1bd
000002b0: 9c3e 8abd 1819 063e 5f89 943d 50a9 8dbd
000002c0: fc39 5cbd 82bf 4e3d bfa6 97bd 822a 453c
000002d0: aef9 383d 43ba 973d b06d 653b 2296 82bd
000002e0: 48e8 bcbd 5c2a 99bd 36e8 97bd bc97 a43c
000002f0: b213 3d3c 9b0f 5fbc 49a4 8dbd 17f2 573d
00000300: acb0 13bd 6419 acbb 41c3 b23c c6b4 1a3d
00000310: c80e c2ba 89ef 01bd cf3e de3c 80b2 d6bd
00000320: d219 653c 9e74 ca3c d2b5 1bbd 21df 84bd
00000330: abec a0bc 202d 5d3d c061 1cbd 8970 163b
00000340: 00fe 4b3c 1949 13ba dd51 a6bc c85e 5a3d
00000350: 7137 3fbd 9660 e5bd d7e7 7c3d 532c bebd
00000360: 5efb acbd 13e9 883d e7c7 9c3d d694 f6bd
00000370: ae20 4dbd 1bd2 afbd 27cd 53bd 98ea 7bbd
00000380: be21 553d e383 98bd 5d27 95bd 506a 143e
00000390: aaf9 aabd 6dee 9e3d 30a5 eabd 718d a7bd
000003a0: feb2 9cbd f7b9 883b d0b8 b13c 2df8 a4bc
000003b0: 6424 c13c a81d 153c 6ca6 dcbd 6e8e 22be
000003c0: 83a0 15bc 5cc2 d7bd 1a61 bcbd ab65 82bb
000003d0: 8956 053a e902 523d 1029 1ebd f89f 813c
000003e0: 39b6 b6bd 5cc7 57bc 6998 0abe 0890 2dbd
000003f0: 623f c5bb adce 55bd ead0 4dbd a6c0 153e
0.040492382 -0.0424315 -0.0025035762 -0.12003941 -0.07529795 -0.051301446 0.030657262 -0.07752346
-0.02273146 0.0632397 -0.12366167 -0.13184947 -0.055712864 -0.05898116 0.059761565 -0.06906233
0.0446676 -0.037816573 0.0051065967 0.115269594 -0.034991864 0.05997244 -0.022479745 0.03828596
0.010345059 -0.15642546 -0.06333854 -0.04290816 -0.05223844 0.054712057 -0.13183896 0.027342657
-0.066795744 0.049447384 -0.08741858 0.03690928 0.03568237 0.015098685 -0.09861811 -0.0024896585
-0.012060329 -0.07242734 -0.015874662 -0.029930659 -0.021366159 0.15790403 -0.07078569 -0.0081785675
-0.04144471 0.07427528 0.0071326946 0.08213336 -0.09320617 0.064294815 -0.015231947 -0.07744528
-0.099663965 -0.015202295 0.012595408 0.0489431 0.018010352 -0.06803409 -0.09196118 -0.04692149
-0.022750728 -0.01134979 0.040672667 0.013111545 0.038242478 0.05681718 0.056710936 0.052657124
-0.044184815 -0.089021824 -0.040839694 0.07238846 -0.039844107 -0.084399655 -0.04138291 0.012162499
0.009510968 -0.019768693 -0.0790283 0.07876606 0.049599964 -0.0054614395 0.096531324 0.017694224
0.016867632 0.062266547 0.06883171 -0.16655292 -0.011767025 -0.057811003 0.0161316 -0.088304095
0.022397308 -0.00028524932 -0.07177753 0.13470054 -0.016768368 -0.04516405 -0.053543787 -0.09915178
-0.019965729 -0.026815113 0.01186855 -0.027114509 -0.044514254 0.043633595 -0.08134229 -0.09350578
0.025520327 0.07808418 0.047882747 -0.1029961 0.003734178 0.011907792 0.03678995 0.032999117
0.046689708 -0.022043688 0.0055240993 -0.07298161 -0.079858944 -0.0035550534 0.09040158 0.12687755
0.0044010985 -0.05665849 -0.07827635 -0.13287055 -0.098287955 0.0673487 0.010782456 0.029184615
-0.12699018 -0.060661454 -0.029289586 -0.058537133 0.020514952 0.02074462 0.047632787 0.03720506
-0.0025871992 -0.025086474 0.06572477 0.06270721 -0.15043803 0.018263083 -0.050690725 0.061050214
-0.027594244 0.011250183 0.04357174 0.034199867 -0.14693396 -0.0462441 -0.016547956 0.0385972
-0.059297767 -0.047188804 -0.021142041 -0.030197652 -0.045136936 -0.0040158588 -0.06286256 -0.00947992
0.0044073933 -0.094809815 -0.11809459 -0.11001068 -0.06750223 0.1309551 0.07252764 -0.069170594
-0.053766236 0.050475605 -0.07404851 0.01203406 0.045159988 0.074085735 0.0035008006 -0.06376292
-0.09223992 -0.074787825 -0.074173376 0.020091884 0.01154034 -0.0136145605 -0.069161005 0.05272111
-0.03605716 -0.0052520502 0.02182162 0.037770055 -0.001480543 -0.03172258 0.027129559 -0.10483265
0.013983207 0.02471381 -0.038015194 -0.06487871 -0.019644102 0.053998113 -0.03817916 0.002295526
0.012450695 -0.00056184974 -0.020302707 0.053313047 -0.046683732 -0.11200063 0.061744537 -0.09285798
-0.08446382 0.066850804 0.07655316 -0.12040107 -0.050079994 -0.08584996 -0.05170932 -0.061503023
0.052034132 -0.074470304 -0.072828986 0.1449368 -0.08348401 0.0776032 -0.11457288 -0.08181275
-0.076513276 0.0041725594 0.02169457 -0.02013787 0.023576923 0.009101309 -0.1077393 -0.15874645
-0.009132507 -0.10535118 -0.09198208 -0.003979405 0.0005086442 0.051272307 -0.03861338 0.01582335
-0.08921475 -0.01317009 -0.13534702 -0.042373687 -0.0060195187 -0.052199055 -0.050248064 0.14624271

lstm2.weight_ih_l0 f4 [128, 128]
00000000: 2d5e 913e 9e52 473e f415 d1bd e257 f83d
00000010: 6252 37be 8c69 12be d3eb 04be 4f1d afbd
00000020: 0185 813d 6123 cbbd 5e74 aa3b 48e6 013b
00000030: 8d79 a8bd 7257 943d 644c 033e 122f d0bc
00000040: 7002 e03d 8628 3fbe 2c63 bb3d ef74 ab3d
00000050: 6ef6 bdbd 5c2d 98bd 1125 473d 3a09 8cbd
00000060: 220a 423e f584 55bd 7ee6 8d3e 02ce 3abe
00000070: 78a6 febd 08c0 41bd b64f 0bbe cc00 85be
00000080: 4e18 903d adc4 383d 2c5b b63d 53ba 31be
00000090: 6d10 183e 91c6 1c3e 51ba 323e dfed e8bd
000000a0: 694a ca3c ebef 023d 0126 18bd 59e4 b4bd
000000b0: 49ca 033e 963c b8bc edac 39be df2d 4fbe
000000c0: 812d 19be 980a b73d cbfc 883e c766 6dbd
000000d0: f7b3 843c ce39 823d 68da cabd a3e9 09be
000000e0: 79e5 84bd c1c2 1c3e 72f1 9b3d 7af1 b9bd
000000f0: d069 08be 9997 e63d 96b0 1abe 06ba ea3d
00000100: ed24 c33c dd33 26be c323 033d 5984 743d
00000110: f682 02be e2a4 aabd 587e 85be f3cf dfbd
00000120: 16d5 f03b 35db 693e 4f6f e63b 7aa6 f23c
00000130: c576 2f3e 555e 65bd 4bc1 c3bd 1493 603d
00000140: 1417 bbbd a41a 1abe 551d 973d 2fd7 203e
00000150: e2e2 30bd 11eb 72bd 6638 74be 0947 9e3d
00000160: 87e8 713e bbe6 e0bd 47ab 893d 49c3 11bd
00000170: 3c26 d03d f493 4d3e 2766 5f3c 58fd f33d
00000180: 2d69 8dbd b168 01be 4d91 c83d 6a40 27bd
00000190: 834d cbbd 1c43 87bc 7f14 babd 7603 f33d
000001a0: a675 053e 0414 663e 1632 383d ecf6 8b3c
000001b0: 45d5 183e a64f 7ebd b45c 8f3d 7dcf 5fbc
000001c0: a14b 16be 7fe3 40bd 0740 9d3d 3763 d4bb
000001d0: 53a9 4d3e 8f95 533d 79f8 503e 8dbf 12be
000001e0: d340 863d d09a 58be 7a77 5fbd 00b5 4b3d
000001f0: 6aae 683e 658d 1dbe eede a8bd 1628 c6bd
00000200: a7e6 dbbd 6e2b 1abe dcd3 c2bd 8403 8d3d
00000210: 976e 753d 9366 9a3c dcdf cabd 99bb 483d
00000220: 5512 253c 93be b3bb 191e 8e3d 0732 113e
00000230: 77e0 f5bd 569f a2bd 4ba9 17be eade 19be
00000240: b9ee d83d 3bea e23d 217e 9cbd f8c3 0abe
00000250: 121f e2bd 7361 17be 77a4 d33d f472 ed3d
00000260: 14a6 013d 48fc cf3d 7d9e 9dbd d1d6 9ebd
00000270: 20c0 2bbd e7b8 2c3e 9845 5bbb e101 2abe
00000280: 4c7c eabc 83c4 38bd 06f6 ee3d 9bd8 3d3b
00000290: 7019 0f3e a7c6 2dbe a0e8 603b 3039 8dbd
000002a0: 5255 143d eca2 e03d 7910 133e 93b2 21be
000002b0: 3b25 a2bd ac4b 903d 3c78 45be df6b f03d
000002c0: f8ea 4cbd bc96 003d 5161 84bd 5041 c43d
000002d0: be91 da3d 7441 183e 3a02 343c ed72 193e
000002e0: bdc1 24be 0909 2abe 4cd2 2c3d c990 c6bd
000002f0: 5e74 b03d 087d 5d3c 6fb8 5b3c a750 0c3e
00000300: 8998 3ebc 0a55 8fbc c919 33bd f1fe c73d
00000310: 0beb 683d 34e4 24bd 0b94 c8bd decd 34be
00000320: 7232 ecbb 7128 17bc 1670 a83c b462 043e
00000330: 4649 fdbd 7066 da3d bd05 d03d 90f1 733c
00000340: 9150 31be 430b cf3d 2d57 fd3d f6ee 53bd
00000350: 2d53 0a3e 4073 853d e857 063e 2a2d 03be
00000360: 9ea8 543d 95a6 adbc f450 b23d ea01 163d
00000370: da58 20be e906 3fbd 470a 3b3e ee64 18bd
00000380: 508c 26be 3530 86bd ad88 03be 56bf 263e
00000390: fbe3 a43d 3be3 89bc 269d 2ebe 97ad ca3d
000003a0: 69d6 eabd d39d 373d 48df 463c 6db0 f73d
000003b0: e1b2 213d 2433 08be e79b d03d 35ea e7bc
000003c0: 8d2b be3d 9b0f f83d 669e 3e3e 68af 4f3d
000003d0: 3edd 1b3e 4d75 b63d bdf2 323e 0d48 2cbe
000003e0: b134 3f3c c8dc f23d 0b11 d7bd f045 92bd
000003f0: 2811 bdbd b199 5abd 7d30 dabd b6fa cdbd
0.28392163 0.1946511 -0.10209265 0.12126137 -0.1790252 -0.14298075 -0.12980585 -0.08550512
0.063241966 -0.09918857 0.0052018603 0.0019821096 -0.08226309 0.07243241 0.1282211 -0.02541307
0.10937965 -0.18667802 0.09149775 0.08371913 -0.09275518 -0.074305266 0.048619334 -0.06837697
0.18949178 -0.05212875 0.27714914 -0.18242648 -0.12434095 -0.047302276 -0.13604626 -0.2597717
0.07035886 0.04510944 0.089041084 -0.17356233 0.14850016 0.15310122 0.17453887 -0.11373495
0.024693685 0.031967085 -0.03714562 -0.08832616 0.12870134 -0.022489827 -0.18132372 -0.20232342
-0.14958765 0.089375675 0.26755366 -0.057959344 0.016199095 0.063586816 -0.09904939 -0.13468032
-0.06489081 0.15308668 0.076144114 -0.09079261 -0.13321614 0.11259384 -0.15106425 0.114612624
0.023821319 -0.16230722 0.032016527 0.05969653 -0.1274527 -0.0833223 -0.26072955 -0.10928335
0.0073496206 0.22837527 0.007032312 0.029620398 0.1713515 -0.055998165 -0.09558352 0.054827765
-0.09135261 -0.15049225 0.073786415 0.15707086 -0.043185122 -0.059306208 -0.2384964 0.07728393
0.23623858 -0.10981508 0.06722122 -0.03558663 0.10163543 0.20075971 0.013635195 0.11913556
-0.06904826 -0.12637593 0.09793339 -0.040832914 -0.099268936 -0.016511492 -0.090859406 0.118658945
0.1303316 0.22468573 0.04496964 0.017085515 0.14925106 -0.062087677 0.070001036 -0.013660309
-0.14677288 -0.047091957 0.07678228 -0.006481554 0.20084123 0.051656302 0.20407285 -0.14330883
0.06555333 -0.21152806 -0.0545573 0.049733162 0.22722784 -0.15385969 -0.082456455 -0.096756145
-0.10737353 -0.1505563 -0.09513065 0.06885436 0.05991992 0.01884774 -0.09905979 0.049007032
0.0100751715 -0.0054853647 0.069393344 0.1417924 -0.12005704 -0.07940547 -0.14810674 -0.15026441
0.10592408 0.11079832 -0.07641245 -0.13551319 -0.110410824 -0.14783268 0.103341036 0.11594191
0.031652525 0.10155541 -0.07696245 -0.07755817 -0.04193127 0.1686741 -0.003345823 -0.16602279
-0.028623722 -0.045109283 0.11668019 0.0028968218 0.13974547 -0.16970311 0.0034318343 -0.06895673
0.03621418 0.10968575 0.14361753 -0.15790777 -0.079172574 0.07045683 -0.19284147 0.11739325
-0.05002877 0.03139375 -0.06463874 0.0958277 0.10672329 0.14868718 0.010986859 0.14985247
-0.1608953 -0.16605009 0.042192742 -0.09695584 0.08615945 0.013518579 0.013410672 0.13702641
-0.011633047 -0.017496604 -0.043725763 0.09765423 0.05686478 -0.040256694 -0.09793862 -0.17656657
-0.007208162 -0.009225951 0.02056126 0.12928277 -0.123674914 0.1066407 0.101573445 0.014889136
-0.1731589 0.1010957 0.12370143 -0.051741563 0.13508292 0.06516123 0.13119471 -0.12810197
0.05191862 -0.021197597 0.08706847 0.03662292 -0.15658894 -0.04663745 0.18265639 -0.03720563
-0.16264462 -0.065521635 -0.12845106 0.16283926 0.08051296 -0.016831985 -0.17052135 0.09896391
-0.11466677 0.044828247 0.012138195 0.120941974 0.039477233 -0.13300759 0.10185986 -0.02830992
0.092856504 0.121123515 0.18615112 0.05070439 0.15221116 0.08909092 0.1747541 -0.1682436
0.011670277 0.11858517 -0.105012976 -0.07142246 -0.09231788 -0.053369228 -0.1065378 -0.10057585
